{"keras_version": "2.0.9", "config": {"layers": [{"config": {"sparse": false, "batch_input_shape": [null, null, null, 3], "name": "input_1", "dtype": "float32"}, "inbound_nodes": [], "name": "input_1", "class_name": "InputLayer"}, {"config": {"kernel_regularizer": null, "trainable": false, "name": "conv2d_1", "filters": 32, "bias_initializer": {"config": {}, "class_name": "Zeros"}, "kernel_constraint": null, "activation": "linear", "bias_regularizer": null, "bias_constraint": null, "activity_regularizer": null, "kernel_size": [3, 3], "data_format": "channels_last", "use_bias": false, "padding": "valid", "kernel_initializer": {"config": {"distribution": "uniform", "scale": 1.0, "mode": "fan_avg", "seed": null}, "class_name": "VarianceScaling"}, "dilation_rate": [1, 1], "strides": [2, 2]}, "inbound_nodes": [[["input_1", 0, 0, {}]]], "name": "conv2d_1", "class_name": "Conv2D"}, {"config": {"center": true, "trainable": false, "moving_variance_initializer": {"config": {}, "class_name": "Ones"}, "name": "batch_normalization_1", "moving_mean_initializer": {"config": {}, "class_name": "Zeros"}, "epsilon": 0.001, "gamma_constraint": null, "beta_constraint": null, "axis": 3, "gamma_initializer": {"config": {}, "class_name": "Ones"}, "scale": false, "beta_initializer": {"config": {}, "class_name": "Zeros"}, "beta_regularizer": null, "momentum": 0.99, "gamma_regularizer": null}, "inbound_nodes": [[["conv2d_1", 0, 0, {}]]], "name": "batch_normalization_1", "class_name": "BatchNormalization"}, {"config": {"activation": "relu", "trainable": false, "name": "activation_1"}, "inbound_nodes": [[["batch_normalization_1", 0, 0, {}]]], "name": "activation_1", "class_name": "Activation"}, {"config": {"kernel_regularizer": null, "trainable": false, "name": "conv2d_2", "filters": 32, "bias_initializer": {"config": {}, "class_name": "Zeros"}, "kernel_constraint": null, "activation": "linear", "bias_regularizer": null, "bias_constraint": null, "activity_regularizer": null, "kernel_size": [3, 3], "data_format": "channels_last", "use_bias": false, "padding": "valid", "kernel_initializer": {"config": {"distribution": "uniform", "scale": 1.0, "mode": "fan_avg", "seed": null}, "class_name": "VarianceScaling"}, "dilation_rate": [1, 1], "strides": [1, 1]}, "inbound_nodes": [[["activation_1", 0, 0, {}]]], "name": "conv2d_2", "class_name": "Conv2D"}, {"config": {"center": true, "trainable": false, "moving_variance_initializer": {"config": {}, "class_name": "Ones"}, "name": "batch_normalization_2", "moving_mean_initializer": {"config": {}, "class_name": "Zeros"}, "epsilon": 0.001, "gamma_constraint": null, "beta_constraint": null, "axis": 3, "gamma_initializer": {"config": {}, "class_name": "Ones"}, "scale": false, "beta_initializer": {"config": {}, "class_name": "Zeros"}, "beta_regularizer": null, "momentum": 0.99, "gamma_regularizer": null}, "inbound_nodes": [[["conv2d_2", 0, 0, {}]]], "name": "batch_normalization_2", "class_name": "BatchNormalization"}, {"config": {"activation": "relu", "trainable": false, "name": "activation_2"}, "inbound_nodes": [[["batch_normalization_2", 0, 0, {}]]], "name": "activation_2", "class_name": "Activation"}, {"config": {"kernel_regularizer": null, "trainable": false, "name": "conv2d_3", "filters": 64, "bias_initializer": {"config": {}, "class_name": "Zeros"}, "kernel_constraint": null, "activation": "linear", "bias_regularizer": null, "bias_constraint": null, "activity_regularizer": null, "kernel_size": [3, 3], "data_format": "channels_last", "use_bias": false, "padding": "same", "kernel_initializer": {"config": {"distribution": "uniform", "scale": 1.0, "mode": "fan_avg", "seed": null}, "class_name": "VarianceScaling"}, "dilation_rate": [1, 1], "strides": [1, 1]}, "inbound_nodes": [[["activation_2", 0, 0, {}]]], "name": "conv2d_3", "class_name": "Conv2D"}, {"config": {"center": true, "trainable": false, "moving_variance_initializer": {"config": {}, "class_name": "Ones"}, "name": "batch_normalization_3", "moving_mean_initializer": {"config": {}, "class_name": "Zeros"}, "epsilon": 0.001, "gamma_constraint": null, "beta_constraint": null, "axis": 3, "gamma_initializer": {"config": {}, "class_name": "Ones"}, "scale": false, "beta_initializer": {"config": {}, "class_name": "Zeros"}, "beta_regularizer": null, "momentum": 0.99, "gamma_regularizer": null}, "inbound_nodes": [[["conv2d_3", 0, 0, {}]]], "name": "batch_normalization_3", "class_name": "BatchNormalization"}, {"config": {"activation": "relu", "trainable": false, "name": "activation_3"}, "inbound_nodes": [[["batch_normalization_3", 0, 0, {}]]], "name": "activation_3", "class_name": "Activation"}, {"config": {"pool_size": [3, 3], "trainable": false, "name": "max_pooling2d_1", "data_format": "channels_last", "padding": "valid", "strides": [2, 2]}, "inbound_nodes": [[["activation_3", 0, 0, {}]]], "name": "max_pooling2d_1", "class_name": "MaxPooling2D"}, {"config": {"kernel_regularizer": null, "trainable": false, "name": "conv2d_4", "filters": 80, "bias_initializer": {"config": {}, "class_name": "Zeros"}, "kernel_constraint": null, "activation": "linear", "bias_regularizer": null, "bias_constraint": null, "activity_regularizer": null, "kernel_size": [1, 1], "data_format": "channels_last", "use_bias": false, "padding": "valid", "kernel_initializer": {"config": {"distribution": "uniform", "scale": 1.0, "mode": "fan_avg", "seed": null}, "class_name": "VarianceScaling"}, "dilation_rate": [1, 1], "strides": [1, 1]}, "inbound_nodes": [[["max_pooling2d_1", 0, 0, {}]]], "name": "conv2d_4", "class_name": "Conv2D"}, {"config": {"center": true, "trainable": false, "moving_variance_initializer": {"config": {}, "class_name": "Ones"}, "name": "batch_normalization_4", "moving_mean_initializer": {"config": {}, "class_name": "Zeros"}, "epsilon": 0.001, "gamma_constraint": null, "beta_constraint": null, "axis": 3, "gamma_initializer": {"config": {}, "class_name": "Ones"}, "scale": false, "beta_initializer": {"config": {}, "class_name": "Zeros"}, "beta_regularizer": null, "momentum": 0.99, "gamma_regularizer": null}, "inbound_nodes": [[["conv2d_4", 0, 0, {}]]], "name": "batch_normalization_4", "class_name": "BatchNormalization"}, {"config": {"activation": "relu", "trainable": false, "name": "activation_4"}, "inbound_nodes": [[["batch_normalization_4", 0, 0, {}]]], "name": "activation_4", "class_name": "Activation"}, {"config": {"kernel_regularizer": null, "trainable": false, "name": "conv2d_5", "filters": 192, "bias_initializer": {"config": {}, "class_name": "Zeros"}, "kernel_constraint": null, "activation": "linear", "bias_regularizer": null, "bias_constraint": null, "activity_regularizer": null, "kernel_size": [3, 3], "data_format": "channels_last", "use_bias": false, "padding": "valid", "kernel_initializer": {"config": {"distribution": "uniform", "scale": 1.0, "mode": "fan_avg", "seed": null}, "class_name": "VarianceScaling"}, "dilation_rate": [1, 1], "strides": [1, 1]}, "inbound_nodes": [[["activation_4", 0, 0, {}]]], "name": "conv2d_5", "class_name": "Conv2D"}, {"config": {"center": true, "trainable": false, "moving_variance_initializer": {"config": {}, "class_name": "Ones"}, "name": "batch_normalization_5", "moving_mean_initializer": {"config": {}, "class_name": "Zeros"}, "epsilon": 0.001, "gamma_constraint": null, "beta_constraint": null, "axis": 3, "gamma_initializer": {"config": {}, "class_name": "Ones"}, "scale": false, "beta_initializer": {"config": {}, "class_name": "Zeros"}, "beta_regularizer": null, "momentum": 0.99, "gamma_regularizer": null}, "inbound_nodes": [[["conv2d_5", 0, 0, {}]]], "name": "batch_normalization_5", "class_name": "BatchNormalization"}, {"config": {"activation": "relu", "trainable": false, "name": "activation_5"}, "inbound_nodes": [[["batch_normalization_5", 0, 0, {}]]], "name": "activation_5", "class_name": "Activation"}, {"config": {"pool_size": [3, 3], "trainable": false, "name": "max_pooling2d_2", "data_format": "channels_last", "padding": "valid", "strides": [2, 2]}, "inbound_nodes": [[["activation_5", 0, 0, {}]]], "name": "max_pooling2d_2", "class_name": "MaxPooling2D"}, {"config": {"kernel_regularizer": null, "trainable": false, "name": "conv2d_9", "filters": 64, "bias_initializer": {"config": {}, "class_name": "Zeros"}, "kernel_constraint": null, "activation": "linear", "bias_regularizer": null, "bias_constraint": null, "activity_regularizer": null, "kernel_size": [1, 1], "data_format": "channels_last", "use_bias": false, "padding": "same", "kernel_initializer": {"config": {"distribution": "uniform", "scale": 1.0, "mode": "fan_avg", "seed": null}, "class_name": "VarianceScaling"}, "dilation_rate": [1, 1], "strides": [1, 1]}, "inbound_nodes": [[["max_pooling2d_2", 0, 0, {}]]], "name": "conv2d_9", "class_name": "Conv2D"}, {"config": {"center": true, "trainable": false, "moving_variance_initializer": {"config": {}, "class_name": "Ones"}, "name": "batch_normalization_9", "moving_mean_initializer": {"config": {}, "class_name": "Zeros"}, "epsilon": 0.001, "gamma_constraint": null, "beta_constraint": null, "axis": 3, "gamma_initializer": {"config": {}, "class_name": "Ones"}, "scale": false, "beta_initializer": {"config": {}, "class_name": "Zeros"}, "beta_regularizer": null, "momentum": 0.99, "gamma_regularizer": null}, "inbound_nodes": [[["conv2d_9", 0, 0, {}]]], "name": "batch_normalization_9", "class_name": "BatchNormalization"}, {"config": {"activation": "relu", "trainable": false, "name": "activation_9"}, "inbound_nodes": [[["batch_normalization_9", 0, 0, {}]]], "name": "activation_9", "class_name": "Activation"}, {"config": {"kernel_regularizer": null, "trainable": false, "name": "conv2d_7", "filters": 48, "bias_initializer": {"config": {}, "class_name": "Zeros"}, "kernel_constraint": null, "activation": "linear", "bias_regularizer": null, "bias_constraint": null, "activity_regularizer": null, "kernel_size": [1, 1], "data_format": "channels_last", "use_bias": false, "padding": "same", "kernel_initializer": {"config": {"distribution": "uniform", "scale": 1.0, "mode": "fan_avg", "seed": null}, "class_name": "VarianceScaling"}, "dilation_rate": [1, 1], "strides": [1, 1]}, "inbound_nodes": [[["max_pooling2d_2", 0, 0, {}]]], "name": "conv2d_7", "class_name": "Conv2D"}, {"config": {"kernel_regularizer": null, "trainable": false, "name": "conv2d_10", "filters": 96, "bias_initializer": {"config": {}, "class_name": "Zeros"}, "kernel_constraint": null, "activation": "linear", "bias_regularizer": null, "bias_constraint": null, "activity_regularizer": null, "kernel_size": [3, 3], "data_format": "channels_last", "use_bias": false, "padding": "same", "kernel_initializer": {"config": {"distribution": "uniform", "scale": 1.0, "mode": "fan_avg", "seed": null}, "class_name": "VarianceScaling"}, "dilation_rate": [1, 1], "strides": [1, 1]}, "inbound_nodes": [[["activation_9", 0, 0, {}]]], "name": "conv2d_10", "class_name": "Conv2D"}, {"config": {"center": true, "trainable": false, "moving_variance_initializer": {"config": {}, "class_name": "Ones"}, "name": "batch_normalization_7", "moving_mean_initializer": {"config": {}, "class_name": "Zeros"}, "epsilon": 0.001, "gamma_constraint": null, "beta_constraint": null, "axis": 3, "gamma_initializer": {"config": {}, "class_name": "Ones"}, "scale": false, "beta_initializer": {"config": {}, "class_name": "Zeros"}, "beta_regularizer": null, "momentum": 0.99, "gamma_regularizer": null}, "inbound_nodes": [[["conv2d_7", 0, 0, {}]]], "name": "batch_normalization_7", "class_name": "BatchNormalization"}, {"config": {"center": true, "trainable": false, "moving_variance_initializer": {"config": {}, "class_name": "Ones"}, "name": "batch_normalization_10", "moving_mean_initializer": {"config": {}, "class_name": "Zeros"}, "epsilon": 0.001, "gamma_constraint": null, "beta_constraint": null, "axis": 3, "gamma_initializer": {"config": {}, "class_name": "Ones"}, "scale": false, "beta_initializer": {"config": {}, "class_name": "Zeros"}, "beta_regularizer": null, "momentum": 0.99, "gamma_regularizer": null}, "inbound_nodes": [[["conv2d_10", 0, 0, {}]]], "name": "batch_normalization_10", "class_name": "BatchNormalization"}, {"config": {"activation": "relu", "trainable": false, "name": "activation_7"}, "inbound_nodes": [[["batch_normalization_7", 0, 0, {}]]], "name": "activation_7", "class_name": "Activation"}, {"config": {"activation": "relu", "trainable": false, "name": "activation_10"}, "inbound_nodes": [[["batch_normalization_10", 0, 0, {}]]], "name": "activation_10", "class_name": "Activation"}, {"config": {"pool_size": [3, 3], "trainable": false, "name": "average_pooling2d_1", "data_format": "channels_last", "padding": "same", "strides": [1, 1]}, "inbound_nodes": [[["max_pooling2d_2", 0, 0, {}]]], "name": "average_pooling2d_1", "class_name": "AveragePooling2D"}, {"config": {"kernel_regularizer": null, "trainable": false, "name": "conv2d_6", "filters": 64, "bias_initializer": {"config": {}, "class_name": "Zeros"}, "kernel_constraint": null, "activation": "linear", "bias_regularizer": null, "bias_constraint": null, "activity_regularizer": null, "kernel_size": [1, 1], "data_format": "channels_last", "use_bias": false, "padding": "same", "kernel_initializer": {"config": {"distribution": "uniform", "scale": 1.0, "mode": "fan_avg", "seed": null}, "class_name": "VarianceScaling"}, "dilation_rate": [1, 1], "strides": [1, 1]}, "inbound_nodes": [[["max_pooling2d_2", 0, 0, {}]]], "name": "conv2d_6", "class_name": "Conv2D"}, {"config": {"kernel_regularizer": null, "trainable": false, "name": "conv2d_8", "filters": 64, "bias_initializer": {"config": {}, "class_name": "Zeros"}, "kernel_constraint": null, "activation": "linear", "bias_regularizer": null, "bias_constraint": null, "activity_regularizer": null, "kernel_size": [5, 5], "data_format": "channels_last", "use_bias": false, "padding": "same", "kernel_initializer": {"config": {"distribution": "uniform", "scale": 1.0, "mode": "fan_avg", "seed": null}, "class_name": "VarianceScaling"}, "dilation_rate": [1, 1], "strides": [1, 1]}, "inbound_nodes": [[["activation_7", 0, 0, {}]]], "name": "conv2d_8", "class_name": "Conv2D"}, {"config": {"kernel_regularizer": null, "trainable": false, "name": "conv2d_11", "filters": 96, "bias_initializer": {"config": {}, "class_name": "Zeros"}, "kernel_constraint": null, "activation": "linear", "bias_regularizer": null, "bias_constraint": null, "activity_regularizer": null, "kernel_size": [3, 3], "data_format": "channels_last", "use_bias": false, "padding": "same", "kernel_initializer": {"config": {"distribution": "uniform", "scale": 1.0, "mode": "fan_avg", "seed": null}, "class_name": "VarianceScaling"}, "dilation_rate": [1, 1], "strides": [1, 1]}, "inbound_nodes": [[["activation_10", 0, 0, {}]]], "name": "conv2d_11", "class_name": "Conv2D"}, {"config": {"kernel_regularizer": null, "trainable": false, "name": "conv2d_12", "filters": 32, "bias_initializer": {"config": {}, "class_name": "Zeros"}, "kernel_constraint": null, "activation": "linear", "bias_regularizer": null, "bias_constraint": null, "activity_regularizer": null, "kernel_size": [1, 1], "data_format": "channels_last", "use_bias": false, "padding": "same", "kernel_initializer": {"config": {"distribution": "uniform", "scale": 1.0, "mode": "fan_avg", "seed": null}, "class_name": "VarianceScaling"}, "dilation_rate": [1, 1], "strides": [1, 1]}, "inbound_nodes": [[["average_pooling2d_1", 0, 0, {}]]], "name": "conv2d_12", "class_name": "Conv2D"}, {"config": {"center": true, "trainable": false, "moving_variance_initializer": {"config": {}, "class_name": "Ones"}, "name": "batch_normalization_6", "moving_mean_initializer": {"config": {}, "class_name": "Zeros"}, "epsilon": 0.001, "gamma_constraint": null, "beta_constraint": null, "axis": 3, "gamma_initializer": {"config": {}, "class_name": "Ones"}, "scale": false, "beta_initializer": {"config": {}, "class_name": "Zeros"}, "beta_regularizer": null, "momentum": 0.99, "gamma_regularizer": null}, "inbound_nodes": [[["conv2d_6", 0, 0, {}]]], "name": "batch_normalization_6", "class_name": "BatchNormalization"}, {"config": {"center": true, "trainable": false, "moving_variance_initializer": {"config": {}, "class_name": "Ones"}, "name": "batch_normalization_8", "moving_mean_initializer": {"config": {}, "class_name": "Zeros"}, "epsilon": 0.001, "gamma_constraint": null, "beta_constraint": null, "axis": 3, "gamma_initializer": {"config": {}, "class_name": "Ones"}, "scale": false, "beta_initializer": {"config": {}, "class_name": "Zeros"}, "beta_regularizer": null, "momentum": 0.99, "gamma_regularizer": null}, "inbound_nodes": [[["conv2d_8", 0, 0, {}]]], "name": "batch_normalization_8", "class_name": "BatchNormalization"}, {"config": {"center": true, "trainable": false, "moving_variance_initializer": {"config": {}, "class_name": "Ones"}, "name": "batch_normalization_11", "moving_mean_initializer": {"config": {}, "class_name": "Zeros"}, "epsilon": 0.001, "gamma_constraint": null, "beta_constraint": null, "axis": 3, "gamma_initializer": {"config": {}, "class_name": "Ones"}, "scale": false, "beta_initializer": {"config": {}, "class_name": "Zeros"}, "beta_regularizer": null, "momentum": 0.99, "gamma_regularizer": null}, "inbound_nodes": [[["conv2d_11", 0, 0, {}]]], "name": "batch_normalization_11", "class_name": "BatchNormalization"}, {"config": {"center": true, "trainable": false, "moving_variance_initializer": {"config": {}, "class_name": "Ones"}, "name": "batch_normalization_12", "moving_mean_initializer": {"config": {}, "class_name": "Zeros"}, "epsilon": 0.001, "gamma_constraint": null, "beta_constraint": null, "axis": 3, "gamma_initializer": {"config": {}, "class_name": "Ones"}, "scale": false, "beta_initializer": {"config": {}, "class_name": "Zeros"}, "beta_regularizer": null, "momentum": 0.99, "gamma_regularizer": null}, "inbound_nodes": [[["conv2d_12", 0, 0, {}]]], "name": "batch_normalization_12", "class_name": "BatchNormalization"}, {"config": {"activation": "relu", "trainable": false, "name": "activation_6"}, "inbound_nodes": [[["batch_normalization_6", 0, 0, {}]]], "name": "activation_6", "class_name": "Activation"}, {"config": {"activation": "relu", "trainable": false, "name": "activation_8"}, "inbound_nodes": [[["batch_normalization_8", 0, 0, {}]]], "name": "activation_8", "class_name": "Activation"}, {"config": {"activation": "relu", "trainable": false, "name": "activation_11"}, "inbound_nodes": [[["batch_normalization_11", 0, 0, {}]]], "name": "activation_11", "class_name": "Activation"}, {"config": {"activation": "relu", "trainable": false, "name": "activation_12"}, "inbound_nodes": [[["batch_normalization_12", 0, 0, {}]]], "name": "activation_12", "class_name": "Activation"}, {"config": {"trainable": false, "name": "mixed0", "axis": 3}, "inbound_nodes": [[["activation_6", 0, 0, {}], ["activation_8", 0, 0, {}], ["activation_11", 0, 0, {}], ["activation_12", 0, 0, {}]]], "name": "mixed0", "class_name": "Concatenate"}, {"config": {"kernel_regularizer": null, "trainable": false, "name": "conv2d_16", "filters": 64, "bias_initializer": {"config": {}, "class_name": "Zeros"}, "kernel_constraint": null, "activation": "linear", "bias_regularizer": null, "bias_constraint": null, "activity_regularizer": null, "kernel_size": [1, 1], "data_format": "channels_last", "use_bias": false, "padding": "same", "kernel_initializer": {"config": {"distribution": "uniform", "scale": 1.0, "mode": "fan_avg", "seed": null}, "class_name": "VarianceScaling"}, "dilation_rate": [1, 1], "strides": [1, 1]}, "inbound_nodes": [[["mixed0", 0, 0, {}]]], "name": "conv2d_16", "class_name": "Conv2D"}, {"config": {"center": true, "trainable": false, "moving_variance_initializer": {"config": {}, "class_name": "Ones"}, "name": "batch_normalization_16", "moving_mean_initializer": {"config": {}, "class_name": "Zeros"}, "epsilon": 0.001, "gamma_constraint": null, "beta_constraint": null, "axis": 3, "gamma_initializer": {"config": {}, "class_name": "Ones"}, "scale": false, "beta_initializer": {"config": {}, "class_name": "Zeros"}, "beta_regularizer": null, "momentum": 0.99, "gamma_regularizer": null}, "inbound_nodes": [[["conv2d_16", 0, 0, {}]]], "name": "batch_normalization_16", "class_name": "BatchNormalization"}, {"config": {"activation": "relu", "trainable": false, "name": "activation_16"}, "inbound_nodes": [[["batch_normalization_16", 0, 0, {}]]], "name": "activation_16", "class_name": "Activation"}, {"config": {"kernel_regularizer": null, "trainable": false, "name": "conv2d_14", "filters": 48, "bias_initializer": {"config": {}, "class_name": "Zeros"}, "kernel_constraint": null, "activation": "linear", "bias_regularizer": null, "bias_constraint": null, "activity_regularizer": null, "kernel_size": [1, 1], "data_format": "channels_last", "use_bias": false, "padding": "same", "kernel_initializer": {"config": {"distribution": "uniform", "scale": 1.0, "mode": "fan_avg", "seed": null}, "class_name": "VarianceScaling"}, "dilation_rate": [1, 1], "strides": [1, 1]}, "inbound_nodes": [[["mixed0", 0, 0, {}]]], "name": "conv2d_14", "class_name": "Conv2D"}, {"config": {"kernel_regularizer": null, "trainable": false, "name": "conv2d_17", "filters": 96, "bias_initializer": {"config": {}, "class_name": "Zeros"}, "kernel_constraint": null, "activation": "linear", "bias_regularizer": null, "bias_constraint": null, "activity_regularizer": null, "kernel_size": [3, 3], "data_format": "channels_last", "use_bias": false, "padding": "same", "kernel_initializer": {"config": {"distribution": "uniform", "scale": 1.0, "mode": "fan_avg", "seed": null}, "class_name": "VarianceScaling"}, "dilation_rate": [1, 1], "strides": [1, 1]}, "inbound_nodes": [[["activation_16", 0, 0, {}]]], "name": "conv2d_17", "class_name": "Conv2D"}, {"config": {"center": true, "trainable": false, "moving_variance_initializer": {"config": {}, "class_name": "Ones"}, "name": "batch_normalization_14", "moving_mean_initializer": {"config": {}, "class_name": "Zeros"}, "epsilon": 0.001, "gamma_constraint": null, "beta_constraint": null, "axis": 3, "gamma_initializer": {"config": {}, "class_name": "Ones"}, "scale": false, "beta_initializer": {"config": {}, "class_name": "Zeros"}, "beta_regularizer": null, "momentum": 0.99, "gamma_regularizer": null}, "inbound_nodes": [[["conv2d_14", 0, 0, {}]]], "name": "batch_normalization_14", "class_name": "BatchNormalization"}, {"config": {"center": true, "trainable": false, "moving_variance_initializer": {"config": {}, "class_name": "Ones"}, "name": "batch_normalization_17", "moving_mean_initializer": {"config": {}, "class_name": "Zeros"}, "epsilon": 0.001, "gamma_constraint": null, "beta_constraint": null, "axis": 3, "gamma_initializer": {"config": {}, "class_name": "Ones"}, "scale": false, "beta_initializer": {"config": {}, "class_name": "Zeros"}, "beta_regularizer": null, "momentum": 0.99, "gamma_regularizer": null}, "inbound_nodes": [[["conv2d_17", 0, 0, {}]]], "name": "batch_normalization_17", "class_name": "BatchNormalization"}, {"config": {"activation": "relu", "trainable": false, "name": "activation_14"}, "inbound_nodes": [[["batch_normalization_14", 0, 0, {}]]], "name": "activation_14", "class_name": "Activation"}, {"config": {"activation": "relu", "trainable": false, "name": "activation_17"}, "inbound_nodes": [[["batch_normalization_17", 0, 0, {}]]], "name": "activation_17", "class_name": "Activation"}, {"config": {"pool_size": [3, 3], "trainable": false, "name": "average_pooling2d_2", "data_format": "channels_last", "padding": "same", "strides": [1, 1]}, "inbound_nodes": [[["mixed0", 0, 0, {}]]], "name": "average_pooling2d_2", "class_name": "AveragePooling2D"}, {"config": {"kernel_regularizer": null, "trainable": false, "name": "conv2d_13", "filters": 64, "bias_initializer": {"config": {}, "class_name": "Zeros"}, "kernel_constraint": null, "activation": "linear", "bias_regularizer": null, "bias_constraint": null, "activity_regularizer": null, "kernel_size": [1, 1], "data_format": "channels_last", "use_bias": false, "padding": "same", "kernel_initializer": {"config": {"distribution": "uniform", "scale": 1.0, "mode": "fan_avg", "seed": null}, "class_name": "VarianceScaling"}, "dilation_rate": [1, 1], "strides": [1, 1]}, "inbound_nodes": [[["mixed0", 0, 0, {}]]], "name": "conv2d_13", "class_name": "Conv2D"}, {"config": {"kernel_regularizer": null, "trainable": false, "name": "conv2d_15", "filters": 64, "bias_initializer": {"config": {}, "class_name": "Zeros"}, "kernel_constraint": null, "activation": "linear", "bias_regularizer": null, "bias_constraint": null, "activity_regularizer": null, "kernel_size": [5, 5], "data_format": "channels_last", "use_bias": false, "padding": "same", "kernel_initializer": {"config": {"distribution": "uniform", "scale": 1.0, "mode": "fan_avg", "seed": null}, "class_name": "VarianceScaling"}, "dilation_rate": [1, 1], "strides": [1, 1]}, "inbound_nodes": [[["activation_14", 0, 0, {}]]], "name": "conv2d_15", "class_name": "Conv2D"}, {"config": {"kernel_regularizer": null, "trainable": false, "name": "conv2d_18", "filters": 96, "bias_initializer": {"config": {}, "class_name": "Zeros"}, "kernel_constraint": null, "activation": "linear", "bias_regularizer": null, "bias_constraint": null, "activity_regularizer": null, "kernel_size": [3, 3], "data_format": "channels_last", "use_bias": false, "padding": "same", "kernel_initializer": {"config": {"distribution": "uniform", "scale": 1.0, "mode": "fan_avg", "seed": null}, "class_name": "VarianceScaling"}, "dilation_rate": [1, 1], "strides": [1, 1]}, "inbound_nodes": [[["activation_17", 0, 0, {}]]], "name": "conv2d_18", "class_name": "Conv2D"}, {"config": {"kernel_regularizer": null, "trainable": false, "name": "conv2d_19", "filters": 64, "bias_initializer": {"config": {}, "class_name": "Zeros"}, "kernel_constraint": null, "activation": "linear", "bias_regularizer": null, "bias_constraint": null, "activity_regularizer": null, "kernel_size": [1, 1], "data_format": "channels_last", "use_bias": false, "padding": "same", "kernel_initializer": {"config": {"distribution": "uniform", "scale": 1.0, "mode": "fan_avg", "seed": null}, "class_name": "VarianceScaling"}, "dilation_rate": [1, 1], "strides": [1, 1]}, "inbound_nodes": [[["average_pooling2d_2", 0, 0, {}]]], "name": "conv2d_19", "class_name": "Conv2D"}, {"config": {"center": true, "trainable": false, "moving_variance_initializer": {"config": {}, "class_name": "Ones"}, "name": "batch_normalization_13", "moving_mean_initializer": {"config": {}, "class_name": "Zeros"}, "epsilon": 0.001, "gamma_constraint": null, "beta_constraint": null, "axis": 3, "gamma_initializer": {"config": {}, "class_name": "Ones"}, "scale": false, "beta_initializer": {"config": {}, "class_name": "Zeros"}, "beta_regularizer": null, "momentum": 0.99, "gamma_regularizer": null}, "inbound_nodes": [[["conv2d_13", 0, 0, {}]]], "name": "batch_normalization_13", "class_name": "BatchNormalization"}, {"config": {"center": true, "trainable": false, "moving_variance_initializer": {"config": {}, "class_name": "Ones"}, "name": "batch_normalization_15", "moving_mean_initializer": {"config": {}, "class_name": "Zeros"}, "epsilon": 0.001, "gamma_constraint": null, "beta_constraint": null, "axis": 3, "gamma_initializer": {"config": {}, "class_name": "Ones"}, "scale": false, "beta_initializer": {"config": {}, "class_name": "Zeros"}, "beta_regularizer": null, "momentum": 0.99, "gamma_regularizer": null}, "inbound_nodes": [[["conv2d_15", 0, 0, {}]]], "name": "batch_normalization_15", "class_name": "BatchNormalization"}, {"config": {"center": true, "trainable": false, "moving_variance_initializer": {"config": {}, "class_name": "Ones"}, "name": "batch_normalization_18", "moving_mean_initializer": {"config": {}, "class_name": "Zeros"}, "epsilon": 0.001, "gamma_constraint": null, "beta_constraint": null, "axis": 3, "gamma_initializer": {"config": {}, "class_name": "Ones"}, "scale": false, "beta_initializer": {"config": {}, "class_name": "Zeros"}, "beta_regularizer": null, "momentum": 0.99, "gamma_regularizer": null}, "inbound_nodes": [[["conv2d_18", 0, 0, {}]]], "name": "batch_normalization_18", "class_name": "BatchNormalization"}, {"config": {"center": true, "trainable": false, "moving_variance_initializer": {"config": {}, "class_name": "Ones"}, "name": "batch_normalization_19", "moving_mean_initializer": {"config": {}, "class_name": "Zeros"}, "epsilon": 0.001, "gamma_constraint": null, "beta_constraint": null, "axis": 3, "gamma_initializer": {"config": {}, "class_name": "Ones"}, "scale": false, "beta_initializer": {"config": {}, "class_name": "Zeros"}, "beta_regularizer": null, "momentum": 0.99, "gamma_regularizer": null}, "inbound_nodes": [[["conv2d_19", 0, 0, {}]]], "name": "batch_normalization_19", "class_name": "BatchNormalization"}, {"config": {"activation": "relu", "trainable": false, "name": "activation_13"}, "inbound_nodes": [[["batch_normalization_13", 0, 0, {}]]], "name": "activation_13", "class_name": "Activation"}, {"config": {"activation": "relu", "trainable": false, "name": "activation_15"}, "inbound_nodes": [[["batch_normalization_15", 0, 0, {}]]], "name": "activation_15", "class_name": "Activation"}, {"config": {"activation": "relu", "trainable": false, "name": "activation_18"}, "inbound_nodes": [[["batch_normalization_18", 0, 0, {}]]], "name": "activation_18", "class_name": "Activation"}, {"config": {"activation": "relu", "trainable": false, "name": "activation_19"}, "inbound_nodes": [[["batch_normalization_19", 0, 0, {}]]], "name": "activation_19", "class_name": "Activation"}, {"config": {"trainable": false, "name": "mixed1", "axis": 3}, "inbound_nodes": [[["activation_13", 0, 0, {}], ["activation_15", 0, 0, {}], ["activation_18", 0, 0, {}], ["activation_19", 0, 0, {}]]], "name": "mixed1", "class_name": "Concatenate"}, {"config": {"kernel_regularizer": null, "trainable": false, "name": "conv2d_23", "filters": 64, "bias_initializer": {"config": {}, "class_name": "Zeros"}, "kernel_constraint": null, "activation": "linear", "bias_regularizer": null, "bias_constraint": null, "activity_regularizer": null, "kernel_size": [1, 1], "data_format": "channels_last", "use_bias": false, "padding": "same", "kernel_initializer": {"config": {"distribution": "uniform", "scale": 1.0, "mode": "fan_avg", "seed": null}, "class_name": "VarianceScaling"}, "dilation_rate": [1, 1], "strides": [1, 1]}, "inbound_nodes": [[["mixed1", 0, 0, {}]]], "name": "conv2d_23", "class_name": "Conv2D"}, {"config": {"center": true, "trainable": false, "moving_variance_initializer": {"config": {}, "class_name": "Ones"}, "name": "batch_normalization_23", "moving_mean_initializer": {"config": {}, "class_name": "Zeros"}, "epsilon": 0.001, "gamma_constraint": null, "beta_constraint": null, "axis": 3, "gamma_initializer": {"config": {}, "class_name": "Ones"}, "scale": false, "beta_initializer": {"config": {}, "class_name": "Zeros"}, "beta_regularizer": null, "momentum": 0.99, "gamma_regularizer": null}, "inbound_nodes": [[["conv2d_23", 0, 0, {}]]], "name": "batch_normalization_23", "class_name": "BatchNormalization"}, {"config": {"activation": "relu", "trainable": false, "name": "activation_23"}, "inbound_nodes": [[["batch_normalization_23", 0, 0, {}]]], "name": "activation_23", "class_name": "Activation"}, {"config": {"kernel_regularizer": null, "trainable": false, "name": "conv2d_21", "filters": 48, "bias_initializer": {"config": {}, "class_name": "Zeros"}, "kernel_constraint": null, "activation": "linear", "bias_regularizer": null, "bias_constraint": null, "activity_regularizer": null, "kernel_size": [1, 1], "data_format": "channels_last", "use_bias": false, "padding": "same", "kernel_initializer": {"config": {"distribution": "uniform", "scale": 1.0, "mode": "fan_avg", "seed": null}, "class_name": "VarianceScaling"}, "dilation_rate": [1, 1], "strides": [1, 1]}, "inbound_nodes": [[["mixed1", 0, 0, {}]]], "name": "conv2d_21", "class_name": "Conv2D"}, {"config": {"kernel_regularizer": null, "trainable": false, "name": "conv2d_24", "filters": 96, "bias_initializer": {"config": {}, "class_name": "Zeros"}, "kernel_constraint": null, "activation": "linear", "bias_regularizer": null, "bias_constraint": null, "activity_regularizer": null, "kernel_size": [3, 3], "data_format": "channels_last", "use_bias": false, "padding": "same", "kernel_initializer": {"config": {"distribution": "uniform", "scale": 1.0, "mode": "fan_avg", "seed": null}, "class_name": "VarianceScaling"}, "dilation_rate": [1, 1], "strides": [1, 1]}, "inbound_nodes": [[["activation_23", 0, 0, {}]]], "name": "conv2d_24", "class_name": "Conv2D"}, {"config": {"center": true, "trainable": false, "moving_variance_initializer": {"config": {}, "class_name": "Ones"}, "name": "batch_normalization_21", "moving_mean_initializer": {"config": {}, "class_name": "Zeros"}, "epsilon": 0.001, "gamma_constraint": null, "beta_constraint": null, "axis": 3, "gamma_initializer": {"config": {}, "class_name": "Ones"}, "scale": false, "beta_initializer": {"config": {}, "class_name": "Zeros"}, "beta_regularizer": null, "momentum": 0.99, "gamma_regularizer": null}, "inbound_nodes": [[["conv2d_21", 0, 0, {}]]], "name": "batch_normalization_21", "class_name": "BatchNormalization"}, {"config": {"center": true, "trainable": false, "moving_variance_initializer": {"config": {}, "class_name": "Ones"}, "name": "batch_normalization_24", "moving_mean_initializer": {"config": {}, "class_name": "Zeros"}, "epsilon": 0.001, "gamma_constraint": null, "beta_constraint": null, "axis": 3, "gamma_initializer": {"config": {}, "class_name": "Ones"}, "scale": false, "beta_initializer": {"config": {}, "class_name": "Zeros"}, "beta_regularizer": null, "momentum": 0.99, "gamma_regularizer": null}, "inbound_nodes": [[["conv2d_24", 0, 0, {}]]], "name": "batch_normalization_24", "class_name": "BatchNormalization"}, {"config": {"activation": "relu", "trainable": false, "name": "activation_21"}, "inbound_nodes": [[["batch_normalization_21", 0, 0, {}]]], "name": "activation_21", "class_name": "Activation"}, {"config": {"activation": "relu", "trainable": false, "name": "activation_24"}, "inbound_nodes": [[["batch_normalization_24", 0, 0, {}]]], "name": "activation_24", "class_name": "Activation"}, {"config": {"pool_size": [3, 3], "trainable": false, "name": "average_pooling2d_3", "data_format": "channels_last", "padding": "same", "strides": [1, 1]}, "inbound_nodes": [[["mixed1", 0, 0, {}]]], "name": "average_pooling2d_3", "class_name": "AveragePooling2D"}, {"config": {"kernel_regularizer": null, "trainable": false, "name": "conv2d_20", "filters": 64, "bias_initializer": {"config": {}, "class_name": "Zeros"}, "kernel_constraint": null, "activation": "linear", "bias_regularizer": null, "bias_constraint": null, "activity_regularizer": null, "kernel_size": [1, 1], "data_format": "channels_last", "use_bias": false, "padding": "same", "kernel_initializer": {"config": {"distribution": "uniform", "scale": 1.0, "mode": "fan_avg", "seed": null}, "class_name": "VarianceScaling"}, "dilation_rate": [1, 1], "strides": [1, 1]}, "inbound_nodes": [[["mixed1", 0, 0, {}]]], "name": "conv2d_20", "class_name": "Conv2D"}, {"config": {"kernel_regularizer": null, "trainable": false, "name": "conv2d_22", "filters": 64, "bias_initializer": {"config": {}, "class_name": "Zeros"}, "kernel_constraint": null, "activation": "linear", "bias_regularizer": null, "bias_constraint": null, "activity_regularizer": null, "kernel_size": [5, 5], "data_format": "channels_last", "use_bias": false, "padding": "same", "kernel_initializer": {"config": {"distribution": "uniform", "scale": 1.0, "mode": "fan_avg", "seed": null}, "class_name": "VarianceScaling"}, "dilation_rate": [1, 1], "strides": [1, 1]}, "inbound_nodes": [[["activation_21", 0, 0, {}]]], "name": "conv2d_22", "class_name": "Conv2D"}, {"config": {"kernel_regularizer": null, "trainable": false, "name": "conv2d_25", "filters": 96, "bias_initializer": {"config": {}, "class_name": "Zeros"}, "kernel_constraint": null, "activation": "linear", "bias_regularizer": null, "bias_constraint": null, "activity_regularizer": null, "kernel_size": [3, 3], "data_format": "channels_last", "use_bias": false, "padding": "same", "kernel_initializer": {"config": {"distribution": "uniform", "scale": 1.0, "mode": "fan_avg", "seed": null}, "class_name": "VarianceScaling"}, "dilation_rate": [1, 1], "strides": [1, 1]}, "inbound_nodes": [[["activation_24", 0, 0, {}]]], "name": "conv2d_25", "class_name": "Conv2D"}, {"config": {"kernel_regularizer": null, "trainable": false, "name": "conv2d_26", "filters": 64, "bias_initializer": {"config": {}, "class_name": "Zeros"}, "kernel_constraint": null, "activation": "linear", "bias_regularizer": null, "bias_constraint": null, "activity_regularizer": null, "kernel_size": [1, 1], "data_format": "channels_last", "use_bias": false, "padding": "same", "kernel_initializer": {"config": {"distribution": "uniform", "scale": 1.0, "mode": "fan_avg", "seed": null}, "class_name": "VarianceScaling"}, "dilation_rate": [1, 1], "strides": [1, 1]}, "inbound_nodes": [[["average_pooling2d_3", 0, 0, {}]]], "name": "conv2d_26", "class_name": "Conv2D"}, {"config": {"center": true, "trainable": false, "moving_variance_initializer": {"config": {}, "class_name": "Ones"}, "name": "batch_normalization_20", "moving_mean_initializer": {"config": {}, "class_name": "Zeros"}, "epsilon": 0.001, "gamma_constraint": null, "beta_constraint": null, "axis": 3, "gamma_initializer": {"config": {}, "class_name": "Ones"}, "scale": false, "beta_initializer": {"config": {}, "class_name": "Zeros"}, "beta_regularizer": null, "momentum": 0.99, "gamma_regularizer": null}, "inbound_nodes": [[["conv2d_20", 0, 0, {}]]], "name": "batch_normalization_20", "class_name": "BatchNormalization"}, {"config": {"center": true, "trainable": false, "moving_variance_initializer": {"config": {}, "class_name": "Ones"}, "name": "batch_normalization_22", "moving_mean_initializer": {"config": {}, "class_name": "Zeros"}, "epsilon": 0.001, "gamma_constraint": null, "beta_constraint": null, "axis": 3, "gamma_initializer": {"config": {}, "class_name": "Ones"}, "scale": false, "beta_initializer": {"config": {}, "class_name": "Zeros"}, "beta_regularizer": null, "momentum": 0.99, "gamma_regularizer": null}, "inbound_nodes": [[["conv2d_22", 0, 0, {}]]], "name": "batch_normalization_22", "class_name": "BatchNormalization"}, {"config": {"center": true, "trainable": false, "moving_variance_initializer": {"config": {}, "class_name": "Ones"}, "name": "batch_normalization_25", "moving_mean_initializer": {"config": {}, "class_name": "Zeros"}, "epsilon": 0.001, "gamma_constraint": null, "beta_constraint": null, "axis": 3, "gamma_initializer": {"config": {}, "class_name": "Ones"}, "scale": false, "beta_initializer": {"config": {}, "class_name": "Zeros"}, "beta_regularizer": null, "momentum": 0.99, "gamma_regularizer": null}, "inbound_nodes": [[["conv2d_25", 0, 0, {}]]], "name": "batch_normalization_25", "class_name": "BatchNormalization"}, {"config": {"center": true, "trainable": false, "moving_variance_initializer": {"config": {}, "class_name": "Ones"}, "name": "batch_normalization_26", "moving_mean_initializer": {"config": {}, "class_name": "Zeros"}, "epsilon": 0.001, "gamma_constraint": null, "beta_constraint": null, "axis": 3, "gamma_initializer": {"config": {}, "class_name": "Ones"}, "scale": false, "beta_initializer": {"config": {}, "class_name": "Zeros"}, "beta_regularizer": null, "momentum": 0.99, "gamma_regularizer": null}, "inbound_nodes": [[["conv2d_26", 0, 0, {}]]], "name": "batch_normalization_26", "class_name": "BatchNormalization"}, {"config": {"activation": "relu", "trainable": false, "name": "activation_20"}, "inbound_nodes": [[["batch_normalization_20", 0, 0, {}]]], "name": "activation_20", "class_name": "Activation"}, {"config": {"activation": "relu", "trainable": false, "name": "activation_22"}, "inbound_nodes": [[["batch_normalization_22", 0, 0, {}]]], "name": "activation_22", "class_name": "Activation"}, {"config": {"activation": "relu", "trainable": false, "name": "activation_25"}, "inbound_nodes": [[["batch_normalization_25", 0, 0, {}]]], "name": "activation_25", "class_name": "Activation"}, {"config": {"activation": "relu", "trainable": false, "name": "activation_26"}, "inbound_nodes": [[["batch_normalization_26", 0, 0, {}]]], "name": "activation_26", "class_name": "Activation"}, {"config": {"trainable": false, "name": "mixed2", "axis": 3}, "inbound_nodes": [[["activation_20", 0, 0, {}], ["activation_22", 0, 0, {}], ["activation_25", 0, 0, {}], ["activation_26", 0, 0, {}]]], "name": "mixed2", "class_name": "Concatenate"}, {"config": {"kernel_regularizer": null, "trainable": false, "name": "conv2d_28", "filters": 64, "bias_initializer": {"config": {}, "class_name": "Zeros"}, "kernel_constraint": null, "activation": "linear", "bias_regularizer": null, "bias_constraint": null, "activity_regularizer": null, "kernel_size": [1, 1], "data_format": "channels_last", "use_bias": false, "padding": "same", "kernel_initializer": {"config": {"distribution": "uniform", "scale": 1.0, "mode": "fan_avg", "seed": null}, "class_name": "VarianceScaling"}, "dilation_rate": [1, 1], "strides": [1, 1]}, "inbound_nodes": [[["mixed2", 0, 0, {}]]], "name": "conv2d_28", "class_name": "Conv2D"}, {"config": {"center": true, "trainable": false, "moving_variance_initializer": {"config": {}, "class_name": "Ones"}, "name": "batch_normalization_28", "moving_mean_initializer": {"config": {}, "class_name": "Zeros"}, "epsilon": 0.001, "gamma_constraint": null, "beta_constraint": null, "axis": 3, "gamma_initializer": {"config": {}, "class_name": "Ones"}, "scale": false, "beta_initializer": {"config": {}, "class_name": "Zeros"}, "beta_regularizer": null, "momentum": 0.99, "gamma_regularizer": null}, "inbound_nodes": [[["conv2d_28", 0, 0, {}]]], "name": "batch_normalization_28", "class_name": "BatchNormalization"}, {"config": {"activation": "relu", "trainable": false, "name": "activation_28"}, "inbound_nodes": [[["batch_normalization_28", 0, 0, {}]]], "name": "activation_28", "class_name": "Activation"}, {"config": {"kernel_regularizer": null, "trainable": false, "name": "conv2d_29", "filters": 96, "bias_initializer": {"config": {}, "class_name": "Zeros"}, "kernel_constraint": null, "activation": "linear", "bias_regularizer": null, "bias_constraint": null, "activity_regularizer": null, "kernel_size": [3, 3], "data_format": "channels_last", "use_bias": false, "padding": "same", "kernel_initializer": {"config": {"distribution": "uniform", "scale": 1.0, "mode": "fan_avg", "seed": null}, "class_name": "VarianceScaling"}, "dilation_rate": [1, 1], "strides": [1, 1]}, "inbound_nodes": [[["activation_28", 0, 0, {}]]], "name": "conv2d_29", "class_name": "Conv2D"}, {"config": {"center": true, "trainable": false, "moving_variance_initializer": {"config": {}, "class_name": "Ones"}, "name": "batch_normalization_29", "moving_mean_initializer": {"config": {}, "class_name": "Zeros"}, "epsilon": 0.001, "gamma_constraint": null, "beta_constraint": null, "axis": 3, "gamma_initializer": {"config": {}, "class_name": "Ones"}, "scale": false, "beta_initializer": {"config": {}, "class_name": "Zeros"}, "beta_regularizer": null, "momentum": 0.99, "gamma_regularizer": null}, "inbound_nodes": [[["conv2d_29", 0, 0, {}]]], "name": "batch_normalization_29", "class_name": "BatchNormalization"}, {"config": {"activation": "relu", "trainable": false, "name": "activation_29"}, "inbound_nodes": [[["batch_normalization_29", 0, 0, {}]]], "name": "activation_29", "class_name": "Activation"}, {"config": {"kernel_regularizer": null, "trainable": false, "name": "conv2d_27", "filters": 384, "bias_initializer": {"config": {}, "class_name": "Zeros"}, "kernel_constraint": null, "activation": "linear", "bias_regularizer": null, "bias_constraint": null, "activity_regularizer": null, "kernel_size": [3, 3], "data_format": "channels_last", "use_bias": false, "padding": "valid", "kernel_initializer": {"config": {"distribution": "uniform", "scale": 1.0, "mode": "fan_avg", "seed": null}, "class_name": "VarianceScaling"}, "dilation_rate": [1, 1], "strides": [2, 2]}, "inbound_nodes": [[["mixed2", 0, 0, {}]]], "name": "conv2d_27", "class_name": "Conv2D"}, {"config": {"kernel_regularizer": null, "trainable": false, "name": "conv2d_30", "filters": 96, "bias_initializer": {"config": {}, "class_name": "Zeros"}, "kernel_constraint": null, "activation": "linear", "bias_regularizer": null, "bias_constraint": null, "activity_regularizer": null, "kernel_size": [3, 3], "data_format": "channels_last", "use_bias": false, "padding": "valid", "kernel_initializer": {"config": {"distribution": "uniform", "scale": 1.0, "mode": "fan_avg", "seed": null}, "class_name": "VarianceScaling"}, "dilation_rate": [1, 1], "strides": [2, 2]}, "inbound_nodes": [[["activation_29", 0, 0, {}]]], "name": "conv2d_30", "class_name": "Conv2D"}, {"config": {"center": true, "trainable": false, "moving_variance_initializer": {"config": {}, "class_name": "Ones"}, "name": "batch_normalization_27", "moving_mean_initializer": {"config": {}, "class_name": "Zeros"}, "epsilon": 0.001, "gamma_constraint": null, "beta_constraint": null, "axis": 3, "gamma_initializer": {"config": {}, "class_name": "Ones"}, "scale": false, "beta_initializer": {"config": {}, "class_name": "Zeros"}, "beta_regularizer": null, "momentum": 0.99, "gamma_regularizer": null}, "inbound_nodes": [[["conv2d_27", 0, 0, {}]]], "name": "batch_normalization_27", "class_name": "BatchNormalization"}, {"config": {"center": true, "trainable": false, "moving_variance_initializer": {"config": {}, "class_name": "Ones"}, "name": "batch_normalization_30", "moving_mean_initializer": {"config": {}, "class_name": "Zeros"}, "epsilon": 0.001, "gamma_constraint": null, "beta_constraint": null, "axis": 3, "gamma_initializer": {"config": {}, "class_name": "Ones"}, "scale": false, "beta_initializer": {"config": {}, "class_name": "Zeros"}, "beta_regularizer": null, "momentum": 0.99, "gamma_regularizer": null}, "inbound_nodes": [[["conv2d_30", 0, 0, {}]]], "name": "batch_normalization_30", "class_name": "BatchNormalization"}, {"config": {"activation": "relu", "trainable": false, "name": "activation_27"}, "inbound_nodes": [[["batch_normalization_27", 0, 0, {}]]], "name": "activation_27", "class_name": "Activation"}, {"config": {"activation": "relu", "trainable": false, "name": "activation_30"}, "inbound_nodes": [[["batch_normalization_30", 0, 0, {}]]], "name": "activation_30", "class_name": "Activation"}, {"config": {"pool_size": [3, 3], "trainable": false, "name": "max_pooling2d_3", "data_format": "channels_last", "padding": "valid", "strides": [2, 2]}, "inbound_nodes": [[["mixed2", 0, 0, {}]]], "name": "max_pooling2d_3", "class_name": "MaxPooling2D"}, {"config": {"trainable": false, "name": "mixed3", "axis": 3}, "inbound_nodes": [[["activation_27", 0, 0, {}], ["activation_30", 0, 0, {}], ["max_pooling2d_3", 0, 0, {}]]], "name": "mixed3", "class_name": "Concatenate"}, {"config": {"kernel_regularizer": null, "trainable": false, "name": "conv2d_35", "filters": 128, "bias_initializer": {"config": {}, "class_name": "Zeros"}, "kernel_constraint": null, "activation": "linear", "bias_regularizer": null, "bias_constraint": null, "activity_regularizer": null, "kernel_size": [1, 1], "data_format": "channels_last", "use_bias": false, "padding": "same", "kernel_initializer": {"config": {"distribution": "uniform", "scale": 1.0, "mode": "fan_avg", "seed": null}, "class_name": "VarianceScaling"}, "dilation_rate": [1, 1], "strides": [1, 1]}, "inbound_nodes": [[["mixed3", 0, 0, {}]]], "name": "conv2d_35", "class_name": "Conv2D"}, {"config": {"center": true, "trainable": false, "moving_variance_initializer": {"config": {}, "class_name": "Ones"}, "name": "batch_normalization_35", "moving_mean_initializer": {"config": {}, "class_name": "Zeros"}, "epsilon": 0.001, "gamma_constraint": null, "beta_constraint": null, "axis": 3, "gamma_initializer": {"config": {}, "class_name": "Ones"}, "scale": false, "beta_initializer": {"config": {}, "class_name": "Zeros"}, "beta_regularizer": null, "momentum": 0.99, "gamma_regularizer": null}, "inbound_nodes": [[["conv2d_35", 0, 0, {}]]], "name": "batch_normalization_35", "class_name": "BatchNormalization"}, {"config": {"activation": "relu", "trainable": false, "name": "activation_35"}, "inbound_nodes": [[["batch_normalization_35", 0, 0, {}]]], "name": "activation_35", "class_name": "Activation"}, {"config": {"kernel_regularizer": null, "trainable": false, "name": "conv2d_36", "filters": 128, "bias_initializer": {"config": {}, "class_name": "Zeros"}, "kernel_constraint": null, "activation": "linear", "bias_regularizer": null, "bias_constraint": null, "activity_regularizer": null, "kernel_size": [7, 1], "data_format": "channels_last", "use_bias": false, "padding": "same", "kernel_initializer": {"config": {"distribution": "uniform", "scale": 1.0, "mode": "fan_avg", "seed": null}, "class_name": "VarianceScaling"}, "dilation_rate": [1, 1], "strides": [1, 1]}, "inbound_nodes": [[["activation_35", 0, 0, {}]]], "name": "conv2d_36", "class_name": "Conv2D"}, {"config": {"center": true, "trainable": false, "moving_variance_initializer": {"config": {}, "class_name": "Ones"}, "name": "batch_normalization_36", "moving_mean_initializer": {"config": {}, "class_name": "Zeros"}, "epsilon": 0.001, "gamma_constraint": null, "beta_constraint": null, "axis": 3, "gamma_initializer": {"config": {}, "class_name": "Ones"}, "scale": false, "beta_initializer": {"config": {}, "class_name": "Zeros"}, "beta_regularizer": null, "momentum": 0.99, "gamma_regularizer": null}, "inbound_nodes": [[["conv2d_36", 0, 0, {}]]], "name": "batch_normalization_36", "class_name": "BatchNormalization"}, {"config": {"activation": "relu", "trainable": false, "name": "activation_36"}, "inbound_nodes": [[["batch_normalization_36", 0, 0, {}]]], "name": "activation_36", "class_name": "Activation"}, {"config": {"kernel_regularizer": null, "trainable": false, "name": "conv2d_32", "filters": 128, "bias_initializer": {"config": {}, "class_name": "Zeros"}, "kernel_constraint": null, "activation": "linear", "bias_regularizer": null, "bias_constraint": null, "activity_regularizer": null, "kernel_size": [1, 1], "data_format": "channels_last", "use_bias": false, "padding": "same", "kernel_initializer": {"config": {"distribution": "uniform", "scale": 1.0, "mode": "fan_avg", "seed": null}, "class_name": "VarianceScaling"}, "dilation_rate": [1, 1], "strides": [1, 1]}, "inbound_nodes": [[["mixed3", 0, 0, {}]]], "name": "conv2d_32", "class_name": "Conv2D"}, {"config": {"kernel_regularizer": null, "trainable": false, "name": "conv2d_37", "filters": 128, "bias_initializer": {"config": {}, "class_name": "Zeros"}, "kernel_constraint": null, "activation": "linear", "bias_regularizer": null, "bias_constraint": null, "activity_regularizer": null, "kernel_size": [1, 7], "data_format": "channels_last", "use_bias": false, "padding": "same", "kernel_initializer": {"config": {"distribution": "uniform", "scale": 1.0, "mode": "fan_avg", "seed": null}, "class_name": "VarianceScaling"}, "dilation_rate": [1, 1], "strides": [1, 1]}, "inbound_nodes": [[["activation_36", 0, 0, {}]]], "name": "conv2d_37", "class_name": "Conv2D"}, {"config": {"center": true, "trainable": false, "moving_variance_initializer": {"config": {}, "class_name": "Ones"}, "name": "batch_normalization_32", "moving_mean_initializer": {"config": {}, "class_name": "Zeros"}, "epsilon": 0.001, "gamma_constraint": null, "beta_constraint": null, "axis": 3, "gamma_initializer": {"config": {}, "class_name": "Ones"}, "scale": false, "beta_initializer": {"config": {}, "class_name": "Zeros"}, "beta_regularizer": null, "momentum": 0.99, "gamma_regularizer": null}, "inbound_nodes": [[["conv2d_32", 0, 0, {}]]], "name": "batch_normalization_32", "class_name": "BatchNormalization"}, {"config": {"center": true, "trainable": false, "moving_variance_initializer": {"config": {}, "class_name": "Ones"}, "name": "batch_normalization_37", "moving_mean_initializer": {"config": {}, "class_name": "Zeros"}, "epsilon": 0.001, "gamma_constraint": null, "beta_constraint": null, "axis": 3, "gamma_initializer": {"config": {}, "class_name": "Ones"}, "scale": false, "beta_initializer": {"config": {}, "class_name": "Zeros"}, "beta_regularizer": null, "momentum": 0.99, "gamma_regularizer": null}, "inbound_nodes": [[["conv2d_37", 0, 0, {}]]], "name": "batch_normalization_37", "class_name": "BatchNormalization"}, {"config": {"activation": "relu", "trainable": false, "name": "activation_32"}, "inbound_nodes": [[["batch_normalization_32", 0, 0, {}]]], "name": "activation_32", "class_name": "Activation"}, {"config": {"activation": "relu", "trainable": false, "name": "activation_37"}, "inbound_nodes": [[["batch_normalization_37", 0, 0, {}]]], "name": "activation_37", "class_name": "Activation"}, {"config": {"kernel_regularizer": null, "trainable": false, "name": "conv2d_33", "filters": 128, "bias_initializer": {"config": {}, "class_name": "Zeros"}, "kernel_constraint": null, "activation": "linear", "bias_regularizer": null, "bias_constraint": null, "activity_regularizer": null, "kernel_size": [1, 7], "data_format": "channels_last", "use_bias": false, "padding": "same", "kernel_initializer": {"config": {"distribution": "uniform", "scale": 1.0, "mode": "fan_avg", "seed": null}, "class_name": "VarianceScaling"}, "dilation_rate": [1, 1], "strides": [1, 1]}, "inbound_nodes": [[["activation_32", 0, 0, {}]]], "name": "conv2d_33", "class_name": "Conv2D"}, {"config": {"kernel_regularizer": null, "trainable": false, "name": "conv2d_38", "filters": 128, "bias_initializer": {"config": {}, "class_name": "Zeros"}, "kernel_constraint": null, "activation": "linear", "bias_regularizer": null, "bias_constraint": null, "activity_regularizer": null, "kernel_size": [7, 1], "data_format": "channels_last", "use_bias": false, "padding": "same", "kernel_initializer": {"config": {"distribution": "uniform", "scale": 1.0, "mode": "fan_avg", "seed": null}, "class_name": "VarianceScaling"}, "dilation_rate": [1, 1], "strides": [1, 1]}, "inbound_nodes": [[["activation_37", 0, 0, {}]]], "name": "conv2d_38", "class_name": "Conv2D"}, {"config": {"center": true, "trainable": false, "moving_variance_initializer": {"config": {}, "class_name": "Ones"}, "name": "batch_normalization_33", "moving_mean_initializer": {"config": {}, "class_name": "Zeros"}, "epsilon": 0.001, "gamma_constraint": null, "beta_constraint": null, "axis": 3, "gamma_initializer": {"config": {}, "class_name": "Ones"}, "scale": false, "beta_initializer": {"config": {}, "class_name": "Zeros"}, "beta_regularizer": null, "momentum": 0.99, "gamma_regularizer": null}, "inbound_nodes": [[["conv2d_33", 0, 0, {}]]], "name": "batch_normalization_33", "class_name": "BatchNormalization"}, {"config": {"center": true, "trainable": false, "moving_variance_initializer": {"config": {}, "class_name": "Ones"}, "name": "batch_normalization_38", "moving_mean_initializer": {"config": {}, "class_name": "Zeros"}, "epsilon": 0.001, "gamma_constraint": null, "beta_constraint": null, "axis": 3, "gamma_initializer": {"config": {}, "class_name": "Ones"}, "scale": false, "beta_initializer": {"config": {}, "class_name": "Zeros"}, "beta_regularizer": null, "momentum": 0.99, "gamma_regularizer": null}, "inbound_nodes": [[["conv2d_38", 0, 0, {}]]], "name": "batch_normalization_38", "class_name": "BatchNormalization"}, {"config": {"activation": "relu", "trainable": false, "name": "activation_33"}, "inbound_nodes": [[["batch_normalization_33", 0, 0, {}]]], "name": "activation_33", "class_name": "Activation"}, {"config": {"activation": "relu", "trainable": false, "name": "activation_38"}, "inbound_nodes": [[["batch_normalization_38", 0, 0, {}]]], "name": "activation_38", "class_name": "Activation"}, {"config": {"pool_size": [3, 3], "trainable": false, "name": "average_pooling2d_4", "data_format": "channels_last", "padding": "same", "strides": [1, 1]}, "inbound_nodes": [[["mixed3", 0, 0, {}]]], "name": "average_pooling2d_4", "class_name": "AveragePooling2D"}, {"config": {"kernel_regularizer": null, "trainable": false, "name": "conv2d_31", "filters": 192, "bias_initializer": {"config": {}, "class_name": "Zeros"}, "kernel_constraint": null, "activation": "linear", "bias_regularizer": null, "bias_constraint": null, "activity_regularizer": null, "kernel_size": [1, 1], "data_format": "channels_last", "use_bias": false, "padding": "same", "kernel_initializer": {"config": {"distribution": "uniform", "scale": 1.0, "mode": "fan_avg", "seed": null}, "class_name": "VarianceScaling"}, "dilation_rate": [1, 1], "strides": [1, 1]}, "inbound_nodes": [[["mixed3", 0, 0, {}]]], "name": "conv2d_31", "class_name": "Conv2D"}, {"config": {"kernel_regularizer": null, "trainable": false, "name": "conv2d_34", "filters": 192, "bias_initializer": {"config": {}, "class_name": "Zeros"}, "kernel_constraint": null, "activation": "linear", "bias_regularizer": null, "bias_constraint": null, "activity_regularizer": null, "kernel_size": [7, 1], "data_format": "channels_last", "use_bias": false, "padding": "same", "kernel_initializer": {"config": {"distribution": "uniform", "scale": 1.0, "mode": "fan_avg", "seed": null}, "class_name": "VarianceScaling"}, "dilation_rate": [1, 1], "strides": [1, 1]}, "inbound_nodes": [[["activation_33", 0, 0, {}]]], "name": "conv2d_34", "class_name": "Conv2D"}, {"config": {"kernel_regularizer": null, "trainable": false, "name": "conv2d_39", "filters": 192, "bias_initializer": {"config": {}, "class_name": "Zeros"}, "kernel_constraint": null, "activation": "linear", "bias_regularizer": null, "bias_constraint": null, "activity_regularizer": null, "kernel_size": [1, 7], "data_format": "channels_last", "use_bias": false, "padding": "same", "kernel_initializer": {"config": {"distribution": "uniform", "scale": 1.0, "mode": "fan_avg", "seed": null}, "class_name": "VarianceScaling"}, "dilation_rate": [1, 1], "strides": [1, 1]}, "inbound_nodes": [[["activation_38", 0, 0, {}]]], "name": "conv2d_39", "class_name": "Conv2D"}, {"config": {"kernel_regularizer": null, "trainable": false, "name": "conv2d_40", "filters": 192, "bias_initializer": {"config": {}, "class_name": "Zeros"}, "kernel_constraint": null, "activation": "linear", "bias_regularizer": null, "bias_constraint": null, "activity_regularizer": null, "kernel_size": [1, 1], "data_format": "channels_last", "use_bias": false, "padding": "same", "kernel_initializer": {"config": {"distribution": "uniform", "scale": 1.0, "mode": "fan_avg", "seed": null}, "class_name": "VarianceScaling"}, "dilation_rate": [1, 1], "strides": [1, 1]}, "inbound_nodes": [[["average_pooling2d_4", 0, 0, {}]]], "name": "conv2d_40", "class_name": "Conv2D"}, {"config": {"center": true, "trainable": false, "moving_variance_initializer": {"config": {}, "class_name": "Ones"}, "name": "batch_normalization_31", "moving_mean_initializer": {"config": {}, "class_name": "Zeros"}, "epsilon": 0.001, "gamma_constraint": null, "beta_constraint": null, "axis": 3, "gamma_initializer": {"config": {}, "class_name": "Ones"}, "scale": false, "beta_initializer": {"config": {}, "class_name": "Zeros"}, "beta_regularizer": null, "momentum": 0.99, "gamma_regularizer": null}, "inbound_nodes": [[["conv2d_31", 0, 0, {}]]], "name": "batch_normalization_31", "class_name": "BatchNormalization"}, {"config": {"center": true, "trainable": false, "moving_variance_initializer": {"config": {}, "class_name": "Ones"}, "name": "batch_normalization_34", "moving_mean_initializer": {"config": {}, "class_name": "Zeros"}, "epsilon": 0.001, "gamma_constraint": null, "beta_constraint": null, "axis": 3, "gamma_initializer": {"config": {}, "class_name": "Ones"}, "scale": false, "beta_initializer": {"config": {}, "class_name": "Zeros"}, "beta_regularizer": null, "momentum": 0.99, "gamma_regularizer": null}, "inbound_nodes": [[["conv2d_34", 0, 0, {}]]], "name": "batch_normalization_34", "class_name": "BatchNormalization"}, {"config": {"center": true, "trainable": false, "moving_variance_initializer": {"config": {}, "class_name": "Ones"}, "name": "batch_normalization_39", "moving_mean_initializer": {"config": {}, "class_name": "Zeros"}, "epsilon": 0.001, "gamma_constraint": null, "beta_constraint": null, "axis": 3, "gamma_initializer": {"config": {}, "class_name": "Ones"}, "scale": false, "beta_initializer": {"config": {}, "class_name": "Zeros"}, "beta_regularizer": null, "momentum": 0.99, "gamma_regularizer": null}, "inbound_nodes": [[["conv2d_39", 0, 0, {}]]], "name": "batch_normalization_39", "class_name": "BatchNormalization"}, {"config": {"center": true, "trainable": false, "moving_variance_initializer": {"config": {}, "class_name": "Ones"}, "name": "batch_normalization_40", "moving_mean_initializer": {"config": {}, "class_name": "Zeros"}, "epsilon": 0.001, "gamma_constraint": null, "beta_constraint": null, "axis": 3, "gamma_initializer": {"config": {}, "class_name": "Ones"}, "scale": false, "beta_initializer": {"config": {}, "class_name": "Zeros"}, "beta_regularizer": null, "momentum": 0.99, "gamma_regularizer": null}, "inbound_nodes": [[["conv2d_40", 0, 0, {}]]], "name": "batch_normalization_40", "class_name": "BatchNormalization"}, {"config": {"activation": "relu", "trainable": false, "name": "activation_31"}, "inbound_nodes": [[["batch_normalization_31", 0, 0, {}]]], "name": "activation_31", "class_name": "Activation"}, {"config": {"activation": "relu", "trainable": false, "name": "activation_34"}, "inbound_nodes": [[["batch_normalization_34", 0, 0, {}]]], "name": "activation_34", "class_name": "Activation"}, {"config": {"activation": "relu", "trainable": false, "name": "activation_39"}, "inbound_nodes": [[["batch_normalization_39", 0, 0, {}]]], "name": "activation_39", "class_name": "Activation"}, {"config": {"activation": "relu", "trainable": false, "name": "activation_40"}, "inbound_nodes": [[["batch_normalization_40", 0, 0, {}]]], "name": "activation_40", "class_name": "Activation"}, {"config": {"trainable": false, "name": "mixed4", "axis": 3}, "inbound_nodes": [[["activation_31", 0, 0, {}], ["activation_34", 0, 0, {}], ["activation_39", 0, 0, {}], ["activation_40", 0, 0, {}]]], "name": "mixed4", "class_name": "Concatenate"}, {"config": {"kernel_regularizer": null, "trainable": false, "name": "conv2d_45", "filters": 160, "bias_initializer": {"config": {}, "class_name": "Zeros"}, "kernel_constraint": null, "activation": "linear", "bias_regularizer": null, "bias_constraint": null, "activity_regularizer": null, "kernel_size": [1, 1], "data_format": "channels_last", "use_bias": false, "padding": "same", "kernel_initializer": {"config": {"distribution": "uniform", "scale": 1.0, "mode": "fan_avg", "seed": null}, "class_name": "VarianceScaling"}, "dilation_rate": [1, 1], "strides": [1, 1]}, "inbound_nodes": [[["mixed4", 0, 0, {}]]], "name": "conv2d_45", "class_name": "Conv2D"}, {"config": {"center": true, "trainable": false, "moving_variance_initializer": {"config": {}, "class_name": "Ones"}, "name": "batch_normalization_45", "moving_mean_initializer": {"config": {}, "class_name": "Zeros"}, "epsilon": 0.001, "gamma_constraint": null, "beta_constraint": null, "axis": 3, "gamma_initializer": {"config": {}, "class_name": "Ones"}, "scale": false, "beta_initializer": {"config": {}, "class_name": "Zeros"}, "beta_regularizer": null, "momentum": 0.99, "gamma_regularizer": null}, "inbound_nodes": [[["conv2d_45", 0, 0, {}]]], "name": "batch_normalization_45", "class_name": "BatchNormalization"}, {"config": {"activation": "relu", "trainable": false, "name": "activation_45"}, "inbound_nodes": [[["batch_normalization_45", 0, 0, {}]]], "name": "activation_45", "class_name": "Activation"}, {"config": {"kernel_regularizer": null, "trainable": false, "name": "conv2d_46", "filters": 160, "bias_initializer": {"config": {}, "class_name": "Zeros"}, "kernel_constraint": null, "activation": "linear", "bias_regularizer": null, "bias_constraint": null, "activity_regularizer": null, "kernel_size": [7, 1], "data_format": "channels_last", "use_bias": false, "padding": "same", "kernel_initializer": {"config": {"distribution": "uniform", "scale": 1.0, "mode": "fan_avg", "seed": null}, "class_name": "VarianceScaling"}, "dilation_rate": [1, 1], "strides": [1, 1]}, "inbound_nodes": [[["activation_45", 0, 0, {}]]], "name": "conv2d_46", "class_name": "Conv2D"}, {"config": {"center": true, "trainable": false, "moving_variance_initializer": {"config": {}, "class_name": "Ones"}, "name": "batch_normalization_46", "moving_mean_initializer": {"config": {}, "class_name": "Zeros"}, "epsilon": 0.001, "gamma_constraint": null, "beta_constraint": null, "axis": 3, "gamma_initializer": {"config": {}, "class_name": "Ones"}, "scale": false, "beta_initializer": {"config": {}, "class_name": "Zeros"}, "beta_regularizer": null, "momentum": 0.99, "gamma_regularizer": null}, "inbound_nodes": [[["conv2d_46", 0, 0, {}]]], "name": "batch_normalization_46", "class_name": "BatchNormalization"}, {"config": {"activation": "relu", "trainable": false, "name": "activation_46"}, "inbound_nodes": [[["batch_normalization_46", 0, 0, {}]]], "name": "activation_46", "class_name": "Activation"}, {"config": {"kernel_regularizer": null, "trainable": false, "name": "conv2d_42", "filters": 160, "bias_initializer": {"config": {}, "class_name": "Zeros"}, "kernel_constraint": null, "activation": "linear", "bias_regularizer": null, "bias_constraint": null, "activity_regularizer": null, "kernel_size": [1, 1], "data_format": "channels_last", "use_bias": false, "padding": "same", "kernel_initializer": {"config": {"distribution": "uniform", "scale": 1.0, "mode": "fan_avg", "seed": null}, "class_name": "VarianceScaling"}, "dilation_rate": [1, 1], "strides": [1, 1]}, "inbound_nodes": [[["mixed4", 0, 0, {}]]], "name": "conv2d_42", "class_name": "Conv2D"}, {"config": {"kernel_regularizer": null, "trainable": false, "name": "conv2d_47", "filters": 160, "bias_initializer": {"config": {}, "class_name": "Zeros"}, "kernel_constraint": null, "activation": "linear", "bias_regularizer": null, "bias_constraint": null, "activity_regularizer": null, "kernel_size": [1, 7], "data_format": "channels_last", "use_bias": false, "padding": "same", "kernel_initializer": {"config": {"distribution": "uniform", "scale": 1.0, "mode": "fan_avg", "seed": null}, "class_name": "VarianceScaling"}, "dilation_rate": [1, 1], "strides": [1, 1]}, "inbound_nodes": [[["activation_46", 0, 0, {}]]], "name": "conv2d_47", "class_name": "Conv2D"}, {"config": {"center": true, "trainable": false, "moving_variance_initializer": {"config": {}, "class_name": "Ones"}, "name": "batch_normalization_42", "moving_mean_initializer": {"config": {}, "class_name": "Zeros"}, "epsilon": 0.001, "gamma_constraint": null, "beta_constraint": null, "axis": 3, "gamma_initializer": {"config": {}, "class_name": "Ones"}, "scale": false, "beta_initializer": {"config": {}, "class_name": "Zeros"}, "beta_regularizer": null, "momentum": 0.99, "gamma_regularizer": null}, "inbound_nodes": [[["conv2d_42", 0, 0, {}]]], "name": "batch_normalization_42", "class_name": "BatchNormalization"}, {"config": {"center": true, "trainable": false, "moving_variance_initializer": {"config": {}, "class_name": "Ones"}, "name": "batch_normalization_47", "moving_mean_initializer": {"config": {}, "class_name": "Zeros"}, "epsilon": 0.001, "gamma_constraint": null, "beta_constraint": null, "axis": 3, "gamma_initializer": {"config": {}, "class_name": "Ones"}, "scale": false, "beta_initializer": {"config": {}, "class_name": "Zeros"}, "beta_regularizer": null, "momentum": 0.99, "gamma_regularizer": null}, "inbound_nodes": [[["conv2d_47", 0, 0, {}]]], "name": "batch_normalization_47", "class_name": "BatchNormalization"}, {"config": {"activation": "relu", "trainable": false, "name": "activation_42"}, "inbound_nodes": [[["batch_normalization_42", 0, 0, {}]]], "name": "activation_42", "class_name": "Activation"}, {"config": {"activation": "relu", "trainable": false, "name": "activation_47"}, "inbound_nodes": [[["batch_normalization_47", 0, 0, {}]]], "name": "activation_47", "class_name": "Activation"}, {"config": {"kernel_regularizer": null, "trainable": false, "name": "conv2d_43", "filters": 160, "bias_initializer": {"config": {}, "class_name": "Zeros"}, "kernel_constraint": null, "activation": "linear", "bias_regularizer": null, "bias_constraint": null, "activity_regularizer": null, "kernel_size": [1, 7], "data_format": "channels_last", "use_bias": false, "padding": "same", "kernel_initializer": {"config": {"distribution": "uniform", "scale": 1.0, "mode": "fan_avg", "seed": null}, "class_name": "VarianceScaling"}, "dilation_rate": [1, 1], "strides": [1, 1]}, "inbound_nodes": [[["activation_42", 0, 0, {}]]], "name": "conv2d_43", "class_name": "Conv2D"}, {"config": {"kernel_regularizer": null, "trainable": false, "name": "conv2d_48", "filters": 160, "bias_initializer": {"config": {}, "class_name": "Zeros"}, "kernel_constraint": null, "activation": "linear", "bias_regularizer": null, "bias_constraint": null, "activity_regularizer": null, "kernel_size": [7, 1], "data_format": "channels_last", "use_bias": false, "padding": "same", "kernel_initializer": {"config": {"distribution": "uniform", "scale": 1.0, "mode": "fan_avg", "seed": null}, "class_name": "VarianceScaling"}, "dilation_rate": [1, 1], "strides": [1, 1]}, "inbound_nodes": [[["activation_47", 0, 0, {}]]], "name": "conv2d_48", "class_name": "Conv2D"}, {"config": {"center": true, "trainable": false, "moving_variance_initializer": {"config": {}, "class_name": "Ones"}, "name": "batch_normalization_43", "moving_mean_initializer": {"config": {}, "class_name": "Zeros"}, "epsilon": 0.001, "gamma_constraint": null, "beta_constraint": null, "axis": 3, "gamma_initializer": {"config": {}, "class_name": "Ones"}, "scale": false, "beta_initializer": {"config": {}, "class_name": "Zeros"}, "beta_regularizer": null, "momentum": 0.99, "gamma_regularizer": null}, "inbound_nodes": [[["conv2d_43", 0, 0, {}]]], "name": "batch_normalization_43", "class_name": "BatchNormalization"}, {"config": {"center": true, "trainable": false, "moving_variance_initializer": {"config": {}, "class_name": "Ones"}, "name": "batch_normalization_48", "moving_mean_initializer": {"config": {}, "class_name": "Zeros"}, "epsilon": 0.001, "gamma_constraint": null, "beta_constraint": null, "axis": 3, "gamma_initializer": {"config": {}, "class_name": "Ones"}, "scale": false, "beta_initializer": {"config": {}, "class_name": "Zeros"}, "beta_regularizer": null, "momentum": 0.99, "gamma_regularizer": null}, "inbound_nodes": [[["conv2d_48", 0, 0, {}]]], "name": "batch_normalization_48", "class_name": "BatchNormalization"}, {"config": {"activation": "relu", "trainable": false, "name": "activation_43"}, "inbound_nodes": [[["batch_normalization_43", 0, 0, {}]]], "name": "activation_43", "class_name": "Activation"}, {"config": {"activation": "relu", "trainable": false, "name": "activation_48"}, "inbound_nodes": [[["batch_normalization_48", 0, 0, {}]]], "name": "activation_48", "class_name": "Activation"}, {"config": {"pool_size": [3, 3], "trainable": false, "name": "average_pooling2d_5", "data_format": "channels_last", "padding": "same", "strides": [1, 1]}, "inbound_nodes": [[["mixed4", 0, 0, {}]]], "name": "average_pooling2d_5", "class_name": "AveragePooling2D"}, {"config": {"kernel_regularizer": null, "trainable": false, "name": "conv2d_41", "filters": 192, "bias_initializer": {"config": {}, "class_name": "Zeros"}, "kernel_constraint": null, "activation": "linear", "bias_regularizer": null, "bias_constraint": null, "activity_regularizer": null, "kernel_size": [1, 1], "data_format": "channels_last", "use_bias": false, "padding": "same", "kernel_initializer": {"config": {"distribution": "uniform", "scale": 1.0, "mode": "fan_avg", "seed": null}, "class_name": "VarianceScaling"}, "dilation_rate": [1, 1], "strides": [1, 1]}, "inbound_nodes": [[["mixed4", 0, 0, {}]]], "name": "conv2d_41", "class_name": "Conv2D"}, {"config": {"kernel_regularizer": null, "trainable": false, "name": "conv2d_44", "filters": 192, "bias_initializer": {"config": {}, "class_name": "Zeros"}, "kernel_constraint": null, "activation": "linear", "bias_regularizer": null, "bias_constraint": null, "activity_regularizer": null, "kernel_size": [7, 1], "data_format": "channels_last", "use_bias": false, "padding": "same", "kernel_initializer": {"config": {"distribution": "uniform", "scale": 1.0, "mode": "fan_avg", "seed": null}, "class_name": "VarianceScaling"}, "dilation_rate": [1, 1], "strides": [1, 1]}, "inbound_nodes": [[["activation_43", 0, 0, {}]]], "name": "conv2d_44", "class_name": "Conv2D"}, {"config": {"kernel_regularizer": null, "trainable": false, "name": "conv2d_49", "filters": 192, "bias_initializer": {"config": {}, "class_name": "Zeros"}, "kernel_constraint": null, "activation": "linear", "bias_regularizer": null, "bias_constraint": null, "activity_regularizer": null, "kernel_size": [1, 7], "data_format": "channels_last", "use_bias": false, "padding": "same", "kernel_initializer": {"config": {"distribution": "uniform", "scale": 1.0, "mode": "fan_avg", "seed": null}, "class_name": "VarianceScaling"}, "dilation_rate": [1, 1], "strides": [1, 1]}, "inbound_nodes": [[["activation_48", 0, 0, {}]]], "name": "conv2d_49", "class_name": "Conv2D"}, {"config": {"kernel_regularizer": null, "trainable": false, "name": "conv2d_50", "filters": 192, "bias_initializer": {"config": {}, "class_name": "Zeros"}, "kernel_constraint": null, "activation": "linear", "bias_regularizer": null, "bias_constraint": null, "activity_regularizer": null, "kernel_size": [1, 1], "data_format": "channels_last", "use_bias": false, "padding": "same", "kernel_initializer": {"config": {"distribution": "uniform", "scale": 1.0, "mode": "fan_avg", "seed": null}, "class_name": "VarianceScaling"}, "dilation_rate": [1, 1], "strides": [1, 1]}, "inbound_nodes": [[["average_pooling2d_5", 0, 0, {}]]], "name": "conv2d_50", "class_name": "Conv2D"}, {"config": {"center": true, "trainable": false, "moving_variance_initializer": {"config": {}, "class_name": "Ones"}, "name": "batch_normalization_41", "moving_mean_initializer": {"config": {}, "class_name": "Zeros"}, "epsilon": 0.001, "gamma_constraint": null, "beta_constraint": null, "axis": 3, "gamma_initializer": {"config": {}, "class_name": "Ones"}, "scale": false, "beta_initializer": {"config": {}, "class_name": "Zeros"}, "beta_regularizer": null, "momentum": 0.99, "gamma_regularizer": null}, "inbound_nodes": [[["conv2d_41", 0, 0, {}]]], "name": "batch_normalization_41", "class_name": "BatchNormalization"}, {"config": {"center": true, "trainable": false, "moving_variance_initializer": {"config": {}, "class_name": "Ones"}, "name": "batch_normalization_44", "moving_mean_initializer": {"config": {}, "class_name": "Zeros"}, "epsilon": 0.001, "gamma_constraint": null, "beta_constraint": null, "axis": 3, "gamma_initializer": {"config": {}, "class_name": "Ones"}, "scale": false, "beta_initializer": {"config": {}, "class_name": "Zeros"}, "beta_regularizer": null, "momentum": 0.99, "gamma_regularizer": null}, "inbound_nodes": [[["conv2d_44", 0, 0, {}]]], "name": "batch_normalization_44", "class_name": "BatchNormalization"}, {"config": {"center": true, "trainable": false, "moving_variance_initializer": {"config": {}, "class_name": "Ones"}, "name": "batch_normalization_49", "moving_mean_initializer": {"config": {}, "class_name": "Zeros"}, "epsilon": 0.001, "gamma_constraint": null, "beta_constraint": null, "axis": 3, "gamma_initializer": {"config": {}, "class_name": "Ones"}, "scale": false, "beta_initializer": {"config": {}, "class_name": "Zeros"}, "beta_regularizer": null, "momentum": 0.99, "gamma_regularizer": null}, "inbound_nodes": [[["conv2d_49", 0, 0, {}]]], "name": "batch_normalization_49", "class_name": "BatchNormalization"}, {"config": {"center": true, "trainable": false, "moving_variance_initializer": {"config": {}, "class_name": "Ones"}, "name": "batch_normalization_50", "moving_mean_initializer": {"config": {}, "class_name": "Zeros"}, "epsilon": 0.001, "gamma_constraint": null, "beta_constraint": null, "axis": 3, "gamma_initializer": {"config": {}, "class_name": "Ones"}, "scale": false, "beta_initializer": {"config": {}, "class_name": "Zeros"}, "beta_regularizer": null, "momentum": 0.99, "gamma_regularizer": null}, "inbound_nodes": [[["conv2d_50", 0, 0, {}]]], "name": "batch_normalization_50", "class_name": "BatchNormalization"}, {"config": {"activation": "relu", "trainable": false, "name": "activation_41"}, "inbound_nodes": [[["batch_normalization_41", 0, 0, {}]]], "name": "activation_41", "class_name": "Activation"}, {"config": {"activation": "relu", "trainable": false, "name": "activation_44"}, "inbound_nodes": [[["batch_normalization_44", 0, 0, {}]]], "name": "activation_44", "class_name": "Activation"}, {"config": {"activation": "relu", "trainable": false, "name": "activation_49"}, "inbound_nodes": [[["batch_normalization_49", 0, 0, {}]]], "name": "activation_49", "class_name": "Activation"}, {"config": {"activation": "relu", "trainable": false, "name": "activation_50"}, "inbound_nodes": [[["batch_normalization_50", 0, 0, {}]]], "name": "activation_50", "class_name": "Activation"}, {"config": {"trainable": false, "name": "mixed5", "axis": 3}, "inbound_nodes": [[["activation_41", 0, 0, {}], ["activation_44", 0, 0, {}], ["activation_49", 0, 0, {}], ["activation_50", 0, 0, {}]]], "name": "mixed5", "class_name": "Concatenate"}, {"config": {"kernel_regularizer": null, "trainable": false, "name": "conv2d_55", "filters": 160, "bias_initializer": {"config": {}, "class_name": "Zeros"}, "kernel_constraint": null, "activation": "linear", "bias_regularizer": null, "bias_constraint": null, "activity_regularizer": null, "kernel_size": [1, 1], "data_format": "channels_last", "use_bias": false, "padding": "same", "kernel_initializer": {"config": {"distribution": "uniform", "scale": 1.0, "mode": "fan_avg", "seed": null}, "class_name": "VarianceScaling"}, "dilation_rate": [1, 1], "strides": [1, 1]}, "inbound_nodes": [[["mixed5", 0, 0, {}]]], "name": "conv2d_55", "class_name": "Conv2D"}, {"config": {"center": true, "trainable": false, "moving_variance_initializer": {"config": {}, "class_name": "Ones"}, "name": "batch_normalization_55", "moving_mean_initializer": {"config": {}, "class_name": "Zeros"}, "epsilon": 0.001, "gamma_constraint": null, "beta_constraint": null, "axis": 3, "gamma_initializer": {"config": {}, "class_name": "Ones"}, "scale": false, "beta_initializer": {"config": {}, "class_name": "Zeros"}, "beta_regularizer": null, "momentum": 0.99, "gamma_regularizer": null}, "inbound_nodes": [[["conv2d_55", 0, 0, {}]]], "name": "batch_normalization_55", "class_name": "BatchNormalization"}, {"config": {"activation": "relu", "trainable": false, "name": "activation_55"}, "inbound_nodes": [[["batch_normalization_55", 0, 0, {}]]], "name": "activation_55", "class_name": "Activation"}, {"config": {"kernel_regularizer": null, "trainable": false, "name": "conv2d_56", "filters": 160, "bias_initializer": {"config": {}, "class_name": "Zeros"}, "kernel_constraint": null, "activation": "linear", "bias_regularizer": null, "bias_constraint": null, "activity_regularizer": null, "kernel_size": [7, 1], "data_format": "channels_last", "use_bias": false, "padding": "same", "kernel_initializer": {"config": {"distribution": "uniform", "scale": 1.0, "mode": "fan_avg", "seed": null}, "class_name": "VarianceScaling"}, "dilation_rate": [1, 1], "strides": [1, 1]}, "inbound_nodes": [[["activation_55", 0, 0, {}]]], "name": "conv2d_56", "class_name": "Conv2D"}, {"config": {"center": true, "trainable": false, "moving_variance_initializer": {"config": {}, "class_name": "Ones"}, "name": "batch_normalization_56", "moving_mean_initializer": {"config": {}, "class_name": "Zeros"}, "epsilon": 0.001, "gamma_constraint": null, "beta_constraint": null, "axis": 3, "gamma_initializer": {"config": {}, "class_name": "Ones"}, "scale": false, "beta_initializer": {"config": {}, "class_name": "Zeros"}, "beta_regularizer": null, "momentum": 0.99, "gamma_regularizer": null}, "inbound_nodes": [[["conv2d_56", 0, 0, {}]]], "name": "batch_normalization_56", "class_name": "BatchNormalization"}, {"config": {"activation": "relu", "trainable": false, "name": "activation_56"}, "inbound_nodes": [[["batch_normalization_56", 0, 0, {}]]], "name": "activation_56", "class_name": "Activation"}, {"config": {"kernel_regularizer": null, "trainable": false, "name": "conv2d_52", "filters": 160, "bias_initializer": {"config": {}, "class_name": "Zeros"}, "kernel_constraint": null, "activation": "linear", "bias_regularizer": null, "bias_constraint": null, "activity_regularizer": null, "kernel_size": [1, 1], "data_format": "channels_last", "use_bias": false, "padding": "same", "kernel_initializer": {"config": {"distribution": "uniform", "scale": 1.0, "mode": "fan_avg", "seed": null}, "class_name": "VarianceScaling"}, "dilation_rate": [1, 1], "strides": [1, 1]}, "inbound_nodes": [[["mixed5", 0, 0, {}]]], "name": "conv2d_52", "class_name": "Conv2D"}, {"config": {"kernel_regularizer": null, "trainable": true, "name": "conv2d_57", "filters": 160, "bias_initializer": {"config": {}, "class_name": "Zeros"}, "kernel_constraint": null, "activation": "linear", "bias_regularizer": null, "bias_constraint": null, "activity_regularizer": null, "kernel_size": [1, 7], "data_format": "channels_last", "use_bias": false, "padding": "same", "kernel_initializer": {"config": {"distribution": "uniform", "scale": 1.0, "mode": "fan_avg", "seed": null}, "class_name": "VarianceScaling"}, "dilation_rate": [1, 1], "strides": [1, 1]}, "inbound_nodes": [[["activation_56", 0, 0, {}]]], "name": "conv2d_57", "class_name": "Conv2D"}, {"config": {"center": true, "trainable": true, "moving_variance_initializer": {"config": {}, "class_name": "Ones"}, "name": "batch_normalization_52", "moving_mean_initializer": {"config": {}, "class_name": "Zeros"}, "epsilon": 0.001, "gamma_constraint": null, "beta_constraint": null, "axis": 3, "gamma_initializer": {"config": {}, "class_name": "Ones"}, "scale": false, "beta_initializer": {"config": {}, "class_name": "Zeros"}, "beta_regularizer": null, "momentum": 0.99, "gamma_regularizer": null}, "inbound_nodes": [[["conv2d_52", 0, 0, {}]]], "name": "batch_normalization_52", "class_name": "BatchNormalization"}, {"config": {"center": true, "trainable": true, "moving_variance_initializer": {"config": {}, "class_name": "Ones"}, "name": "batch_normalization_57", "moving_mean_initializer": {"config": {}, "class_name": "Zeros"}, "epsilon": 0.001, "gamma_constraint": null, "beta_constraint": null, "axis": 3, "gamma_initializer": {"config": {}, "class_name": "Ones"}, "scale": false, "beta_initializer": {"config": {}, "class_name": "Zeros"}, "beta_regularizer": null, "momentum": 0.99, "gamma_regularizer": null}, "inbound_nodes": [[["conv2d_57", 0, 0, {}]]], "name": "batch_normalization_57", "class_name": "BatchNormalization"}, {"config": {"activation": "relu", "trainable": true, "name": "activation_52"}, "inbound_nodes": [[["batch_normalization_52", 0, 0, {}]]], "name": "activation_52", "class_name": "Activation"}, {"config": {"activation": "relu", "trainable": true, "name": "activation_57"}, "inbound_nodes": [[["batch_normalization_57", 0, 0, {}]]], "name": "activation_57", "class_name": "Activation"}, {"config": {"kernel_regularizer": null, "trainable": true, "name": "conv2d_53", "filters": 160, "bias_initializer": {"config": {}, "class_name": "Zeros"}, "kernel_constraint": null, "activation": "linear", "bias_regularizer": null, "bias_constraint": null, "activity_regularizer": null, "kernel_size": [1, 7], "data_format": "channels_last", "use_bias": false, "padding": "same", "kernel_initializer": {"config": {"distribution": "uniform", "scale": 1.0, "mode": "fan_avg", "seed": null}, "class_name": "VarianceScaling"}, "dilation_rate": [1, 1], "strides": [1, 1]}, "inbound_nodes": [[["activation_52", 0, 0, {}]]], "name": "conv2d_53", "class_name": "Conv2D"}, {"config": {"kernel_regularizer": null, "trainable": true, "name": "conv2d_58", "filters": 160, "bias_initializer": {"config": {}, "class_name": "Zeros"}, "kernel_constraint": null, "activation": "linear", "bias_regularizer": null, "bias_constraint": null, "activity_regularizer": null, "kernel_size": [7, 1], "data_format": "channels_last", "use_bias": false, "padding": "same", "kernel_initializer": {"config": {"distribution": "uniform", "scale": 1.0, "mode": "fan_avg", "seed": null}, "class_name": "VarianceScaling"}, "dilation_rate": [1, 1], "strides": [1, 1]}, "inbound_nodes": [[["activation_57", 0, 0, {}]]], "name": "conv2d_58", "class_name": "Conv2D"}, {"config": {"center": true, "trainable": true, "moving_variance_initializer": {"config": {}, "class_name": "Ones"}, "name": "batch_normalization_53", "moving_mean_initializer": {"config": {}, "class_name": "Zeros"}, "epsilon": 0.001, "gamma_constraint": null, "beta_constraint": null, "axis": 3, "gamma_initializer": {"config": {}, "class_name": "Ones"}, "scale": false, "beta_initializer": {"config": {}, "class_name": "Zeros"}, "beta_regularizer": null, "momentum": 0.99, "gamma_regularizer": null}, "inbound_nodes": [[["conv2d_53", 0, 0, {}]]], "name": "batch_normalization_53", "class_name": "BatchNormalization"}, {"config": {"center": true, "trainable": true, "moving_variance_initializer": {"config": {}, "class_name": "Ones"}, "name": "batch_normalization_58", "moving_mean_initializer": {"config": {}, "class_name": "Zeros"}, "epsilon": 0.001, "gamma_constraint": null, "beta_constraint": null, "axis": 3, "gamma_initializer": {"config": {}, "class_name": "Ones"}, "scale": false, "beta_initializer": {"config": {}, "class_name": "Zeros"}, "beta_regularizer": null, "momentum": 0.99, "gamma_regularizer": null}, "inbound_nodes": [[["conv2d_58", 0, 0, {}]]], "name": "batch_normalization_58", "class_name": "BatchNormalization"}, {"config": {"activation": "relu", "trainable": true, "name": "activation_53"}, "inbound_nodes": [[["batch_normalization_53", 0, 0, {}]]], "name": "activation_53", "class_name": "Activation"}, {"config": {"activation": "relu", "trainable": true, "name": "activation_58"}, "inbound_nodes": [[["batch_normalization_58", 0, 0, {}]]], "name": "activation_58", "class_name": "Activation"}, {"config": {"pool_size": [3, 3], "trainable": true, "name": "average_pooling2d_6", "data_format": "channels_last", "padding": "same", "strides": [1, 1]}, "inbound_nodes": [[["mixed5", 0, 0, {}]]], "name": "average_pooling2d_6", "class_name": "AveragePooling2D"}, {"config": {"kernel_regularizer": null, "trainable": true, "name": "conv2d_51", "filters": 192, "bias_initializer": {"config": {}, "class_name": "Zeros"}, "kernel_constraint": null, "activation": "linear", "bias_regularizer": null, "bias_constraint": null, "activity_regularizer": null, "kernel_size": [1, 1], "data_format": "channels_last", "use_bias": false, "padding": "same", "kernel_initializer": {"config": {"distribution": "uniform", "scale": 1.0, "mode": "fan_avg", "seed": null}, "class_name": "VarianceScaling"}, "dilation_rate": [1, 1], "strides": [1, 1]}, "inbound_nodes": [[["mixed5", 0, 0, {}]]], "name": "conv2d_51", "class_name": "Conv2D"}, {"config": {"kernel_regularizer": null, "trainable": true, "name": "conv2d_54", "filters": 192, "bias_initializer": {"config": {}, "class_name": "Zeros"}, "kernel_constraint": null, "activation": "linear", "bias_regularizer": null, "bias_constraint": null, "activity_regularizer": null, "kernel_size": [7, 1], "data_format": "channels_last", "use_bias": false, "padding": "same", "kernel_initializer": {"config": {"distribution": "uniform", "scale": 1.0, "mode": "fan_avg", "seed": null}, "class_name": "VarianceScaling"}, "dilation_rate": [1, 1], "strides": [1, 1]}, "inbound_nodes": [[["activation_53", 0, 0, {}]]], "name": "conv2d_54", "class_name": "Conv2D"}, {"config": {"kernel_regularizer": null, "trainable": true, "name": "conv2d_59", "filters": 192, "bias_initializer": {"config": {}, "class_name": "Zeros"}, "kernel_constraint": null, "activation": "linear", "bias_regularizer": null, "bias_constraint": null, "activity_regularizer": null, "kernel_size": [1, 7], "data_format": "channels_last", "use_bias": false, "padding": "same", "kernel_initializer": {"config": {"distribution": "uniform", "scale": 1.0, "mode": "fan_avg", "seed": null}, "class_name": "VarianceScaling"}, "dilation_rate": [1, 1], "strides": [1, 1]}, "inbound_nodes": [[["activation_58", 0, 0, {}]]], "name": "conv2d_59", "class_name": "Conv2D"}, {"config": {"kernel_regularizer": null, "trainable": true, "name": "conv2d_60", "filters": 192, "bias_initializer": {"config": {}, "class_name": "Zeros"}, "kernel_constraint": null, "activation": "linear", "bias_regularizer": null, "bias_constraint": null, "activity_regularizer": null, "kernel_size": [1, 1], "data_format": "channels_last", "use_bias": false, "padding": "same", "kernel_initializer": {"config": {"distribution": "uniform", "scale": 1.0, "mode": "fan_avg", "seed": null}, "class_name": "VarianceScaling"}, "dilation_rate": [1, 1], "strides": [1, 1]}, "inbound_nodes": [[["average_pooling2d_6", 0, 0, {}]]], "name": "conv2d_60", "class_name": "Conv2D"}, {"config": {"center": true, "trainable": true, "moving_variance_initializer": {"config": {}, "class_name": "Ones"}, "name": "batch_normalization_51", "moving_mean_initializer": {"config": {}, "class_name": "Zeros"}, "epsilon": 0.001, "gamma_constraint": null, "beta_constraint": null, "axis": 3, "gamma_initializer": {"config": {}, "class_name": "Ones"}, "scale": false, "beta_initializer": {"config": {}, "class_name": "Zeros"}, "beta_regularizer": null, "momentum": 0.99, "gamma_regularizer": null}, "inbound_nodes": [[["conv2d_51", 0, 0, {}]]], "name": "batch_normalization_51", "class_name": "BatchNormalization"}, {"config": {"center": true, "trainable": true, "moving_variance_initializer": {"config": {}, "class_name": "Ones"}, "name": "batch_normalization_54", "moving_mean_initializer": {"config": {}, "class_name": "Zeros"}, "epsilon": 0.001, "gamma_constraint": null, "beta_constraint": null, "axis": 3, "gamma_initializer": {"config": {}, "class_name": "Ones"}, "scale": false, "beta_initializer": {"config": {}, "class_name": "Zeros"}, "beta_regularizer": null, "momentum": 0.99, "gamma_regularizer": null}, "inbound_nodes": [[["conv2d_54", 0, 0, {}]]], "name": "batch_normalization_54", "class_name": "BatchNormalization"}, {"config": {"center": true, "trainable": true, "moving_variance_initializer": {"config": {}, "class_name": "Ones"}, "name": "batch_normalization_59", "moving_mean_initializer": {"config": {}, "class_name": "Zeros"}, "epsilon": 0.001, "gamma_constraint": null, "beta_constraint": null, "axis": 3, "gamma_initializer": {"config": {}, "class_name": "Ones"}, "scale": false, "beta_initializer": {"config": {}, "class_name": "Zeros"}, "beta_regularizer": null, "momentum": 0.99, "gamma_regularizer": null}, "inbound_nodes": [[["conv2d_59", 0, 0, {}]]], "name": "batch_normalization_59", "class_name": "BatchNormalization"}, {"config": {"center": true, "trainable": true, "moving_variance_initializer": {"config": {}, "class_name": "Ones"}, "name": "batch_normalization_60", "moving_mean_initializer": {"config": {}, "class_name": "Zeros"}, "epsilon": 0.001, "gamma_constraint": null, "beta_constraint": null, "axis": 3, "gamma_initializer": {"config": {}, "class_name": "Ones"}, "scale": false, "beta_initializer": {"config": {}, "class_name": "Zeros"}, "beta_regularizer": null, "momentum": 0.99, "gamma_regularizer": null}, "inbound_nodes": [[["conv2d_60", 0, 0, {}]]], "name": "batch_normalization_60", "class_name": "BatchNormalization"}, {"config": {"activation": "relu", "trainable": true, "name": "activation_51"}, "inbound_nodes": [[["batch_normalization_51", 0, 0, {}]]], "name": "activation_51", "class_name": "Activation"}, {"config": {"activation": "relu", "trainable": true, "name": "activation_54"}, "inbound_nodes": [[["batch_normalization_54", 0, 0, {}]]], "name": "activation_54", "class_name": "Activation"}, {"config": {"activation": "relu", "trainable": true, "name": "activation_59"}, "inbound_nodes": [[["batch_normalization_59", 0, 0, {}]]], "name": "activation_59", "class_name": "Activation"}, {"config": {"activation": "relu", "trainable": true, "name": "activation_60"}, "inbound_nodes": [[["batch_normalization_60", 0, 0, {}]]], "name": "activation_60", "class_name": "Activation"}, {"config": {"trainable": true, "name": "mixed6", "axis": 3}, "inbound_nodes": [[["activation_51", 0, 0, {}], ["activation_54", 0, 0, {}], ["activation_59", 0, 0, {}], ["activation_60", 0, 0, {}]]], "name": "mixed6", "class_name": "Concatenate"}, {"config": {"kernel_regularizer": null, "trainable": true, "name": "conv2d_65", "filters": 192, "bias_initializer": {"config": {}, "class_name": "Zeros"}, "kernel_constraint": null, "activation": "linear", "bias_regularizer": null, "bias_constraint": null, "activity_regularizer": null, "kernel_size": [1, 1], "data_format": "channels_last", "use_bias": false, "padding": "same", "kernel_initializer": {"config": {"distribution": "uniform", "scale": 1.0, "mode": "fan_avg", "seed": null}, "class_name": "VarianceScaling"}, "dilation_rate": [1, 1], "strides": [1, 1]}, "inbound_nodes": [[["mixed6", 0, 0, {}]]], "name": "conv2d_65", "class_name": "Conv2D"}, {"config": {"center": true, "trainable": true, "moving_variance_initializer": {"config": {}, "class_name": "Ones"}, "name": "batch_normalization_65", "moving_mean_initializer": {"config": {}, "class_name": "Zeros"}, "epsilon": 0.001, "gamma_constraint": null, "beta_constraint": null, "axis": 3, "gamma_initializer": {"config": {}, "class_name": "Ones"}, "scale": false, "beta_initializer": {"config": {}, "class_name": "Zeros"}, "beta_regularizer": null, "momentum": 0.99, "gamma_regularizer": null}, "inbound_nodes": [[["conv2d_65", 0, 0, {}]]], "name": "batch_normalization_65", "class_name": "BatchNormalization"}, {"config": {"activation": "relu", "trainable": true, "name": "activation_65"}, "inbound_nodes": [[["batch_normalization_65", 0, 0, {}]]], "name": "activation_65", "class_name": "Activation"}, {"config": {"kernel_regularizer": null, "trainable": true, "name": "conv2d_66", "filters": 192, "bias_initializer": {"config": {}, "class_name": "Zeros"}, "kernel_constraint": null, "activation": "linear", "bias_regularizer": null, "bias_constraint": null, "activity_regularizer": null, "kernel_size": [7, 1], "data_format": "channels_last", "use_bias": false, "padding": "same", "kernel_initializer": {"config": {"distribution": "uniform", "scale": 1.0, "mode": "fan_avg", "seed": null}, "class_name": "VarianceScaling"}, "dilation_rate": [1, 1], "strides": [1, 1]}, "inbound_nodes": [[["activation_65", 0, 0, {}]]], "name": "conv2d_66", "class_name": "Conv2D"}, {"config": {"center": true, "trainable": true, "moving_variance_initializer": {"config": {}, "class_name": "Ones"}, "name": "batch_normalization_66", "moving_mean_initializer": {"config": {}, "class_name": "Zeros"}, "epsilon": 0.001, "gamma_constraint": null, "beta_constraint": null, "axis": 3, "gamma_initializer": {"config": {}, "class_name": "Ones"}, "scale": false, "beta_initializer": {"config": {}, "class_name": "Zeros"}, "beta_regularizer": null, "momentum": 0.99, "gamma_regularizer": null}, "inbound_nodes": [[["conv2d_66", 0, 0, {}]]], "name": "batch_normalization_66", "class_name": "BatchNormalization"}, {"config": {"activation": "relu", "trainable": true, "name": "activation_66"}, "inbound_nodes": [[["batch_normalization_66", 0, 0, {}]]], "name": "activation_66", "class_name": "Activation"}, {"config": {"kernel_regularizer": null, "trainable": true, "name": "conv2d_62", "filters": 192, "bias_initializer": {"config": {}, "class_name": "Zeros"}, "kernel_constraint": null, "activation": "linear", "bias_regularizer": null, "bias_constraint": null, "activity_regularizer": null, "kernel_size": [1, 1], "data_format": "channels_last", "use_bias": false, "padding": "same", "kernel_initializer": {"config": {"distribution": "uniform", "scale": 1.0, "mode": "fan_avg", "seed": null}, "class_name": "VarianceScaling"}, "dilation_rate": [1, 1], "strides": [1, 1]}, "inbound_nodes": [[["mixed6", 0, 0, {}]]], "name": "conv2d_62", "class_name": "Conv2D"}, {"config": {"kernel_regularizer": null, "trainable": true, "name": "conv2d_67", "filters": 192, "bias_initializer": {"config": {}, "class_name": "Zeros"}, "kernel_constraint": null, "activation": "linear", "bias_regularizer": null, "bias_constraint": null, "activity_regularizer": null, "kernel_size": [1, 7], "data_format": "channels_last", "use_bias": false, "padding": "same", "kernel_initializer": {"config": {"distribution": "uniform", "scale": 1.0, "mode": "fan_avg", "seed": null}, "class_name": "VarianceScaling"}, "dilation_rate": [1, 1], "strides": [1, 1]}, "inbound_nodes": [[["activation_66", 0, 0, {}]]], "name": "conv2d_67", "class_name": "Conv2D"}, {"config": {"center": true, "trainable": true, "moving_variance_initializer": {"config": {}, "class_name": "Ones"}, "name": "batch_normalization_62", "moving_mean_initializer": {"config": {}, "class_name": "Zeros"}, "epsilon": 0.001, "gamma_constraint": null, "beta_constraint": null, "axis": 3, "gamma_initializer": {"config": {}, "class_name": "Ones"}, "scale": false, "beta_initializer": {"config": {}, "class_name": "Zeros"}, "beta_regularizer": null, "momentum": 0.99, "gamma_regularizer": null}, "inbound_nodes": [[["conv2d_62", 0, 0, {}]]], "name": "batch_normalization_62", "class_name": "BatchNormalization"}, {"config": {"center": true, "trainable": true, "moving_variance_initializer": {"config": {}, "class_name": "Ones"}, "name": "batch_normalization_67", "moving_mean_initializer": {"config": {}, "class_name": "Zeros"}, "epsilon": 0.001, "gamma_constraint": null, "beta_constraint": null, "axis": 3, "gamma_initializer": {"config": {}, "class_name": "Ones"}, "scale": false, "beta_initializer": {"config": {}, "class_name": "Zeros"}, "beta_regularizer": null, "momentum": 0.99, "gamma_regularizer": null}, "inbound_nodes": [[["conv2d_67", 0, 0, {}]]], "name": "batch_normalization_67", "class_name": "BatchNormalization"}, {"config": {"activation": "relu", "trainable": true, "name": "activation_62"}, "inbound_nodes": [[["batch_normalization_62", 0, 0, {}]]], "name": "activation_62", "class_name": "Activation"}, {"config": {"activation": "relu", "trainable": true, "name": "activation_67"}, "inbound_nodes": [[["batch_normalization_67", 0, 0, {}]]], "name": "activation_67", "class_name": "Activation"}, {"config": {"kernel_regularizer": null, "trainable": true, "name": "conv2d_63", "filters": 192, "bias_initializer": {"config": {}, "class_name": "Zeros"}, "kernel_constraint": null, "activation": "linear", "bias_regularizer": null, "bias_constraint": null, "activity_regularizer": null, "kernel_size": [1, 7], "data_format": "channels_last", "use_bias": false, "padding": "same", "kernel_initializer": {"config": {"distribution": "uniform", "scale": 1.0, "mode": "fan_avg", "seed": null}, "class_name": "VarianceScaling"}, "dilation_rate": [1, 1], "strides": [1, 1]}, "inbound_nodes": [[["activation_62", 0, 0, {}]]], "name": "conv2d_63", "class_name": "Conv2D"}, {"config": {"kernel_regularizer": null, "trainable": true, "name": "conv2d_68", "filters": 192, "bias_initializer": {"config": {}, "class_name": "Zeros"}, "kernel_constraint": null, "activation": "linear", "bias_regularizer": null, "bias_constraint": null, "activity_regularizer": null, "kernel_size": [7, 1], "data_format": "channels_last", "use_bias": false, "padding": "same", "kernel_initializer": {"config": {"distribution": "uniform", "scale": 1.0, "mode": "fan_avg", "seed": null}, "class_name": "VarianceScaling"}, "dilation_rate": [1, 1], "strides": [1, 1]}, "inbound_nodes": [[["activation_67", 0, 0, {}]]], "name": "conv2d_68", "class_name": "Conv2D"}, {"config": {"center": true, "trainable": true, "moving_variance_initializer": {"config": {}, "class_name": "Ones"}, "name": "batch_normalization_63", "moving_mean_initializer": {"config": {}, "class_name": "Zeros"}, "epsilon": 0.001, "gamma_constraint": null, "beta_constraint": null, "axis": 3, "gamma_initializer": {"config": {}, "class_name": "Ones"}, "scale": false, "beta_initializer": {"config": {}, "class_name": "Zeros"}, "beta_regularizer": null, "momentum": 0.99, "gamma_regularizer": null}, "inbound_nodes": [[["conv2d_63", 0, 0, {}]]], "name": "batch_normalization_63", "class_name": "BatchNormalization"}, {"config": {"center": true, "trainable": true, "moving_variance_initializer": {"config": {}, "class_name": "Ones"}, "name": "batch_normalization_68", "moving_mean_initializer": {"config": {}, "class_name": "Zeros"}, "epsilon": 0.001, "gamma_constraint": null, "beta_constraint": null, "axis": 3, "gamma_initializer": {"config": {}, "class_name": "Ones"}, "scale": false, "beta_initializer": {"config": {}, "class_name": "Zeros"}, "beta_regularizer": null, "momentum": 0.99, "gamma_regularizer": null}, "inbound_nodes": [[["conv2d_68", 0, 0, {}]]], "name": "batch_normalization_68", "class_name": "BatchNormalization"}, {"config": {"activation": "relu", "trainable": true, "name": "activation_63"}, "inbound_nodes": [[["batch_normalization_63", 0, 0, {}]]], "name": "activation_63", "class_name": "Activation"}, {"config": {"activation": "relu", "trainable": true, "name": "activation_68"}, "inbound_nodes": [[["batch_normalization_68", 0, 0, {}]]], "name": "activation_68", "class_name": "Activation"}, {"config": {"pool_size": [3, 3], "trainable": true, "name": "average_pooling2d_7", "data_format": "channels_last", "padding": "same", "strides": [1, 1]}, "inbound_nodes": [[["mixed6", 0, 0, {}]]], "name": "average_pooling2d_7", "class_name": "AveragePooling2D"}, {"config": {"kernel_regularizer": null, "trainable": true, "name": "conv2d_61", "filters": 192, "bias_initializer": {"config": {}, "class_name": "Zeros"}, "kernel_constraint": null, "activation": "linear", "bias_regularizer": null, "bias_constraint": null, "activity_regularizer": null, "kernel_size": [1, 1], "data_format": "channels_last", "use_bias": false, "padding": "same", "kernel_initializer": {"config": {"distribution": "uniform", "scale": 1.0, "mode": "fan_avg", "seed": null}, "class_name": "VarianceScaling"}, "dilation_rate": [1, 1], "strides": [1, 1]}, "inbound_nodes": [[["mixed6", 0, 0, {}]]], "name": "conv2d_61", "class_name": "Conv2D"}, {"config": {"kernel_regularizer": null, "trainable": true, "name": "conv2d_64", "filters": 192, "bias_initializer": {"config": {}, "class_name": "Zeros"}, "kernel_constraint": null, "activation": "linear", "bias_regularizer": null, "bias_constraint": null, "activity_regularizer": null, "kernel_size": [7, 1], "data_format": "channels_last", "use_bias": false, "padding": "same", "kernel_initializer": {"config": {"distribution": "uniform", "scale": 1.0, "mode": "fan_avg", "seed": null}, "class_name": "VarianceScaling"}, "dilation_rate": [1, 1], "strides": [1, 1]}, "inbound_nodes": [[["activation_63", 0, 0, {}]]], "name": "conv2d_64", "class_name": "Conv2D"}, {"config": {"kernel_regularizer": null, "trainable": true, "name": "conv2d_69", "filters": 192, "bias_initializer": {"config": {}, "class_name": "Zeros"}, "kernel_constraint": null, "activation": "linear", "bias_regularizer": null, "bias_constraint": null, "activity_regularizer": null, "kernel_size": [1, 7], "data_format": "channels_last", "use_bias": false, "padding": "same", "kernel_initializer": {"config": {"distribution": "uniform", "scale": 1.0, "mode": "fan_avg", "seed": null}, "class_name": "VarianceScaling"}, "dilation_rate": [1, 1], "strides": [1, 1]}, "inbound_nodes": [[["activation_68", 0, 0, {}]]], "name": "conv2d_69", "class_name": "Conv2D"}, {"config": {"kernel_regularizer": null, "trainable": true, "name": "conv2d_70", "filters": 192, "bias_initializer": {"config": {}, "class_name": "Zeros"}, "kernel_constraint": null, "activation": "linear", "bias_regularizer": null, "bias_constraint": null, "activity_regularizer": null, "kernel_size": [1, 1], "data_format": "channels_last", "use_bias": false, "padding": "same", "kernel_initializer": {"config": {"distribution": "uniform", "scale": 1.0, "mode": "fan_avg", "seed": null}, "class_name": "VarianceScaling"}, "dilation_rate": [1, 1], "strides": [1, 1]}, "inbound_nodes": [[["average_pooling2d_7", 0, 0, {}]]], "name": "conv2d_70", "class_name": "Conv2D"}, {"config": {"center": true, "trainable": true, "moving_variance_initializer": {"config": {}, "class_name": "Ones"}, "name": "batch_normalization_61", "moving_mean_initializer": {"config": {}, "class_name": "Zeros"}, "epsilon": 0.001, "gamma_constraint": null, "beta_constraint": null, "axis": 3, "gamma_initializer": {"config": {}, "class_name": "Ones"}, "scale": false, "beta_initializer": {"config": {}, "class_name": "Zeros"}, "beta_regularizer": null, "momentum": 0.99, "gamma_regularizer": null}, "inbound_nodes": [[["conv2d_61", 0, 0, {}]]], "name": "batch_normalization_61", "class_name": "BatchNormalization"}, {"config": {"center": true, "trainable": true, "moving_variance_initializer": {"config": {}, "class_name": "Ones"}, "name": "batch_normalization_64", "moving_mean_initializer": {"config": {}, "class_name": "Zeros"}, "epsilon": 0.001, "gamma_constraint": null, "beta_constraint": null, "axis": 3, "gamma_initializer": {"config": {}, "class_name": "Ones"}, "scale": false, "beta_initializer": {"config": {}, "class_name": "Zeros"}, "beta_regularizer": null, "momentum": 0.99, "gamma_regularizer": null}, "inbound_nodes": [[["conv2d_64", 0, 0, {}]]], "name": "batch_normalization_64", "class_name": "BatchNormalization"}, {"config": {"center": true, "trainable": true, "moving_variance_initializer": {"config": {}, "class_name": "Ones"}, "name": "batch_normalization_69", "moving_mean_initializer": {"config": {}, "class_name": "Zeros"}, "epsilon": 0.001, "gamma_constraint": null, "beta_constraint": null, "axis": 3, "gamma_initializer": {"config": {}, "class_name": "Ones"}, "scale": false, "beta_initializer": {"config": {}, "class_name": "Zeros"}, "beta_regularizer": null, "momentum": 0.99, "gamma_regularizer": null}, "inbound_nodes": [[["conv2d_69", 0, 0, {}]]], "name": "batch_normalization_69", "class_name": "BatchNormalization"}, {"config": {"center": true, "trainable": true, "moving_variance_initializer": {"config": {}, "class_name": "Ones"}, "name": "batch_normalization_70", "moving_mean_initializer": {"config": {}, "class_name": "Zeros"}, "epsilon": 0.001, "gamma_constraint": null, "beta_constraint": null, "axis": 3, "gamma_initializer": {"config": {}, "class_name": "Ones"}, "scale": false, "beta_initializer": {"config": {}, "class_name": "Zeros"}, "beta_regularizer": null, "momentum": 0.99, "gamma_regularizer": null}, "inbound_nodes": [[["conv2d_70", 0, 0, {}]]], "name": "batch_normalization_70", "class_name": "BatchNormalization"}, {"config": {"activation": "relu", "trainable": true, "name": "activation_61"}, "inbound_nodes": [[["batch_normalization_61", 0, 0, {}]]], "name": "activation_61", "class_name": "Activation"}, {"config": {"activation": "relu", "trainable": true, "name": "activation_64"}, "inbound_nodes": [[["batch_normalization_64", 0, 0, {}]]], "name": "activation_64", "class_name": "Activation"}, {"config": {"activation": "relu", "trainable": true, "name": "activation_69"}, "inbound_nodes": [[["batch_normalization_69", 0, 0, {}]]], "name": "activation_69", "class_name": "Activation"}, {"config": {"activation": "relu", "trainable": true, "name": "activation_70"}, "inbound_nodes": [[["batch_normalization_70", 0, 0, {}]]], "name": "activation_70", "class_name": "Activation"}, {"config": {"trainable": true, "name": "mixed7", "axis": 3}, "inbound_nodes": [[["activation_61", 0, 0, {}], ["activation_64", 0, 0, {}], ["activation_69", 0, 0, {}], ["activation_70", 0, 0, {}]]], "name": "mixed7", "class_name": "Concatenate"}, {"config": {"kernel_regularizer": null, "trainable": true, "name": "conv2d_73", "filters": 192, "bias_initializer": {"config": {}, "class_name": "Zeros"}, "kernel_constraint": null, "activation": "linear", "bias_regularizer": null, "bias_constraint": null, "activity_regularizer": null, "kernel_size": [1, 1], "data_format": "channels_last", "use_bias": false, "padding": "same", "kernel_initializer": {"config": {"distribution": "uniform", "scale": 1.0, "mode": "fan_avg", "seed": null}, "class_name": "VarianceScaling"}, "dilation_rate": [1, 1], "strides": [1, 1]}, "inbound_nodes": [[["mixed7", 0, 0, {}]]], "name": "conv2d_73", "class_name": "Conv2D"}, {"config": {"center": true, "trainable": true, "moving_variance_initializer": {"config": {}, "class_name": "Ones"}, "name": "batch_normalization_73", "moving_mean_initializer": {"config": {}, "class_name": "Zeros"}, "epsilon": 0.001, "gamma_constraint": null, "beta_constraint": null, "axis": 3, "gamma_initializer": {"config": {}, "class_name": "Ones"}, "scale": false, "beta_initializer": {"config": {}, "class_name": "Zeros"}, "beta_regularizer": null, "momentum": 0.99, "gamma_regularizer": null}, "inbound_nodes": [[["conv2d_73", 0, 0, {}]]], "name": "batch_normalization_73", "class_name": "BatchNormalization"}, {"config": {"activation": "relu", "trainable": true, "name": "activation_73"}, "inbound_nodes": [[["batch_normalization_73", 0, 0, {}]]], "name": "activation_73", "class_name": "Activation"}, {"config": {"kernel_regularizer": null, "trainable": true, "name": "conv2d_74", "filters": 192, "bias_initializer": {"config": {}, "class_name": "Zeros"}, "kernel_constraint": null, "activation": "linear", "bias_regularizer": null, "bias_constraint": null, "activity_regularizer": null, "kernel_size": [1, 7], "data_format": "channels_last", "use_bias": false, "padding": "same", "kernel_initializer": {"config": {"distribution": "uniform", "scale": 1.0, "mode": "fan_avg", "seed": null}, "class_name": "VarianceScaling"}, "dilation_rate": [1, 1], "strides": [1, 1]}, "inbound_nodes": [[["activation_73", 0, 0, {}]]], "name": "conv2d_74", "class_name": "Conv2D"}, {"config": {"center": true, "trainable": true, "moving_variance_initializer": {"config": {}, "class_name": "Ones"}, "name": "batch_normalization_74", "moving_mean_initializer": {"config": {}, "class_name": "Zeros"}, "epsilon": 0.001, "gamma_constraint": null, "beta_constraint": null, "axis": 3, "gamma_initializer": {"config": {}, "class_name": "Ones"}, "scale": false, "beta_initializer": {"config": {}, "class_name": "Zeros"}, "beta_regularizer": null, "momentum": 0.99, "gamma_regularizer": null}, "inbound_nodes": [[["conv2d_74", 0, 0, {}]]], "name": "batch_normalization_74", "class_name": "BatchNormalization"}, {"config": {"activation": "relu", "trainable": true, "name": "activation_74"}, "inbound_nodes": [[["batch_normalization_74", 0, 0, {}]]], "name": "activation_74", "class_name": "Activation"}, {"config": {"kernel_regularizer": null, "trainable": true, "name": "conv2d_71", "filters": 192, "bias_initializer": {"config": {}, "class_name": "Zeros"}, "kernel_constraint": null, "activation": "linear", "bias_regularizer": null, "bias_constraint": null, "activity_regularizer": null, "kernel_size": [1, 1], "data_format": "channels_last", "use_bias": false, "padding": "same", "kernel_initializer": {"config": {"distribution": "uniform", "scale": 1.0, "mode": "fan_avg", "seed": null}, "class_name": "VarianceScaling"}, "dilation_rate": [1, 1], "strides": [1, 1]}, "inbound_nodes": [[["mixed7", 0, 0, {}]]], "name": "conv2d_71", "class_name": "Conv2D"}, {"config": {"kernel_regularizer": null, "trainable": true, "name": "conv2d_75", "filters": 192, "bias_initializer": {"config": {}, "class_name": "Zeros"}, "kernel_constraint": null, "activation": "linear", "bias_regularizer": null, "bias_constraint": null, "activity_regularizer": null, "kernel_size": [7, 1], "data_format": "channels_last", "use_bias": false, "padding": "same", "kernel_initializer": {"config": {"distribution": "uniform", "scale": 1.0, "mode": "fan_avg", "seed": null}, "class_name": "VarianceScaling"}, "dilation_rate": [1, 1], "strides": [1, 1]}, "inbound_nodes": [[["activation_74", 0, 0, {}]]], "name": "conv2d_75", "class_name": "Conv2D"}, {"config": {"center": true, "trainable": true, "moving_variance_initializer": {"config": {}, "class_name": "Ones"}, "name": "batch_normalization_71", "moving_mean_initializer": {"config": {}, "class_name": "Zeros"}, "epsilon": 0.001, "gamma_constraint": null, "beta_constraint": null, "axis": 3, "gamma_initializer": {"config": {}, "class_name": "Ones"}, "scale": false, "beta_initializer": {"config": {}, "class_name": "Zeros"}, "beta_regularizer": null, "momentum": 0.99, "gamma_regularizer": null}, "inbound_nodes": [[["conv2d_71", 0, 0, {}]]], "name": "batch_normalization_71", "class_name": "BatchNormalization"}, {"config": {"center": true, "trainable": true, "moving_variance_initializer": {"config": {}, "class_name": "Ones"}, "name": "batch_normalization_75", "moving_mean_initializer": {"config": {}, "class_name": "Zeros"}, "epsilon": 0.001, "gamma_constraint": null, "beta_constraint": null, "axis": 3, "gamma_initializer": {"config": {}, "class_name": "Ones"}, "scale": false, "beta_initializer": {"config": {}, "class_name": "Zeros"}, "beta_regularizer": null, "momentum": 0.99, "gamma_regularizer": null}, "inbound_nodes": [[["conv2d_75", 0, 0, {}]]], "name": "batch_normalization_75", "class_name": "BatchNormalization"}, {"config": {"activation": "relu", "trainable": true, "name": "activation_71"}, "inbound_nodes": [[["batch_normalization_71", 0, 0, {}]]], "name": "activation_71", "class_name": "Activation"}, {"config": {"activation": "relu", "trainable": true, "name": "activation_75"}, "inbound_nodes": [[["batch_normalization_75", 0, 0, {}]]], "name": "activation_75", "class_name": "Activation"}, {"config": {"kernel_regularizer": null, "trainable": true, "name": "conv2d_72", "filters": 320, "bias_initializer": {"config": {}, "class_name": "Zeros"}, "kernel_constraint": null, "activation": "linear", "bias_regularizer": null, "bias_constraint": null, "activity_regularizer": null, "kernel_size": [3, 3], "data_format": "channels_last", "use_bias": false, "padding": "valid", "kernel_initializer": {"config": {"distribution": "uniform", "scale": 1.0, "mode": "fan_avg", "seed": null}, "class_name": "VarianceScaling"}, "dilation_rate": [1, 1], "strides": [2, 2]}, "inbound_nodes": [[["activation_71", 0, 0, {}]]], "name": "conv2d_72", "class_name": "Conv2D"}, {"config": {"kernel_regularizer": null, "trainable": true, "name": "conv2d_76", "filters": 192, "bias_initializer": {"config": {}, "class_name": "Zeros"}, "kernel_constraint": null, "activation": "linear", "bias_regularizer": null, "bias_constraint": null, "activity_regularizer": null, "kernel_size": [3, 3], "data_format": "channels_last", "use_bias": false, "padding": "valid", "kernel_initializer": {"config": {"distribution": "uniform", "scale": 1.0, "mode": "fan_avg", "seed": null}, "class_name": "VarianceScaling"}, "dilation_rate": [1, 1], "strides": [2, 2]}, "inbound_nodes": [[["activation_75", 0, 0, {}]]], "name": "conv2d_76", "class_name": "Conv2D"}, {"config": {"center": true, "trainable": true, "moving_variance_initializer": {"config": {}, "class_name": "Ones"}, "name": "batch_normalization_72", "moving_mean_initializer": {"config": {}, "class_name": "Zeros"}, "epsilon": 0.001, "gamma_constraint": null, "beta_constraint": null, "axis": 3, "gamma_initializer": {"config": {}, "class_name": "Ones"}, "scale": false, "beta_initializer": {"config": {}, "class_name": "Zeros"}, "beta_regularizer": null, "momentum": 0.99, "gamma_regularizer": null}, "inbound_nodes": [[["conv2d_72", 0, 0, {}]]], "name": "batch_normalization_72", "class_name": "BatchNormalization"}, {"config": {"center": true, "trainable": true, "moving_variance_initializer": {"config": {}, "class_name": "Ones"}, "name": "batch_normalization_76", "moving_mean_initializer": {"config": {}, "class_name": "Zeros"}, "epsilon": 0.001, "gamma_constraint": null, "beta_constraint": null, "axis": 3, "gamma_initializer": {"config": {}, "class_name": "Ones"}, "scale": false, "beta_initializer": {"config": {}, "class_name": "Zeros"}, "beta_regularizer": null, "momentum": 0.99, "gamma_regularizer": null}, "inbound_nodes": [[["conv2d_76", 0, 0, {}]]], "name": "batch_normalization_76", "class_name": "BatchNormalization"}, {"config": {"activation": "relu", "trainable": true, "name": "activation_72"}, "inbound_nodes": [[["batch_normalization_72", 0, 0, {}]]], "name": "activation_72", "class_name": "Activation"}, {"config": {"activation": "relu", "trainable": true, "name": "activation_76"}, "inbound_nodes": [[["batch_normalization_76", 0, 0, {}]]], "name": "activation_76", "class_name": "Activation"}, {"config": {"pool_size": [3, 3], "trainable": true, "name": "max_pooling2d_4", "data_format": "channels_last", "padding": "valid", "strides": [2, 2]}, "inbound_nodes": [[["mixed7", 0, 0, {}]]], "name": "max_pooling2d_4", "class_name": "MaxPooling2D"}, {"config": {"trainable": true, "name": "mixed8", "axis": 3}, "inbound_nodes": [[["activation_72", 0, 0, {}], ["activation_76", 0, 0, {}], ["max_pooling2d_4", 0, 0, {}]]], "name": "mixed8", "class_name": "Concatenate"}, {"config": {"kernel_regularizer": null, "trainable": true, "name": "conv2d_81", "filters": 448, "bias_initializer": {"config": {}, "class_name": "Zeros"}, "kernel_constraint": null, "activation": "linear", "bias_regularizer": null, "bias_constraint": null, "activity_regularizer": null, "kernel_size": [1, 1], "data_format": "channels_last", "use_bias": false, "padding": "same", "kernel_initializer": {"config": {"distribution": "uniform", "scale": 1.0, "mode": "fan_avg", "seed": null}, "class_name": "VarianceScaling"}, "dilation_rate": [1, 1], "strides": [1, 1]}, "inbound_nodes": [[["mixed8", 0, 0, {}]]], "name": "conv2d_81", "class_name": "Conv2D"}, {"config": {"center": true, "trainable": true, "moving_variance_initializer": {"config": {}, "class_name": "Ones"}, "name": "batch_normalization_81", "moving_mean_initializer": {"config": {}, "class_name": "Zeros"}, "epsilon": 0.001, "gamma_constraint": null, "beta_constraint": null, "axis": 3, "gamma_initializer": {"config": {}, "class_name": "Ones"}, "scale": false, "beta_initializer": {"config": {}, "class_name": "Zeros"}, "beta_regularizer": null, "momentum": 0.99, "gamma_regularizer": null}, "inbound_nodes": [[["conv2d_81", 0, 0, {}]]], "name": "batch_normalization_81", "class_name": "BatchNormalization"}, {"config": {"activation": "relu", "trainable": true, "name": "activation_81"}, "inbound_nodes": [[["batch_normalization_81", 0, 0, {}]]], "name": "activation_81", "class_name": "Activation"}, {"config": {"kernel_regularizer": null, "trainable": true, "name": "conv2d_78", "filters": 384, "bias_initializer": {"config": {}, "class_name": "Zeros"}, "kernel_constraint": null, "activation": "linear", "bias_regularizer": null, "bias_constraint": null, "activity_regularizer": null, "kernel_size": [1, 1], "data_format": "channels_last", "use_bias": false, "padding": "same", "kernel_initializer": {"config": {"distribution": "uniform", "scale": 1.0, "mode": "fan_avg", "seed": null}, "class_name": "VarianceScaling"}, "dilation_rate": [1, 1], "strides": [1, 1]}, "inbound_nodes": [[["mixed8", 0, 0, {}]]], "name": "conv2d_78", "class_name": "Conv2D"}, {"config": {"kernel_regularizer": null, "trainable": true, "name": "conv2d_82", "filters": 384, "bias_initializer": {"config": {}, "class_name": "Zeros"}, "kernel_constraint": null, "activation": "linear", "bias_regularizer": null, "bias_constraint": null, "activity_regularizer": null, "kernel_size": [3, 3], "data_format": "channels_last", "use_bias": false, "padding": "same", "kernel_initializer": {"config": {"distribution": "uniform", "scale": 1.0, "mode": "fan_avg", "seed": null}, "class_name": "VarianceScaling"}, "dilation_rate": [1, 1], "strides": [1, 1]}, "inbound_nodes": [[["activation_81", 0, 0, {}]]], "name": "conv2d_82", "class_name": "Conv2D"}, {"config": {"center": true, "trainable": true, "moving_variance_initializer": {"config": {}, "class_name": "Ones"}, "name": "batch_normalization_78", "moving_mean_initializer": {"config": {}, "class_name": "Zeros"}, "epsilon": 0.001, "gamma_constraint": null, "beta_constraint": null, "axis": 3, "gamma_initializer": {"config": {}, "class_name": "Ones"}, "scale": false, "beta_initializer": {"config": {}, "class_name": "Zeros"}, "beta_regularizer": null, "momentum": 0.99, "gamma_regularizer": null}, "inbound_nodes": [[["conv2d_78", 0, 0, {}]]], "name": "batch_normalization_78", "class_name": "BatchNormalization"}, {"config": {"center": true, "trainable": true, "moving_variance_initializer": {"config": {}, "class_name": "Ones"}, "name": "batch_normalization_82", "moving_mean_initializer": {"config": {}, "class_name": "Zeros"}, "epsilon": 0.001, "gamma_constraint": null, "beta_constraint": null, "axis": 3, "gamma_initializer": {"config": {}, "class_name": "Ones"}, "scale": false, "beta_initializer": {"config": {}, "class_name": "Zeros"}, "beta_regularizer": null, "momentum": 0.99, "gamma_regularizer": null}, "inbound_nodes": [[["conv2d_82", 0, 0, {}]]], "name": "batch_normalization_82", "class_name": "BatchNormalization"}, {"config": {"activation": "relu", "trainable": true, "name": "activation_78"}, "inbound_nodes": [[["batch_normalization_78", 0, 0, {}]]], "name": "activation_78", "class_name": "Activation"}, {"config": {"activation": "relu", "trainable": true, "name": "activation_82"}, "inbound_nodes": [[["batch_normalization_82", 0, 0, {}]]], "name": "activation_82", "class_name": "Activation"}, {"config": {"kernel_regularizer": null, "trainable": true, "name": "conv2d_79", "filters": 384, "bias_initializer": {"config": {}, "class_name": "Zeros"}, "kernel_constraint": null, "activation": "linear", "bias_regularizer": null, "bias_constraint": null, "activity_regularizer": null, "kernel_size": [1, 3], "data_format": "channels_last", "use_bias": false, "padding": "same", "kernel_initializer": {"config": {"distribution": "uniform", "scale": 1.0, "mode": "fan_avg", "seed": null}, "class_name": "VarianceScaling"}, "dilation_rate": [1, 1], "strides": [1, 1]}, "inbound_nodes": [[["activation_78", 0, 0, {}]]], "name": "conv2d_79", "class_name": "Conv2D"}, {"config": {"kernel_regularizer": null, "trainable": true, "name": "conv2d_80", "filters": 384, "bias_initializer": {"config": {}, "class_name": "Zeros"}, "kernel_constraint": null, "activation": "linear", "bias_regularizer": null, "bias_constraint": null, "activity_regularizer": null, "kernel_size": [3, 1], "data_format": "channels_last", "use_bias": false, "padding": "same", "kernel_initializer": {"config": {"distribution": "uniform", "scale": 1.0, "mode": "fan_avg", "seed": null}, "class_name": "VarianceScaling"}, "dilation_rate": [1, 1], "strides": [1, 1]}, "inbound_nodes": [[["activation_78", 0, 0, {}]]], "name": "conv2d_80", "class_name": "Conv2D"}, {"config": {"kernel_regularizer": null, "trainable": true, "name": "conv2d_83", "filters": 384, "bias_initializer": {"config": {}, "class_name": "Zeros"}, "kernel_constraint": null, "activation": "linear", "bias_regularizer": null, "bias_constraint": null, "activity_regularizer": null, "kernel_size": [1, 3], "data_format": "channels_last", "use_bias": false, "padding": "same", "kernel_initializer": {"config": {"distribution": "uniform", "scale": 1.0, "mode": "fan_avg", "seed": null}, "class_name": "VarianceScaling"}, "dilation_rate": [1, 1], "strides": [1, 1]}, "inbound_nodes": [[["activation_82", 0, 0, {}]]], "name": "conv2d_83", "class_name": "Conv2D"}, {"config": {"kernel_regularizer": null, "trainable": true, "name": "conv2d_84", "filters": 384, "bias_initializer": {"config": {}, "class_name": "Zeros"}, "kernel_constraint": null, "activation": "linear", "bias_regularizer": null, "bias_constraint": null, "activity_regularizer": null, "kernel_size": [3, 1], "data_format": "channels_last", "use_bias": false, "padding": "same", "kernel_initializer": {"config": {"distribution": "uniform", "scale": 1.0, "mode": "fan_avg", "seed": null}, "class_name": "VarianceScaling"}, "dilation_rate": [1, 1], "strides": [1, 1]}, "inbound_nodes": [[["activation_82", 0, 0, {}]]], "name": "conv2d_84", "class_name": "Conv2D"}, {"config": {"pool_size": [3, 3], "trainable": true, "name": "average_pooling2d_8", "data_format": "channels_last", "padding": "same", "strides": [1, 1]}, "inbound_nodes": [[["mixed8", 0, 0, {}]]], "name": "average_pooling2d_8", "class_name": "AveragePooling2D"}, {"config": {"kernel_regularizer": null, "trainable": true, "name": "conv2d_77", "filters": 320, "bias_initializer": {"config": {}, "class_name": "Zeros"}, "kernel_constraint": null, "activation": "linear", "bias_regularizer": null, "bias_constraint": null, "activity_regularizer": null, "kernel_size": [1, 1], "data_format": "channels_last", "use_bias": false, "padding": "same", "kernel_initializer": {"config": {"distribution": "uniform", "scale": 1.0, "mode": "fan_avg", "seed": null}, "class_name": "VarianceScaling"}, "dilation_rate": [1, 1], "strides": [1, 1]}, "inbound_nodes": [[["mixed8", 0, 0, {}]]], "name": "conv2d_77", "class_name": "Conv2D"}, {"config": {"center": true, "trainable": true, "moving_variance_initializer": {"config": {}, "class_name": "Ones"}, "name": "batch_normalization_79", "moving_mean_initializer": {"config": {}, "class_name": "Zeros"}, "epsilon": 0.001, "gamma_constraint": null, "beta_constraint": null, "axis": 3, "gamma_initializer": {"config": {}, "class_name": "Ones"}, "scale": false, "beta_initializer": {"config": {}, "class_name": "Zeros"}, "beta_regularizer": null, "momentum": 0.99, "gamma_regularizer": null}, "inbound_nodes": [[["conv2d_79", 0, 0, {}]]], "name": "batch_normalization_79", "class_name": "BatchNormalization"}, {"config": {"center": true, "trainable": true, "moving_variance_initializer": {"config": {}, "class_name": "Ones"}, "name": "batch_normalization_80", "moving_mean_initializer": {"config": {}, "class_name": "Zeros"}, "epsilon": 0.001, "gamma_constraint": null, "beta_constraint": null, "axis": 3, "gamma_initializer": {"config": {}, "class_name": "Ones"}, "scale": false, "beta_initializer": {"config": {}, "class_name": "Zeros"}, "beta_regularizer": null, "momentum": 0.99, "gamma_regularizer": null}, "inbound_nodes": [[["conv2d_80", 0, 0, {}]]], "name": "batch_normalization_80", "class_name": "BatchNormalization"}, {"config": {"center": true, "trainable": true, "moving_variance_initializer": {"config": {}, "class_name": "Ones"}, "name": "batch_normalization_83", "moving_mean_initializer": {"config": {}, "class_name": "Zeros"}, "epsilon": 0.001, "gamma_constraint": null, "beta_constraint": null, "axis": 3, "gamma_initializer": {"config": {}, "class_name": "Ones"}, "scale": false, "beta_initializer": {"config": {}, "class_name": "Zeros"}, "beta_regularizer": null, "momentum": 0.99, "gamma_regularizer": null}, "inbound_nodes": [[["conv2d_83", 0, 0, {}]]], "name": "batch_normalization_83", "class_name": "BatchNormalization"}, {"config": {"center": true, "trainable": true, "moving_variance_initializer": {"config": {}, "class_name": "Ones"}, "name": "batch_normalization_84", "moving_mean_initializer": {"config": {}, "class_name": "Zeros"}, "epsilon": 0.001, "gamma_constraint": null, "beta_constraint": null, "axis": 3, "gamma_initializer": {"config": {}, "class_name": "Ones"}, "scale": false, "beta_initializer": {"config": {}, "class_name": "Zeros"}, "beta_regularizer": null, "momentum": 0.99, "gamma_regularizer": null}, "inbound_nodes": [[["conv2d_84", 0, 0, {}]]], "name": "batch_normalization_84", "class_name": "BatchNormalization"}, {"config": {"kernel_regularizer": null, "trainable": true, "name": "conv2d_85", "filters": 192, "bias_initializer": {"config": {}, "class_name": "Zeros"}, "kernel_constraint": null, "activation": "linear", "bias_regularizer": null, "bias_constraint": null, "activity_regularizer": null, "kernel_size": [1, 1], "data_format": "channels_last", "use_bias": false, "padding": "same", "kernel_initializer": {"config": {"distribution": "uniform", "scale": 1.0, "mode": "fan_avg", "seed": null}, "class_name": "VarianceScaling"}, "dilation_rate": [1, 1], "strides": [1, 1]}, "inbound_nodes": [[["average_pooling2d_8", 0, 0, {}]]], "name": "conv2d_85", "class_name": "Conv2D"}, {"config": {"center": true, "trainable": true, "moving_variance_initializer": {"config": {}, "class_name": "Ones"}, "name": "batch_normalization_77", "moving_mean_initializer": {"config": {}, "class_name": "Zeros"}, "epsilon": 0.001, "gamma_constraint": null, "beta_constraint": null, "axis": 3, "gamma_initializer": {"config": {}, "class_name": "Ones"}, "scale": false, "beta_initializer": {"config": {}, "class_name": "Zeros"}, "beta_regularizer": null, "momentum": 0.99, "gamma_regularizer": null}, "inbound_nodes": [[["conv2d_77", 0, 0, {}]]], "name": "batch_normalization_77", "class_name": "BatchNormalization"}, {"config": {"activation": "relu", "trainable": true, "name": "activation_79"}, "inbound_nodes": [[["batch_normalization_79", 0, 0, {}]]], "name": "activation_79", "class_name": "Activation"}, {"config": {"activation": "relu", "trainable": true, "name": "activation_80"}, "inbound_nodes": [[["batch_normalization_80", 0, 0, {}]]], "name": "activation_80", "class_name": "Activation"}, {"config": {"activation": "relu", "trainable": true, "name": "activation_83"}, "inbound_nodes": [[["batch_normalization_83", 0, 0, {}]]], "name": "activation_83", "class_name": "Activation"}, {"config": {"activation": "relu", "trainable": true, "name": "activation_84"}, "inbound_nodes": [[["batch_normalization_84", 0, 0, {}]]], "name": "activation_84", "class_name": "Activation"}, {"config": {"center": true, "trainable": true, "moving_variance_initializer": {"config": {}, "class_name": "Ones"}, "name": "batch_normalization_85", "moving_mean_initializer": {"config": {}, "class_name": "Zeros"}, "epsilon": 0.001, "gamma_constraint": null, "beta_constraint": null, "axis": 3, "gamma_initializer": {"config": {}, "class_name": "Ones"}, "scale": false, "beta_initializer": {"config": {}, "class_name": "Zeros"}, "beta_regularizer": null, "momentum": 0.99, "gamma_regularizer": null}, "inbound_nodes": [[["conv2d_85", 0, 0, {}]]], "name": "batch_normalization_85", "class_name": "BatchNormalization"}, {"config": {"activation": "relu", "trainable": true, "name": "activation_77"}, "inbound_nodes": [[["batch_normalization_77", 0, 0, {}]]], "name": "activation_77", "class_name": "Activation"}, {"config": {"trainable": true, "name": "mixed9_0", "axis": 3}, "inbound_nodes": [[["activation_79", 0, 0, {}], ["activation_80", 0, 0, {}]]], "name": "mixed9_0", "class_name": "Concatenate"}, {"config": {"trainable": true, "name": "concatenate_1", "axis": 3}, "inbound_nodes": [[["activation_83", 0, 0, {}], ["activation_84", 0, 0, {}]]], "name": "concatenate_1", "class_name": "Concatenate"}, {"config": {"activation": "relu", "trainable": true, "name": "activation_85"}, "inbound_nodes": [[["batch_normalization_85", 0, 0, {}]]], "name": "activation_85", "class_name": "Activation"}, {"config": {"trainable": true, "name": "mixed9", "axis": 3}, "inbound_nodes": [[["activation_77", 0, 0, {}], ["mixed9_0", 0, 0, {}], ["concatenate_1", 0, 0, {}], ["activation_85", 0, 0, {}]]], "name": "mixed9", "class_name": "Concatenate"}, {"config": {"kernel_regularizer": null, "trainable": true, "name": "conv2d_90", "filters": 448, "bias_initializer": {"config": {}, "class_name": "Zeros"}, "kernel_constraint": null, "activation": "linear", "bias_regularizer": null, "bias_constraint": null, "activity_regularizer": null, "kernel_size": [1, 1], "data_format": "channels_last", "use_bias": false, "padding": "same", "kernel_initializer": {"config": {"distribution": "uniform", "scale": 1.0, "mode": "fan_avg", "seed": null}, "class_name": "VarianceScaling"}, "dilation_rate": [1, 1], "strides": [1, 1]}, "inbound_nodes": [[["mixed9", 0, 0, {}]]], "name": "conv2d_90", "class_name": "Conv2D"}, {"config": {"center": true, "trainable": true, "moving_variance_initializer": {"config": {}, "class_name": "Ones"}, "name": "batch_normalization_90", "moving_mean_initializer": {"config": {}, "class_name": "Zeros"}, "epsilon": 0.001, "gamma_constraint": null, "beta_constraint": null, "axis": 3, "gamma_initializer": {"config": {}, "class_name": "Ones"}, "scale": false, "beta_initializer": {"config": {}, "class_name": "Zeros"}, "beta_regularizer": null, "momentum": 0.99, "gamma_regularizer": null}, "inbound_nodes": [[["conv2d_90", 0, 0, {}]]], "name": "batch_normalization_90", "class_name": "BatchNormalization"}, {"config": {"activation": "relu", "trainable": true, "name": "activation_90"}, "inbound_nodes": [[["batch_normalization_90", 0, 0, {}]]], "name": "activation_90", "class_name": "Activation"}, {"config": {"kernel_regularizer": null, "trainable": true, "name": "conv2d_87", "filters": 384, "bias_initializer": {"config": {}, "class_name": "Zeros"}, "kernel_constraint": null, "activation": "linear", "bias_regularizer": null, "bias_constraint": null, "activity_regularizer": null, "kernel_size": [1, 1], "data_format": "channels_last", "use_bias": false, "padding": "same", "kernel_initializer": {"config": {"distribution": "uniform", "scale": 1.0, "mode": "fan_avg", "seed": null}, "class_name": "VarianceScaling"}, "dilation_rate": [1, 1], "strides": [1, 1]}, "inbound_nodes": [[["mixed9", 0, 0, {}]]], "name": "conv2d_87", "class_name": "Conv2D"}, {"config": {"kernel_regularizer": null, "trainable": true, "name": "conv2d_91", "filters": 384, "bias_initializer": {"config": {}, "class_name": "Zeros"}, "kernel_constraint": null, "activation": "linear", "bias_regularizer": null, "bias_constraint": null, "activity_regularizer": null, "kernel_size": [3, 3], "data_format": "channels_last", "use_bias": false, "padding": "same", "kernel_initializer": {"config": {"distribution": "uniform", "scale": 1.0, "mode": "fan_avg", "seed": null}, "class_name": "VarianceScaling"}, "dilation_rate": [1, 1], "strides": [1, 1]}, "inbound_nodes": [[["activation_90", 0, 0, {}]]], "name": "conv2d_91", "class_name": "Conv2D"}, {"config": {"center": true, "trainable": true, "moving_variance_initializer": {"config": {}, "class_name": "Ones"}, "name": "batch_normalization_87", "moving_mean_initializer": {"config": {}, "class_name": "Zeros"}, "epsilon": 0.001, "gamma_constraint": null, "beta_constraint": null, "axis": 3, "gamma_initializer": {"config": {}, "class_name": "Ones"}, "scale": false, "beta_initializer": {"config": {}, "class_name": "Zeros"}, "beta_regularizer": null, "momentum": 0.99, "gamma_regularizer": null}, "inbound_nodes": [[["conv2d_87", 0, 0, {}]]], "name": "batch_normalization_87", "class_name": "BatchNormalization"}, {"config": {"center": true, "trainable": true, "moving_variance_initializer": {"config": {}, "class_name": "Ones"}, "name": "batch_normalization_91", "moving_mean_initializer": {"config": {}, "class_name": "Zeros"}, "epsilon": 0.001, "gamma_constraint": null, "beta_constraint": null, "axis": 3, "gamma_initializer": {"config": {}, "class_name": "Ones"}, "scale": false, "beta_initializer": {"config": {}, "class_name": "Zeros"}, "beta_regularizer": null, "momentum": 0.99, "gamma_regularizer": null}, "inbound_nodes": [[["conv2d_91", 0, 0, {}]]], "name": "batch_normalization_91", "class_name": "BatchNormalization"}, {"config": {"activation": "relu", "trainable": true, "name": "activation_87"}, "inbound_nodes": [[["batch_normalization_87", 0, 0, {}]]], "name": "activation_87", "class_name": "Activation"}, {"config": {"activation": "relu", "trainable": true, "name": "activation_91"}, "inbound_nodes": [[["batch_normalization_91", 0, 0, {}]]], "name": "activation_91", "class_name": "Activation"}, {"config": {"kernel_regularizer": null, "trainable": true, "name": "conv2d_88", "filters": 384, "bias_initializer": {"config": {}, "class_name": "Zeros"}, "kernel_constraint": null, "activation": "linear", "bias_regularizer": null, "bias_constraint": null, "activity_regularizer": null, "kernel_size": [1, 3], "data_format": "channels_last", "use_bias": false, "padding": "same", "kernel_initializer": {"config": {"distribution": "uniform", "scale": 1.0, "mode": "fan_avg", "seed": null}, "class_name": "VarianceScaling"}, "dilation_rate": [1, 1], "strides": [1, 1]}, "inbound_nodes": [[["activation_87", 0, 0, {}]]], "name": "conv2d_88", "class_name": "Conv2D"}, {"config": {"kernel_regularizer": null, "trainable": true, "name": "conv2d_89", "filters": 384, "bias_initializer": {"config": {}, "class_name": "Zeros"}, "kernel_constraint": null, "activation": "linear", "bias_regularizer": null, "bias_constraint": null, "activity_regularizer": null, "kernel_size": [3, 1], "data_format": "channels_last", "use_bias": false, "padding": "same", "kernel_initializer": {"config": {"distribution": "uniform", "scale": 1.0, "mode": "fan_avg", "seed": null}, "class_name": "VarianceScaling"}, "dilation_rate": [1, 1], "strides": [1, 1]}, "inbound_nodes": [[["activation_87", 0, 0, {}]]], "name": "conv2d_89", "class_name": "Conv2D"}, {"config": {"kernel_regularizer": null, "trainable": true, "name": "conv2d_92", "filters": 384, "bias_initializer": {"config": {}, "class_name": "Zeros"}, "kernel_constraint": null, "activation": "linear", "bias_regularizer": null, "bias_constraint": null, "activity_regularizer": null, "kernel_size": [1, 3], "data_format": "channels_last", "use_bias": false, "padding": "same", "kernel_initializer": {"config": {"distribution": "uniform", "scale": 1.0, "mode": "fan_avg", "seed": null}, "class_name": "VarianceScaling"}, "dilation_rate": [1, 1], "strides": [1, 1]}, "inbound_nodes": [[["activation_91", 0, 0, {}]]], "name": "conv2d_92", "class_name": "Conv2D"}, {"config": {"kernel_regularizer": null, "trainable": true, "name": "conv2d_93", "filters": 384, "bias_initializer": {"config": {}, "class_name": "Zeros"}, "kernel_constraint": null, "activation": "linear", "bias_regularizer": null, "bias_constraint": null, "activity_regularizer": null, "kernel_size": [3, 1], "data_format": "channels_last", "use_bias": false, "padding": "same", "kernel_initializer": {"config": {"distribution": "uniform", "scale": 1.0, "mode": "fan_avg", "seed": null}, "class_name": "VarianceScaling"}, "dilation_rate": [1, 1], "strides": [1, 1]}, "inbound_nodes": [[["activation_91", 0, 0, {}]]], "name": "conv2d_93", "class_name": "Conv2D"}, {"config": {"pool_size": [3, 3], "trainable": true, "name": "average_pooling2d_9", "data_format": "channels_last", "padding": "same", "strides": [1, 1]}, "inbound_nodes": [[["mixed9", 0, 0, {}]]], "name": "average_pooling2d_9", "class_name": "AveragePooling2D"}, {"config": {"kernel_regularizer": null, "trainable": true, "name": "conv2d_86", "filters": 320, "bias_initializer": {"config": {}, "class_name": "Zeros"}, "kernel_constraint": null, "activation": "linear", "bias_regularizer": null, "bias_constraint": null, "activity_regularizer": null, "kernel_size": [1, 1], "data_format": "channels_last", "use_bias": false, "padding": "same", "kernel_initializer": {"config": {"distribution": "uniform", "scale": 1.0, "mode": "fan_avg", "seed": null}, "class_name": "VarianceScaling"}, "dilation_rate": [1, 1], "strides": [1, 1]}, "inbound_nodes": [[["mixed9", 0, 0, {}]]], "name": "conv2d_86", "class_name": "Conv2D"}, {"config": {"center": true, "trainable": true, "moving_variance_initializer": {"config": {}, "class_name": "Ones"}, "name": "batch_normalization_88", "moving_mean_initializer": {"config": {}, "class_name": "Zeros"}, "epsilon": 0.001, "gamma_constraint": null, "beta_constraint": null, "axis": 3, "gamma_initializer": {"config": {}, "class_name": "Ones"}, "scale": false, "beta_initializer": {"config": {}, "class_name": "Zeros"}, "beta_regularizer": null, "momentum": 0.99, "gamma_regularizer": null}, "inbound_nodes": [[["conv2d_88", 0, 0, {}]]], "name": "batch_normalization_88", "class_name": "BatchNormalization"}, {"config": {"center": true, "trainable": true, "moving_variance_initializer": {"config": {}, "class_name": "Ones"}, "name": "batch_normalization_89", "moving_mean_initializer": {"config": {}, "class_name": "Zeros"}, "epsilon": 0.001, "gamma_constraint": null, "beta_constraint": null, "axis": 3, "gamma_initializer": {"config": {}, "class_name": "Ones"}, "scale": false, "beta_initializer": {"config": {}, "class_name": "Zeros"}, "beta_regularizer": null, "momentum": 0.99, "gamma_regularizer": null}, "inbound_nodes": [[["conv2d_89", 0, 0, {}]]], "name": "batch_normalization_89", "class_name": "BatchNormalization"}, {"config": {"center": true, "trainable": true, "moving_variance_initializer": {"config": {}, "class_name": "Ones"}, "name": "batch_normalization_92", "moving_mean_initializer": {"config": {}, "class_name": "Zeros"}, "epsilon": 0.001, "gamma_constraint": null, "beta_constraint": null, "axis": 3, "gamma_initializer": {"config": {}, "class_name": "Ones"}, "scale": false, "beta_initializer": {"config": {}, "class_name": "Zeros"}, "beta_regularizer": null, "momentum": 0.99, "gamma_regularizer": null}, "inbound_nodes": [[["conv2d_92", 0, 0, {}]]], "name": "batch_normalization_92", "class_name": "BatchNormalization"}, {"config": {"center": true, "trainable": true, "moving_variance_initializer": {"config": {}, "class_name": "Ones"}, "name": "batch_normalization_93", "moving_mean_initializer": {"config": {}, "class_name": "Zeros"}, "epsilon": 0.001, "gamma_constraint": null, "beta_constraint": null, "axis": 3, "gamma_initializer": {"config": {}, "class_name": "Ones"}, "scale": false, "beta_initializer": {"config": {}, "class_name": "Zeros"}, "beta_regularizer": null, "momentum": 0.99, "gamma_regularizer": null}, "inbound_nodes": [[["conv2d_93", 0, 0, {}]]], "name": "batch_normalization_93", "class_name": "BatchNormalization"}, {"config": {"kernel_regularizer": null, "trainable": true, "name": "conv2d_94", "filters": 192, "bias_initializer": {"config": {}, "class_name": "Zeros"}, "kernel_constraint": null, "activation": "linear", "bias_regularizer": null, "bias_constraint": null, "activity_regularizer": null, "kernel_size": [1, 1], "data_format": "channels_last", "use_bias": false, "padding": "same", "kernel_initializer": {"config": {"distribution": "uniform", "scale": 1.0, "mode": "fan_avg", "seed": null}, "class_name": "VarianceScaling"}, "dilation_rate": [1, 1], "strides": [1, 1]}, "inbound_nodes": [[["average_pooling2d_9", 0, 0, {}]]], "name": "conv2d_94", "class_name": "Conv2D"}, {"config": {"center": true, "trainable": true, "moving_variance_initializer": {"config": {}, "class_name": "Ones"}, "name": "batch_normalization_86", "moving_mean_initializer": {"config": {}, "class_name": "Zeros"}, "epsilon": 0.001, "gamma_constraint": null, "beta_constraint": null, "axis": 3, "gamma_initializer": {"config": {}, "class_name": "Ones"}, "scale": false, "beta_initializer": {"config": {}, "class_name": "Zeros"}, "beta_regularizer": null, "momentum": 0.99, "gamma_regularizer": null}, "inbound_nodes": [[["conv2d_86", 0, 0, {}]]], "name": "batch_normalization_86", "class_name": "BatchNormalization"}, {"config": {"activation": "relu", "trainable": true, "name": "activation_88"}, "inbound_nodes": [[["batch_normalization_88", 0, 0, {}]]], "name": "activation_88", "class_name": "Activation"}, {"config": {"activation": "relu", "trainable": true, "name": "activation_89"}, "inbound_nodes": [[["batch_normalization_89", 0, 0, {}]]], "name": "activation_89", "class_name": "Activation"}, {"config": {"activation": "relu", "trainable": true, "name": "activation_92"}, "inbound_nodes": [[["batch_normalization_92", 0, 0, {}]]], "name": "activation_92", "class_name": "Activation"}, {"config": {"activation": "relu", "trainable": true, "name": "activation_93"}, "inbound_nodes": [[["batch_normalization_93", 0, 0, {}]]], "name": "activation_93", "class_name": "Activation"}, {"config": {"center": true, "trainable": true, "moving_variance_initializer": {"config": {}, "class_name": "Ones"}, "name": "batch_normalization_94", "moving_mean_initializer": {"config": {}, "class_name": "Zeros"}, "epsilon": 0.001, "gamma_constraint": null, "beta_constraint": null, "axis": 3, "gamma_initializer": {"config": {}, "class_name": "Ones"}, "scale": false, "beta_initializer": {"config": {}, "class_name": "Zeros"}, "beta_regularizer": null, "momentum": 0.99, "gamma_regularizer": null}, "inbound_nodes": [[["conv2d_94", 0, 0, {}]]], "name": "batch_normalization_94", "class_name": "BatchNormalization"}, {"config": {"activation": "relu", "trainable": true, "name": "activation_86"}, "inbound_nodes": [[["batch_normalization_86", 0, 0, {}]]], "name": "activation_86", "class_name": "Activation"}, {"config": {"trainable": true, "name": "mixed9_1", "axis": 3}, "inbound_nodes": [[["activation_88", 0, 0, {}], ["activation_89", 0, 0, {}]]], "name": "mixed9_1", "class_name": "Concatenate"}, {"config": {"trainable": true, "name": "concatenate_2", "axis": 3}, "inbound_nodes": [[["activation_92", 0, 0, {}], ["activation_93", 0, 0, {}]]], "name": "concatenate_2", "class_name": "Concatenate"}, {"config": {"activation": "relu", "trainable": true, "name": "activation_94"}, "inbound_nodes": [[["batch_normalization_94", 0, 0, {}]]], "name": "activation_94", "class_name": "Activation"}, {"config": {"trainable": true, "name": "mixed10", "axis": 3}, "inbound_nodes": [[["activation_86", 0, 0, {}], ["mixed9_1", 0, 0, {}], ["concatenate_2", 0, 0, {}], ["activation_94", 0, 0, {}]]], "name": "mixed10", "class_name": "Concatenate"}, {"config": {"data_format": "channels_last", "trainable": true, "name": "global_average_pooling2d_1"}, "inbound_nodes": [[["mixed10", 0, 0, {}]]], "name": "global_average_pooling2d_1", "class_name": "GlobalAveragePooling2D"}, {"config": {"trainable": true, "name": "dense_1", "kernel_regularizer": null, "bias_initializer": {"config": {}, "class_name": "Zeros"}, "kernel_constraint": null, "activation": "relu", "bias_regularizer": null, "bias_constraint": null, "activity_regularizer": null, "use_bias": true, "units": 256, "kernel_initializer": {"config": {"distribution": "uniform", "scale": 1.0, "mode": "fan_avg", "seed": null}, "class_name": "VarianceScaling"}}, "inbound_nodes": [[["global_average_pooling2d_1", 0, 0, {}]]], "name": "dense_1", "class_name": "Dense"}, {"config": {"noise_shape": null, "seed": null, "trainable": true, "name": "dropout_1", "rate": 0.5}, "inbound_nodes": [[["dense_1", 0, 0, {}]]], "name": "dropout_1", "class_name": "Dropout"}, {"config": {"trainable": true, "name": "dense_2", "kernel_regularizer": null, "bias_initializer": {"config": {}, "class_name": "Zeros"}, "kernel_constraint": null, "activation": "sigmoid", "bias_regularizer": null, "bias_constraint": null, "activity_regularizer": null, "use_bias": true, "units": 1, "kernel_initializer": {"config": {"distribution": "uniform", "scale": 1.0, "mode": "fan_avg", "seed": null}, "class_name": "VarianceScaling"}}, "inbound_nodes": [[["dropout_1", 0, 0, {}]]], "name": "dense_2", "class_name": "Dense"}], "input_layers": [["input_1", 0, 0]], "output_layers": [["dense_2", 0, 0]], "name": "model_1"}, "backend": "tensorflow", "class_name": "Model"}