{"class_name": "Model", "backend": "tensorflow", "keras_version": "2.0.9", "config": {"name": "model_1", "layers": [{"name": "input_1", "class_name": "InputLayer", "inbound_nodes": [], "config": {"name": "input_1", "sparse": false, "batch_input_shape": [null, null, null, 3], "dtype": "float32"}}, {"name": "conv2d_1", "class_name": "Conv2D", "inbound_nodes": [[["input_1", 0, 0, {}]]], "config": {"strides": [2, 2], "dilation_rate": [1, 1], "filters": 32, "use_bias": false, "bias_initializer": {"class_name": "Zeros", "config": {}}, "kernel_constraint": null, "padding": "valid", "activation": "linear", "activity_regularizer": null, "bias_constraint": null, "trainable": false, "name": "conv2d_1", "kernel_regularizer": null, "bias_regularizer": null, "kernel_size": [3, 3], "data_format": "channels_last", "kernel_initializer": {"class_name": "VarianceScaling", "config": {"scale": 1.0, "mode": "fan_avg", "distribution": "uniform", "seed": null}}}}, {"name": "batch_normalization_1", "class_name": "BatchNormalization", "inbound_nodes": [[["conv2d_1", 0, 0, {}]]], "config": {"moving_mean_initializer": {"class_name": "Zeros", "config": {}}, "gamma_constraint": null, "scale": false, "gamma_initializer": {"class_name": "Ones", "config": {}}, "epsilon": 0.001, "momentum": 0.99, "beta_regularizer": null, "gamma_regularizer": null, "beta_initializer": {"class_name": "Zeros", "config": {}}, "center": true, "name": "batch_normalization_1", "moving_variance_initializer": {"class_name": "Ones", "config": {}}, "beta_constraint": null, "axis": 3, "trainable": false}}, {"name": "activation_1", "class_name": "Activation", "inbound_nodes": [[["batch_normalization_1", 0, 0, {}]]], "config": {"name": "activation_1", "activation": "relu", "trainable": false}}, {"name": "conv2d_2", "class_name": "Conv2D", "inbound_nodes": [[["activation_1", 0, 0, {}]]], "config": {"strides": [1, 1], "dilation_rate": [1, 1], "filters": 32, "use_bias": false, "bias_initializer": {"class_name": "Zeros", "config": {}}, "kernel_constraint": null, "padding": "valid", "activation": "linear", "activity_regularizer": null, "bias_constraint": null, "trainable": false, "name": "conv2d_2", "kernel_regularizer": null, "bias_regularizer": null, "kernel_size": [3, 3], "data_format": "channels_last", "kernel_initializer": {"class_name": "VarianceScaling", "config": {"scale": 1.0, "mode": "fan_avg", "distribution": "uniform", "seed": null}}}}, {"name": "batch_normalization_2", "class_name": "BatchNormalization", "inbound_nodes": [[["conv2d_2", 0, 0, {}]]], "config": {"moving_mean_initializer": {"class_name": "Zeros", "config": {}}, "gamma_constraint": null, "scale": false, "gamma_initializer": {"class_name": "Ones", "config": {}}, "epsilon": 0.001, "momentum": 0.99, "beta_regularizer": null, "gamma_regularizer": null, "beta_initializer": {"class_name": "Zeros", "config": {}}, "center": true, "name": "batch_normalization_2", "moving_variance_initializer": {"class_name": "Ones", "config": {}}, "beta_constraint": null, "axis": 3, "trainable": false}}, {"name": "activation_2", "class_name": "Activation", "inbound_nodes": [[["batch_normalization_2", 0, 0, {}]]], "config": {"name": "activation_2", "activation": "relu", "trainable": false}}, {"name": "conv2d_3", "class_name": "Conv2D", "inbound_nodes": [[["activation_2", 0, 0, {}]]], "config": {"strides": [1, 1], "dilation_rate": [1, 1], "filters": 64, "use_bias": false, "bias_initializer": {"class_name": "Zeros", "config": {}}, "kernel_constraint": null, "padding": "same", "activation": "linear", "activity_regularizer": null, "bias_constraint": null, "trainable": false, "name": "conv2d_3", "kernel_regularizer": null, "bias_regularizer": null, "kernel_size": [3, 3], "data_format": "channels_last", "kernel_initializer": {"class_name": "VarianceScaling", "config": {"scale": 1.0, "mode": "fan_avg", "distribution": "uniform", "seed": null}}}}, {"name": "batch_normalization_3", "class_name": "BatchNormalization", "inbound_nodes": [[["conv2d_3", 0, 0, {}]]], "config": {"moving_mean_initializer": {"class_name": "Zeros", "config": {}}, "gamma_constraint": null, "scale": false, "gamma_initializer": {"class_name": "Ones", "config": {}}, "epsilon": 0.001, "momentum": 0.99, "beta_regularizer": null, "gamma_regularizer": null, "beta_initializer": {"class_name": "Zeros", "config": {}}, "center": true, "name": "batch_normalization_3", "moving_variance_initializer": {"class_name": "Ones", "config": {}}, "beta_constraint": null, "axis": 3, "trainable": false}}, {"name": "activation_3", "class_name": "Activation", "inbound_nodes": [[["batch_normalization_3", 0, 0, {}]]], "config": {"name": "activation_3", "activation": "relu", "trainable": false}}, {"name": "max_pooling2d_1", "class_name": "MaxPooling2D", "inbound_nodes": [[["activation_3", 0, 0, {}]]], "config": {"padding": "valid", "strides": [2, 2], "trainable": false, "name": "max_pooling2d_1", "data_format": "channels_last", "pool_size": [3, 3]}}, {"name": "conv2d_4", "class_name": "Conv2D", "inbound_nodes": [[["max_pooling2d_1", 0, 0, {}]]], "config": {"strides": [1, 1], "dilation_rate": [1, 1], "filters": 80, "use_bias": false, "bias_initializer": {"class_name": "Zeros", "config": {}}, "kernel_constraint": null, "padding": "valid", "activation": "linear", "activity_regularizer": null, "bias_constraint": null, "trainable": false, "name": "conv2d_4", "kernel_regularizer": null, "bias_regularizer": null, "kernel_size": [1, 1], "data_format": "channels_last", "kernel_initializer": {"class_name": "VarianceScaling", "config": {"scale": 1.0, "mode": "fan_avg", "distribution": "uniform", "seed": null}}}}, {"name": "batch_normalization_4", "class_name": "BatchNormalization", "inbound_nodes": [[["conv2d_4", 0, 0, {}]]], "config": {"moving_mean_initializer": {"class_name": "Zeros", "config": {}}, "gamma_constraint": null, "scale": false, "gamma_initializer": {"class_name": "Ones", "config": {}}, "epsilon": 0.001, "momentum": 0.99, "beta_regularizer": null, "gamma_regularizer": null, "beta_initializer": {"class_name": "Zeros", "config": {}}, "center": true, "name": "batch_normalization_4", "moving_variance_initializer": {"class_name": "Ones", "config": {}}, "beta_constraint": null, "axis": 3, "trainable": false}}, {"name": "activation_4", "class_name": "Activation", "inbound_nodes": [[["batch_normalization_4", 0, 0, {}]]], "config": {"name": "activation_4", "activation": "relu", "trainable": false}}, {"name": "conv2d_5", "class_name": "Conv2D", "inbound_nodes": [[["activation_4", 0, 0, {}]]], "config": {"strides": [1, 1], "dilation_rate": [1, 1], "filters": 192, "use_bias": false, "bias_initializer": {"class_name": "Zeros", "config": {}}, "kernel_constraint": null, "padding": "valid", "activation": "linear", "activity_regularizer": null, "bias_constraint": null, "trainable": false, "name": "conv2d_5", "kernel_regularizer": null, "bias_regularizer": null, "kernel_size": [3, 3], "data_format": "channels_last", "kernel_initializer": {"class_name": "VarianceScaling", "config": {"scale": 1.0, "mode": "fan_avg", "distribution": "uniform", "seed": null}}}}, {"name": "batch_normalization_5", "class_name": "BatchNormalization", "inbound_nodes": [[["conv2d_5", 0, 0, {}]]], "config": {"moving_mean_initializer": {"class_name": "Zeros", "config": {}}, "gamma_constraint": null, "scale": false, "gamma_initializer": {"class_name": "Ones", "config": {}}, "epsilon": 0.001, "momentum": 0.99, "beta_regularizer": null, "gamma_regularizer": null, "beta_initializer": {"class_name": "Zeros", "config": {}}, "center": true, "name": "batch_normalization_5", "moving_variance_initializer": {"class_name": "Ones", "config": {}}, "beta_constraint": null, "axis": 3, "trainable": false}}, {"name": "activation_5", "class_name": "Activation", "inbound_nodes": [[["batch_normalization_5", 0, 0, {}]]], "config": {"name": "activation_5", "activation": "relu", "trainable": false}}, {"name": "max_pooling2d_2", "class_name": "MaxPooling2D", "inbound_nodes": [[["activation_5", 0, 0, {}]]], "config": {"padding": "valid", "strides": [2, 2], "trainable": false, "name": "max_pooling2d_2", "data_format": "channels_last", "pool_size": [3, 3]}}, {"name": "conv2d_9", "class_name": "Conv2D", "inbound_nodes": [[["max_pooling2d_2", 0, 0, {}]]], "config": {"strides": [1, 1], "dilation_rate": [1, 1], "filters": 64, "use_bias": false, "bias_initializer": {"class_name": "Zeros", "config": {}}, "kernel_constraint": null, "padding": "same", "activation": "linear", "activity_regularizer": null, "bias_constraint": null, "trainable": false, "name": "conv2d_9", "kernel_regularizer": null, "bias_regularizer": null, "kernel_size": [1, 1], "data_format": "channels_last", "kernel_initializer": {"class_name": "VarianceScaling", "config": {"scale": 1.0, "mode": "fan_avg", "distribution": "uniform", "seed": null}}}}, {"name": "batch_normalization_9", "class_name": "BatchNormalization", "inbound_nodes": [[["conv2d_9", 0, 0, {}]]], "config": {"moving_mean_initializer": {"class_name": "Zeros", "config": {}}, "gamma_constraint": null, "scale": false, "gamma_initializer": {"class_name": "Ones", "config": {}}, "epsilon": 0.001, "momentum": 0.99, "beta_regularizer": null, "gamma_regularizer": null, "beta_initializer": {"class_name": "Zeros", "config": {}}, "center": true, "name": "batch_normalization_9", "moving_variance_initializer": {"class_name": "Ones", "config": {}}, "beta_constraint": null, "axis": 3, "trainable": false}}, {"name": "activation_9", "class_name": "Activation", "inbound_nodes": [[["batch_normalization_9", 0, 0, {}]]], "config": {"name": "activation_9", "activation": "relu", "trainable": false}}, {"name": "conv2d_7", "class_name": "Conv2D", "inbound_nodes": [[["max_pooling2d_2", 0, 0, {}]]], "config": {"strides": [1, 1], "dilation_rate": [1, 1], "filters": 48, "use_bias": false, "bias_initializer": {"class_name": "Zeros", "config": {}}, "kernel_constraint": null, "padding": "same", "activation": "linear", "activity_regularizer": null, "bias_constraint": null, "trainable": false, "name": "conv2d_7", "kernel_regularizer": null, "bias_regularizer": null, "kernel_size": [1, 1], "data_format": "channels_last", "kernel_initializer": {"class_name": "VarianceScaling", "config": {"scale": 1.0, "mode": "fan_avg", "distribution": "uniform", "seed": null}}}}, {"name": "conv2d_10", "class_name": "Conv2D", "inbound_nodes": [[["activation_9", 0, 0, {}]]], "config": {"strides": [1, 1], "dilation_rate": [1, 1], "filters": 96, "use_bias": false, "bias_initializer": {"class_name": "Zeros", "config": {}}, "kernel_constraint": null, "padding": "same", "activation": "linear", "activity_regularizer": null, "bias_constraint": null, "trainable": false, "name": "conv2d_10", "kernel_regularizer": null, "bias_regularizer": null, "kernel_size": [3, 3], "data_format": "channels_last", "kernel_initializer": {"class_name": "VarianceScaling", "config": {"scale": 1.0, "mode": "fan_avg", "distribution": "uniform", "seed": null}}}}, {"name": "batch_normalization_7", "class_name": "BatchNormalization", "inbound_nodes": [[["conv2d_7", 0, 0, {}]]], "config": {"moving_mean_initializer": {"class_name": "Zeros", "config": {}}, "gamma_constraint": null, "scale": false, "gamma_initializer": {"class_name": "Ones", "config": {}}, "epsilon": 0.001, "momentum": 0.99, "beta_regularizer": null, "gamma_regularizer": null, "beta_initializer": {"class_name": "Zeros", "config": {}}, "center": true, "name": "batch_normalization_7", "moving_variance_initializer": {"class_name": "Ones", "config": {}}, "beta_constraint": null, "axis": 3, "trainable": false}}, {"name": "batch_normalization_10", "class_name": "BatchNormalization", "inbound_nodes": [[["conv2d_10", 0, 0, {}]]], "config": {"moving_mean_initializer": {"class_name": "Zeros", "config": {}}, "gamma_constraint": null, "scale": false, "gamma_initializer": {"class_name": "Ones", "config": {}}, "epsilon": 0.001, "momentum": 0.99, "beta_regularizer": null, "gamma_regularizer": null, "beta_initializer": {"class_name": "Zeros", "config": {}}, "center": true, "name": "batch_normalization_10", "moving_variance_initializer": {"class_name": "Ones", "config": {}}, "beta_constraint": null, "axis": 3, "trainable": false}}, {"name": "activation_7", "class_name": "Activation", "inbound_nodes": [[["batch_normalization_7", 0, 0, {}]]], "config": {"name": "activation_7", "activation": "relu", "trainable": false}}, {"name": "activation_10", "class_name": "Activation", "inbound_nodes": [[["batch_normalization_10", 0, 0, {}]]], "config": {"name": "activation_10", "activation": "relu", "trainable": false}}, {"name": "average_pooling2d_1", "class_name": "AveragePooling2D", "inbound_nodes": [[["max_pooling2d_2", 0, 0, {}]]], "config": {"padding": "same", "strides": [1, 1], "trainable": false, "name": "average_pooling2d_1", "data_format": "channels_last", "pool_size": [3, 3]}}, {"name": "conv2d_6", "class_name": "Conv2D", "inbound_nodes": [[["max_pooling2d_2", 0, 0, {}]]], "config": {"strides": [1, 1], "dilation_rate": [1, 1], "filters": 64, "use_bias": false, "bias_initializer": {"class_name": "Zeros", "config": {}}, "kernel_constraint": null, "padding": "same", "activation": "linear", "activity_regularizer": null, "bias_constraint": null, "trainable": false, "name": "conv2d_6", "kernel_regularizer": null, "bias_regularizer": null, "kernel_size": [1, 1], "data_format": "channels_last", "kernel_initializer": {"class_name": "VarianceScaling", "config": {"scale": 1.0, "mode": "fan_avg", "distribution": "uniform", "seed": null}}}}, {"name": "conv2d_8", "class_name": "Conv2D", "inbound_nodes": [[["activation_7", 0, 0, {}]]], "config": {"strides": [1, 1], "dilation_rate": [1, 1], "filters": 64, "use_bias": false, "bias_initializer": {"class_name": "Zeros", "config": {}}, "kernel_constraint": null, "padding": "same", "activation": "linear", "activity_regularizer": null, "bias_constraint": null, "trainable": false, "name": "conv2d_8", "kernel_regularizer": null, "bias_regularizer": null, "kernel_size": [5, 5], "data_format": "channels_last", "kernel_initializer": {"class_name": "VarianceScaling", "config": {"scale": 1.0, "mode": "fan_avg", "distribution": "uniform", "seed": null}}}}, {"name": "conv2d_11", "class_name": "Conv2D", "inbound_nodes": [[["activation_10", 0, 0, {}]]], "config": {"strides": [1, 1], "dilation_rate": [1, 1], "filters": 96, "use_bias": false, "bias_initializer": {"class_name": "Zeros", "config": {}}, "kernel_constraint": null, "padding": "same", "activation": "linear", "activity_regularizer": null, "bias_constraint": null, "trainable": false, "name": "conv2d_11", "kernel_regularizer": null, "bias_regularizer": null, "kernel_size": [3, 3], "data_format": "channels_last", "kernel_initializer": {"class_name": "VarianceScaling", "config": {"scale": 1.0, "mode": "fan_avg", "distribution": "uniform", "seed": null}}}}, {"name": "conv2d_12", "class_name": "Conv2D", "inbound_nodes": [[["average_pooling2d_1", 0, 0, {}]]], "config": {"strides": [1, 1], "dilation_rate": [1, 1], "filters": 32, "use_bias": false, "bias_initializer": {"class_name": "Zeros", "config": {}}, "kernel_constraint": null, "padding": "same", "activation": "linear", "activity_regularizer": null, "bias_constraint": null, "trainable": false, "name": "conv2d_12", "kernel_regularizer": null, "bias_regularizer": null, "kernel_size": [1, 1], "data_format": "channels_last", "kernel_initializer": {"class_name": "VarianceScaling", "config": {"scale": 1.0, "mode": "fan_avg", "distribution": "uniform", "seed": null}}}}, {"name": "batch_normalization_6", "class_name": "BatchNormalization", "inbound_nodes": [[["conv2d_6", 0, 0, {}]]], "config": {"moving_mean_initializer": {"class_name": "Zeros", "config": {}}, "gamma_constraint": null, "scale": false, "gamma_initializer": {"class_name": "Ones", "config": {}}, "epsilon": 0.001, "momentum": 0.99, "beta_regularizer": null, "gamma_regularizer": null, "beta_initializer": {"class_name": "Zeros", "config": {}}, "center": true, "name": "batch_normalization_6", "moving_variance_initializer": {"class_name": "Ones", "config": {}}, "beta_constraint": null, "axis": 3, "trainable": false}}, {"name": "batch_normalization_8", "class_name": "BatchNormalization", "inbound_nodes": [[["conv2d_8", 0, 0, {}]]], "config": {"moving_mean_initializer": {"class_name": "Zeros", "config": {}}, "gamma_constraint": null, "scale": false, "gamma_initializer": {"class_name": "Ones", "config": {}}, "epsilon": 0.001, "momentum": 0.99, "beta_regularizer": null, "gamma_regularizer": null, "beta_initializer": {"class_name": "Zeros", "config": {}}, "center": true, "name": "batch_normalization_8", "moving_variance_initializer": {"class_name": "Ones", "config": {}}, "beta_constraint": null, "axis": 3, "trainable": false}}, {"name": "batch_normalization_11", "class_name": "BatchNormalization", "inbound_nodes": [[["conv2d_11", 0, 0, {}]]], "config": {"moving_mean_initializer": {"class_name": "Zeros", "config": {}}, "gamma_constraint": null, "scale": false, "gamma_initializer": {"class_name": "Ones", "config": {}}, "epsilon": 0.001, "momentum": 0.99, "beta_regularizer": null, "gamma_regularizer": null, "beta_initializer": {"class_name": "Zeros", "config": {}}, "center": true, "name": "batch_normalization_11", "moving_variance_initializer": {"class_name": "Ones", "config": {}}, "beta_constraint": null, "axis": 3, "trainable": false}}, {"name": "batch_normalization_12", "class_name": "BatchNormalization", "inbound_nodes": [[["conv2d_12", 0, 0, {}]]], "config": {"moving_mean_initializer": {"class_name": "Zeros", "config": {}}, "gamma_constraint": null, "scale": false, "gamma_initializer": {"class_name": "Ones", "config": {}}, "epsilon": 0.001, "momentum": 0.99, "beta_regularizer": null, "gamma_regularizer": null, "beta_initializer": {"class_name": "Zeros", "config": {}}, "center": true, "name": "batch_normalization_12", "moving_variance_initializer": {"class_name": "Ones", "config": {}}, "beta_constraint": null, "axis": 3, "trainable": false}}, {"name": "activation_6", "class_name": "Activation", "inbound_nodes": [[["batch_normalization_6", 0, 0, {}]]], "config": {"name": "activation_6", "activation": "relu", "trainable": false}}, {"name": "activation_8", "class_name": "Activation", "inbound_nodes": [[["batch_normalization_8", 0, 0, {}]]], "config": {"name": "activation_8", "activation": "relu", "trainable": false}}, {"name": "activation_11", "class_name": "Activation", "inbound_nodes": [[["batch_normalization_11", 0, 0, {}]]], "config": {"name": "activation_11", "activation": "relu", "trainable": false}}, {"name": "activation_12", "class_name": "Activation", "inbound_nodes": [[["batch_normalization_12", 0, 0, {}]]], "config": {"name": "activation_12", "activation": "relu", "trainable": false}}, {"name": "mixed0", "class_name": "Concatenate", "inbound_nodes": [[["activation_6", 0, 0, {}], ["activation_8", 0, 0, {}], ["activation_11", 0, 0, {}], ["activation_12", 0, 0, {}]]], "config": {"name": "mixed0", "axis": 3, "trainable": false}}, {"name": "conv2d_16", "class_name": "Conv2D", "inbound_nodes": [[["mixed0", 0, 0, {}]]], "config": {"strides": [1, 1], "dilation_rate": [1, 1], "filters": 64, "use_bias": false, "bias_initializer": {"class_name": "Zeros", "config": {}}, "kernel_constraint": null, "padding": "same", "activation": "linear", "activity_regularizer": null, "bias_constraint": null, "trainable": false, "name": "conv2d_16", "kernel_regularizer": null, "bias_regularizer": null, "kernel_size": [1, 1], "data_format": "channels_last", "kernel_initializer": {"class_name": "VarianceScaling", "config": {"scale": 1.0, "mode": "fan_avg", "distribution": "uniform", "seed": null}}}}, {"name": "batch_normalization_16", "class_name": "BatchNormalization", "inbound_nodes": [[["conv2d_16", 0, 0, {}]]], "config": {"moving_mean_initializer": {"class_name": "Zeros", "config": {}}, "gamma_constraint": null, "scale": false, "gamma_initializer": {"class_name": "Ones", "config": {}}, "epsilon": 0.001, "momentum": 0.99, "beta_regularizer": null, "gamma_regularizer": null, "beta_initializer": {"class_name": "Zeros", "config": {}}, "center": true, "name": "batch_normalization_16", "moving_variance_initializer": {"class_name": "Ones", "config": {}}, "beta_constraint": null, "axis": 3, "trainable": false}}, {"name": "activation_16", "class_name": "Activation", "inbound_nodes": [[["batch_normalization_16", 0, 0, {}]]], "config": {"name": "activation_16", "activation": "relu", "trainable": false}}, {"name": "conv2d_14", "class_name": "Conv2D", "inbound_nodes": [[["mixed0", 0, 0, {}]]], "config": {"strides": [1, 1], "dilation_rate": [1, 1], "filters": 48, "use_bias": false, "bias_initializer": {"class_name": "Zeros", "config": {}}, "kernel_constraint": null, "padding": "same", "activation": "linear", "activity_regularizer": null, "bias_constraint": null, "trainable": false, "name": "conv2d_14", "kernel_regularizer": null, "bias_regularizer": null, "kernel_size": [1, 1], "data_format": "channels_last", "kernel_initializer": {"class_name": "VarianceScaling", "config": {"scale": 1.0, "mode": "fan_avg", "distribution": "uniform", "seed": null}}}}, {"name": "conv2d_17", "class_name": "Conv2D", "inbound_nodes": [[["activation_16", 0, 0, {}]]], "config": {"strides": [1, 1], "dilation_rate": [1, 1], "filters": 96, "use_bias": false, "bias_initializer": {"class_name": "Zeros", "config": {}}, "kernel_constraint": null, "padding": "same", "activation": "linear", "activity_regularizer": null, "bias_constraint": null, "trainable": false, "name": "conv2d_17", "kernel_regularizer": null, "bias_regularizer": null, "kernel_size": [3, 3], "data_format": "channels_last", "kernel_initializer": {"class_name": "VarianceScaling", "config": {"scale": 1.0, "mode": "fan_avg", "distribution": "uniform", "seed": null}}}}, {"name": "batch_normalization_14", "class_name": "BatchNormalization", "inbound_nodes": [[["conv2d_14", 0, 0, {}]]], "config": {"moving_mean_initializer": {"class_name": "Zeros", "config": {}}, "gamma_constraint": null, "scale": false, "gamma_initializer": {"class_name": "Ones", "config": {}}, "epsilon": 0.001, "momentum": 0.99, "beta_regularizer": null, "gamma_regularizer": null, "beta_initializer": {"class_name": "Zeros", "config": {}}, "center": true, "name": "batch_normalization_14", "moving_variance_initializer": {"class_name": "Ones", "config": {}}, "beta_constraint": null, "axis": 3, "trainable": false}}, {"name": "batch_normalization_17", "class_name": "BatchNormalization", "inbound_nodes": [[["conv2d_17", 0, 0, {}]]], "config": {"moving_mean_initializer": {"class_name": "Zeros", "config": {}}, "gamma_constraint": null, "scale": false, "gamma_initializer": {"class_name": "Ones", "config": {}}, "epsilon": 0.001, "momentum": 0.99, "beta_regularizer": null, "gamma_regularizer": null, "beta_initializer": {"class_name": "Zeros", "config": {}}, "center": true, "name": "batch_normalization_17", "moving_variance_initializer": {"class_name": "Ones", "config": {}}, "beta_constraint": null, "axis": 3, "trainable": false}}, {"name": "activation_14", "class_name": "Activation", "inbound_nodes": [[["batch_normalization_14", 0, 0, {}]]], "config": {"name": "activation_14", "activation": "relu", "trainable": false}}, {"name": "activation_17", "class_name": "Activation", "inbound_nodes": [[["batch_normalization_17", 0, 0, {}]]], "config": {"name": "activation_17", "activation": "relu", "trainable": false}}, {"name": "average_pooling2d_2", "class_name": "AveragePooling2D", "inbound_nodes": [[["mixed0", 0, 0, {}]]], "config": {"padding": "same", "strides": [1, 1], "trainable": false, "name": "average_pooling2d_2", "data_format": "channels_last", "pool_size": [3, 3]}}, {"name": "conv2d_13", "class_name": "Conv2D", "inbound_nodes": [[["mixed0", 0, 0, {}]]], "config": {"strides": [1, 1], "dilation_rate": [1, 1], "filters": 64, "use_bias": false, "bias_initializer": {"class_name": "Zeros", "config": {}}, "kernel_constraint": null, "padding": "same", "activation": "linear", "activity_regularizer": null, "bias_constraint": null, "trainable": false, "name": "conv2d_13", "kernel_regularizer": null, "bias_regularizer": null, "kernel_size": [1, 1], "data_format": "channels_last", "kernel_initializer": {"class_name": "VarianceScaling", "config": {"scale": 1.0, "mode": "fan_avg", "distribution": "uniform", "seed": null}}}}, {"name": "conv2d_15", "class_name": "Conv2D", "inbound_nodes": [[["activation_14", 0, 0, {}]]], "config": {"strides": [1, 1], "dilation_rate": [1, 1], "filters": 64, "use_bias": false, "bias_initializer": {"class_name": "Zeros", "config": {}}, "kernel_constraint": null, "padding": "same", "activation": "linear", "activity_regularizer": null, "bias_constraint": null, "trainable": false, "name": "conv2d_15", "kernel_regularizer": null, "bias_regularizer": null, "kernel_size": [5, 5], "data_format": "channels_last", "kernel_initializer": {"class_name": "VarianceScaling", "config": {"scale": 1.0, "mode": "fan_avg", "distribution": "uniform", "seed": null}}}}, {"name": "conv2d_18", "class_name": "Conv2D", "inbound_nodes": [[["activation_17", 0, 0, {}]]], "config": {"strides": [1, 1], "dilation_rate": [1, 1], "filters": 96, "use_bias": false, "bias_initializer": {"class_name": "Zeros", "config": {}}, "kernel_constraint": null, "padding": "same", "activation": "linear", "activity_regularizer": null, "bias_constraint": null, "trainable": false, "name": "conv2d_18", "kernel_regularizer": null, "bias_regularizer": null, "kernel_size": [3, 3], "data_format": "channels_last", "kernel_initializer": {"class_name": "VarianceScaling", "config": {"scale": 1.0, "mode": "fan_avg", "distribution": "uniform", "seed": null}}}}, {"name": "conv2d_19", "class_name": "Conv2D", "inbound_nodes": [[["average_pooling2d_2", 0, 0, {}]]], "config": {"strides": [1, 1], "dilation_rate": [1, 1], "filters": 64, "use_bias": false, "bias_initializer": {"class_name": "Zeros", "config": {}}, "kernel_constraint": null, "padding": "same", "activation": "linear", "activity_regularizer": null, "bias_constraint": null, "trainable": false, "name": "conv2d_19", "kernel_regularizer": null, "bias_regularizer": null, "kernel_size": [1, 1], "data_format": "channels_last", "kernel_initializer": {"class_name": "VarianceScaling", "config": {"scale": 1.0, "mode": "fan_avg", "distribution": "uniform", "seed": null}}}}, {"name": "batch_normalization_13", "class_name": "BatchNormalization", "inbound_nodes": [[["conv2d_13", 0, 0, {}]]], "config": {"moving_mean_initializer": {"class_name": "Zeros", "config": {}}, "gamma_constraint": null, "scale": false, "gamma_initializer": {"class_name": "Ones", "config": {}}, "epsilon": 0.001, "momentum": 0.99, "beta_regularizer": null, "gamma_regularizer": null, "beta_initializer": {"class_name": "Zeros", "config": {}}, "center": true, "name": "batch_normalization_13", "moving_variance_initializer": {"class_name": "Ones", "config": {}}, "beta_constraint": null, "axis": 3, "trainable": false}}, {"name": "batch_normalization_15", "class_name": "BatchNormalization", "inbound_nodes": [[["conv2d_15", 0, 0, {}]]], "config": {"moving_mean_initializer": {"class_name": "Zeros", "config": {}}, "gamma_constraint": null, "scale": false, "gamma_initializer": {"class_name": "Ones", "config": {}}, "epsilon": 0.001, "momentum": 0.99, "beta_regularizer": null, "gamma_regularizer": null, "beta_initializer": {"class_name": "Zeros", "config": {}}, "center": true, "name": "batch_normalization_15", "moving_variance_initializer": {"class_name": "Ones", "config": {}}, "beta_constraint": null, "axis": 3, "trainable": false}}, {"name": "batch_normalization_18", "class_name": "BatchNormalization", "inbound_nodes": [[["conv2d_18", 0, 0, {}]]], "config": {"moving_mean_initializer": {"class_name": "Zeros", "config": {}}, "gamma_constraint": null, "scale": false, "gamma_initializer": {"class_name": "Ones", "config": {}}, "epsilon": 0.001, "momentum": 0.99, "beta_regularizer": null, "gamma_regularizer": null, "beta_initializer": {"class_name": "Zeros", "config": {}}, "center": true, "name": "batch_normalization_18", "moving_variance_initializer": {"class_name": "Ones", "config": {}}, "beta_constraint": null, "axis": 3, "trainable": false}}, {"name": "batch_normalization_19", "class_name": "BatchNormalization", "inbound_nodes": [[["conv2d_19", 0, 0, {}]]], "config": {"moving_mean_initializer": {"class_name": "Zeros", "config": {}}, "gamma_constraint": null, "scale": false, "gamma_initializer": {"class_name": "Ones", "config": {}}, "epsilon": 0.001, "momentum": 0.99, "beta_regularizer": null, "gamma_regularizer": null, "beta_initializer": {"class_name": "Zeros", "config": {}}, "center": true, "name": "batch_normalization_19", "moving_variance_initializer": {"class_name": "Ones", "config": {}}, "beta_constraint": null, "axis": 3, "trainable": false}}, {"name": "activation_13", "class_name": "Activation", "inbound_nodes": [[["batch_normalization_13", 0, 0, {}]]], "config": {"name": "activation_13", "activation": "relu", "trainable": false}}, {"name": "activation_15", "class_name": "Activation", "inbound_nodes": [[["batch_normalization_15", 0, 0, {}]]], "config": {"name": "activation_15", "activation": "relu", "trainable": false}}, {"name": "activation_18", "class_name": "Activation", "inbound_nodes": [[["batch_normalization_18", 0, 0, {}]]], "config": {"name": "activation_18", "activation": "relu", "trainable": false}}, {"name": "activation_19", "class_name": "Activation", "inbound_nodes": [[["batch_normalization_19", 0, 0, {}]]], "config": {"name": "activation_19", "activation": "relu", "trainable": false}}, {"name": "mixed1", "class_name": "Concatenate", "inbound_nodes": [[["activation_13", 0, 0, {}], ["activation_15", 0, 0, {}], ["activation_18", 0, 0, {}], ["activation_19", 0, 0, {}]]], "config": {"name": "mixed1", "axis": 3, "trainable": false}}, {"name": "conv2d_23", "class_name": "Conv2D", "inbound_nodes": [[["mixed1", 0, 0, {}]]], "config": {"strides": [1, 1], "dilation_rate": [1, 1], "filters": 64, "use_bias": false, "bias_initializer": {"class_name": "Zeros", "config": {}}, "kernel_constraint": null, "padding": "same", "activation": "linear", "activity_regularizer": null, "bias_constraint": null, "trainable": false, "name": "conv2d_23", "kernel_regularizer": null, "bias_regularizer": null, "kernel_size": [1, 1], "data_format": "channels_last", "kernel_initializer": {"class_name": "VarianceScaling", "config": {"scale": 1.0, "mode": "fan_avg", "distribution": "uniform", "seed": null}}}}, {"name": "batch_normalization_23", "class_name": "BatchNormalization", "inbound_nodes": [[["conv2d_23", 0, 0, {}]]], "config": {"moving_mean_initializer": {"class_name": "Zeros", "config": {}}, "gamma_constraint": null, "scale": false, "gamma_initializer": {"class_name": "Ones", "config": {}}, "epsilon": 0.001, "momentum": 0.99, "beta_regularizer": null, "gamma_regularizer": null, "beta_initializer": {"class_name": "Zeros", "config": {}}, "center": true, "name": "batch_normalization_23", "moving_variance_initializer": {"class_name": "Ones", "config": {}}, "beta_constraint": null, "axis": 3, "trainable": false}}, {"name": "activation_23", "class_name": "Activation", "inbound_nodes": [[["batch_normalization_23", 0, 0, {}]]], "config": {"name": "activation_23", "activation": "relu", "trainable": false}}, {"name": "conv2d_21", "class_name": "Conv2D", "inbound_nodes": [[["mixed1", 0, 0, {}]]], "config": {"strides": [1, 1], "dilation_rate": [1, 1], "filters": 48, "use_bias": false, "bias_initializer": {"class_name": "Zeros", "config": {}}, "kernel_constraint": null, "padding": "same", "activation": "linear", "activity_regularizer": null, "bias_constraint": null, "trainable": false, "name": "conv2d_21", "kernel_regularizer": null, "bias_regularizer": null, "kernel_size": [1, 1], "data_format": "channels_last", "kernel_initializer": {"class_name": "VarianceScaling", "config": {"scale": 1.0, "mode": "fan_avg", "distribution": "uniform", "seed": null}}}}, {"name": "conv2d_24", "class_name": "Conv2D", "inbound_nodes": [[["activation_23", 0, 0, {}]]], "config": {"strides": [1, 1], "dilation_rate": [1, 1], "filters": 96, "use_bias": false, "bias_initializer": {"class_name": "Zeros", "config": {}}, "kernel_constraint": null, "padding": "same", "activation": "linear", "activity_regularizer": null, "bias_constraint": null, "trainable": false, "name": "conv2d_24", "kernel_regularizer": null, "bias_regularizer": null, "kernel_size": [3, 3], "data_format": "channels_last", "kernel_initializer": {"class_name": "VarianceScaling", "config": {"scale": 1.0, "mode": "fan_avg", "distribution": "uniform", "seed": null}}}}, {"name": "batch_normalization_21", "class_name": "BatchNormalization", "inbound_nodes": [[["conv2d_21", 0, 0, {}]]], "config": {"moving_mean_initializer": {"class_name": "Zeros", "config": {}}, "gamma_constraint": null, "scale": false, "gamma_initializer": {"class_name": "Ones", "config": {}}, "epsilon": 0.001, "momentum": 0.99, "beta_regularizer": null, "gamma_regularizer": null, "beta_initializer": {"class_name": "Zeros", "config": {}}, "center": true, "name": "batch_normalization_21", "moving_variance_initializer": {"class_name": "Ones", "config": {}}, "beta_constraint": null, "axis": 3, "trainable": false}}, {"name": "batch_normalization_24", "class_name": "BatchNormalization", "inbound_nodes": [[["conv2d_24", 0, 0, {}]]], "config": {"moving_mean_initializer": {"class_name": "Zeros", "config": {}}, "gamma_constraint": null, "scale": false, "gamma_initializer": {"class_name": "Ones", "config": {}}, "epsilon": 0.001, "momentum": 0.99, "beta_regularizer": null, "gamma_regularizer": null, "beta_initializer": {"class_name": "Zeros", "config": {}}, "center": true, "name": "batch_normalization_24", "moving_variance_initializer": {"class_name": "Ones", "config": {}}, "beta_constraint": null, "axis": 3, "trainable": false}}, {"name": "activation_21", "class_name": "Activation", "inbound_nodes": [[["batch_normalization_21", 0, 0, {}]]], "config": {"name": "activation_21", "activation": "relu", "trainable": false}}, {"name": "activation_24", "class_name": "Activation", "inbound_nodes": [[["batch_normalization_24", 0, 0, {}]]], "config": {"name": "activation_24", "activation": "relu", "trainable": false}}, {"name": "average_pooling2d_3", "class_name": "AveragePooling2D", "inbound_nodes": [[["mixed1", 0, 0, {}]]], "config": {"padding": "same", "strides": [1, 1], "trainable": false, "name": "average_pooling2d_3", "data_format": "channels_last", "pool_size": [3, 3]}}, {"name": "conv2d_20", "class_name": "Conv2D", "inbound_nodes": [[["mixed1", 0, 0, {}]]], "config": {"strides": [1, 1], "dilation_rate": [1, 1], "filters": 64, "use_bias": false, "bias_initializer": {"class_name": "Zeros", "config": {}}, "kernel_constraint": null, "padding": "same", "activation": "linear", "activity_regularizer": null, "bias_constraint": null, "trainable": false, "name": "conv2d_20", "kernel_regularizer": null, "bias_regularizer": null, "kernel_size": [1, 1], "data_format": "channels_last", "kernel_initializer": {"class_name": "VarianceScaling", "config": {"scale": 1.0, "mode": "fan_avg", "distribution": "uniform", "seed": null}}}}, {"name": "conv2d_22", "class_name": "Conv2D", "inbound_nodes": [[["activation_21", 0, 0, {}]]], "config": {"strides": [1, 1], "dilation_rate": [1, 1], "filters": 64, "use_bias": false, "bias_initializer": {"class_name": "Zeros", "config": {}}, "kernel_constraint": null, "padding": "same", "activation": "linear", "activity_regularizer": null, "bias_constraint": null, "trainable": false, "name": "conv2d_22", "kernel_regularizer": null, "bias_regularizer": null, "kernel_size": [5, 5], "data_format": "channels_last", "kernel_initializer": {"class_name": "VarianceScaling", "config": {"scale": 1.0, "mode": "fan_avg", "distribution": "uniform", "seed": null}}}}, {"name": "conv2d_25", "class_name": "Conv2D", "inbound_nodes": [[["activation_24", 0, 0, {}]]], "config": {"strides": [1, 1], "dilation_rate": [1, 1], "filters": 96, "use_bias": false, "bias_initializer": {"class_name": "Zeros", "config": {}}, "kernel_constraint": null, "padding": "same", "activation": "linear", "activity_regularizer": null, "bias_constraint": null, "trainable": false, "name": "conv2d_25", "kernel_regularizer": null, "bias_regularizer": null, "kernel_size": [3, 3], "data_format": "channels_last", "kernel_initializer": {"class_name": "VarianceScaling", "config": {"scale": 1.0, "mode": "fan_avg", "distribution": "uniform", "seed": null}}}}, {"name": "conv2d_26", "class_name": "Conv2D", "inbound_nodes": [[["average_pooling2d_3", 0, 0, {}]]], "config": {"strides": [1, 1], "dilation_rate": [1, 1], "filters": 64, "use_bias": false, "bias_initializer": {"class_name": "Zeros", "config": {}}, "kernel_constraint": null, "padding": "same", "activation": "linear", "activity_regularizer": null, "bias_constraint": null, "trainable": false, "name": "conv2d_26", "kernel_regularizer": null, "bias_regularizer": null, "kernel_size": [1, 1], "data_format": "channels_last", "kernel_initializer": {"class_name": "VarianceScaling", "config": {"scale": 1.0, "mode": "fan_avg", "distribution": "uniform", "seed": null}}}}, {"name": "batch_normalization_20", "class_name": "BatchNormalization", "inbound_nodes": [[["conv2d_20", 0, 0, {}]]], "config": {"moving_mean_initializer": {"class_name": "Zeros", "config": {}}, "gamma_constraint": null, "scale": false, "gamma_initializer": {"class_name": "Ones", "config": {}}, "epsilon": 0.001, "momentum": 0.99, "beta_regularizer": null, "gamma_regularizer": null, "beta_initializer": {"class_name": "Zeros", "config": {}}, "center": true, "name": "batch_normalization_20", "moving_variance_initializer": {"class_name": "Ones", "config": {}}, "beta_constraint": null, "axis": 3, "trainable": false}}, {"name": "batch_normalization_22", "class_name": "BatchNormalization", "inbound_nodes": [[["conv2d_22", 0, 0, {}]]], "config": {"moving_mean_initializer": {"class_name": "Zeros", "config": {}}, "gamma_constraint": null, "scale": false, "gamma_initializer": {"class_name": "Ones", "config": {}}, "epsilon": 0.001, "momentum": 0.99, "beta_regularizer": null, "gamma_regularizer": null, "beta_initializer": {"class_name": "Zeros", "config": {}}, "center": true, "name": "batch_normalization_22", "moving_variance_initializer": {"class_name": "Ones", "config": {}}, "beta_constraint": null, "axis": 3, "trainable": false}}, {"name": "batch_normalization_25", "class_name": "BatchNormalization", "inbound_nodes": [[["conv2d_25", 0, 0, {}]]], "config": {"moving_mean_initializer": {"class_name": "Zeros", "config": {}}, "gamma_constraint": null, "scale": false, "gamma_initializer": {"class_name": "Ones", "config": {}}, "epsilon": 0.001, "momentum": 0.99, "beta_regularizer": null, "gamma_regularizer": null, "beta_initializer": {"class_name": "Zeros", "config": {}}, "center": true, "name": "batch_normalization_25", "moving_variance_initializer": {"class_name": "Ones", "config": {}}, "beta_constraint": null, "axis": 3, "trainable": false}}, {"name": "batch_normalization_26", "class_name": "BatchNormalization", "inbound_nodes": [[["conv2d_26", 0, 0, {}]]], "config": {"moving_mean_initializer": {"class_name": "Zeros", "config": {}}, "gamma_constraint": null, "scale": false, "gamma_initializer": {"class_name": "Ones", "config": {}}, "epsilon": 0.001, "momentum": 0.99, "beta_regularizer": null, "gamma_regularizer": null, "beta_initializer": {"class_name": "Zeros", "config": {}}, "center": true, "name": "batch_normalization_26", "moving_variance_initializer": {"class_name": "Ones", "config": {}}, "beta_constraint": null, "axis": 3, "trainable": false}}, {"name": "activation_20", "class_name": "Activation", "inbound_nodes": [[["batch_normalization_20", 0, 0, {}]]], "config": {"name": "activation_20", "activation": "relu", "trainable": false}}, {"name": "activation_22", "class_name": "Activation", "inbound_nodes": [[["batch_normalization_22", 0, 0, {}]]], "config": {"name": "activation_22", "activation": "relu", "trainable": false}}, {"name": "activation_25", "class_name": "Activation", "inbound_nodes": [[["batch_normalization_25", 0, 0, {}]]], "config": {"name": "activation_25", "activation": "relu", "trainable": false}}, {"name": "activation_26", "class_name": "Activation", "inbound_nodes": [[["batch_normalization_26", 0, 0, {}]]], "config": {"name": "activation_26", "activation": "relu", "trainable": false}}, {"name": "mixed2", "class_name": "Concatenate", "inbound_nodes": [[["activation_20", 0, 0, {}], ["activation_22", 0, 0, {}], ["activation_25", 0, 0, {}], ["activation_26", 0, 0, {}]]], "config": {"name": "mixed2", "axis": 3, "trainable": false}}, {"name": "conv2d_28", "class_name": "Conv2D", "inbound_nodes": [[["mixed2", 0, 0, {}]]], "config": {"strides": [1, 1], "dilation_rate": [1, 1], "filters": 64, "use_bias": false, "bias_initializer": {"class_name": "Zeros", "config": {}}, "kernel_constraint": null, "padding": "same", "activation": "linear", "activity_regularizer": null, "bias_constraint": null, "trainable": false, "name": "conv2d_28", "kernel_regularizer": null, "bias_regularizer": null, "kernel_size": [1, 1], "data_format": "channels_last", "kernel_initializer": {"class_name": "VarianceScaling", "config": {"scale": 1.0, "mode": "fan_avg", "distribution": "uniform", "seed": null}}}}, {"name": "batch_normalization_28", "class_name": "BatchNormalization", "inbound_nodes": [[["conv2d_28", 0, 0, {}]]], "config": {"moving_mean_initializer": {"class_name": "Zeros", "config": {}}, "gamma_constraint": null, "scale": false, "gamma_initializer": {"class_name": "Ones", "config": {}}, "epsilon": 0.001, "momentum": 0.99, "beta_regularizer": null, "gamma_regularizer": null, "beta_initializer": {"class_name": "Zeros", "config": {}}, "center": true, "name": "batch_normalization_28", "moving_variance_initializer": {"class_name": "Ones", "config": {}}, "beta_constraint": null, "axis": 3, "trainable": false}}, {"name": "activation_28", "class_name": "Activation", "inbound_nodes": [[["batch_normalization_28", 0, 0, {}]]], "config": {"name": "activation_28", "activation": "relu", "trainable": false}}, {"name": "conv2d_29", "class_name": "Conv2D", "inbound_nodes": [[["activation_28", 0, 0, {}]]], "config": {"strides": [1, 1], "dilation_rate": [1, 1], "filters": 96, "use_bias": false, "bias_initializer": {"class_name": "Zeros", "config": {}}, "kernel_constraint": null, "padding": "same", "activation": "linear", "activity_regularizer": null, "bias_constraint": null, "trainable": false, "name": "conv2d_29", "kernel_regularizer": null, "bias_regularizer": null, "kernel_size": [3, 3], "data_format": "channels_last", "kernel_initializer": {"class_name": "VarianceScaling", "config": {"scale": 1.0, "mode": "fan_avg", "distribution": "uniform", "seed": null}}}}, {"name": "batch_normalization_29", "class_name": "BatchNormalization", "inbound_nodes": [[["conv2d_29", 0, 0, {}]]], "config": {"moving_mean_initializer": {"class_name": "Zeros", "config": {}}, "gamma_constraint": null, "scale": false, "gamma_initializer": {"class_name": "Ones", "config": {}}, "epsilon": 0.001, "momentum": 0.99, "beta_regularizer": null, "gamma_regularizer": null, "beta_initializer": {"class_name": "Zeros", "config": {}}, "center": true, "name": "batch_normalization_29", "moving_variance_initializer": {"class_name": "Ones", "config": {}}, "beta_constraint": null, "axis": 3, "trainable": false}}, {"name": "activation_29", "class_name": "Activation", "inbound_nodes": [[["batch_normalization_29", 0, 0, {}]]], "config": {"name": "activation_29", "activation": "relu", "trainable": false}}, {"name": "conv2d_27", "class_name": "Conv2D", "inbound_nodes": [[["mixed2", 0, 0, {}]]], "config": {"strides": [2, 2], "dilation_rate": [1, 1], "filters": 384, "use_bias": false, "bias_initializer": {"class_name": "Zeros", "config": {}}, "kernel_constraint": null, "padding": "valid", "activation": "linear", "activity_regularizer": null, "bias_constraint": null, "trainable": false, "name": "conv2d_27", "kernel_regularizer": null, "bias_regularizer": null, "kernel_size": [3, 3], "data_format": "channels_last", "kernel_initializer": {"class_name": "VarianceScaling", "config": {"scale": 1.0, "mode": "fan_avg", "distribution": "uniform", "seed": null}}}}, {"name": "conv2d_30", "class_name": "Conv2D", "inbound_nodes": [[["activation_29", 0, 0, {}]]], "config": {"strides": [2, 2], "dilation_rate": [1, 1], "filters": 96, "use_bias": false, "bias_initializer": {"class_name": "Zeros", "config": {}}, "kernel_constraint": null, "padding": "valid", "activation": "linear", "activity_regularizer": null, "bias_constraint": null, "trainable": false, "name": "conv2d_30", "kernel_regularizer": null, "bias_regularizer": null, "kernel_size": [3, 3], "data_format": "channels_last", "kernel_initializer": {"class_name": "VarianceScaling", "config": {"scale": 1.0, "mode": "fan_avg", "distribution": "uniform", "seed": null}}}}, {"name": "batch_normalization_27", "class_name": "BatchNormalization", "inbound_nodes": [[["conv2d_27", 0, 0, {}]]], "config": {"moving_mean_initializer": {"class_name": "Zeros", "config": {}}, "gamma_constraint": null, "scale": false, "gamma_initializer": {"class_name": "Ones", "config": {}}, "epsilon": 0.001, "momentum": 0.99, "beta_regularizer": null, "gamma_regularizer": null, "beta_initializer": {"class_name": "Zeros", "config": {}}, "center": true, "name": "batch_normalization_27", "moving_variance_initializer": {"class_name": "Ones", "config": {}}, "beta_constraint": null, "axis": 3, "trainable": false}}, {"name": "batch_normalization_30", "class_name": "BatchNormalization", "inbound_nodes": [[["conv2d_30", 0, 0, {}]]], "config": {"moving_mean_initializer": {"class_name": "Zeros", "config": {}}, "gamma_constraint": null, "scale": false, "gamma_initializer": {"class_name": "Ones", "config": {}}, "epsilon": 0.001, "momentum": 0.99, "beta_regularizer": null, "gamma_regularizer": null, "beta_initializer": {"class_name": "Zeros", "config": {}}, "center": true, "name": "batch_normalization_30", "moving_variance_initializer": {"class_name": "Ones", "config": {}}, "beta_constraint": null, "axis": 3, "trainable": false}}, {"name": "activation_27", "class_name": "Activation", "inbound_nodes": [[["batch_normalization_27", 0, 0, {}]]], "config": {"name": "activation_27", "activation": "relu", "trainable": false}}, {"name": "activation_30", "class_name": "Activation", "inbound_nodes": [[["batch_normalization_30", 0, 0, {}]]], "config": {"name": "activation_30", "activation": "relu", "trainable": false}}, {"name": "max_pooling2d_3", "class_name": "MaxPooling2D", "inbound_nodes": [[["mixed2", 0, 0, {}]]], "config": {"padding": "valid", "strides": [2, 2], "trainable": false, "name": "max_pooling2d_3", "data_format": "channels_last", "pool_size": [3, 3]}}, {"name": "mixed3", "class_name": "Concatenate", "inbound_nodes": [[["activation_27", 0, 0, {}], ["activation_30", 0, 0, {}], ["max_pooling2d_3", 0, 0, {}]]], "config": {"name": "mixed3", "axis": 3, "trainable": false}}, {"name": "conv2d_35", "class_name": "Conv2D", "inbound_nodes": [[["mixed3", 0, 0, {}]]], "config": {"strides": [1, 1], "dilation_rate": [1, 1], "filters": 128, "use_bias": false, "bias_initializer": {"class_name": "Zeros", "config": {}}, "kernel_constraint": null, "padding": "same", "activation": "linear", "activity_regularizer": null, "bias_constraint": null, "trainable": false, "name": "conv2d_35", "kernel_regularizer": null, "bias_regularizer": null, "kernel_size": [1, 1], "data_format": "channels_last", "kernel_initializer": {"class_name": "VarianceScaling", "config": {"scale": 1.0, "mode": "fan_avg", "distribution": "uniform", "seed": null}}}}, {"name": "batch_normalization_35", "class_name": "BatchNormalization", "inbound_nodes": [[["conv2d_35", 0, 0, {}]]], "config": {"moving_mean_initializer": {"class_name": "Zeros", "config": {}}, "gamma_constraint": null, "scale": false, "gamma_initializer": {"class_name": "Ones", "config": {}}, "epsilon": 0.001, "momentum": 0.99, "beta_regularizer": null, "gamma_regularizer": null, "beta_initializer": {"class_name": "Zeros", "config": {}}, "center": true, "name": "batch_normalization_35", "moving_variance_initializer": {"class_name": "Ones", "config": {}}, "beta_constraint": null, "axis": 3, "trainable": false}}, {"name": "activation_35", "class_name": "Activation", "inbound_nodes": [[["batch_normalization_35", 0, 0, {}]]], "config": {"name": "activation_35", "activation": "relu", "trainable": false}}, {"name": "conv2d_36", "class_name": "Conv2D", "inbound_nodes": [[["activation_35", 0, 0, {}]]], "config": {"strides": [1, 1], "dilation_rate": [1, 1], "filters": 128, "use_bias": false, "bias_initializer": {"class_name": "Zeros", "config": {}}, "kernel_constraint": null, "padding": "same", "activation": "linear", "activity_regularizer": null, "bias_constraint": null, "trainable": false, "name": "conv2d_36", "kernel_regularizer": null, "bias_regularizer": null, "kernel_size": [7, 1], "data_format": "channels_last", "kernel_initializer": {"class_name": "VarianceScaling", "config": {"scale": 1.0, "mode": "fan_avg", "distribution": "uniform", "seed": null}}}}, {"name": "batch_normalization_36", "class_name": "BatchNormalization", "inbound_nodes": [[["conv2d_36", 0, 0, {}]]], "config": {"moving_mean_initializer": {"class_name": "Zeros", "config": {}}, "gamma_constraint": null, "scale": false, "gamma_initializer": {"class_name": "Ones", "config": {}}, "epsilon": 0.001, "momentum": 0.99, "beta_regularizer": null, "gamma_regularizer": null, "beta_initializer": {"class_name": "Zeros", "config": {}}, "center": true, "name": "batch_normalization_36", "moving_variance_initializer": {"class_name": "Ones", "config": {}}, "beta_constraint": null, "axis": 3, "trainable": false}}, {"name": "activation_36", "class_name": "Activation", "inbound_nodes": [[["batch_normalization_36", 0, 0, {}]]], "config": {"name": "activation_36", "activation": "relu", "trainable": false}}, {"name": "conv2d_32", "class_name": "Conv2D", "inbound_nodes": [[["mixed3", 0, 0, {}]]], "config": {"strides": [1, 1], "dilation_rate": [1, 1], "filters": 128, "use_bias": false, "bias_initializer": {"class_name": "Zeros", "config": {}}, "kernel_constraint": null, "padding": "same", "activation": "linear", "activity_regularizer": null, "bias_constraint": null, "trainable": false, "name": "conv2d_32", "kernel_regularizer": null, "bias_regularizer": null, "kernel_size": [1, 1], "data_format": "channels_last", "kernel_initializer": {"class_name": "VarianceScaling", "config": {"scale": 1.0, "mode": "fan_avg", "distribution": "uniform", "seed": null}}}}, {"name": "conv2d_37", "class_name": "Conv2D", "inbound_nodes": [[["activation_36", 0, 0, {}]]], "config": {"strides": [1, 1], "dilation_rate": [1, 1], "filters": 128, "use_bias": false, "bias_initializer": {"class_name": "Zeros", "config": {}}, "kernel_constraint": null, "padding": "same", "activation": "linear", "activity_regularizer": null, "bias_constraint": null, "trainable": false, "name": "conv2d_37", "kernel_regularizer": null, "bias_regularizer": null, "kernel_size": [1, 7], "data_format": "channels_last", "kernel_initializer": {"class_name": "VarianceScaling", "config": {"scale": 1.0, "mode": "fan_avg", "distribution": "uniform", "seed": null}}}}, {"name": "batch_normalization_32", "class_name": "BatchNormalization", "inbound_nodes": [[["conv2d_32", 0, 0, {}]]], "config": {"moving_mean_initializer": {"class_name": "Zeros", "config": {}}, "gamma_constraint": null, "scale": false, "gamma_initializer": {"class_name": "Ones", "config": {}}, "epsilon": 0.001, "momentum": 0.99, "beta_regularizer": null, "gamma_regularizer": null, "beta_initializer": {"class_name": "Zeros", "config": {}}, "center": true, "name": "batch_normalization_32", "moving_variance_initializer": {"class_name": "Ones", "config": {}}, "beta_constraint": null, "axis": 3, "trainable": false}}, {"name": "batch_normalization_37", "class_name": "BatchNormalization", "inbound_nodes": [[["conv2d_37", 0, 0, {}]]], "config": {"moving_mean_initializer": {"class_name": "Zeros", "config": {}}, "gamma_constraint": null, "scale": false, "gamma_initializer": {"class_name": "Ones", "config": {}}, "epsilon": 0.001, "momentum": 0.99, "beta_regularizer": null, "gamma_regularizer": null, "beta_initializer": {"class_name": "Zeros", "config": {}}, "center": true, "name": "batch_normalization_37", "moving_variance_initializer": {"class_name": "Ones", "config": {}}, "beta_constraint": null, "axis": 3, "trainable": false}}, {"name": "activation_32", "class_name": "Activation", "inbound_nodes": [[["batch_normalization_32", 0, 0, {}]]], "config": {"name": "activation_32", "activation": "relu", "trainable": false}}, {"name": "activation_37", "class_name": "Activation", "inbound_nodes": [[["batch_normalization_37", 0, 0, {}]]], "config": {"name": "activation_37", "activation": "relu", "trainable": false}}, {"name": "conv2d_33", "class_name": "Conv2D", "inbound_nodes": [[["activation_32", 0, 0, {}]]], "config": {"strides": [1, 1], "dilation_rate": [1, 1], "filters": 128, "use_bias": false, "bias_initializer": {"class_name": "Zeros", "config": {}}, "kernel_constraint": null, "padding": "same", "activation": "linear", "activity_regularizer": null, "bias_constraint": null, "trainable": false, "name": "conv2d_33", "kernel_regularizer": null, "bias_regularizer": null, "kernel_size": [1, 7], "data_format": "channels_last", "kernel_initializer": {"class_name": "VarianceScaling", "config": {"scale": 1.0, "mode": "fan_avg", "distribution": "uniform", "seed": null}}}}, {"name": "conv2d_38", "class_name": "Conv2D", "inbound_nodes": [[["activation_37", 0, 0, {}]]], "config": {"strides": [1, 1], "dilation_rate": [1, 1], "filters": 128, "use_bias": false, "bias_initializer": {"class_name": "Zeros", "config": {}}, "kernel_constraint": null, "padding": "same", "activation": "linear", "activity_regularizer": null, "bias_constraint": null, "trainable": false, "name": "conv2d_38", "kernel_regularizer": null, "bias_regularizer": null, "kernel_size": [7, 1], "data_format": "channels_last", "kernel_initializer": {"class_name": "VarianceScaling", "config": {"scale": 1.0, "mode": "fan_avg", "distribution": "uniform", "seed": null}}}}, {"name": "batch_normalization_33", "class_name": "BatchNormalization", "inbound_nodes": [[["conv2d_33", 0, 0, {}]]], "config": {"moving_mean_initializer": {"class_name": "Zeros", "config": {}}, "gamma_constraint": null, "scale": false, "gamma_initializer": {"class_name": "Ones", "config": {}}, "epsilon": 0.001, "momentum": 0.99, "beta_regularizer": null, "gamma_regularizer": null, "beta_initializer": {"class_name": "Zeros", "config": {}}, "center": true, "name": "batch_normalization_33", "moving_variance_initializer": {"class_name": "Ones", "config": {}}, "beta_constraint": null, "axis": 3, "trainable": false}}, {"name": "batch_normalization_38", "class_name": "BatchNormalization", "inbound_nodes": [[["conv2d_38", 0, 0, {}]]], "config": {"moving_mean_initializer": {"class_name": "Zeros", "config": {}}, "gamma_constraint": null, "scale": false, "gamma_initializer": {"class_name": "Ones", "config": {}}, "epsilon": 0.001, "momentum": 0.99, "beta_regularizer": null, "gamma_regularizer": null, "beta_initializer": {"class_name": "Zeros", "config": {}}, "center": true, "name": "batch_normalization_38", "moving_variance_initializer": {"class_name": "Ones", "config": {}}, "beta_constraint": null, "axis": 3, "trainable": false}}, {"name": "activation_33", "class_name": "Activation", "inbound_nodes": [[["batch_normalization_33", 0, 0, {}]]], "config": {"name": "activation_33", "activation": "relu", "trainable": false}}, {"name": "activation_38", "class_name": "Activation", "inbound_nodes": [[["batch_normalization_38", 0, 0, {}]]], "config": {"name": "activation_38", "activation": "relu", "trainable": false}}, {"name": "average_pooling2d_4", "class_name": "AveragePooling2D", "inbound_nodes": [[["mixed3", 0, 0, {}]]], "config": {"padding": "same", "strides": [1, 1], "trainable": false, "name": "average_pooling2d_4", "data_format": "channels_last", "pool_size": [3, 3]}}, {"name": "conv2d_31", "class_name": "Conv2D", "inbound_nodes": [[["mixed3", 0, 0, {}]]], "config": {"strides": [1, 1], "dilation_rate": [1, 1], "filters": 192, "use_bias": false, "bias_initializer": {"class_name": "Zeros", "config": {}}, "kernel_constraint": null, "padding": "same", "activation": "linear", "activity_regularizer": null, "bias_constraint": null, "trainable": false, "name": "conv2d_31", "kernel_regularizer": null, "bias_regularizer": null, "kernel_size": [1, 1], "data_format": "channels_last", "kernel_initializer": {"class_name": "VarianceScaling", "config": {"scale": 1.0, "mode": "fan_avg", "distribution": "uniform", "seed": null}}}}, {"name": "conv2d_34", "class_name": "Conv2D", "inbound_nodes": [[["activation_33", 0, 0, {}]]], "config": {"strides": [1, 1], "dilation_rate": [1, 1], "filters": 192, "use_bias": false, "bias_initializer": {"class_name": "Zeros", "config": {}}, "kernel_constraint": null, "padding": "same", "activation": "linear", "activity_regularizer": null, "bias_constraint": null, "trainable": false, "name": "conv2d_34", "kernel_regularizer": null, "bias_regularizer": null, "kernel_size": [7, 1], "data_format": "channels_last", "kernel_initializer": {"class_name": "VarianceScaling", "config": {"scale": 1.0, "mode": "fan_avg", "distribution": "uniform", "seed": null}}}}, {"name": "conv2d_39", "class_name": "Conv2D", "inbound_nodes": [[["activation_38", 0, 0, {}]]], "config": {"strides": [1, 1], "dilation_rate": [1, 1], "filters": 192, "use_bias": false, "bias_initializer": {"class_name": "Zeros", "config": {}}, "kernel_constraint": null, "padding": "same", "activation": "linear", "activity_regularizer": null, "bias_constraint": null, "trainable": false, "name": "conv2d_39", "kernel_regularizer": null, "bias_regularizer": null, "kernel_size": [1, 7], "data_format": "channels_last", "kernel_initializer": {"class_name": "VarianceScaling", "config": {"scale": 1.0, "mode": "fan_avg", "distribution": "uniform", "seed": null}}}}, {"name": "conv2d_40", "class_name": "Conv2D", "inbound_nodes": [[["average_pooling2d_4", 0, 0, {}]]], "config": {"strides": [1, 1], "dilation_rate": [1, 1], "filters": 192, "use_bias": false, "bias_initializer": {"class_name": "Zeros", "config": {}}, "kernel_constraint": null, "padding": "same", "activation": "linear", "activity_regularizer": null, "bias_constraint": null, "trainable": false, "name": "conv2d_40", "kernel_regularizer": null, "bias_regularizer": null, "kernel_size": [1, 1], "data_format": "channels_last", "kernel_initializer": {"class_name": "VarianceScaling", "config": {"scale": 1.0, "mode": "fan_avg", "distribution": "uniform", "seed": null}}}}, {"name": "batch_normalization_31", "class_name": "BatchNormalization", "inbound_nodes": [[["conv2d_31", 0, 0, {}]]], "config": {"moving_mean_initializer": {"class_name": "Zeros", "config": {}}, "gamma_constraint": null, "scale": false, "gamma_initializer": {"class_name": "Ones", "config": {}}, "epsilon": 0.001, "momentum": 0.99, "beta_regularizer": null, "gamma_regularizer": null, "beta_initializer": {"class_name": "Zeros", "config": {}}, "center": true, "name": "batch_normalization_31", "moving_variance_initializer": {"class_name": "Ones", "config": {}}, "beta_constraint": null, "axis": 3, "trainable": false}}, {"name": "batch_normalization_34", "class_name": "BatchNormalization", "inbound_nodes": [[["conv2d_34", 0, 0, {}]]], "config": {"moving_mean_initializer": {"class_name": "Zeros", "config": {}}, "gamma_constraint": null, "scale": false, "gamma_initializer": {"class_name": "Ones", "config": {}}, "epsilon": 0.001, "momentum": 0.99, "beta_regularizer": null, "gamma_regularizer": null, "beta_initializer": {"class_name": "Zeros", "config": {}}, "center": true, "name": "batch_normalization_34", "moving_variance_initializer": {"class_name": "Ones", "config": {}}, "beta_constraint": null, "axis": 3, "trainable": false}}, {"name": "batch_normalization_39", "class_name": "BatchNormalization", "inbound_nodes": [[["conv2d_39", 0, 0, {}]]], "config": {"moving_mean_initializer": {"class_name": "Zeros", "config": {}}, "gamma_constraint": null, "scale": false, "gamma_initializer": {"class_name": "Ones", "config": {}}, "epsilon": 0.001, "momentum": 0.99, "beta_regularizer": null, "gamma_regularizer": null, "beta_initializer": {"class_name": "Zeros", "config": {}}, "center": true, "name": "batch_normalization_39", "moving_variance_initializer": {"class_name": "Ones", "config": {}}, "beta_constraint": null, "axis": 3, "trainable": false}}, {"name": "batch_normalization_40", "class_name": "BatchNormalization", "inbound_nodes": [[["conv2d_40", 0, 0, {}]]], "config": {"moving_mean_initializer": {"class_name": "Zeros", "config": {}}, "gamma_constraint": null, "scale": false, "gamma_initializer": {"class_name": "Ones", "config": {}}, "epsilon": 0.001, "momentum": 0.99, "beta_regularizer": null, "gamma_regularizer": null, "beta_initializer": {"class_name": "Zeros", "config": {}}, "center": true, "name": "batch_normalization_40", "moving_variance_initializer": {"class_name": "Ones", "config": {}}, "beta_constraint": null, "axis": 3, "trainable": false}}, {"name": "activation_31", "class_name": "Activation", "inbound_nodes": [[["batch_normalization_31", 0, 0, {}]]], "config": {"name": "activation_31", "activation": "relu", "trainable": false}}, {"name": "activation_34", "class_name": "Activation", "inbound_nodes": [[["batch_normalization_34", 0, 0, {}]]], "config": {"name": "activation_34", "activation": "relu", "trainable": false}}, {"name": "activation_39", "class_name": "Activation", "inbound_nodes": [[["batch_normalization_39", 0, 0, {}]]], "config": {"name": "activation_39", "activation": "relu", "trainable": false}}, {"name": "activation_40", "class_name": "Activation", "inbound_nodes": [[["batch_normalization_40", 0, 0, {}]]], "config": {"name": "activation_40", "activation": "relu", "trainable": false}}, {"name": "mixed4", "class_name": "Concatenate", "inbound_nodes": [[["activation_31", 0, 0, {}], ["activation_34", 0, 0, {}], ["activation_39", 0, 0, {}], ["activation_40", 0, 0, {}]]], "config": {"name": "mixed4", "axis": 3, "trainable": false}}, {"name": "conv2d_45", "class_name": "Conv2D", "inbound_nodes": [[["mixed4", 0, 0, {}]]], "config": {"strides": [1, 1], "dilation_rate": [1, 1], "filters": 160, "use_bias": false, "bias_initializer": {"class_name": "Zeros", "config": {}}, "kernel_constraint": null, "padding": "same", "activation": "linear", "activity_regularizer": null, "bias_constraint": null, "trainable": false, "name": "conv2d_45", "kernel_regularizer": null, "bias_regularizer": null, "kernel_size": [1, 1], "data_format": "channels_last", "kernel_initializer": {"class_name": "VarianceScaling", "config": {"scale": 1.0, "mode": "fan_avg", "distribution": "uniform", "seed": null}}}}, {"name": "batch_normalization_45", "class_name": "BatchNormalization", "inbound_nodes": [[["conv2d_45", 0, 0, {}]]], "config": {"moving_mean_initializer": {"class_name": "Zeros", "config": {}}, "gamma_constraint": null, "scale": false, "gamma_initializer": {"class_name": "Ones", "config": {}}, "epsilon": 0.001, "momentum": 0.99, "beta_regularizer": null, "gamma_regularizer": null, "beta_initializer": {"class_name": "Zeros", "config": {}}, "center": true, "name": "batch_normalization_45", "moving_variance_initializer": {"class_name": "Ones", "config": {}}, "beta_constraint": null, "axis": 3, "trainable": false}}, {"name": "activation_45", "class_name": "Activation", "inbound_nodes": [[["batch_normalization_45", 0, 0, {}]]], "config": {"name": "activation_45", "activation": "relu", "trainable": false}}, {"name": "conv2d_46", "class_name": "Conv2D", "inbound_nodes": [[["activation_45", 0, 0, {}]]], "config": {"strides": [1, 1], "dilation_rate": [1, 1], "filters": 160, "use_bias": false, "bias_initializer": {"class_name": "Zeros", "config": {}}, "kernel_constraint": null, "padding": "same", "activation": "linear", "activity_regularizer": null, "bias_constraint": null, "trainable": false, "name": "conv2d_46", "kernel_regularizer": null, "bias_regularizer": null, "kernel_size": [7, 1], "data_format": "channels_last", "kernel_initializer": {"class_name": "VarianceScaling", "config": {"scale": 1.0, "mode": "fan_avg", "distribution": "uniform", "seed": null}}}}, {"name": "batch_normalization_46", "class_name": "BatchNormalization", "inbound_nodes": [[["conv2d_46", 0, 0, {}]]], "config": {"moving_mean_initializer": {"class_name": "Zeros", "config": {}}, "gamma_constraint": null, "scale": false, "gamma_initializer": {"class_name": "Ones", "config": {}}, "epsilon": 0.001, "momentum": 0.99, "beta_regularizer": null, "gamma_regularizer": null, "beta_initializer": {"class_name": "Zeros", "config": {}}, "center": true, "name": "batch_normalization_46", "moving_variance_initializer": {"class_name": "Ones", "config": {}}, "beta_constraint": null, "axis": 3, "trainable": false}}, {"name": "activation_46", "class_name": "Activation", "inbound_nodes": [[["batch_normalization_46", 0, 0, {}]]], "config": {"name": "activation_46", "activation": "relu", "trainable": false}}, {"name": "conv2d_42", "class_name": "Conv2D", "inbound_nodes": [[["mixed4", 0, 0, {}]]], "config": {"strides": [1, 1], "dilation_rate": [1, 1], "filters": 160, "use_bias": false, "bias_initializer": {"class_name": "Zeros", "config": {}}, "kernel_constraint": null, "padding": "same", "activation": "linear", "activity_regularizer": null, "bias_constraint": null, "trainable": false, "name": "conv2d_42", "kernel_regularizer": null, "bias_regularizer": null, "kernel_size": [1, 1], "data_format": "channels_last", "kernel_initializer": {"class_name": "VarianceScaling", "config": {"scale": 1.0, "mode": "fan_avg", "distribution": "uniform", "seed": null}}}}, {"name": "conv2d_47", "class_name": "Conv2D", "inbound_nodes": [[["activation_46", 0, 0, {}]]], "config": {"strides": [1, 1], "dilation_rate": [1, 1], "filters": 160, "use_bias": false, "bias_initializer": {"class_name": "Zeros", "config": {}}, "kernel_constraint": null, "padding": "same", "activation": "linear", "activity_regularizer": null, "bias_constraint": null, "trainable": false, "name": "conv2d_47", "kernel_regularizer": null, "bias_regularizer": null, "kernel_size": [1, 7], "data_format": "channels_last", "kernel_initializer": {"class_name": "VarianceScaling", "config": {"scale": 1.0, "mode": "fan_avg", "distribution": "uniform", "seed": null}}}}, {"name": "batch_normalization_42", "class_name": "BatchNormalization", "inbound_nodes": [[["conv2d_42", 0, 0, {}]]], "config": {"moving_mean_initializer": {"class_name": "Zeros", "config": {}}, "gamma_constraint": null, "scale": false, "gamma_initializer": {"class_name": "Ones", "config": {}}, "epsilon": 0.001, "momentum": 0.99, "beta_regularizer": null, "gamma_regularizer": null, "beta_initializer": {"class_name": "Zeros", "config": {}}, "center": true, "name": "batch_normalization_42", "moving_variance_initializer": {"class_name": "Ones", "config": {}}, "beta_constraint": null, "axis": 3, "trainable": false}}, {"name": "batch_normalization_47", "class_name": "BatchNormalization", "inbound_nodes": [[["conv2d_47", 0, 0, {}]]], "config": {"moving_mean_initializer": {"class_name": "Zeros", "config": {}}, "gamma_constraint": null, "scale": false, "gamma_initializer": {"class_name": "Ones", "config": {}}, "epsilon": 0.001, "momentum": 0.99, "beta_regularizer": null, "gamma_regularizer": null, "beta_initializer": {"class_name": "Zeros", "config": {}}, "center": true, "name": "batch_normalization_47", "moving_variance_initializer": {"class_name": "Ones", "config": {}}, "beta_constraint": null, "axis": 3, "trainable": false}}, {"name": "activation_42", "class_name": "Activation", "inbound_nodes": [[["batch_normalization_42", 0, 0, {}]]], "config": {"name": "activation_42", "activation": "relu", "trainable": false}}, {"name": "activation_47", "class_name": "Activation", "inbound_nodes": [[["batch_normalization_47", 0, 0, {}]]], "config": {"name": "activation_47", "activation": "relu", "trainable": false}}, {"name": "conv2d_43", "class_name": "Conv2D", "inbound_nodes": [[["activation_42", 0, 0, {}]]], "config": {"strides": [1, 1], "dilation_rate": [1, 1], "filters": 160, "use_bias": false, "bias_initializer": {"class_name": "Zeros", "config": {}}, "kernel_constraint": null, "padding": "same", "activation": "linear", "activity_regularizer": null, "bias_constraint": null, "trainable": false, "name": "conv2d_43", "kernel_regularizer": null, "bias_regularizer": null, "kernel_size": [1, 7], "data_format": "channels_last", "kernel_initializer": {"class_name": "VarianceScaling", "config": {"scale": 1.0, "mode": "fan_avg", "distribution": "uniform", "seed": null}}}}, {"name": "conv2d_48", "class_name": "Conv2D", "inbound_nodes": [[["activation_47", 0, 0, {}]]], "config": {"strides": [1, 1], "dilation_rate": [1, 1], "filters": 160, "use_bias": false, "bias_initializer": {"class_name": "Zeros", "config": {}}, "kernel_constraint": null, "padding": "same", "activation": "linear", "activity_regularizer": null, "bias_constraint": null, "trainable": false, "name": "conv2d_48", "kernel_regularizer": null, "bias_regularizer": null, "kernel_size": [7, 1], "data_format": "channels_last", "kernel_initializer": {"class_name": "VarianceScaling", "config": {"scale": 1.0, "mode": "fan_avg", "distribution": "uniform", "seed": null}}}}, {"name": "batch_normalization_43", "class_name": "BatchNormalization", "inbound_nodes": [[["conv2d_43", 0, 0, {}]]], "config": {"moving_mean_initializer": {"class_name": "Zeros", "config": {}}, "gamma_constraint": null, "scale": false, "gamma_initializer": {"class_name": "Ones", "config": {}}, "epsilon": 0.001, "momentum": 0.99, "beta_regularizer": null, "gamma_regularizer": null, "beta_initializer": {"class_name": "Zeros", "config": {}}, "center": true, "name": "batch_normalization_43", "moving_variance_initializer": {"class_name": "Ones", "config": {}}, "beta_constraint": null, "axis": 3, "trainable": false}}, {"name": "batch_normalization_48", "class_name": "BatchNormalization", "inbound_nodes": [[["conv2d_48", 0, 0, {}]]], "config": {"moving_mean_initializer": {"class_name": "Zeros", "config": {}}, "gamma_constraint": null, "scale": false, "gamma_initializer": {"class_name": "Ones", "config": {}}, "epsilon": 0.001, "momentum": 0.99, "beta_regularizer": null, "gamma_regularizer": null, "beta_initializer": {"class_name": "Zeros", "config": {}}, "center": true, "name": "batch_normalization_48", "moving_variance_initializer": {"class_name": "Ones", "config": {}}, "beta_constraint": null, "axis": 3, "trainable": false}}, {"name": "activation_43", "class_name": "Activation", "inbound_nodes": [[["batch_normalization_43", 0, 0, {}]]], "config": {"name": "activation_43", "activation": "relu", "trainable": false}}, {"name": "activation_48", "class_name": "Activation", "inbound_nodes": [[["batch_normalization_48", 0, 0, {}]]], "config": {"name": "activation_48", "activation": "relu", "trainable": false}}, {"name": "average_pooling2d_5", "class_name": "AveragePooling2D", "inbound_nodes": [[["mixed4", 0, 0, {}]]], "config": {"padding": "same", "strides": [1, 1], "trainable": false, "name": "average_pooling2d_5", "data_format": "channels_last", "pool_size": [3, 3]}}, {"name": "conv2d_41", "class_name": "Conv2D", "inbound_nodes": [[["mixed4", 0, 0, {}]]], "config": {"strides": [1, 1], "dilation_rate": [1, 1], "filters": 192, "use_bias": false, "bias_initializer": {"class_name": "Zeros", "config": {}}, "kernel_constraint": null, "padding": "same", "activation": "linear", "activity_regularizer": null, "bias_constraint": null, "trainable": false, "name": "conv2d_41", "kernel_regularizer": null, "bias_regularizer": null, "kernel_size": [1, 1], "data_format": "channels_last", "kernel_initializer": {"class_name": "VarianceScaling", "config": {"scale": 1.0, "mode": "fan_avg", "distribution": "uniform", "seed": null}}}}, {"name": "conv2d_44", "class_name": "Conv2D", "inbound_nodes": [[["activation_43", 0, 0, {}]]], "config": {"strides": [1, 1], "dilation_rate": [1, 1], "filters": 192, "use_bias": false, "bias_initializer": {"class_name": "Zeros", "config": {}}, "kernel_constraint": null, "padding": "same", "activation": "linear", "activity_regularizer": null, "bias_constraint": null, "trainable": false, "name": "conv2d_44", "kernel_regularizer": null, "bias_regularizer": null, "kernel_size": [7, 1], "data_format": "channels_last", "kernel_initializer": {"class_name": "VarianceScaling", "config": {"scale": 1.0, "mode": "fan_avg", "distribution": "uniform", "seed": null}}}}, {"name": "conv2d_49", "class_name": "Conv2D", "inbound_nodes": [[["activation_48", 0, 0, {}]]], "config": {"strides": [1, 1], "dilation_rate": [1, 1], "filters": 192, "use_bias": false, "bias_initializer": {"class_name": "Zeros", "config": {}}, "kernel_constraint": null, "padding": "same", "activation": "linear", "activity_regularizer": null, "bias_constraint": null, "trainable": false, "name": "conv2d_49", "kernel_regularizer": null, "bias_regularizer": null, "kernel_size": [1, 7], "data_format": "channels_last", "kernel_initializer": {"class_name": "VarianceScaling", "config": {"scale": 1.0, "mode": "fan_avg", "distribution": "uniform", "seed": null}}}}, {"name": "conv2d_50", "class_name": "Conv2D", "inbound_nodes": [[["average_pooling2d_5", 0, 0, {}]]], "config": {"strides": [1, 1], "dilation_rate": [1, 1], "filters": 192, "use_bias": false, "bias_initializer": {"class_name": "Zeros", "config": {}}, "kernel_constraint": null, "padding": "same", "activation": "linear", "activity_regularizer": null, "bias_constraint": null, "trainable": false, "name": "conv2d_50", "kernel_regularizer": null, "bias_regularizer": null, "kernel_size": [1, 1], "data_format": "channels_last", "kernel_initializer": {"class_name": "VarianceScaling", "config": {"scale": 1.0, "mode": "fan_avg", "distribution": "uniform", "seed": null}}}}, {"name": "batch_normalization_41", "class_name": "BatchNormalization", "inbound_nodes": [[["conv2d_41", 0, 0, {}]]], "config": {"moving_mean_initializer": {"class_name": "Zeros", "config": {}}, "gamma_constraint": null, "scale": false, "gamma_initializer": {"class_name": "Ones", "config": {}}, "epsilon": 0.001, "momentum": 0.99, "beta_regularizer": null, "gamma_regularizer": null, "beta_initializer": {"class_name": "Zeros", "config": {}}, "center": true, "name": "batch_normalization_41", "moving_variance_initializer": {"class_name": "Ones", "config": {}}, "beta_constraint": null, "axis": 3, "trainable": false}}, {"name": "batch_normalization_44", "class_name": "BatchNormalization", "inbound_nodes": [[["conv2d_44", 0, 0, {}]]], "config": {"moving_mean_initializer": {"class_name": "Zeros", "config": {}}, "gamma_constraint": null, "scale": false, "gamma_initializer": {"class_name": "Ones", "config": {}}, "epsilon": 0.001, "momentum": 0.99, "beta_regularizer": null, "gamma_regularizer": null, "beta_initializer": {"class_name": "Zeros", "config": {}}, "center": true, "name": "batch_normalization_44", "moving_variance_initializer": {"class_name": "Ones", "config": {}}, "beta_constraint": null, "axis": 3, "trainable": false}}, {"name": "batch_normalization_49", "class_name": "BatchNormalization", "inbound_nodes": [[["conv2d_49", 0, 0, {}]]], "config": {"moving_mean_initializer": {"class_name": "Zeros", "config": {}}, "gamma_constraint": null, "scale": false, "gamma_initializer": {"class_name": "Ones", "config": {}}, "epsilon": 0.001, "momentum": 0.99, "beta_regularizer": null, "gamma_regularizer": null, "beta_initializer": {"class_name": "Zeros", "config": {}}, "center": true, "name": "batch_normalization_49", "moving_variance_initializer": {"class_name": "Ones", "config": {}}, "beta_constraint": null, "axis": 3, "trainable": false}}, {"name": "batch_normalization_50", "class_name": "BatchNormalization", "inbound_nodes": [[["conv2d_50", 0, 0, {}]]], "config": {"moving_mean_initializer": {"class_name": "Zeros", "config": {}}, "gamma_constraint": null, "scale": false, "gamma_initializer": {"class_name": "Ones", "config": {}}, "epsilon": 0.001, "momentum": 0.99, "beta_regularizer": null, "gamma_regularizer": null, "beta_initializer": {"class_name": "Zeros", "config": {}}, "center": true, "name": "batch_normalization_50", "moving_variance_initializer": {"class_name": "Ones", "config": {}}, "beta_constraint": null, "axis": 3, "trainable": false}}, {"name": "activation_41", "class_name": "Activation", "inbound_nodes": [[["batch_normalization_41", 0, 0, {}]]], "config": {"name": "activation_41", "activation": "relu", "trainable": false}}, {"name": "activation_44", "class_name": "Activation", "inbound_nodes": [[["batch_normalization_44", 0, 0, {}]]], "config": {"name": "activation_44", "activation": "relu", "trainable": false}}, {"name": "activation_49", "class_name": "Activation", "inbound_nodes": [[["batch_normalization_49", 0, 0, {}]]], "config": {"name": "activation_49", "activation": "relu", "trainable": false}}, {"name": "activation_50", "class_name": "Activation", "inbound_nodes": [[["batch_normalization_50", 0, 0, {}]]], "config": {"name": "activation_50", "activation": "relu", "trainable": false}}, {"name": "mixed5", "class_name": "Concatenate", "inbound_nodes": [[["activation_41", 0, 0, {}], ["activation_44", 0, 0, {}], ["activation_49", 0, 0, {}], ["activation_50", 0, 0, {}]]], "config": {"name": "mixed5", "axis": 3, "trainable": false}}, {"name": "conv2d_55", "class_name": "Conv2D", "inbound_nodes": [[["mixed5", 0, 0, {}]]], "config": {"strides": [1, 1], "dilation_rate": [1, 1], "filters": 160, "use_bias": false, "bias_initializer": {"class_name": "Zeros", "config": {}}, "kernel_constraint": null, "padding": "same", "activation": "linear", "activity_regularizer": null, "bias_constraint": null, "trainable": false, "name": "conv2d_55", "kernel_regularizer": null, "bias_regularizer": null, "kernel_size": [1, 1], "data_format": "channels_last", "kernel_initializer": {"class_name": "VarianceScaling", "config": {"scale": 1.0, "mode": "fan_avg", "distribution": "uniform", "seed": null}}}}, {"name": "batch_normalization_55", "class_name": "BatchNormalization", "inbound_nodes": [[["conv2d_55", 0, 0, {}]]], "config": {"moving_mean_initializer": {"class_name": "Zeros", "config": {}}, "gamma_constraint": null, "scale": false, "gamma_initializer": {"class_name": "Ones", "config": {}}, "epsilon": 0.001, "momentum": 0.99, "beta_regularizer": null, "gamma_regularizer": null, "beta_initializer": {"class_name": "Zeros", "config": {}}, "center": true, "name": "batch_normalization_55", "moving_variance_initializer": {"class_name": "Ones", "config": {}}, "beta_constraint": null, "axis": 3, "trainable": false}}, {"name": "activation_55", "class_name": "Activation", "inbound_nodes": [[["batch_normalization_55", 0, 0, {}]]], "config": {"name": "activation_55", "activation": "relu", "trainable": false}}, {"name": "conv2d_56", "class_name": "Conv2D", "inbound_nodes": [[["activation_55", 0, 0, {}]]], "config": {"strides": [1, 1], "dilation_rate": [1, 1], "filters": 160, "use_bias": false, "bias_initializer": {"class_name": "Zeros", "config": {}}, "kernel_constraint": null, "padding": "same", "activation": "linear", "activity_regularizer": null, "bias_constraint": null, "trainable": false, "name": "conv2d_56", "kernel_regularizer": null, "bias_regularizer": null, "kernel_size": [7, 1], "data_format": "channels_last", "kernel_initializer": {"class_name": "VarianceScaling", "config": {"scale": 1.0, "mode": "fan_avg", "distribution": "uniform", "seed": null}}}}, {"name": "batch_normalization_56", "class_name": "BatchNormalization", "inbound_nodes": [[["conv2d_56", 0, 0, {}]]], "config": {"moving_mean_initializer": {"class_name": "Zeros", "config": {}}, "gamma_constraint": null, "scale": false, "gamma_initializer": {"class_name": "Ones", "config": {}}, "epsilon": 0.001, "momentum": 0.99, "beta_regularizer": null, "gamma_regularizer": null, "beta_initializer": {"class_name": "Zeros", "config": {}}, "center": true, "name": "batch_normalization_56", "moving_variance_initializer": {"class_name": "Ones", "config": {}}, "beta_constraint": null, "axis": 3, "trainable": false}}, {"name": "activation_56", "class_name": "Activation", "inbound_nodes": [[["batch_normalization_56", 0, 0, {}]]], "config": {"name": "activation_56", "activation": "relu", "trainable": false}}, {"name": "conv2d_52", "class_name": "Conv2D", "inbound_nodes": [[["mixed5", 0, 0, {}]]], "config": {"strides": [1, 1], "dilation_rate": [1, 1], "filters": 160, "use_bias": false, "bias_initializer": {"class_name": "Zeros", "config": {}}, "kernel_constraint": null, "padding": "same", "activation": "linear", "activity_regularizer": null, "bias_constraint": null, "trainable": false, "name": "conv2d_52", "kernel_regularizer": null, "bias_regularizer": null, "kernel_size": [1, 1], "data_format": "channels_last", "kernel_initializer": {"class_name": "VarianceScaling", "config": {"scale": 1.0, "mode": "fan_avg", "distribution": "uniform", "seed": null}}}}, {"name": "conv2d_57", "class_name": "Conv2D", "inbound_nodes": [[["activation_56", 0, 0, {}]]], "config": {"strides": [1, 1], "dilation_rate": [1, 1], "filters": 160, "use_bias": false, "bias_initializer": {"class_name": "Zeros", "config": {}}, "kernel_constraint": null, "padding": "same", "activation": "linear", "activity_regularizer": null, "bias_constraint": null, "trainable": true, "name": "conv2d_57", "kernel_regularizer": null, "bias_regularizer": null, "kernel_size": [1, 7], "data_format": "channels_last", "kernel_initializer": {"class_name": "VarianceScaling", "config": {"scale": 1.0, "mode": "fan_avg", "distribution": "uniform", "seed": null}}}}, {"name": "batch_normalization_52", "class_name": "BatchNormalization", "inbound_nodes": [[["conv2d_52", 0, 0, {}]]], "config": {"moving_mean_initializer": {"class_name": "Zeros", "config": {}}, "gamma_constraint": null, "scale": false, "gamma_initializer": {"class_name": "Ones", "config": {}}, "epsilon": 0.001, "momentum": 0.99, "beta_regularizer": null, "gamma_regularizer": null, "beta_initializer": {"class_name": "Zeros", "config": {}}, "center": true, "name": "batch_normalization_52", "moving_variance_initializer": {"class_name": "Ones", "config": {}}, "beta_constraint": null, "axis": 3, "trainable": true}}, {"name": "batch_normalization_57", "class_name": "BatchNormalization", "inbound_nodes": [[["conv2d_57", 0, 0, {}]]], "config": {"moving_mean_initializer": {"class_name": "Zeros", "config": {}}, "gamma_constraint": null, "scale": false, "gamma_initializer": {"class_name": "Ones", "config": {}}, "epsilon": 0.001, "momentum": 0.99, "beta_regularizer": null, "gamma_regularizer": null, "beta_initializer": {"class_name": "Zeros", "config": {}}, "center": true, "name": "batch_normalization_57", "moving_variance_initializer": {"class_name": "Ones", "config": {}}, "beta_constraint": null, "axis": 3, "trainable": true}}, {"name": "activation_52", "class_name": "Activation", "inbound_nodes": [[["batch_normalization_52", 0, 0, {}]]], "config": {"name": "activation_52", "activation": "relu", "trainable": true}}, {"name": "activation_57", "class_name": "Activation", "inbound_nodes": [[["batch_normalization_57", 0, 0, {}]]], "config": {"name": "activation_57", "activation": "relu", "trainable": true}}, {"name": "conv2d_53", "class_name": "Conv2D", "inbound_nodes": [[["activation_52", 0, 0, {}]]], "config": {"strides": [1, 1], "dilation_rate": [1, 1], "filters": 160, "use_bias": false, "bias_initializer": {"class_name": "Zeros", "config": {}}, "kernel_constraint": null, "padding": "same", "activation": "linear", "activity_regularizer": null, "bias_constraint": null, "trainable": true, "name": "conv2d_53", "kernel_regularizer": null, "bias_regularizer": null, "kernel_size": [1, 7], "data_format": "channels_last", "kernel_initializer": {"class_name": "VarianceScaling", "config": {"scale": 1.0, "mode": "fan_avg", "distribution": "uniform", "seed": null}}}}, {"name": "conv2d_58", "class_name": "Conv2D", "inbound_nodes": [[["activation_57", 0, 0, {}]]], "config": {"strides": [1, 1], "dilation_rate": [1, 1], "filters": 160, "use_bias": false, "bias_initializer": {"class_name": "Zeros", "config": {}}, "kernel_constraint": null, "padding": "same", "activation": "linear", "activity_regularizer": null, "bias_constraint": null, "trainable": true, "name": "conv2d_58", "kernel_regularizer": null, "bias_regularizer": null, "kernel_size": [7, 1], "data_format": "channels_last", "kernel_initializer": {"class_name": "VarianceScaling", "config": {"scale": 1.0, "mode": "fan_avg", "distribution": "uniform", "seed": null}}}}, {"name": "batch_normalization_53", "class_name": "BatchNormalization", "inbound_nodes": [[["conv2d_53", 0, 0, {}]]], "config": {"moving_mean_initializer": {"class_name": "Zeros", "config": {}}, "gamma_constraint": null, "scale": false, "gamma_initializer": {"class_name": "Ones", "config": {}}, "epsilon": 0.001, "momentum": 0.99, "beta_regularizer": null, "gamma_regularizer": null, "beta_initializer": {"class_name": "Zeros", "config": {}}, "center": true, "name": "batch_normalization_53", "moving_variance_initializer": {"class_name": "Ones", "config": {}}, "beta_constraint": null, "axis": 3, "trainable": true}}, {"name": "batch_normalization_58", "class_name": "BatchNormalization", "inbound_nodes": [[["conv2d_58", 0, 0, {}]]], "config": {"moving_mean_initializer": {"class_name": "Zeros", "config": {}}, "gamma_constraint": null, "scale": false, "gamma_initializer": {"class_name": "Ones", "config": {}}, "epsilon": 0.001, "momentum": 0.99, "beta_regularizer": null, "gamma_regularizer": null, "beta_initializer": {"class_name": "Zeros", "config": {}}, "center": true, "name": "batch_normalization_58", "moving_variance_initializer": {"class_name": "Ones", "config": {}}, "beta_constraint": null, "axis": 3, "trainable": true}}, {"name": "activation_53", "class_name": "Activation", "inbound_nodes": [[["batch_normalization_53", 0, 0, {}]]], "config": {"name": "activation_53", "activation": "relu", "trainable": true}}, {"name": "activation_58", "class_name": "Activation", "inbound_nodes": [[["batch_normalization_58", 0, 0, {}]]], "config": {"name": "activation_58", "activation": "relu", "trainable": true}}, {"name": "average_pooling2d_6", "class_name": "AveragePooling2D", "inbound_nodes": [[["mixed5", 0, 0, {}]]], "config": {"padding": "same", "strides": [1, 1], "trainable": true, "name": "average_pooling2d_6", "data_format": "channels_last", "pool_size": [3, 3]}}, {"name": "conv2d_51", "class_name": "Conv2D", "inbound_nodes": [[["mixed5", 0, 0, {}]]], "config": {"strides": [1, 1], "dilation_rate": [1, 1], "filters": 192, "use_bias": false, "bias_initializer": {"class_name": "Zeros", "config": {}}, "kernel_constraint": null, "padding": "same", "activation": "linear", "activity_regularizer": null, "bias_constraint": null, "trainable": true, "name": "conv2d_51", "kernel_regularizer": null, "bias_regularizer": null, "kernel_size": [1, 1], "data_format": "channels_last", "kernel_initializer": {"class_name": "VarianceScaling", "config": {"scale": 1.0, "mode": "fan_avg", "distribution": "uniform", "seed": null}}}}, {"name": "conv2d_54", "class_name": "Conv2D", "inbound_nodes": [[["activation_53", 0, 0, {}]]], "config": {"strides": [1, 1], "dilation_rate": [1, 1], "filters": 192, "use_bias": false, "bias_initializer": {"class_name": "Zeros", "config": {}}, "kernel_constraint": null, "padding": "same", "activation": "linear", "activity_regularizer": null, "bias_constraint": null, "trainable": true, "name": "conv2d_54", "kernel_regularizer": null, "bias_regularizer": null, "kernel_size": [7, 1], "data_format": "channels_last", "kernel_initializer": {"class_name": "VarianceScaling", "config": {"scale": 1.0, "mode": "fan_avg", "distribution": "uniform", "seed": null}}}}, {"name": "conv2d_59", "class_name": "Conv2D", "inbound_nodes": [[["activation_58", 0, 0, {}]]], "config": {"strides": [1, 1], "dilation_rate": [1, 1], "filters": 192, "use_bias": false, "bias_initializer": {"class_name": "Zeros", "config": {}}, "kernel_constraint": null, "padding": "same", "activation": "linear", "activity_regularizer": null, "bias_constraint": null, "trainable": true, "name": "conv2d_59", "kernel_regularizer": null, "bias_regularizer": null, "kernel_size": [1, 7], "data_format": "channels_last", "kernel_initializer": {"class_name": "VarianceScaling", "config": {"scale": 1.0, "mode": "fan_avg", "distribution": "uniform", "seed": null}}}}, {"name": "conv2d_60", "class_name": "Conv2D", "inbound_nodes": [[["average_pooling2d_6", 0, 0, {}]]], "config": {"strides": [1, 1], "dilation_rate": [1, 1], "filters": 192, "use_bias": false, "bias_initializer": {"class_name": "Zeros", "config": {}}, "kernel_constraint": null, "padding": "same", "activation": "linear", "activity_regularizer": null, "bias_constraint": null, "trainable": true, "name": "conv2d_60", "kernel_regularizer": null, "bias_regularizer": null, "kernel_size": [1, 1], "data_format": "channels_last", "kernel_initializer": {"class_name": "VarianceScaling", "config": {"scale": 1.0, "mode": "fan_avg", "distribution": "uniform", "seed": null}}}}, {"name": "batch_normalization_51", "class_name": "BatchNormalization", "inbound_nodes": [[["conv2d_51", 0, 0, {}]]], "config": {"moving_mean_initializer": {"class_name": "Zeros", "config": {}}, "gamma_constraint": null, "scale": false, "gamma_initializer": {"class_name": "Ones", "config": {}}, "epsilon": 0.001, "momentum": 0.99, "beta_regularizer": null, "gamma_regularizer": null, "beta_initializer": {"class_name": "Zeros", "config": {}}, "center": true, "name": "batch_normalization_51", "moving_variance_initializer": {"class_name": "Ones", "config": {}}, "beta_constraint": null, "axis": 3, "trainable": true}}, {"name": "batch_normalization_54", "class_name": "BatchNormalization", "inbound_nodes": [[["conv2d_54", 0, 0, {}]]], "config": {"moving_mean_initializer": {"class_name": "Zeros", "config": {}}, "gamma_constraint": null, "scale": false, "gamma_initializer": {"class_name": "Ones", "config": {}}, "epsilon": 0.001, "momentum": 0.99, "beta_regularizer": null, "gamma_regularizer": null, "beta_initializer": {"class_name": "Zeros", "config": {}}, "center": true, "name": "batch_normalization_54", "moving_variance_initializer": {"class_name": "Ones", "config": {}}, "beta_constraint": null, "axis": 3, "trainable": true}}, {"name": "batch_normalization_59", "class_name": "BatchNormalization", "inbound_nodes": [[["conv2d_59", 0, 0, {}]]], "config": {"moving_mean_initializer": {"class_name": "Zeros", "config": {}}, "gamma_constraint": null, "scale": false, "gamma_initializer": {"class_name": "Ones", "config": {}}, "epsilon": 0.001, "momentum": 0.99, "beta_regularizer": null, "gamma_regularizer": null, "beta_initializer": {"class_name": "Zeros", "config": {}}, "center": true, "name": "batch_normalization_59", "moving_variance_initializer": {"class_name": "Ones", "config": {}}, "beta_constraint": null, "axis": 3, "trainable": true}}, {"name": "batch_normalization_60", "class_name": "BatchNormalization", "inbound_nodes": [[["conv2d_60", 0, 0, {}]]], "config": {"moving_mean_initializer": {"class_name": "Zeros", "config": {}}, "gamma_constraint": null, "scale": false, "gamma_initializer": {"class_name": "Ones", "config": {}}, "epsilon": 0.001, "momentum": 0.99, "beta_regularizer": null, "gamma_regularizer": null, "beta_initializer": {"class_name": "Zeros", "config": {}}, "center": true, "name": "batch_normalization_60", "moving_variance_initializer": {"class_name": "Ones", "config": {}}, "beta_constraint": null, "axis": 3, "trainable": true}}, {"name": "activation_51", "class_name": "Activation", "inbound_nodes": [[["batch_normalization_51", 0, 0, {}]]], "config": {"name": "activation_51", "activation": "relu", "trainable": true}}, {"name": "activation_54", "class_name": "Activation", "inbound_nodes": [[["batch_normalization_54", 0, 0, {}]]], "config": {"name": "activation_54", "activation": "relu", "trainable": true}}, {"name": "activation_59", "class_name": "Activation", "inbound_nodes": [[["batch_normalization_59", 0, 0, {}]]], "config": {"name": "activation_59", "activation": "relu", "trainable": true}}, {"name": "activation_60", "class_name": "Activation", "inbound_nodes": [[["batch_normalization_60", 0, 0, {}]]], "config": {"name": "activation_60", "activation": "relu", "trainable": true}}, {"name": "mixed6", "class_name": "Concatenate", "inbound_nodes": [[["activation_51", 0, 0, {}], ["activation_54", 0, 0, {}], ["activation_59", 0, 0, {}], ["activation_60", 0, 0, {}]]], "config": {"name": "mixed6", "axis": 3, "trainable": true}}, {"name": "conv2d_65", "class_name": "Conv2D", "inbound_nodes": [[["mixed6", 0, 0, {}]]], "config": {"strides": [1, 1], "dilation_rate": [1, 1], "filters": 192, "use_bias": false, "bias_initializer": {"class_name": "Zeros", "config": {}}, "kernel_constraint": null, "padding": "same", "activation": "linear", "activity_regularizer": null, "bias_constraint": null, "trainable": true, "name": "conv2d_65", "kernel_regularizer": null, "bias_regularizer": null, "kernel_size": [1, 1], "data_format": "channels_last", "kernel_initializer": {"class_name": "VarianceScaling", "config": {"scale": 1.0, "mode": "fan_avg", "distribution": "uniform", "seed": null}}}}, {"name": "batch_normalization_65", "class_name": "BatchNormalization", "inbound_nodes": [[["conv2d_65", 0, 0, {}]]], "config": {"moving_mean_initializer": {"class_name": "Zeros", "config": {}}, "gamma_constraint": null, "scale": false, "gamma_initializer": {"class_name": "Ones", "config": {}}, "epsilon": 0.001, "momentum": 0.99, "beta_regularizer": null, "gamma_regularizer": null, "beta_initializer": {"class_name": "Zeros", "config": {}}, "center": true, "name": "batch_normalization_65", "moving_variance_initializer": {"class_name": "Ones", "config": {}}, "beta_constraint": null, "axis": 3, "trainable": true}}, {"name": "activation_65", "class_name": "Activation", "inbound_nodes": [[["batch_normalization_65", 0, 0, {}]]], "config": {"name": "activation_65", "activation": "relu", "trainable": true}}, {"name": "conv2d_66", "class_name": "Conv2D", "inbound_nodes": [[["activation_65", 0, 0, {}]]], "config": {"strides": [1, 1], "dilation_rate": [1, 1], "filters": 192, "use_bias": false, "bias_initializer": {"class_name": "Zeros", "config": {}}, "kernel_constraint": null, "padding": "same", "activation": "linear", "activity_regularizer": null, "bias_constraint": null, "trainable": true, "name": "conv2d_66", "kernel_regularizer": null, "bias_regularizer": null, "kernel_size": [7, 1], "data_format": "channels_last", "kernel_initializer": {"class_name": "VarianceScaling", "config": {"scale": 1.0, "mode": "fan_avg", "distribution": "uniform", "seed": null}}}}, {"name": "batch_normalization_66", "class_name": "BatchNormalization", "inbound_nodes": [[["conv2d_66", 0, 0, {}]]], "config": {"moving_mean_initializer": {"class_name": "Zeros", "config": {}}, "gamma_constraint": null, "scale": false, "gamma_initializer": {"class_name": "Ones", "config": {}}, "epsilon": 0.001, "momentum": 0.99, "beta_regularizer": null, "gamma_regularizer": null, "beta_initializer": {"class_name": "Zeros", "config": {}}, "center": true, "name": "batch_normalization_66", "moving_variance_initializer": {"class_name": "Ones", "config": {}}, "beta_constraint": null, "axis": 3, "trainable": true}}, {"name": "activation_66", "class_name": "Activation", "inbound_nodes": [[["batch_normalization_66", 0, 0, {}]]], "config": {"name": "activation_66", "activation": "relu", "trainable": true}}, {"name": "conv2d_62", "class_name": "Conv2D", "inbound_nodes": [[["mixed6", 0, 0, {}]]], "config": {"strides": [1, 1], "dilation_rate": [1, 1], "filters": 192, "use_bias": false, "bias_initializer": {"class_name": "Zeros", "config": {}}, "kernel_constraint": null, "padding": "same", "activation": "linear", "activity_regularizer": null, "bias_constraint": null, "trainable": true, "name": "conv2d_62", "kernel_regularizer": null, "bias_regularizer": null, "kernel_size": [1, 1], "data_format": "channels_last", "kernel_initializer": {"class_name": "VarianceScaling", "config": {"scale": 1.0, "mode": "fan_avg", "distribution": "uniform", "seed": null}}}}, {"name": "conv2d_67", "class_name": "Conv2D", "inbound_nodes": [[["activation_66", 0, 0, {}]]], "config": {"strides": [1, 1], "dilation_rate": [1, 1], "filters": 192, "use_bias": false, "bias_initializer": {"class_name": "Zeros", "config": {}}, "kernel_constraint": null, "padding": "same", "activation": "linear", "activity_regularizer": null, "bias_constraint": null, "trainable": true, "name": "conv2d_67", "kernel_regularizer": null, "bias_regularizer": null, "kernel_size": [1, 7], "data_format": "channels_last", "kernel_initializer": {"class_name": "VarianceScaling", "config": {"scale": 1.0, "mode": "fan_avg", "distribution": "uniform", "seed": null}}}}, {"name": "batch_normalization_62", "class_name": "BatchNormalization", "inbound_nodes": [[["conv2d_62", 0, 0, {}]]], "config": {"moving_mean_initializer": {"class_name": "Zeros", "config": {}}, "gamma_constraint": null, "scale": false, "gamma_initializer": {"class_name": "Ones", "config": {}}, "epsilon": 0.001, "momentum": 0.99, "beta_regularizer": null, "gamma_regularizer": null, "beta_initializer": {"class_name": "Zeros", "config": {}}, "center": true, "name": "batch_normalization_62", "moving_variance_initializer": {"class_name": "Ones", "config": {}}, "beta_constraint": null, "axis": 3, "trainable": true}}, {"name": "batch_normalization_67", "class_name": "BatchNormalization", "inbound_nodes": [[["conv2d_67", 0, 0, {}]]], "config": {"moving_mean_initializer": {"class_name": "Zeros", "config": {}}, "gamma_constraint": null, "scale": false, "gamma_initializer": {"class_name": "Ones", "config": {}}, "epsilon": 0.001, "momentum": 0.99, "beta_regularizer": null, "gamma_regularizer": null, "beta_initializer": {"class_name": "Zeros", "config": {}}, "center": true, "name": "batch_normalization_67", "moving_variance_initializer": {"class_name": "Ones", "config": {}}, "beta_constraint": null, "axis": 3, "trainable": true}}, {"name": "activation_62", "class_name": "Activation", "inbound_nodes": [[["batch_normalization_62", 0, 0, {}]]], "config": {"name": "activation_62", "activation": "relu", "trainable": true}}, {"name": "activation_67", "class_name": "Activation", "inbound_nodes": [[["batch_normalization_67", 0, 0, {}]]], "config": {"name": "activation_67", "activation": "relu", "trainable": true}}, {"name": "conv2d_63", "class_name": "Conv2D", "inbound_nodes": [[["activation_62", 0, 0, {}]]], "config": {"strides": [1, 1], "dilation_rate": [1, 1], "filters": 192, "use_bias": false, "bias_initializer": {"class_name": "Zeros", "config": {}}, "kernel_constraint": null, "padding": "same", "activation": "linear", "activity_regularizer": null, "bias_constraint": null, "trainable": true, "name": "conv2d_63", "kernel_regularizer": null, "bias_regularizer": null, "kernel_size": [1, 7], "data_format": "channels_last", "kernel_initializer": {"class_name": "VarianceScaling", "config": {"scale": 1.0, "mode": "fan_avg", "distribution": "uniform", "seed": null}}}}, {"name": "conv2d_68", "class_name": "Conv2D", "inbound_nodes": [[["activation_67", 0, 0, {}]]], "config": {"strides": [1, 1], "dilation_rate": [1, 1], "filters": 192, "use_bias": false, "bias_initializer": {"class_name": "Zeros", "config": {}}, "kernel_constraint": null, "padding": "same", "activation": "linear", "activity_regularizer": null, "bias_constraint": null, "trainable": true, "name": "conv2d_68", "kernel_regularizer": null, "bias_regularizer": null, "kernel_size": [7, 1], "data_format": "channels_last", "kernel_initializer": {"class_name": "VarianceScaling", "config": {"scale": 1.0, "mode": "fan_avg", "distribution": "uniform", "seed": null}}}}, {"name": "batch_normalization_63", "class_name": "BatchNormalization", "inbound_nodes": [[["conv2d_63", 0, 0, {}]]], "config": {"moving_mean_initializer": {"class_name": "Zeros", "config": {}}, "gamma_constraint": null, "scale": false, "gamma_initializer": {"class_name": "Ones", "config": {}}, "epsilon": 0.001, "momentum": 0.99, "beta_regularizer": null, "gamma_regularizer": null, "beta_initializer": {"class_name": "Zeros", "config": {}}, "center": true, "name": "batch_normalization_63", "moving_variance_initializer": {"class_name": "Ones", "config": {}}, "beta_constraint": null, "axis": 3, "trainable": true}}, {"name": "batch_normalization_68", "class_name": "BatchNormalization", "inbound_nodes": [[["conv2d_68", 0, 0, {}]]], "config": {"moving_mean_initializer": {"class_name": "Zeros", "config": {}}, "gamma_constraint": null, "scale": false, "gamma_initializer": {"class_name": "Ones", "config": {}}, "epsilon": 0.001, "momentum": 0.99, "beta_regularizer": null, "gamma_regularizer": null, "beta_initializer": {"class_name": "Zeros", "config": {}}, "center": true, "name": "batch_normalization_68", "moving_variance_initializer": {"class_name": "Ones", "config": {}}, "beta_constraint": null, "axis": 3, "trainable": true}}, {"name": "activation_63", "class_name": "Activation", "inbound_nodes": [[["batch_normalization_63", 0, 0, {}]]], "config": {"name": "activation_63", "activation": "relu", "trainable": true}}, {"name": "activation_68", "class_name": "Activation", "inbound_nodes": [[["batch_normalization_68", 0, 0, {}]]], "config": {"name": "activation_68", "activation": "relu", "trainable": true}}, {"name": "average_pooling2d_7", "class_name": "AveragePooling2D", "inbound_nodes": [[["mixed6", 0, 0, {}]]], "config": {"padding": "same", "strides": [1, 1], "trainable": true, "name": "average_pooling2d_7", "data_format": "channels_last", "pool_size": [3, 3]}}, {"name": "conv2d_61", "class_name": "Conv2D", "inbound_nodes": [[["mixed6", 0, 0, {}]]], "config": {"strides": [1, 1], "dilation_rate": [1, 1], "filters": 192, "use_bias": false, "bias_initializer": {"class_name": "Zeros", "config": {}}, "kernel_constraint": null, "padding": "same", "activation": "linear", "activity_regularizer": null, "bias_constraint": null, "trainable": true, "name": "conv2d_61", "kernel_regularizer": null, "bias_regularizer": null, "kernel_size": [1, 1], "data_format": "channels_last", "kernel_initializer": {"class_name": "VarianceScaling", "config": {"scale": 1.0, "mode": "fan_avg", "distribution": "uniform", "seed": null}}}}, {"name": "conv2d_64", "class_name": "Conv2D", "inbound_nodes": [[["activation_63", 0, 0, {}]]], "config": {"strides": [1, 1], "dilation_rate": [1, 1], "filters": 192, "use_bias": false, "bias_initializer": {"class_name": "Zeros", "config": {}}, "kernel_constraint": null, "padding": "same", "activation": "linear", "activity_regularizer": null, "bias_constraint": null, "trainable": true, "name": "conv2d_64", "kernel_regularizer": null, "bias_regularizer": null, "kernel_size": [7, 1], "data_format": "channels_last", "kernel_initializer": {"class_name": "VarianceScaling", "config": {"scale": 1.0, "mode": "fan_avg", "distribution": "uniform", "seed": null}}}}, {"name": "conv2d_69", "class_name": "Conv2D", "inbound_nodes": [[["activation_68", 0, 0, {}]]], "config": {"strides": [1, 1], "dilation_rate": [1, 1], "filters": 192, "use_bias": false, "bias_initializer": {"class_name": "Zeros", "config": {}}, "kernel_constraint": null, "padding": "same", "activation": "linear", "activity_regularizer": null, "bias_constraint": null, "trainable": true, "name": "conv2d_69", "kernel_regularizer": null, "bias_regularizer": null, "kernel_size": [1, 7], "data_format": "channels_last", "kernel_initializer": {"class_name": "VarianceScaling", "config": {"scale": 1.0, "mode": "fan_avg", "distribution": "uniform", "seed": null}}}}, {"name": "conv2d_70", "class_name": "Conv2D", "inbound_nodes": [[["average_pooling2d_7", 0, 0, {}]]], "config": {"strides": [1, 1], "dilation_rate": [1, 1], "filters": 192, "use_bias": false, "bias_initializer": {"class_name": "Zeros", "config": {}}, "kernel_constraint": null, "padding": "same", "activation": "linear", "activity_regularizer": null, "bias_constraint": null, "trainable": true, "name": "conv2d_70", "kernel_regularizer": null, "bias_regularizer": null, "kernel_size": [1, 1], "data_format": "channels_last", "kernel_initializer": {"class_name": "VarianceScaling", "config": {"scale": 1.0, "mode": "fan_avg", "distribution": "uniform", "seed": null}}}}, {"name": "batch_normalization_61", "class_name": "BatchNormalization", "inbound_nodes": [[["conv2d_61", 0, 0, {}]]], "config": {"moving_mean_initializer": {"class_name": "Zeros", "config": {}}, "gamma_constraint": null, "scale": false, "gamma_initializer": {"class_name": "Ones", "config": {}}, "epsilon": 0.001, "momentum": 0.99, "beta_regularizer": null, "gamma_regularizer": null, "beta_initializer": {"class_name": "Zeros", "config": {}}, "center": true, "name": "batch_normalization_61", "moving_variance_initializer": {"class_name": "Ones", "config": {}}, "beta_constraint": null, "axis": 3, "trainable": true}}, {"name": "batch_normalization_64", "class_name": "BatchNormalization", "inbound_nodes": [[["conv2d_64", 0, 0, {}]]], "config": {"moving_mean_initializer": {"class_name": "Zeros", "config": {}}, "gamma_constraint": null, "scale": false, "gamma_initializer": {"class_name": "Ones", "config": {}}, "epsilon": 0.001, "momentum": 0.99, "beta_regularizer": null, "gamma_regularizer": null, "beta_initializer": {"class_name": "Zeros", "config": {}}, "center": true, "name": "batch_normalization_64", "moving_variance_initializer": {"class_name": "Ones", "config": {}}, "beta_constraint": null, "axis": 3, "trainable": true}}, {"name": "batch_normalization_69", "class_name": "BatchNormalization", "inbound_nodes": [[["conv2d_69", 0, 0, {}]]], "config": {"moving_mean_initializer": {"class_name": "Zeros", "config": {}}, "gamma_constraint": null, "scale": false, "gamma_initializer": {"class_name": "Ones", "config": {}}, "epsilon": 0.001, "momentum": 0.99, "beta_regularizer": null, "gamma_regularizer": null, "beta_initializer": {"class_name": "Zeros", "config": {}}, "center": true, "name": "batch_normalization_69", "moving_variance_initializer": {"class_name": "Ones", "config": {}}, "beta_constraint": null, "axis": 3, "trainable": true}}, {"name": "batch_normalization_70", "class_name": "BatchNormalization", "inbound_nodes": [[["conv2d_70", 0, 0, {}]]], "config": {"moving_mean_initializer": {"class_name": "Zeros", "config": {}}, "gamma_constraint": null, "scale": false, "gamma_initializer": {"class_name": "Ones", "config": {}}, "epsilon": 0.001, "momentum": 0.99, "beta_regularizer": null, "gamma_regularizer": null, "beta_initializer": {"class_name": "Zeros", "config": {}}, "center": true, "name": "batch_normalization_70", "moving_variance_initializer": {"class_name": "Ones", "config": {}}, "beta_constraint": null, "axis": 3, "trainable": true}}, {"name": "activation_61", "class_name": "Activation", "inbound_nodes": [[["batch_normalization_61", 0, 0, {}]]], "config": {"name": "activation_61", "activation": "relu", "trainable": true}}, {"name": "activation_64", "class_name": "Activation", "inbound_nodes": [[["batch_normalization_64", 0, 0, {}]]], "config": {"name": "activation_64", "activation": "relu", "trainable": true}}, {"name": "activation_69", "class_name": "Activation", "inbound_nodes": [[["batch_normalization_69", 0, 0, {}]]], "config": {"name": "activation_69", "activation": "relu", "trainable": true}}, {"name": "activation_70", "class_name": "Activation", "inbound_nodes": [[["batch_normalization_70", 0, 0, {}]]], "config": {"name": "activation_70", "activation": "relu", "trainable": true}}, {"name": "mixed7", "class_name": "Concatenate", "inbound_nodes": [[["activation_61", 0, 0, {}], ["activation_64", 0, 0, {}], ["activation_69", 0, 0, {}], ["activation_70", 0, 0, {}]]], "config": {"name": "mixed7", "axis": 3, "trainable": true}}, {"name": "conv2d_73", "class_name": "Conv2D", "inbound_nodes": [[["mixed7", 0, 0, {}]]], "config": {"strides": [1, 1], "dilation_rate": [1, 1], "filters": 192, "use_bias": false, "bias_initializer": {"class_name": "Zeros", "config": {}}, "kernel_constraint": null, "padding": "same", "activation": "linear", "activity_regularizer": null, "bias_constraint": null, "trainable": true, "name": "conv2d_73", "kernel_regularizer": null, "bias_regularizer": null, "kernel_size": [1, 1], "data_format": "channels_last", "kernel_initializer": {"class_name": "VarianceScaling", "config": {"scale": 1.0, "mode": "fan_avg", "distribution": "uniform", "seed": null}}}}, {"name": "batch_normalization_73", "class_name": "BatchNormalization", "inbound_nodes": [[["conv2d_73", 0, 0, {}]]], "config": {"moving_mean_initializer": {"class_name": "Zeros", "config": {}}, "gamma_constraint": null, "scale": false, "gamma_initializer": {"class_name": "Ones", "config": {}}, "epsilon": 0.001, "momentum": 0.99, "beta_regularizer": null, "gamma_regularizer": null, "beta_initializer": {"class_name": "Zeros", "config": {}}, "center": true, "name": "batch_normalization_73", "moving_variance_initializer": {"class_name": "Ones", "config": {}}, "beta_constraint": null, "axis": 3, "trainable": true}}, {"name": "activation_73", "class_name": "Activation", "inbound_nodes": [[["batch_normalization_73", 0, 0, {}]]], "config": {"name": "activation_73", "activation": "relu", "trainable": true}}, {"name": "conv2d_74", "class_name": "Conv2D", "inbound_nodes": [[["activation_73", 0, 0, {}]]], "config": {"strides": [1, 1], "dilation_rate": [1, 1], "filters": 192, "use_bias": false, "bias_initializer": {"class_name": "Zeros", "config": {}}, "kernel_constraint": null, "padding": "same", "activation": "linear", "activity_regularizer": null, "bias_constraint": null, "trainable": true, "name": "conv2d_74", "kernel_regularizer": null, "bias_regularizer": null, "kernel_size": [1, 7], "data_format": "channels_last", "kernel_initializer": {"class_name": "VarianceScaling", "config": {"scale": 1.0, "mode": "fan_avg", "distribution": "uniform", "seed": null}}}}, {"name": "batch_normalization_74", "class_name": "BatchNormalization", "inbound_nodes": [[["conv2d_74", 0, 0, {}]]], "config": {"moving_mean_initializer": {"class_name": "Zeros", "config": {}}, "gamma_constraint": null, "scale": false, "gamma_initializer": {"class_name": "Ones", "config": {}}, "epsilon": 0.001, "momentum": 0.99, "beta_regularizer": null, "gamma_regularizer": null, "beta_initializer": {"class_name": "Zeros", "config": {}}, "center": true, "name": "batch_normalization_74", "moving_variance_initializer": {"class_name": "Ones", "config": {}}, "beta_constraint": null, "axis": 3, "trainable": true}}, {"name": "activation_74", "class_name": "Activation", "inbound_nodes": [[["batch_normalization_74", 0, 0, {}]]], "config": {"name": "activation_74", "activation": "relu", "trainable": true}}, {"name": "conv2d_71", "class_name": "Conv2D", "inbound_nodes": [[["mixed7", 0, 0, {}]]], "config": {"strides": [1, 1], "dilation_rate": [1, 1], "filters": 192, "use_bias": false, "bias_initializer": {"class_name": "Zeros", "config": {}}, "kernel_constraint": null, "padding": "same", "activation": "linear", "activity_regularizer": null, "bias_constraint": null, "trainable": true, "name": "conv2d_71", "kernel_regularizer": null, "bias_regularizer": null, "kernel_size": [1, 1], "data_format": "channels_last", "kernel_initializer": {"class_name": "VarianceScaling", "config": {"scale": 1.0, "mode": "fan_avg", "distribution": "uniform", "seed": null}}}}, {"name": "conv2d_75", "class_name": "Conv2D", "inbound_nodes": [[["activation_74", 0, 0, {}]]], "config": {"strides": [1, 1], "dilation_rate": [1, 1], "filters": 192, "use_bias": false, "bias_initializer": {"class_name": "Zeros", "config": {}}, "kernel_constraint": null, "padding": "same", "activation": "linear", "activity_regularizer": null, "bias_constraint": null, "trainable": true, "name": "conv2d_75", "kernel_regularizer": null, "bias_regularizer": null, "kernel_size": [7, 1], "data_format": "channels_last", "kernel_initializer": {"class_name": "VarianceScaling", "config": {"scale": 1.0, "mode": "fan_avg", "distribution": "uniform", "seed": null}}}}, {"name": "batch_normalization_71", "class_name": "BatchNormalization", "inbound_nodes": [[["conv2d_71", 0, 0, {}]]], "config": {"moving_mean_initializer": {"class_name": "Zeros", "config": {}}, "gamma_constraint": null, "scale": false, "gamma_initializer": {"class_name": "Ones", "config": {}}, "epsilon": 0.001, "momentum": 0.99, "beta_regularizer": null, "gamma_regularizer": null, "beta_initializer": {"class_name": "Zeros", "config": {}}, "center": true, "name": "batch_normalization_71", "moving_variance_initializer": {"class_name": "Ones", "config": {}}, "beta_constraint": null, "axis": 3, "trainable": true}}, {"name": "batch_normalization_75", "class_name": "BatchNormalization", "inbound_nodes": [[["conv2d_75", 0, 0, {}]]], "config": {"moving_mean_initializer": {"class_name": "Zeros", "config": {}}, "gamma_constraint": null, "scale": false, "gamma_initializer": {"class_name": "Ones", "config": {}}, "epsilon": 0.001, "momentum": 0.99, "beta_regularizer": null, "gamma_regularizer": null, "beta_initializer": {"class_name": "Zeros", "config": {}}, "center": true, "name": "batch_normalization_75", "moving_variance_initializer": {"class_name": "Ones", "config": {}}, "beta_constraint": null, "axis": 3, "trainable": true}}, {"name": "activation_71", "class_name": "Activation", "inbound_nodes": [[["batch_normalization_71", 0, 0, {}]]], "config": {"name": "activation_71", "activation": "relu", "trainable": true}}, {"name": "activation_75", "class_name": "Activation", "inbound_nodes": [[["batch_normalization_75", 0, 0, {}]]], "config": {"name": "activation_75", "activation": "relu", "trainable": true}}, {"name": "conv2d_72", "class_name": "Conv2D", "inbound_nodes": [[["activation_71", 0, 0, {}]]], "config": {"strides": [2, 2], "dilation_rate": [1, 1], "filters": 320, "use_bias": false, "bias_initializer": {"class_name": "Zeros", "config": {}}, "kernel_constraint": null, "padding": "valid", "activation": "linear", "activity_regularizer": null, "bias_constraint": null, "trainable": true, "name": "conv2d_72", "kernel_regularizer": null, "bias_regularizer": null, "kernel_size": [3, 3], "data_format": "channels_last", "kernel_initializer": {"class_name": "VarianceScaling", "config": {"scale": 1.0, "mode": "fan_avg", "distribution": "uniform", "seed": null}}}}, {"name": "conv2d_76", "class_name": "Conv2D", "inbound_nodes": [[["activation_75", 0, 0, {}]]], "config": {"strides": [2, 2], "dilation_rate": [1, 1], "filters": 192, "use_bias": false, "bias_initializer": {"class_name": "Zeros", "config": {}}, "kernel_constraint": null, "padding": "valid", "activation": "linear", "activity_regularizer": null, "bias_constraint": null, "trainable": true, "name": "conv2d_76", "kernel_regularizer": null, "bias_regularizer": null, "kernel_size": [3, 3], "data_format": "channels_last", "kernel_initializer": {"class_name": "VarianceScaling", "config": {"scale": 1.0, "mode": "fan_avg", "distribution": "uniform", "seed": null}}}}, {"name": "batch_normalization_72", "class_name": "BatchNormalization", "inbound_nodes": [[["conv2d_72", 0, 0, {}]]], "config": {"moving_mean_initializer": {"class_name": "Zeros", "config": {}}, "gamma_constraint": null, "scale": false, "gamma_initializer": {"class_name": "Ones", "config": {}}, "epsilon": 0.001, "momentum": 0.99, "beta_regularizer": null, "gamma_regularizer": null, "beta_initializer": {"class_name": "Zeros", "config": {}}, "center": true, "name": "batch_normalization_72", "moving_variance_initializer": {"class_name": "Ones", "config": {}}, "beta_constraint": null, "axis": 3, "trainable": true}}, {"name": "batch_normalization_76", "class_name": "BatchNormalization", "inbound_nodes": [[["conv2d_76", 0, 0, {}]]], "config": {"moving_mean_initializer": {"class_name": "Zeros", "config": {}}, "gamma_constraint": null, "scale": false, "gamma_initializer": {"class_name": "Ones", "config": {}}, "epsilon": 0.001, "momentum": 0.99, "beta_regularizer": null, "gamma_regularizer": null, "beta_initializer": {"class_name": "Zeros", "config": {}}, "center": true, "name": "batch_normalization_76", "moving_variance_initializer": {"class_name": "Ones", "config": {}}, "beta_constraint": null, "axis": 3, "trainable": true}}, {"name": "activation_72", "class_name": "Activation", "inbound_nodes": [[["batch_normalization_72", 0, 0, {}]]], "config": {"name": "activation_72", "activation": "relu", "trainable": true}}, {"name": "activation_76", "class_name": "Activation", "inbound_nodes": [[["batch_normalization_76", 0, 0, {}]]], "config": {"name": "activation_76", "activation": "relu", "trainable": true}}, {"name": "max_pooling2d_4", "class_name": "MaxPooling2D", "inbound_nodes": [[["mixed7", 0, 0, {}]]], "config": {"padding": "valid", "strides": [2, 2], "trainable": true, "name": "max_pooling2d_4", "data_format": "channels_last", "pool_size": [3, 3]}}, {"name": "mixed8", "class_name": "Concatenate", "inbound_nodes": [[["activation_72", 0, 0, {}], ["activation_76", 0, 0, {}], ["max_pooling2d_4", 0, 0, {}]]], "config": {"name": "mixed8", "axis": 3, "trainable": true}}, {"name": "conv2d_81", "class_name": "Conv2D", "inbound_nodes": [[["mixed8", 0, 0, {}]]], "config": {"strides": [1, 1], "dilation_rate": [1, 1], "filters": 448, "use_bias": false, "bias_initializer": {"class_name": "Zeros", "config": {}}, "kernel_constraint": null, "padding": "same", "activation": "linear", "activity_regularizer": null, "bias_constraint": null, "trainable": true, "name": "conv2d_81", "kernel_regularizer": null, "bias_regularizer": null, "kernel_size": [1, 1], "data_format": "channels_last", "kernel_initializer": {"class_name": "VarianceScaling", "config": {"scale": 1.0, "mode": "fan_avg", "distribution": "uniform", "seed": null}}}}, {"name": "batch_normalization_81", "class_name": "BatchNormalization", "inbound_nodes": [[["conv2d_81", 0, 0, {}]]], "config": {"moving_mean_initializer": {"class_name": "Zeros", "config": {}}, "gamma_constraint": null, "scale": false, "gamma_initializer": {"class_name": "Ones", "config": {}}, "epsilon": 0.001, "momentum": 0.99, "beta_regularizer": null, "gamma_regularizer": null, "beta_initializer": {"class_name": "Zeros", "config": {}}, "center": true, "name": "batch_normalization_81", "moving_variance_initializer": {"class_name": "Ones", "config": {}}, "beta_constraint": null, "axis": 3, "trainable": true}}, {"name": "activation_81", "class_name": "Activation", "inbound_nodes": [[["batch_normalization_81", 0, 0, {}]]], "config": {"name": "activation_81", "activation": "relu", "trainable": true}}, {"name": "conv2d_78", "class_name": "Conv2D", "inbound_nodes": [[["mixed8", 0, 0, {}]]], "config": {"strides": [1, 1], "dilation_rate": [1, 1], "filters": 384, "use_bias": false, "bias_initializer": {"class_name": "Zeros", "config": {}}, "kernel_constraint": null, "padding": "same", "activation": "linear", "activity_regularizer": null, "bias_constraint": null, "trainable": true, "name": "conv2d_78", "kernel_regularizer": null, "bias_regularizer": null, "kernel_size": [1, 1], "data_format": "channels_last", "kernel_initializer": {"class_name": "VarianceScaling", "config": {"scale": 1.0, "mode": "fan_avg", "distribution": "uniform", "seed": null}}}}, {"name": "conv2d_82", "class_name": "Conv2D", "inbound_nodes": [[["activation_81", 0, 0, {}]]], "config": {"strides": [1, 1], "dilation_rate": [1, 1], "filters": 384, "use_bias": false, "bias_initializer": {"class_name": "Zeros", "config": {}}, "kernel_constraint": null, "padding": "same", "activation": "linear", "activity_regularizer": null, "bias_constraint": null, "trainable": true, "name": "conv2d_82", "kernel_regularizer": null, "bias_regularizer": null, "kernel_size": [3, 3], "data_format": "channels_last", "kernel_initializer": {"class_name": "VarianceScaling", "config": {"scale": 1.0, "mode": "fan_avg", "distribution": "uniform", "seed": null}}}}, {"name": "batch_normalization_78", "class_name": "BatchNormalization", "inbound_nodes": [[["conv2d_78", 0, 0, {}]]], "config": {"moving_mean_initializer": {"class_name": "Zeros", "config": {}}, "gamma_constraint": null, "scale": false, "gamma_initializer": {"class_name": "Ones", "config": {}}, "epsilon": 0.001, "momentum": 0.99, "beta_regularizer": null, "gamma_regularizer": null, "beta_initializer": {"class_name": "Zeros", "config": {}}, "center": true, "name": "batch_normalization_78", "moving_variance_initializer": {"class_name": "Ones", "config": {}}, "beta_constraint": null, "axis": 3, "trainable": true}}, {"name": "batch_normalization_82", "class_name": "BatchNormalization", "inbound_nodes": [[["conv2d_82", 0, 0, {}]]], "config": {"moving_mean_initializer": {"class_name": "Zeros", "config": {}}, "gamma_constraint": null, "scale": false, "gamma_initializer": {"class_name": "Ones", "config": {}}, "epsilon": 0.001, "momentum": 0.99, "beta_regularizer": null, "gamma_regularizer": null, "beta_initializer": {"class_name": "Zeros", "config": {}}, "center": true, "name": "batch_normalization_82", "moving_variance_initializer": {"class_name": "Ones", "config": {}}, "beta_constraint": null, "axis": 3, "trainable": true}}, {"name": "activation_78", "class_name": "Activation", "inbound_nodes": [[["batch_normalization_78", 0, 0, {}]]], "config": {"name": "activation_78", "activation": "relu", "trainable": true}}, {"name": "activation_82", "class_name": "Activation", "inbound_nodes": [[["batch_normalization_82", 0, 0, {}]]], "config": {"name": "activation_82", "activation": "relu", "trainable": true}}, {"name": "conv2d_79", "class_name": "Conv2D", "inbound_nodes": [[["activation_78", 0, 0, {}]]], "config": {"strides": [1, 1], "dilation_rate": [1, 1], "filters": 384, "use_bias": false, "bias_initializer": {"class_name": "Zeros", "config": {}}, "kernel_constraint": null, "padding": "same", "activation": "linear", "activity_regularizer": null, "bias_constraint": null, "trainable": true, "name": "conv2d_79", "kernel_regularizer": null, "bias_regularizer": null, "kernel_size": [1, 3], "data_format": "channels_last", "kernel_initializer": {"class_name": "VarianceScaling", "config": {"scale": 1.0, "mode": "fan_avg", "distribution": "uniform", "seed": null}}}}, {"name": "conv2d_80", "class_name": "Conv2D", "inbound_nodes": [[["activation_78", 0, 0, {}]]], "config": {"strides": [1, 1], "dilation_rate": [1, 1], "filters": 384, "use_bias": false, "bias_initializer": {"class_name": "Zeros", "config": {}}, "kernel_constraint": null, "padding": "same", "activation": "linear", "activity_regularizer": null, "bias_constraint": null, "trainable": true, "name": "conv2d_80", "kernel_regularizer": null, "bias_regularizer": null, "kernel_size": [3, 1], "data_format": "channels_last", "kernel_initializer": {"class_name": "VarianceScaling", "config": {"scale": 1.0, "mode": "fan_avg", "distribution": "uniform", "seed": null}}}}, {"name": "conv2d_83", "class_name": "Conv2D", "inbound_nodes": [[["activation_82", 0, 0, {}]]], "config": {"strides": [1, 1], "dilation_rate": [1, 1], "filters": 384, "use_bias": false, "bias_initializer": {"class_name": "Zeros", "config": {}}, "kernel_constraint": null, "padding": "same", "activation": "linear", "activity_regularizer": null, "bias_constraint": null, "trainable": true, "name": "conv2d_83", "kernel_regularizer": null, "bias_regularizer": null, "kernel_size": [1, 3], "data_format": "channels_last", "kernel_initializer": {"class_name": "VarianceScaling", "config": {"scale": 1.0, "mode": "fan_avg", "distribution": "uniform", "seed": null}}}}, {"name": "conv2d_84", "class_name": "Conv2D", "inbound_nodes": [[["activation_82", 0, 0, {}]]], "config": {"strides": [1, 1], "dilation_rate": [1, 1], "filters": 384, "use_bias": false, "bias_initializer": {"class_name": "Zeros", "config": {}}, "kernel_constraint": null, "padding": "same", "activation": "linear", "activity_regularizer": null, "bias_constraint": null, "trainable": true, "name": "conv2d_84", "kernel_regularizer": null, "bias_regularizer": null, "kernel_size": [3, 1], "data_format": "channels_last", "kernel_initializer": {"class_name": "VarianceScaling", "config": {"scale": 1.0, "mode": "fan_avg", "distribution": "uniform", "seed": null}}}}, {"name": "average_pooling2d_8", "class_name": "AveragePooling2D", "inbound_nodes": [[["mixed8", 0, 0, {}]]], "config": {"padding": "same", "strides": [1, 1], "trainable": true, "name": "average_pooling2d_8", "data_format": "channels_last", "pool_size": [3, 3]}}, {"name": "conv2d_77", "class_name": "Conv2D", "inbound_nodes": [[["mixed8", 0, 0, {}]]], "config": {"strides": [1, 1], "dilation_rate": [1, 1], "filters": 320, "use_bias": false, "bias_initializer": {"class_name": "Zeros", "config": {}}, "kernel_constraint": null, "padding": "same", "activation": "linear", "activity_regularizer": null, "bias_constraint": null, "trainable": true, "name": "conv2d_77", "kernel_regularizer": null, "bias_regularizer": null, "kernel_size": [1, 1], "data_format": "channels_last", "kernel_initializer": {"class_name": "VarianceScaling", "config": {"scale": 1.0, "mode": "fan_avg", "distribution": "uniform", "seed": null}}}}, {"name": "batch_normalization_79", "class_name": "BatchNormalization", "inbound_nodes": [[["conv2d_79", 0, 0, {}]]], "config": {"moving_mean_initializer": {"class_name": "Zeros", "config": {}}, "gamma_constraint": null, "scale": false, "gamma_initializer": {"class_name": "Ones", "config": {}}, "epsilon": 0.001, "momentum": 0.99, "beta_regularizer": null, "gamma_regularizer": null, "beta_initializer": {"class_name": "Zeros", "config": {}}, "center": true, "name": "batch_normalization_79", "moving_variance_initializer": {"class_name": "Ones", "config": {}}, "beta_constraint": null, "axis": 3, "trainable": true}}, {"name": "batch_normalization_80", "class_name": "BatchNormalization", "inbound_nodes": [[["conv2d_80", 0, 0, {}]]], "config": {"moving_mean_initializer": {"class_name": "Zeros", "config": {}}, "gamma_constraint": null, "scale": false, "gamma_initializer": {"class_name": "Ones", "config": {}}, "epsilon": 0.001, "momentum": 0.99, "beta_regularizer": null, "gamma_regularizer": null, "beta_initializer": {"class_name": "Zeros", "config": {}}, "center": true, "name": "batch_normalization_80", "moving_variance_initializer": {"class_name": "Ones", "config": {}}, "beta_constraint": null, "axis": 3, "trainable": true}}, {"name": "batch_normalization_83", "class_name": "BatchNormalization", "inbound_nodes": [[["conv2d_83", 0, 0, {}]]], "config": {"moving_mean_initializer": {"class_name": "Zeros", "config": {}}, "gamma_constraint": null, "scale": false, "gamma_initializer": {"class_name": "Ones", "config": {}}, "epsilon": 0.001, "momentum": 0.99, "beta_regularizer": null, "gamma_regularizer": null, "beta_initializer": {"class_name": "Zeros", "config": {}}, "center": true, "name": "batch_normalization_83", "moving_variance_initializer": {"class_name": "Ones", "config": {}}, "beta_constraint": null, "axis": 3, "trainable": true}}, {"name": "batch_normalization_84", "class_name": "BatchNormalization", "inbound_nodes": [[["conv2d_84", 0, 0, {}]]], "config": {"moving_mean_initializer": {"class_name": "Zeros", "config": {}}, "gamma_constraint": null, "scale": false, "gamma_initializer": {"class_name": "Ones", "config": {}}, "epsilon": 0.001, "momentum": 0.99, "beta_regularizer": null, "gamma_regularizer": null, "beta_initializer": {"class_name": "Zeros", "config": {}}, "center": true, "name": "batch_normalization_84", "moving_variance_initializer": {"class_name": "Ones", "config": {}}, "beta_constraint": null, "axis": 3, "trainable": true}}, {"name": "conv2d_85", "class_name": "Conv2D", "inbound_nodes": [[["average_pooling2d_8", 0, 0, {}]]], "config": {"strides": [1, 1], "dilation_rate": [1, 1], "filters": 192, "use_bias": false, "bias_initializer": {"class_name": "Zeros", "config": {}}, "kernel_constraint": null, "padding": "same", "activation": "linear", "activity_regularizer": null, "bias_constraint": null, "trainable": true, "name": "conv2d_85", "kernel_regularizer": null, "bias_regularizer": null, "kernel_size": [1, 1], "data_format": "channels_last", "kernel_initializer": {"class_name": "VarianceScaling", "config": {"scale": 1.0, "mode": "fan_avg", "distribution": "uniform", "seed": null}}}}, {"name": "batch_normalization_77", "class_name": "BatchNormalization", "inbound_nodes": [[["conv2d_77", 0, 0, {}]]], "config": {"moving_mean_initializer": {"class_name": "Zeros", "config": {}}, "gamma_constraint": null, "scale": false, "gamma_initializer": {"class_name": "Ones", "config": {}}, "epsilon": 0.001, "momentum": 0.99, "beta_regularizer": null, "gamma_regularizer": null, "beta_initializer": {"class_name": "Zeros", "config": {}}, "center": true, "name": "batch_normalization_77", "moving_variance_initializer": {"class_name": "Ones", "config": {}}, "beta_constraint": null, "axis": 3, "trainable": true}}, {"name": "activation_79", "class_name": "Activation", "inbound_nodes": [[["batch_normalization_79", 0, 0, {}]]], "config": {"name": "activation_79", "activation": "relu", "trainable": true}}, {"name": "activation_80", "class_name": "Activation", "inbound_nodes": [[["batch_normalization_80", 0, 0, {}]]], "config": {"name": "activation_80", "activation": "relu", "trainable": true}}, {"name": "activation_83", "class_name": "Activation", "inbound_nodes": [[["batch_normalization_83", 0, 0, {}]]], "config": {"name": "activation_83", "activation": "relu", "trainable": true}}, {"name": "activation_84", "class_name": "Activation", "inbound_nodes": [[["batch_normalization_84", 0, 0, {}]]], "config": {"name": "activation_84", "activation": "relu", "trainable": true}}, {"name": "batch_normalization_85", "class_name": "BatchNormalization", "inbound_nodes": [[["conv2d_85", 0, 0, {}]]], "config": {"moving_mean_initializer": {"class_name": "Zeros", "config": {}}, "gamma_constraint": null, "scale": false, "gamma_initializer": {"class_name": "Ones", "config": {}}, "epsilon": 0.001, "momentum": 0.99, "beta_regularizer": null, "gamma_regularizer": null, "beta_initializer": {"class_name": "Zeros", "config": {}}, "center": true, "name": "batch_normalization_85", "moving_variance_initializer": {"class_name": "Ones", "config": {}}, "beta_constraint": null, "axis": 3, "trainable": true}}, {"name": "activation_77", "class_name": "Activation", "inbound_nodes": [[["batch_normalization_77", 0, 0, {}]]], "config": {"name": "activation_77", "activation": "relu", "trainable": true}}, {"name": "mixed9_0", "class_name": "Concatenate", "inbound_nodes": [[["activation_79", 0, 0, {}], ["activation_80", 0, 0, {}]]], "config": {"name": "mixed9_0", "axis": 3, "trainable": true}}, {"name": "concatenate_1", "class_name": "Concatenate", "inbound_nodes": [[["activation_83", 0, 0, {}], ["activation_84", 0, 0, {}]]], "config": {"name": "concatenate_1", "axis": 3, "trainable": true}}, {"name": "activation_85", "class_name": "Activation", "inbound_nodes": [[["batch_normalization_85", 0, 0, {}]]], "config": {"name": "activation_85", "activation": "relu", "trainable": true}}, {"name": "mixed9", "class_name": "Concatenate", "inbound_nodes": [[["activation_77", 0, 0, {}], ["mixed9_0", 0, 0, {}], ["concatenate_1", 0, 0, {}], ["activation_85", 0, 0, {}]]], "config": {"name": "mixed9", "axis": 3, "trainable": true}}, {"name": "conv2d_90", "class_name": "Conv2D", "inbound_nodes": [[["mixed9", 0, 0, {}]]], "config": {"strides": [1, 1], "dilation_rate": [1, 1], "filters": 448, "use_bias": false, "bias_initializer": {"class_name": "Zeros", "config": {}}, "kernel_constraint": null, "padding": "same", "activation": "linear", "activity_regularizer": null, "bias_constraint": null, "trainable": true, "name": "conv2d_90", "kernel_regularizer": null, "bias_regularizer": null, "kernel_size": [1, 1], "data_format": "channels_last", "kernel_initializer": {"class_name": "VarianceScaling", "config": {"scale": 1.0, "mode": "fan_avg", "distribution": "uniform", "seed": null}}}}, {"name": "batch_normalization_90", "class_name": "BatchNormalization", "inbound_nodes": [[["conv2d_90", 0, 0, {}]]], "config": {"moving_mean_initializer": {"class_name": "Zeros", "config": {}}, "gamma_constraint": null, "scale": false, "gamma_initializer": {"class_name": "Ones", "config": {}}, "epsilon": 0.001, "momentum": 0.99, "beta_regularizer": null, "gamma_regularizer": null, "beta_initializer": {"class_name": "Zeros", "config": {}}, "center": true, "name": "batch_normalization_90", "moving_variance_initializer": {"class_name": "Ones", "config": {}}, "beta_constraint": null, "axis": 3, "trainable": true}}, {"name": "activation_90", "class_name": "Activation", "inbound_nodes": [[["batch_normalization_90", 0, 0, {}]]], "config": {"name": "activation_90", "activation": "relu", "trainable": true}}, {"name": "conv2d_87", "class_name": "Conv2D", "inbound_nodes": [[["mixed9", 0, 0, {}]]], "config": {"strides": [1, 1], "dilation_rate": [1, 1], "filters": 384, "use_bias": false, "bias_initializer": {"class_name": "Zeros", "config": {}}, "kernel_constraint": null, "padding": "same", "activation": "linear", "activity_regularizer": null, "bias_constraint": null, "trainable": true, "name": "conv2d_87", "kernel_regularizer": null, "bias_regularizer": null, "kernel_size": [1, 1], "data_format": "channels_last", "kernel_initializer": {"class_name": "VarianceScaling", "config": {"scale": 1.0, "mode": "fan_avg", "distribution": "uniform", "seed": null}}}}, {"name": "conv2d_91", "class_name": "Conv2D", "inbound_nodes": [[["activation_90", 0, 0, {}]]], "config": {"strides": [1, 1], "dilation_rate": [1, 1], "filters": 384, "use_bias": false, "bias_initializer": {"class_name": "Zeros", "config": {}}, "kernel_constraint": null, "padding": "same", "activation": "linear", "activity_regularizer": null, "bias_constraint": null, "trainable": true, "name": "conv2d_91", "kernel_regularizer": null, "bias_regularizer": null, "kernel_size": [3, 3], "data_format": "channels_last", "kernel_initializer": {"class_name": "VarianceScaling", "config": {"scale": 1.0, "mode": "fan_avg", "distribution": "uniform", "seed": null}}}}, {"name": "batch_normalization_87", "class_name": "BatchNormalization", "inbound_nodes": [[["conv2d_87", 0, 0, {}]]], "config": {"moving_mean_initializer": {"class_name": "Zeros", "config": {}}, "gamma_constraint": null, "scale": false, "gamma_initializer": {"class_name": "Ones", "config": {}}, "epsilon": 0.001, "momentum": 0.99, "beta_regularizer": null, "gamma_regularizer": null, "beta_initializer": {"class_name": "Zeros", "config": {}}, "center": true, "name": "batch_normalization_87", "moving_variance_initializer": {"class_name": "Ones", "config": {}}, "beta_constraint": null, "axis": 3, "trainable": true}}, {"name": "batch_normalization_91", "class_name": "BatchNormalization", "inbound_nodes": [[["conv2d_91", 0, 0, {}]]], "config": {"moving_mean_initializer": {"class_name": "Zeros", "config": {}}, "gamma_constraint": null, "scale": false, "gamma_initializer": {"class_name": "Ones", "config": {}}, "epsilon": 0.001, "momentum": 0.99, "beta_regularizer": null, "gamma_regularizer": null, "beta_initializer": {"class_name": "Zeros", "config": {}}, "center": true, "name": "batch_normalization_91", "moving_variance_initializer": {"class_name": "Ones", "config": {}}, "beta_constraint": null, "axis": 3, "trainable": true}}, {"name": "activation_87", "class_name": "Activation", "inbound_nodes": [[["batch_normalization_87", 0, 0, {}]]], "config": {"name": "activation_87", "activation": "relu", "trainable": true}}, {"name": "activation_91", "class_name": "Activation", "inbound_nodes": [[["batch_normalization_91", 0, 0, {}]]], "config": {"name": "activation_91", "activation": "relu", "trainable": true}}, {"name": "conv2d_88", "class_name": "Conv2D", "inbound_nodes": [[["activation_87", 0, 0, {}]]], "config": {"strides": [1, 1], "dilation_rate": [1, 1], "filters": 384, "use_bias": false, "bias_initializer": {"class_name": "Zeros", "config": {}}, "kernel_constraint": null, "padding": "same", "activation": "linear", "activity_regularizer": null, "bias_constraint": null, "trainable": true, "name": "conv2d_88", "kernel_regularizer": null, "bias_regularizer": null, "kernel_size": [1, 3], "data_format": "channels_last", "kernel_initializer": {"class_name": "VarianceScaling", "config": {"scale": 1.0, "mode": "fan_avg", "distribution": "uniform", "seed": null}}}}, {"name": "conv2d_89", "class_name": "Conv2D", "inbound_nodes": [[["activation_87", 0, 0, {}]]], "config": {"strides": [1, 1], "dilation_rate": [1, 1], "filters": 384, "use_bias": false, "bias_initializer": {"class_name": "Zeros", "config": {}}, "kernel_constraint": null, "padding": "same", "activation": "linear", "activity_regularizer": null, "bias_constraint": null, "trainable": true, "name": "conv2d_89", "kernel_regularizer": null, "bias_regularizer": null, "kernel_size": [3, 1], "data_format": "channels_last", "kernel_initializer": {"class_name": "VarianceScaling", "config": {"scale": 1.0, "mode": "fan_avg", "distribution": "uniform", "seed": null}}}}, {"name": "conv2d_92", "class_name": "Conv2D", "inbound_nodes": [[["activation_91", 0, 0, {}]]], "config": {"strides": [1, 1], "dilation_rate": [1, 1], "filters": 384, "use_bias": false, "bias_initializer": {"class_name": "Zeros", "config": {}}, "kernel_constraint": null, "padding": "same", "activation": "linear", "activity_regularizer": null, "bias_constraint": null, "trainable": true, "name": "conv2d_92", "kernel_regularizer": null, "bias_regularizer": null, "kernel_size": [1, 3], "data_format": "channels_last", "kernel_initializer": {"class_name": "VarianceScaling", "config": {"scale": 1.0, "mode": "fan_avg", "distribution": "uniform", "seed": null}}}}, {"name": "conv2d_93", "class_name": "Conv2D", "inbound_nodes": [[["activation_91", 0, 0, {}]]], "config": {"strides": [1, 1], "dilation_rate": [1, 1], "filters": 384, "use_bias": false, "bias_initializer": {"class_name": "Zeros", "config": {}}, "kernel_constraint": null, "padding": "same", "activation": "linear", "activity_regularizer": null, "bias_constraint": null, "trainable": true, "name": "conv2d_93", "kernel_regularizer": null, "bias_regularizer": null, "kernel_size": [3, 1], "data_format": "channels_last", "kernel_initializer": {"class_name": "VarianceScaling", "config": {"scale": 1.0, "mode": "fan_avg", "distribution": "uniform", "seed": null}}}}, {"name": "average_pooling2d_9", "class_name": "AveragePooling2D", "inbound_nodes": [[["mixed9", 0, 0, {}]]], "config": {"padding": "same", "strides": [1, 1], "trainable": true, "name": "average_pooling2d_9", "data_format": "channels_last", "pool_size": [3, 3]}}, {"name": "conv2d_86", "class_name": "Conv2D", "inbound_nodes": [[["mixed9", 0, 0, {}]]], "config": {"strides": [1, 1], "dilation_rate": [1, 1], "filters": 320, "use_bias": false, "bias_initializer": {"class_name": "Zeros", "config": {}}, "kernel_constraint": null, "padding": "same", "activation": "linear", "activity_regularizer": null, "bias_constraint": null, "trainable": true, "name": "conv2d_86", "kernel_regularizer": null, "bias_regularizer": null, "kernel_size": [1, 1], "data_format": "channels_last", "kernel_initializer": {"class_name": "VarianceScaling", "config": {"scale": 1.0, "mode": "fan_avg", "distribution": "uniform", "seed": null}}}}, {"name": "batch_normalization_88", "class_name": "BatchNormalization", "inbound_nodes": [[["conv2d_88", 0, 0, {}]]], "config": {"moving_mean_initializer": {"class_name": "Zeros", "config": {}}, "gamma_constraint": null, "scale": false, "gamma_initializer": {"class_name": "Ones", "config": {}}, "epsilon": 0.001, "momentum": 0.99, "beta_regularizer": null, "gamma_regularizer": null, "beta_initializer": {"class_name": "Zeros", "config": {}}, "center": true, "name": "batch_normalization_88", "moving_variance_initializer": {"class_name": "Ones", "config": {}}, "beta_constraint": null, "axis": 3, "trainable": true}}, {"name": "batch_normalization_89", "class_name": "BatchNormalization", "inbound_nodes": [[["conv2d_89", 0, 0, {}]]], "config": {"moving_mean_initializer": {"class_name": "Zeros", "config": {}}, "gamma_constraint": null, "scale": false, "gamma_initializer": {"class_name": "Ones", "config": {}}, "epsilon": 0.001, "momentum": 0.99, "beta_regularizer": null, "gamma_regularizer": null, "beta_initializer": {"class_name": "Zeros", "config": {}}, "center": true, "name": "batch_normalization_89", "moving_variance_initializer": {"class_name": "Ones", "config": {}}, "beta_constraint": null, "axis": 3, "trainable": true}}, {"name": "batch_normalization_92", "class_name": "BatchNormalization", "inbound_nodes": [[["conv2d_92", 0, 0, {}]]], "config": {"moving_mean_initializer": {"class_name": "Zeros", "config": {}}, "gamma_constraint": null, "scale": false, "gamma_initializer": {"class_name": "Ones", "config": {}}, "epsilon": 0.001, "momentum": 0.99, "beta_regularizer": null, "gamma_regularizer": null, "beta_initializer": {"class_name": "Zeros", "config": {}}, "center": true, "name": "batch_normalization_92", "moving_variance_initializer": {"class_name": "Ones", "config": {}}, "beta_constraint": null, "axis": 3, "trainable": true}}, {"name": "batch_normalization_93", "class_name": "BatchNormalization", "inbound_nodes": [[["conv2d_93", 0, 0, {}]]], "config": {"moving_mean_initializer": {"class_name": "Zeros", "config": {}}, "gamma_constraint": null, "scale": false, "gamma_initializer": {"class_name": "Ones", "config": {}}, "epsilon": 0.001, "momentum": 0.99, "beta_regularizer": null, "gamma_regularizer": null, "beta_initializer": {"class_name": "Zeros", "config": {}}, "center": true, "name": "batch_normalization_93", "moving_variance_initializer": {"class_name": "Ones", "config": {}}, "beta_constraint": null, "axis": 3, "trainable": true}}, {"name": "conv2d_94", "class_name": "Conv2D", "inbound_nodes": [[["average_pooling2d_9", 0, 0, {}]]], "config": {"strides": [1, 1], "dilation_rate": [1, 1], "filters": 192, "use_bias": false, "bias_initializer": {"class_name": "Zeros", "config": {}}, "kernel_constraint": null, "padding": "same", "activation": "linear", "activity_regularizer": null, "bias_constraint": null, "trainable": true, "name": "conv2d_94", "kernel_regularizer": null, "bias_regularizer": null, "kernel_size": [1, 1], "data_format": "channels_last", "kernel_initializer": {"class_name": "VarianceScaling", "config": {"scale": 1.0, "mode": "fan_avg", "distribution": "uniform", "seed": null}}}}, {"name": "batch_normalization_86", "class_name": "BatchNormalization", "inbound_nodes": [[["conv2d_86", 0, 0, {}]]], "config": {"moving_mean_initializer": {"class_name": "Zeros", "config": {}}, "gamma_constraint": null, "scale": false, "gamma_initializer": {"class_name": "Ones", "config": {}}, "epsilon": 0.001, "momentum": 0.99, "beta_regularizer": null, "gamma_regularizer": null, "beta_initializer": {"class_name": "Zeros", "config": {}}, "center": true, "name": "batch_normalization_86", "moving_variance_initializer": {"class_name": "Ones", "config": {}}, "beta_constraint": null, "axis": 3, "trainable": true}}, {"name": "activation_88", "class_name": "Activation", "inbound_nodes": [[["batch_normalization_88", 0, 0, {}]]], "config": {"name": "activation_88", "activation": "relu", "trainable": true}}, {"name": "activation_89", "class_name": "Activation", "inbound_nodes": [[["batch_normalization_89", 0, 0, {}]]], "config": {"name": "activation_89", "activation": "relu", "trainable": true}}, {"name": "activation_92", "class_name": "Activation", "inbound_nodes": [[["batch_normalization_92", 0, 0, {}]]], "config": {"name": "activation_92", "activation": "relu", "trainable": true}}, {"name": "activation_93", "class_name": "Activation", "inbound_nodes": [[["batch_normalization_93", 0, 0, {}]]], "config": {"name": "activation_93", "activation": "relu", "trainable": true}}, {"name": "batch_normalization_94", "class_name": "BatchNormalization", "inbound_nodes": [[["conv2d_94", 0, 0, {}]]], "config": {"moving_mean_initializer": {"class_name": "Zeros", "config": {}}, "gamma_constraint": null, "scale": false, "gamma_initializer": {"class_name": "Ones", "config": {}}, "epsilon": 0.001, "momentum": 0.99, "beta_regularizer": null, "gamma_regularizer": null, "beta_initializer": {"class_name": "Zeros", "config": {}}, "center": true, "name": "batch_normalization_94", "moving_variance_initializer": {"class_name": "Ones", "config": {}}, "beta_constraint": null, "axis": 3, "trainable": true}}, {"name": "activation_86", "class_name": "Activation", "inbound_nodes": [[["batch_normalization_86", 0, 0, {}]]], "config": {"name": "activation_86", "activation": "relu", "trainable": true}}, {"name": "mixed9_1", "class_name": "Concatenate", "inbound_nodes": [[["activation_88", 0, 0, {}], ["activation_89", 0, 0, {}]]], "config": {"name": "mixed9_1", "axis": 3, "trainable": true}}, {"name": "concatenate_2", "class_name": "Concatenate", "inbound_nodes": [[["activation_92", 0, 0, {}], ["activation_93", 0, 0, {}]]], "config": {"name": "concatenate_2", "axis": 3, "trainable": true}}, {"name": "activation_94", "class_name": "Activation", "inbound_nodes": [[["batch_normalization_94", 0, 0, {}]]], "config": {"name": "activation_94", "activation": "relu", "trainable": true}}, {"name": "mixed10", "class_name": "Concatenate", "inbound_nodes": [[["activation_86", 0, 0, {}], ["mixed9_1", 0, 0, {}], ["concatenate_2", 0, 0, {}], ["activation_94", 0, 0, {}]]], "config": {"name": "mixed10", "axis": 3, "trainable": true}}, {"name": "global_average_pooling2d_1", "class_name": "GlobalAveragePooling2D", "inbound_nodes": [[["mixed10", 0, 0, {}]]], "config": {"name": "global_average_pooling2d_1", "data_format": "channels_last", "trainable": true}}, {"name": "dense_1", "class_name": "Dense", "inbound_nodes": [[["global_average_pooling2d_1", 0, 0, {}]]], "config": {"kernel_regularizer": null, "use_bias": true, "bias_regularizer": null, "bias_initializer": {"class_name": "Zeros", "config": {}}, "kernel_constraint": null, "activation": "relu", "activity_regularizer": null, "units": 256, "trainable": true, "name": "dense_1", "bias_constraint": null, "kernel_initializer": {"class_name": "VarianceScaling", "config": {"scale": 1.0, "mode": "fan_avg", "distribution": "uniform", "seed": null}}}}, {"name": "dropout_1", "class_name": "Dropout", "inbound_nodes": [[["dense_1", 0, 0, {}]]], "config": {"name": "dropout_1", "noise_shape": null, "rate": 0.5, "seed": null, "trainable": true}}, {"name": "dense_2", "class_name": "Dense", "inbound_nodes": [[["dropout_1", 0, 0, {}]]], "config": {"kernel_regularizer": null, "use_bias": true, "bias_regularizer": null, "bias_initializer": {"class_name": "Zeros", "config": {}}, "kernel_constraint": null, "activation": "sigmoid", "activity_regularizer": null, "units": 1, "trainable": true, "name": "dense_2", "bias_constraint": null, "kernel_initializer": {"class_name": "VarianceScaling", "config": {"scale": 1.0, "mode": "fan_avg", "distribution": "uniform", "seed": null}}}}], "input_layers": [["input_1", 0, 0]], "output_layers": [["dense_2", 0, 0]]}}