{"config": {"layers": [{"config": {"dtype": "float32", "sparse": false, "name": "input_1", "batch_input_shape": [null, null, null, 3]}, "name": "input_1", "class_name": "InputLayer", "inbound_nodes": []}, {"config": {"kernel_initializer": {"config": {"mode": "fan_avg", "distribution": "uniform", "scale": 1.0, "seed": null}, "class_name": "VarianceScaling"}, "padding": "valid", "bias_constraint": null, "use_bias": false, "bias_initializer": {"config": {}, "class_name": "Zeros"}, "activity_regularizer": null, "trainable": false, "activation": "linear", "bias_regularizer": null, "strides": [2, 2], "filters": 32, "dilation_rate": [1, 1], "kernel_size": [3, 3], "kernel_regularizer": null, "kernel_constraint": null, "name": "conv2d_1", "data_format": "channels_last"}, "name": "conv2d_1", "class_name": "Conv2D", "inbound_nodes": [[["input_1", 0, 0, {}]]]}, {"config": {"gamma_initializer": {"config": {}, "class_name": "Ones"}, "moving_variance_initializer": {"config": {}, "class_name": "Ones"}, "axis": 3, "center": true, "gamma_constraint": null, "trainable": false, "momentum": 0.99, "beta_regularizer": null, "scale": false, "epsilon": 0.001, "gamma_regularizer": null, "beta_initializer": {"config": {}, "class_name": "Zeros"}, "moving_mean_initializer": {"config": {}, "class_name": "Zeros"}, "name": "batch_normalization_1", "beta_constraint": null}, "name": "batch_normalization_1", "class_name": "BatchNormalization", "inbound_nodes": [[["conv2d_1", 0, 0, {}]]]}, {"config": {"activation": "relu", "name": "activation_1", "trainable": false}, "name": "activation_1", "class_name": "Activation", "inbound_nodes": [[["batch_normalization_1", 0, 0, {}]]]}, {"config": {"kernel_initializer": {"config": {"mode": "fan_avg", "distribution": "uniform", "scale": 1.0, "seed": null}, "class_name": "VarianceScaling"}, "padding": "valid", "bias_constraint": null, "use_bias": false, "bias_initializer": {"config": {}, "class_name": "Zeros"}, "activity_regularizer": null, "trainable": false, "activation": "linear", "bias_regularizer": null, "strides": [1, 1], "filters": 32, "dilation_rate": [1, 1], "kernel_size": [3, 3], "kernel_regularizer": null, "kernel_constraint": null, "name": "conv2d_2", "data_format": "channels_last"}, "name": "conv2d_2", "class_name": "Conv2D", "inbound_nodes": [[["activation_1", 0, 0, {}]]]}, {"config": {"gamma_initializer": {"config": {}, "class_name": "Ones"}, "moving_variance_initializer": {"config": {}, "class_name": "Ones"}, "axis": 3, "center": true, "gamma_constraint": null, "trainable": false, "momentum": 0.99, "beta_regularizer": null, "scale": false, "epsilon": 0.001, "gamma_regularizer": null, "beta_initializer": {"config": {}, "class_name": "Zeros"}, "moving_mean_initializer": {"config": {}, "class_name": "Zeros"}, "name": "batch_normalization_2", "beta_constraint": null}, "name": "batch_normalization_2", "class_name": "BatchNormalization", "inbound_nodes": [[["conv2d_2", 0, 0, {}]]]}, {"config": {"activation": "relu", "name": "activation_2", "trainable": false}, "name": "activation_2", "class_name": "Activation", "inbound_nodes": [[["batch_normalization_2", 0, 0, {}]]]}, {"config": {"kernel_initializer": {"config": {"mode": "fan_avg", "distribution": "uniform", "scale": 1.0, "seed": null}, "class_name": "VarianceScaling"}, "padding": "same", "bias_constraint": null, "use_bias": false, "bias_initializer": {"config": {}, "class_name": "Zeros"}, "activity_regularizer": null, "trainable": false, "activation": "linear", "bias_regularizer": null, "strides": [1, 1], "filters": 64, "dilation_rate": [1, 1], "kernel_size": [3, 3], "kernel_regularizer": null, "kernel_constraint": null, "name": "conv2d_3", "data_format": "channels_last"}, "name": "conv2d_3", "class_name": "Conv2D", "inbound_nodes": [[["activation_2", 0, 0, {}]]]}, {"config": {"gamma_initializer": {"config": {}, "class_name": "Ones"}, "moving_variance_initializer": {"config": {}, "class_name": "Ones"}, "axis": 3, "center": true, "gamma_constraint": null, "trainable": false, "momentum": 0.99, "beta_regularizer": null, "scale": false, "epsilon": 0.001, "gamma_regularizer": null, "beta_initializer": {"config": {}, "class_name": "Zeros"}, "moving_mean_initializer": {"config": {}, "class_name": "Zeros"}, "name": "batch_normalization_3", "beta_constraint": null}, "name": "batch_normalization_3", "class_name": "BatchNormalization", "inbound_nodes": [[["conv2d_3", 0, 0, {}]]]}, {"config": {"activation": "relu", "name": "activation_3", "trainable": false}, "name": "activation_3", "class_name": "Activation", "inbound_nodes": [[["batch_normalization_3", 0, 0, {}]]]}, {"config": {"pool_size": [3, 3], "strides": [2, 2], "padding": "valid", "trainable": false, "name": "max_pooling2d_1", "data_format": "channels_last"}, "name": "max_pooling2d_1", "class_name": "MaxPooling2D", "inbound_nodes": [[["activation_3", 0, 0, {}]]]}, {"config": {"kernel_initializer": {"config": {"mode": "fan_avg", "distribution": "uniform", "scale": 1.0, "seed": null}, "class_name": "VarianceScaling"}, "padding": "valid", "bias_constraint": null, "use_bias": false, "bias_initializer": {"config": {}, "class_name": "Zeros"}, "activity_regularizer": null, "trainable": false, "activation": "linear", "bias_regularizer": null, "strides": [1, 1], "filters": 80, "dilation_rate": [1, 1], "kernel_size": [1, 1], "kernel_regularizer": null, "kernel_constraint": null, "name": "conv2d_4", "data_format": "channels_last"}, "name": "conv2d_4", "class_name": "Conv2D", "inbound_nodes": [[["max_pooling2d_1", 0, 0, {}]]]}, {"config": {"gamma_initializer": {"config": {}, "class_name": "Ones"}, "moving_variance_initializer": {"config": {}, "class_name": "Ones"}, "axis": 3, "center": true, "gamma_constraint": null, "trainable": false, "momentum": 0.99, "beta_regularizer": null, "scale": false, "epsilon": 0.001, "gamma_regularizer": null, "beta_initializer": {"config": {}, "class_name": "Zeros"}, "moving_mean_initializer": {"config": {}, "class_name": "Zeros"}, "name": "batch_normalization_4", "beta_constraint": null}, "name": "batch_normalization_4", "class_name": "BatchNormalization", "inbound_nodes": [[["conv2d_4", 0, 0, {}]]]}, {"config": {"activation": "relu", "name": "activation_4", "trainable": false}, "name": "activation_4", "class_name": "Activation", "inbound_nodes": [[["batch_normalization_4", 0, 0, {}]]]}, {"config": {"kernel_initializer": {"config": {"mode": "fan_avg", "distribution": "uniform", "scale": 1.0, "seed": null}, "class_name": "VarianceScaling"}, "padding": "valid", "bias_constraint": null, "use_bias": false, "bias_initializer": {"config": {}, "class_name": "Zeros"}, "activity_regularizer": null, "trainable": false, "activation": "linear", "bias_regularizer": null, "strides": [1, 1], "filters": 192, "dilation_rate": [1, 1], "kernel_size": [3, 3], "kernel_regularizer": null, "kernel_constraint": null, "name": "conv2d_5", "data_format": "channels_last"}, "name": "conv2d_5", "class_name": "Conv2D", "inbound_nodes": [[["activation_4", 0, 0, {}]]]}, {"config": {"gamma_initializer": {"config": {}, "class_name": "Ones"}, "moving_variance_initializer": {"config": {}, "class_name": "Ones"}, "axis": 3, "center": true, "gamma_constraint": null, "trainable": false, "momentum": 0.99, "beta_regularizer": null, "scale": false, "epsilon": 0.001, "gamma_regularizer": null, "beta_initializer": {"config": {}, "class_name": "Zeros"}, "moving_mean_initializer": {"config": {}, "class_name": "Zeros"}, "name": "batch_normalization_5", "beta_constraint": null}, "name": "batch_normalization_5", "class_name": "BatchNormalization", "inbound_nodes": [[["conv2d_5", 0, 0, {}]]]}, {"config": {"activation": "relu", "name": "activation_5", "trainable": false}, "name": "activation_5", "class_name": "Activation", "inbound_nodes": [[["batch_normalization_5", 0, 0, {}]]]}, {"config": {"pool_size": [3, 3], "strides": [2, 2], "padding": "valid", "trainable": false, "name": "max_pooling2d_2", "data_format": "channels_last"}, "name": "max_pooling2d_2", "class_name": "MaxPooling2D", "inbound_nodes": [[["activation_5", 0, 0, {}]]]}, {"config": {"kernel_initializer": {"config": {"mode": "fan_avg", "distribution": "uniform", "scale": 1.0, "seed": null}, "class_name": "VarianceScaling"}, "padding": "same", "bias_constraint": null, "use_bias": false, "bias_initializer": {"config": {}, "class_name": "Zeros"}, "activity_regularizer": null, "trainable": false, "activation": "linear", "bias_regularizer": null, "strides": [1, 1], "filters": 64, "dilation_rate": [1, 1], "kernel_size": [1, 1], "kernel_regularizer": null, "kernel_constraint": null, "name": "conv2d_9", "data_format": "channels_last"}, "name": "conv2d_9", "class_name": "Conv2D", "inbound_nodes": [[["max_pooling2d_2", 0, 0, {}]]]}, {"config": {"gamma_initializer": {"config": {}, "class_name": "Ones"}, "moving_variance_initializer": {"config": {}, "class_name": "Ones"}, "axis": 3, "center": true, "gamma_constraint": null, "trainable": false, "momentum": 0.99, "beta_regularizer": null, "scale": false, "epsilon": 0.001, "gamma_regularizer": null, "beta_initializer": {"config": {}, "class_name": "Zeros"}, "moving_mean_initializer": {"config": {}, "class_name": "Zeros"}, "name": "batch_normalization_9", "beta_constraint": null}, "name": "batch_normalization_9", "class_name": "BatchNormalization", "inbound_nodes": [[["conv2d_9", 0, 0, {}]]]}, {"config": {"activation": "relu", "name": "activation_9", "trainable": false}, "name": "activation_9", "class_name": "Activation", "inbound_nodes": [[["batch_normalization_9", 0, 0, {}]]]}, {"config": {"kernel_initializer": {"config": {"mode": "fan_avg", "distribution": "uniform", "scale": 1.0, "seed": null}, "class_name": "VarianceScaling"}, "padding": "same", "bias_constraint": null, "use_bias": false, "bias_initializer": {"config": {}, "class_name": "Zeros"}, "activity_regularizer": null, "trainable": false, "activation": "linear", "bias_regularizer": null, "strides": [1, 1], "filters": 48, "dilation_rate": [1, 1], "kernel_size": [1, 1], "kernel_regularizer": null, "kernel_constraint": null, "name": "conv2d_7", "data_format": "channels_last"}, "name": "conv2d_7", "class_name": "Conv2D", "inbound_nodes": [[["max_pooling2d_2", 0, 0, {}]]]}, {"config": {"kernel_initializer": {"config": {"mode": "fan_avg", "distribution": "uniform", "scale": 1.0, "seed": null}, "class_name": "VarianceScaling"}, "padding": "same", "bias_constraint": null, "use_bias": false, "bias_initializer": {"config": {}, "class_name": "Zeros"}, "activity_regularizer": null, "trainable": false, "activation": "linear", "bias_regularizer": null, "strides": [1, 1], "filters": 96, "dilation_rate": [1, 1], "kernel_size": [3, 3], "kernel_regularizer": null, "kernel_constraint": null, "name": "conv2d_10", "data_format": "channels_last"}, "name": "conv2d_10", "class_name": "Conv2D", "inbound_nodes": [[["activation_9", 0, 0, {}]]]}, {"config": {"gamma_initializer": {"config": {}, "class_name": "Ones"}, "moving_variance_initializer": {"config": {}, "class_name": "Ones"}, "axis": 3, "center": true, "gamma_constraint": null, "trainable": false, "momentum": 0.99, "beta_regularizer": null, "scale": false, "epsilon": 0.001, "gamma_regularizer": null, "beta_initializer": {"config": {}, "class_name": "Zeros"}, "moving_mean_initializer": {"config": {}, "class_name": "Zeros"}, "name": "batch_normalization_7", "beta_constraint": null}, "name": "batch_normalization_7", "class_name": "BatchNormalization", "inbound_nodes": [[["conv2d_7", 0, 0, {}]]]}, {"config": {"gamma_initializer": {"config": {}, "class_name": "Ones"}, "moving_variance_initializer": {"config": {}, "class_name": "Ones"}, "axis": 3, "center": true, "gamma_constraint": null, "trainable": false, "momentum": 0.99, "beta_regularizer": null, "scale": false, "epsilon": 0.001, "gamma_regularizer": null, "beta_initializer": {"config": {}, "class_name": "Zeros"}, "moving_mean_initializer": {"config": {}, "class_name": "Zeros"}, "name": "batch_normalization_10", "beta_constraint": null}, "name": "batch_normalization_10", "class_name": "BatchNormalization", "inbound_nodes": [[["conv2d_10", 0, 0, {}]]]}, {"config": {"activation": "relu", "name": "activation_7", "trainable": false}, "name": "activation_7", "class_name": "Activation", "inbound_nodes": [[["batch_normalization_7", 0, 0, {}]]]}, {"config": {"activation": "relu", "name": "activation_10", "trainable": false}, "name": "activation_10", "class_name": "Activation", "inbound_nodes": [[["batch_normalization_10", 0, 0, {}]]]}, {"config": {"pool_size": [3, 3], "strides": [1, 1], "padding": "same", "trainable": false, "name": "average_pooling2d_1", "data_format": "channels_last"}, "name": "average_pooling2d_1", "class_name": "AveragePooling2D", "inbound_nodes": [[["max_pooling2d_2", 0, 0, {}]]]}, {"config": {"kernel_initializer": {"config": {"mode": "fan_avg", "distribution": "uniform", "scale": 1.0, "seed": null}, "class_name": "VarianceScaling"}, "padding": "same", "bias_constraint": null, "use_bias": false, "bias_initializer": {"config": {}, "class_name": "Zeros"}, "activity_regularizer": null, "trainable": false, "activation": "linear", "bias_regularizer": null, "strides": [1, 1], "filters": 64, "dilation_rate": [1, 1], "kernel_size": [1, 1], "kernel_regularizer": null, "kernel_constraint": null, "name": "conv2d_6", "data_format": "channels_last"}, "name": "conv2d_6", "class_name": "Conv2D", "inbound_nodes": [[["max_pooling2d_2", 0, 0, {}]]]}, {"config": {"kernel_initializer": {"config": {"mode": "fan_avg", "distribution": "uniform", "scale": 1.0, "seed": null}, "class_name": "VarianceScaling"}, "padding": "same", "bias_constraint": null, "use_bias": false, "bias_initializer": {"config": {}, "class_name": "Zeros"}, "activity_regularizer": null, "trainable": false, "activation": "linear", "bias_regularizer": null, "strides": [1, 1], "filters": 64, "dilation_rate": [1, 1], "kernel_size": [5, 5], "kernel_regularizer": null, "kernel_constraint": null, "name": "conv2d_8", "data_format": "channels_last"}, "name": "conv2d_8", "class_name": "Conv2D", "inbound_nodes": [[["activation_7", 0, 0, {}]]]}, {"config": {"kernel_initializer": {"config": {"mode": "fan_avg", "distribution": "uniform", "scale": 1.0, "seed": null}, "class_name": "VarianceScaling"}, "padding": "same", "bias_constraint": null, "use_bias": false, "bias_initializer": {"config": {}, "class_name": "Zeros"}, "activity_regularizer": null, "trainable": false, "activation": "linear", "bias_regularizer": null, "strides": [1, 1], "filters": 96, "dilation_rate": [1, 1], "kernel_size": [3, 3], "kernel_regularizer": null, "kernel_constraint": null, "name": "conv2d_11", "data_format": "channels_last"}, "name": "conv2d_11", "class_name": "Conv2D", "inbound_nodes": [[["activation_10", 0, 0, {}]]]}, {"config": {"kernel_initializer": {"config": {"mode": "fan_avg", "distribution": "uniform", "scale": 1.0, "seed": null}, "class_name": "VarianceScaling"}, "padding": "same", "bias_constraint": null, "use_bias": false, "bias_initializer": {"config": {}, "class_name": "Zeros"}, "activity_regularizer": null, "trainable": false, "activation": "linear", "bias_regularizer": null, "strides": [1, 1], "filters": 32, "dilation_rate": [1, 1], "kernel_size": [1, 1], "kernel_regularizer": null, "kernel_constraint": null, "name": "conv2d_12", "data_format": "channels_last"}, "name": "conv2d_12", "class_name": "Conv2D", "inbound_nodes": [[["average_pooling2d_1", 0, 0, {}]]]}, {"config": {"gamma_initializer": {"config": {}, "class_name": "Ones"}, "moving_variance_initializer": {"config": {}, "class_name": "Ones"}, "axis": 3, "center": true, "gamma_constraint": null, "trainable": false, "momentum": 0.99, "beta_regularizer": null, "scale": false, "epsilon": 0.001, "gamma_regularizer": null, "beta_initializer": {"config": {}, "class_name": "Zeros"}, "moving_mean_initializer": {"config": {}, "class_name": "Zeros"}, "name": "batch_normalization_6", "beta_constraint": null}, "name": "batch_normalization_6", "class_name": "BatchNormalization", "inbound_nodes": [[["conv2d_6", 0, 0, {}]]]}, {"config": {"gamma_initializer": {"config": {}, "class_name": "Ones"}, "moving_variance_initializer": {"config": {}, "class_name": "Ones"}, "axis": 3, "center": true, "gamma_constraint": null, "trainable": false, "momentum": 0.99, "beta_regularizer": null, "scale": false, "epsilon": 0.001, "gamma_regularizer": null, "beta_initializer": {"config": {}, "class_name": "Zeros"}, "moving_mean_initializer": {"config": {}, "class_name": "Zeros"}, "name": "batch_normalization_8", "beta_constraint": null}, "name": "batch_normalization_8", "class_name": "BatchNormalization", "inbound_nodes": [[["conv2d_8", 0, 0, {}]]]}, {"config": {"gamma_initializer": {"config": {}, "class_name": "Ones"}, "moving_variance_initializer": {"config": {}, "class_name": "Ones"}, "axis": 3, "center": true, "gamma_constraint": null, "trainable": false, "momentum": 0.99, "beta_regularizer": null, "scale": false, "epsilon": 0.001, "gamma_regularizer": null, "beta_initializer": {"config": {}, "class_name": "Zeros"}, "moving_mean_initializer": {"config": {}, "class_name": "Zeros"}, "name": "batch_normalization_11", "beta_constraint": null}, "name": "batch_normalization_11", "class_name": "BatchNormalization", "inbound_nodes": [[["conv2d_11", 0, 0, {}]]]}, {"config": {"gamma_initializer": {"config": {}, "class_name": "Ones"}, "moving_variance_initializer": {"config": {}, "class_name": "Ones"}, "axis": 3, "center": true, "gamma_constraint": null, "trainable": false, "momentum": 0.99, "beta_regularizer": null, "scale": false, "epsilon": 0.001, "gamma_regularizer": null, "beta_initializer": {"config": {}, "class_name": "Zeros"}, "moving_mean_initializer": {"config": {}, "class_name": "Zeros"}, "name": "batch_normalization_12", "beta_constraint": null}, "name": "batch_normalization_12", "class_name": "BatchNormalization", "inbound_nodes": [[["conv2d_12", 0, 0, {}]]]}, {"config": {"activation": "relu", "name": "activation_6", "trainable": false}, "name": "activation_6", "class_name": "Activation", "inbound_nodes": [[["batch_normalization_6", 0, 0, {}]]]}, {"config": {"activation": "relu", "name": "activation_8", "trainable": false}, "name": "activation_8", "class_name": "Activation", "inbound_nodes": [[["batch_normalization_8", 0, 0, {}]]]}, {"config": {"activation": "relu", "name": "activation_11", "trainable": false}, "name": "activation_11", "class_name": "Activation", "inbound_nodes": [[["batch_normalization_11", 0, 0, {}]]]}, {"config": {"activation": "relu", "name": "activation_12", "trainable": false}, "name": "activation_12", "class_name": "Activation", "inbound_nodes": [[["batch_normalization_12", 0, 0, {}]]]}, {"config": {"axis": 3, "name": "mixed0", "trainable": false}, "name": "mixed0", "class_name": "Concatenate", "inbound_nodes": [[["activation_6", 0, 0, {}], ["activation_8", 0, 0, {}], ["activation_11", 0, 0, {}], ["activation_12", 0, 0, {}]]]}, {"config": {"kernel_initializer": {"config": {"mode": "fan_avg", "distribution": "uniform", "scale": 1.0, "seed": null}, "class_name": "VarianceScaling"}, "padding": "same", "bias_constraint": null, "use_bias": false, "bias_initializer": {"config": {}, "class_name": "Zeros"}, "activity_regularizer": null, "trainable": false, "activation": "linear", "bias_regularizer": null, "strides": [1, 1], "filters": 64, "dilation_rate": [1, 1], "kernel_size": [1, 1], "kernel_regularizer": null, "kernel_constraint": null, "name": "conv2d_16", "data_format": "channels_last"}, "name": "conv2d_16", "class_name": "Conv2D", "inbound_nodes": [[["mixed0", 0, 0, {}]]]}, {"config": {"gamma_initializer": {"config": {}, "class_name": "Ones"}, "moving_variance_initializer": {"config": {}, "class_name": "Ones"}, "axis": 3, "center": true, "gamma_constraint": null, "trainable": false, "momentum": 0.99, "beta_regularizer": null, "scale": false, "epsilon": 0.001, "gamma_regularizer": null, "beta_initializer": {"config": {}, "class_name": "Zeros"}, "moving_mean_initializer": {"config": {}, "class_name": "Zeros"}, "name": "batch_normalization_16", "beta_constraint": null}, "name": "batch_normalization_16", "class_name": "BatchNormalization", "inbound_nodes": [[["conv2d_16", 0, 0, {}]]]}, {"config": {"activation": "relu", "name": "activation_16", "trainable": false}, "name": "activation_16", "class_name": "Activation", "inbound_nodes": [[["batch_normalization_16", 0, 0, {}]]]}, {"config": {"kernel_initializer": {"config": {"mode": "fan_avg", "distribution": "uniform", "scale": 1.0, "seed": null}, "class_name": "VarianceScaling"}, "padding": "same", "bias_constraint": null, "use_bias": false, "bias_initializer": {"config": {}, "class_name": "Zeros"}, "activity_regularizer": null, "trainable": false, "activation": "linear", "bias_regularizer": null, "strides": [1, 1], "filters": 48, "dilation_rate": [1, 1], "kernel_size": [1, 1], "kernel_regularizer": null, "kernel_constraint": null, "name": "conv2d_14", "data_format": "channels_last"}, "name": "conv2d_14", "class_name": "Conv2D", "inbound_nodes": [[["mixed0", 0, 0, {}]]]}, {"config": {"kernel_initializer": {"config": {"mode": "fan_avg", "distribution": "uniform", "scale": 1.0, "seed": null}, "class_name": "VarianceScaling"}, "padding": "same", "bias_constraint": null, "use_bias": false, "bias_initializer": {"config": {}, "class_name": "Zeros"}, "activity_regularizer": null, "trainable": false, "activation": "linear", "bias_regularizer": null, "strides": [1, 1], "filters": 96, "dilation_rate": [1, 1], "kernel_size": [3, 3], "kernel_regularizer": null, "kernel_constraint": null, "name": "conv2d_17", "data_format": "channels_last"}, "name": "conv2d_17", "class_name": "Conv2D", "inbound_nodes": [[["activation_16", 0, 0, {}]]]}, {"config": {"gamma_initializer": {"config": {}, "class_name": "Ones"}, "moving_variance_initializer": {"config": {}, "class_name": "Ones"}, "axis": 3, "center": true, "gamma_constraint": null, "trainable": false, "momentum": 0.99, "beta_regularizer": null, "scale": false, "epsilon": 0.001, "gamma_regularizer": null, "beta_initializer": {"config": {}, "class_name": "Zeros"}, "moving_mean_initializer": {"config": {}, "class_name": "Zeros"}, "name": "batch_normalization_14", "beta_constraint": null}, "name": "batch_normalization_14", "class_name": "BatchNormalization", "inbound_nodes": [[["conv2d_14", 0, 0, {}]]]}, {"config": {"gamma_initializer": {"config": {}, "class_name": "Ones"}, "moving_variance_initializer": {"config": {}, "class_name": "Ones"}, "axis": 3, "center": true, "gamma_constraint": null, "trainable": false, "momentum": 0.99, "beta_regularizer": null, "scale": false, "epsilon": 0.001, "gamma_regularizer": null, "beta_initializer": {"config": {}, "class_name": "Zeros"}, "moving_mean_initializer": {"config": {}, "class_name": "Zeros"}, "name": "batch_normalization_17", "beta_constraint": null}, "name": "batch_normalization_17", "class_name": "BatchNormalization", "inbound_nodes": [[["conv2d_17", 0, 0, {}]]]}, {"config": {"activation": "relu", "name": "activation_14", "trainable": false}, "name": "activation_14", "class_name": "Activation", "inbound_nodes": [[["batch_normalization_14", 0, 0, {}]]]}, {"config": {"activation": "relu", "name": "activation_17", "trainable": false}, "name": "activation_17", "class_name": "Activation", "inbound_nodes": [[["batch_normalization_17", 0, 0, {}]]]}, {"config": {"pool_size": [3, 3], "strides": [1, 1], "padding": "same", "trainable": false, "name": "average_pooling2d_2", "data_format": "channels_last"}, "name": "average_pooling2d_2", "class_name": "AveragePooling2D", "inbound_nodes": [[["mixed0", 0, 0, {}]]]}, {"config": {"kernel_initializer": {"config": {"mode": "fan_avg", "distribution": "uniform", "scale": 1.0, "seed": null}, "class_name": "VarianceScaling"}, "padding": "same", "bias_constraint": null, "use_bias": false, "bias_initializer": {"config": {}, "class_name": "Zeros"}, "activity_regularizer": null, "trainable": false, "activation": "linear", "bias_regularizer": null, "strides": [1, 1], "filters": 64, "dilation_rate": [1, 1], "kernel_size": [1, 1], "kernel_regularizer": null, "kernel_constraint": null, "name": "conv2d_13", "data_format": "channels_last"}, "name": "conv2d_13", "class_name": "Conv2D", "inbound_nodes": [[["mixed0", 0, 0, {}]]]}, {"config": {"kernel_initializer": {"config": {"mode": "fan_avg", "distribution": "uniform", "scale": 1.0, "seed": null}, "class_name": "VarianceScaling"}, "padding": "same", "bias_constraint": null, "use_bias": false, "bias_initializer": {"config": {}, "class_name": "Zeros"}, "activity_regularizer": null, "trainable": false, "activation": "linear", "bias_regularizer": null, "strides": [1, 1], "filters": 64, "dilation_rate": [1, 1], "kernel_size": [5, 5], "kernel_regularizer": null, "kernel_constraint": null, "name": "conv2d_15", "data_format": "channels_last"}, "name": "conv2d_15", "class_name": "Conv2D", "inbound_nodes": [[["activation_14", 0, 0, {}]]]}, {"config": {"kernel_initializer": {"config": {"mode": "fan_avg", "distribution": "uniform", "scale": 1.0, "seed": null}, "class_name": "VarianceScaling"}, "padding": "same", "bias_constraint": null, "use_bias": false, "bias_initializer": {"config": {}, "class_name": "Zeros"}, "activity_regularizer": null, "trainable": false, "activation": "linear", "bias_regularizer": null, "strides": [1, 1], "filters": 96, "dilation_rate": [1, 1], "kernel_size": [3, 3], "kernel_regularizer": null, "kernel_constraint": null, "name": "conv2d_18", "data_format": "channels_last"}, "name": "conv2d_18", "class_name": "Conv2D", "inbound_nodes": [[["activation_17", 0, 0, {}]]]}, {"config": {"kernel_initializer": {"config": {"mode": "fan_avg", "distribution": "uniform", "scale": 1.0, "seed": null}, "class_name": "VarianceScaling"}, "padding": "same", "bias_constraint": null, "use_bias": false, "bias_initializer": {"config": {}, "class_name": "Zeros"}, "activity_regularizer": null, "trainable": false, "activation": "linear", "bias_regularizer": null, "strides": [1, 1], "filters": 64, "dilation_rate": [1, 1], "kernel_size": [1, 1], "kernel_regularizer": null, "kernel_constraint": null, "name": "conv2d_19", "data_format": "channels_last"}, "name": "conv2d_19", "class_name": "Conv2D", "inbound_nodes": [[["average_pooling2d_2", 0, 0, {}]]]}, {"config": {"gamma_initializer": {"config": {}, "class_name": "Ones"}, "moving_variance_initializer": {"config": {}, "class_name": "Ones"}, "axis": 3, "center": true, "gamma_constraint": null, "trainable": false, "momentum": 0.99, "beta_regularizer": null, "scale": false, "epsilon": 0.001, "gamma_regularizer": null, "beta_initializer": {"config": {}, "class_name": "Zeros"}, "moving_mean_initializer": {"config": {}, "class_name": "Zeros"}, "name": "batch_normalization_13", "beta_constraint": null}, "name": "batch_normalization_13", "class_name": "BatchNormalization", "inbound_nodes": [[["conv2d_13", 0, 0, {}]]]}, {"config": {"gamma_initializer": {"config": {}, "class_name": "Ones"}, "moving_variance_initializer": {"config": {}, "class_name": "Ones"}, "axis": 3, "center": true, "gamma_constraint": null, "trainable": false, "momentum": 0.99, "beta_regularizer": null, "scale": false, "epsilon": 0.001, "gamma_regularizer": null, "beta_initializer": {"config": {}, "class_name": "Zeros"}, "moving_mean_initializer": {"config": {}, "class_name": "Zeros"}, "name": "batch_normalization_15", "beta_constraint": null}, "name": "batch_normalization_15", "class_name": "BatchNormalization", "inbound_nodes": [[["conv2d_15", 0, 0, {}]]]}, {"config": {"gamma_initializer": {"config": {}, "class_name": "Ones"}, "moving_variance_initializer": {"config": {}, "class_name": "Ones"}, "axis": 3, "center": true, "gamma_constraint": null, "trainable": false, "momentum": 0.99, "beta_regularizer": null, "scale": false, "epsilon": 0.001, "gamma_regularizer": null, "beta_initializer": {"config": {}, "class_name": "Zeros"}, "moving_mean_initializer": {"config": {}, "class_name": "Zeros"}, "name": "batch_normalization_18", "beta_constraint": null}, "name": "batch_normalization_18", "class_name": "BatchNormalization", "inbound_nodes": [[["conv2d_18", 0, 0, {}]]]}, {"config": {"gamma_initializer": {"config": {}, "class_name": "Ones"}, "moving_variance_initializer": {"config": {}, "class_name": "Ones"}, "axis": 3, "center": true, "gamma_constraint": null, "trainable": false, "momentum": 0.99, "beta_regularizer": null, "scale": false, "epsilon": 0.001, "gamma_regularizer": null, "beta_initializer": {"config": {}, "class_name": "Zeros"}, "moving_mean_initializer": {"config": {}, "class_name": "Zeros"}, "name": "batch_normalization_19", "beta_constraint": null}, "name": "batch_normalization_19", "class_name": "BatchNormalization", "inbound_nodes": [[["conv2d_19", 0, 0, {}]]]}, {"config": {"activation": "relu", "name": "activation_13", "trainable": false}, "name": "activation_13", "class_name": "Activation", "inbound_nodes": [[["batch_normalization_13", 0, 0, {}]]]}, {"config": {"activation": "relu", "name": "activation_15", "trainable": false}, "name": "activation_15", "class_name": "Activation", "inbound_nodes": [[["batch_normalization_15", 0, 0, {}]]]}, {"config": {"activation": "relu", "name": "activation_18", "trainable": false}, "name": "activation_18", "class_name": "Activation", "inbound_nodes": [[["batch_normalization_18", 0, 0, {}]]]}, {"config": {"activation": "relu", "name": "activation_19", "trainable": false}, "name": "activation_19", "class_name": "Activation", "inbound_nodes": [[["batch_normalization_19", 0, 0, {}]]]}, {"config": {"axis": 3, "name": "mixed1", "trainable": false}, "name": "mixed1", "class_name": "Concatenate", "inbound_nodes": [[["activation_13", 0, 0, {}], ["activation_15", 0, 0, {}], ["activation_18", 0, 0, {}], ["activation_19", 0, 0, {}]]]}, {"config": {"kernel_initializer": {"config": {"mode": "fan_avg", "distribution": "uniform", "scale": 1.0, "seed": null}, "class_name": "VarianceScaling"}, "padding": "same", "bias_constraint": null, "use_bias": false, "bias_initializer": {"config": {}, "class_name": "Zeros"}, "activity_regularizer": null, "trainable": false, "activation": "linear", "bias_regularizer": null, "strides": [1, 1], "filters": 64, "dilation_rate": [1, 1], "kernel_size": [1, 1], "kernel_regularizer": null, "kernel_constraint": null, "name": "conv2d_23", "data_format": "channels_last"}, "name": "conv2d_23", "class_name": "Conv2D", "inbound_nodes": [[["mixed1", 0, 0, {}]]]}, {"config": {"gamma_initializer": {"config": {}, "class_name": "Ones"}, "moving_variance_initializer": {"config": {}, "class_name": "Ones"}, "axis": 3, "center": true, "gamma_constraint": null, "trainable": false, "momentum": 0.99, "beta_regularizer": null, "scale": false, "epsilon": 0.001, "gamma_regularizer": null, "beta_initializer": {"config": {}, "class_name": "Zeros"}, "moving_mean_initializer": {"config": {}, "class_name": "Zeros"}, "name": "batch_normalization_23", "beta_constraint": null}, "name": "batch_normalization_23", "class_name": "BatchNormalization", "inbound_nodes": [[["conv2d_23", 0, 0, {}]]]}, {"config": {"activation": "relu", "name": "activation_23", "trainable": false}, "name": "activation_23", "class_name": "Activation", "inbound_nodes": [[["batch_normalization_23", 0, 0, {}]]]}, {"config": {"kernel_initializer": {"config": {"mode": "fan_avg", "distribution": "uniform", "scale": 1.0, "seed": null}, "class_name": "VarianceScaling"}, "padding": "same", "bias_constraint": null, "use_bias": false, "bias_initializer": {"config": {}, "class_name": "Zeros"}, "activity_regularizer": null, "trainable": false, "activation": "linear", "bias_regularizer": null, "strides": [1, 1], "filters": 48, "dilation_rate": [1, 1], "kernel_size": [1, 1], "kernel_regularizer": null, "kernel_constraint": null, "name": "conv2d_21", "data_format": "channels_last"}, "name": "conv2d_21", "class_name": "Conv2D", "inbound_nodes": [[["mixed1", 0, 0, {}]]]}, {"config": {"kernel_initializer": {"config": {"mode": "fan_avg", "distribution": "uniform", "scale": 1.0, "seed": null}, "class_name": "VarianceScaling"}, "padding": "same", "bias_constraint": null, "use_bias": false, "bias_initializer": {"config": {}, "class_name": "Zeros"}, "activity_regularizer": null, "trainable": false, "activation": "linear", "bias_regularizer": null, "strides": [1, 1], "filters": 96, "dilation_rate": [1, 1], "kernel_size": [3, 3], "kernel_regularizer": null, "kernel_constraint": null, "name": "conv2d_24", "data_format": "channels_last"}, "name": "conv2d_24", "class_name": "Conv2D", "inbound_nodes": [[["activation_23", 0, 0, {}]]]}, {"config": {"gamma_initializer": {"config": {}, "class_name": "Ones"}, "moving_variance_initializer": {"config": {}, "class_name": "Ones"}, "axis": 3, "center": true, "gamma_constraint": null, "trainable": false, "momentum": 0.99, "beta_regularizer": null, "scale": false, "epsilon": 0.001, "gamma_regularizer": null, "beta_initializer": {"config": {}, "class_name": "Zeros"}, "moving_mean_initializer": {"config": {}, "class_name": "Zeros"}, "name": "batch_normalization_21", "beta_constraint": null}, "name": "batch_normalization_21", "class_name": "BatchNormalization", "inbound_nodes": [[["conv2d_21", 0, 0, {}]]]}, {"config": {"gamma_initializer": {"config": {}, "class_name": "Ones"}, "moving_variance_initializer": {"config": {}, "class_name": "Ones"}, "axis": 3, "center": true, "gamma_constraint": null, "trainable": false, "momentum": 0.99, "beta_regularizer": null, "scale": false, "epsilon": 0.001, "gamma_regularizer": null, "beta_initializer": {"config": {}, "class_name": "Zeros"}, "moving_mean_initializer": {"config": {}, "class_name": "Zeros"}, "name": "batch_normalization_24", "beta_constraint": null}, "name": "batch_normalization_24", "class_name": "BatchNormalization", "inbound_nodes": [[["conv2d_24", 0, 0, {}]]]}, {"config": {"activation": "relu", "name": "activation_21", "trainable": false}, "name": "activation_21", "class_name": "Activation", "inbound_nodes": [[["batch_normalization_21", 0, 0, {}]]]}, {"config": {"activation": "relu", "name": "activation_24", "trainable": false}, "name": "activation_24", "class_name": "Activation", "inbound_nodes": [[["batch_normalization_24", 0, 0, {}]]]}, {"config": {"pool_size": [3, 3], "strides": [1, 1], "padding": "same", "trainable": false, "name": "average_pooling2d_3", "data_format": "channels_last"}, "name": "average_pooling2d_3", "class_name": "AveragePooling2D", "inbound_nodes": [[["mixed1", 0, 0, {}]]]}, {"config": {"kernel_initializer": {"config": {"mode": "fan_avg", "distribution": "uniform", "scale": 1.0, "seed": null}, "class_name": "VarianceScaling"}, "padding": "same", "bias_constraint": null, "use_bias": false, "bias_initializer": {"config": {}, "class_name": "Zeros"}, "activity_regularizer": null, "trainable": false, "activation": "linear", "bias_regularizer": null, "strides": [1, 1], "filters": 64, "dilation_rate": [1, 1], "kernel_size": [1, 1], "kernel_regularizer": null, "kernel_constraint": null, "name": "conv2d_20", "data_format": "channels_last"}, "name": "conv2d_20", "class_name": "Conv2D", "inbound_nodes": [[["mixed1", 0, 0, {}]]]}, {"config": {"kernel_initializer": {"config": {"mode": "fan_avg", "distribution": "uniform", "scale": 1.0, "seed": null}, "class_name": "VarianceScaling"}, "padding": "same", "bias_constraint": null, "use_bias": false, "bias_initializer": {"config": {}, "class_name": "Zeros"}, "activity_regularizer": null, "trainable": false, "activation": "linear", "bias_regularizer": null, "strides": [1, 1], "filters": 64, "dilation_rate": [1, 1], "kernel_size": [5, 5], "kernel_regularizer": null, "kernel_constraint": null, "name": "conv2d_22", "data_format": "channels_last"}, "name": "conv2d_22", "class_name": "Conv2D", "inbound_nodes": [[["activation_21", 0, 0, {}]]]}, {"config": {"kernel_initializer": {"config": {"mode": "fan_avg", "distribution": "uniform", "scale": 1.0, "seed": null}, "class_name": "VarianceScaling"}, "padding": "same", "bias_constraint": null, "use_bias": false, "bias_initializer": {"config": {}, "class_name": "Zeros"}, "activity_regularizer": null, "trainable": false, "activation": "linear", "bias_regularizer": null, "strides": [1, 1], "filters": 96, "dilation_rate": [1, 1], "kernel_size": [3, 3], "kernel_regularizer": null, "kernel_constraint": null, "name": "conv2d_25", "data_format": "channels_last"}, "name": "conv2d_25", "class_name": "Conv2D", "inbound_nodes": [[["activation_24", 0, 0, {}]]]}, {"config": {"kernel_initializer": {"config": {"mode": "fan_avg", "distribution": "uniform", "scale": 1.0, "seed": null}, "class_name": "VarianceScaling"}, "padding": "same", "bias_constraint": null, "use_bias": false, "bias_initializer": {"config": {}, "class_name": "Zeros"}, "activity_regularizer": null, "trainable": false, "activation": "linear", "bias_regularizer": null, "strides": [1, 1], "filters": 64, "dilation_rate": [1, 1], "kernel_size": [1, 1], "kernel_regularizer": null, "kernel_constraint": null, "name": "conv2d_26", "data_format": "channels_last"}, "name": "conv2d_26", "class_name": "Conv2D", "inbound_nodes": [[["average_pooling2d_3", 0, 0, {}]]]}, {"config": {"gamma_initializer": {"config": {}, "class_name": "Ones"}, "moving_variance_initializer": {"config": {}, "class_name": "Ones"}, "axis": 3, "center": true, "gamma_constraint": null, "trainable": false, "momentum": 0.99, "beta_regularizer": null, "scale": false, "epsilon": 0.001, "gamma_regularizer": null, "beta_initializer": {"config": {}, "class_name": "Zeros"}, "moving_mean_initializer": {"config": {}, "class_name": "Zeros"}, "name": "batch_normalization_20", "beta_constraint": null}, "name": "batch_normalization_20", "class_name": "BatchNormalization", "inbound_nodes": [[["conv2d_20", 0, 0, {}]]]}, {"config": {"gamma_initializer": {"config": {}, "class_name": "Ones"}, "moving_variance_initializer": {"config": {}, "class_name": "Ones"}, "axis": 3, "center": true, "gamma_constraint": null, "trainable": false, "momentum": 0.99, "beta_regularizer": null, "scale": false, "epsilon": 0.001, "gamma_regularizer": null, "beta_initializer": {"config": {}, "class_name": "Zeros"}, "moving_mean_initializer": {"config": {}, "class_name": "Zeros"}, "name": "batch_normalization_22", "beta_constraint": null}, "name": "batch_normalization_22", "class_name": "BatchNormalization", "inbound_nodes": [[["conv2d_22", 0, 0, {}]]]}, {"config": {"gamma_initializer": {"config": {}, "class_name": "Ones"}, "moving_variance_initializer": {"config": {}, "class_name": "Ones"}, "axis": 3, "center": true, "gamma_constraint": null, "trainable": false, "momentum": 0.99, "beta_regularizer": null, "scale": false, "epsilon": 0.001, "gamma_regularizer": null, "beta_initializer": {"config": {}, "class_name": "Zeros"}, "moving_mean_initializer": {"config": {}, "class_name": "Zeros"}, "name": "batch_normalization_25", "beta_constraint": null}, "name": "batch_normalization_25", "class_name": "BatchNormalization", "inbound_nodes": [[["conv2d_25", 0, 0, {}]]]}, {"config": {"gamma_initializer": {"config": {}, "class_name": "Ones"}, "moving_variance_initializer": {"config": {}, "class_name": "Ones"}, "axis": 3, "center": true, "gamma_constraint": null, "trainable": false, "momentum": 0.99, "beta_regularizer": null, "scale": false, "epsilon": 0.001, "gamma_regularizer": null, "beta_initializer": {"config": {}, "class_name": "Zeros"}, "moving_mean_initializer": {"config": {}, "class_name": "Zeros"}, "name": "batch_normalization_26", "beta_constraint": null}, "name": "batch_normalization_26", "class_name": "BatchNormalization", "inbound_nodes": [[["conv2d_26", 0, 0, {}]]]}, {"config": {"activation": "relu", "name": "activation_20", "trainable": false}, "name": "activation_20", "class_name": "Activation", "inbound_nodes": [[["batch_normalization_20", 0, 0, {}]]]}, {"config": {"activation": "relu", "name": "activation_22", "trainable": false}, "name": "activation_22", "class_name": "Activation", "inbound_nodes": [[["batch_normalization_22", 0, 0, {}]]]}, {"config": {"activation": "relu", "name": "activation_25", "trainable": false}, "name": "activation_25", "class_name": "Activation", "inbound_nodes": [[["batch_normalization_25", 0, 0, {}]]]}, {"config": {"activation": "relu", "name": "activation_26", "trainable": false}, "name": "activation_26", "class_name": "Activation", "inbound_nodes": [[["batch_normalization_26", 0, 0, {}]]]}, {"config": {"axis": 3, "name": "mixed2", "trainable": false}, "name": "mixed2", "class_name": "Concatenate", "inbound_nodes": [[["activation_20", 0, 0, {}], ["activation_22", 0, 0, {}], ["activation_25", 0, 0, {}], ["activation_26", 0, 0, {}]]]}, {"config": {"kernel_initializer": {"config": {"mode": "fan_avg", "distribution": "uniform", "scale": 1.0, "seed": null}, "class_name": "VarianceScaling"}, "padding": "same", "bias_constraint": null, "use_bias": false, "bias_initializer": {"config": {}, "class_name": "Zeros"}, "activity_regularizer": null, "trainable": false, "activation": "linear", "bias_regularizer": null, "strides": [1, 1], "filters": 64, "dilation_rate": [1, 1], "kernel_size": [1, 1], "kernel_regularizer": null, "kernel_constraint": null, "name": "conv2d_28", "data_format": "channels_last"}, "name": "conv2d_28", "class_name": "Conv2D", "inbound_nodes": [[["mixed2", 0, 0, {}]]]}, {"config": {"gamma_initializer": {"config": {}, "class_name": "Ones"}, "moving_variance_initializer": {"config": {}, "class_name": "Ones"}, "axis": 3, "center": true, "gamma_constraint": null, "trainable": false, "momentum": 0.99, "beta_regularizer": null, "scale": false, "epsilon": 0.001, "gamma_regularizer": null, "beta_initializer": {"config": {}, "class_name": "Zeros"}, "moving_mean_initializer": {"config": {}, "class_name": "Zeros"}, "name": "batch_normalization_28", "beta_constraint": null}, "name": "batch_normalization_28", "class_name": "BatchNormalization", "inbound_nodes": [[["conv2d_28", 0, 0, {}]]]}, {"config": {"activation": "relu", "name": "activation_28", "trainable": false}, "name": "activation_28", "class_name": "Activation", "inbound_nodes": [[["batch_normalization_28", 0, 0, {}]]]}, {"config": {"kernel_initializer": {"config": {"mode": "fan_avg", "distribution": "uniform", "scale": 1.0, "seed": null}, "class_name": "VarianceScaling"}, "padding": "same", "bias_constraint": null, "use_bias": false, "bias_initializer": {"config": {}, "class_name": "Zeros"}, "activity_regularizer": null, "trainable": false, "activation": "linear", "bias_regularizer": null, "strides": [1, 1], "filters": 96, "dilation_rate": [1, 1], "kernel_size": [3, 3], "kernel_regularizer": null, "kernel_constraint": null, "name": "conv2d_29", "data_format": "channels_last"}, "name": "conv2d_29", "class_name": "Conv2D", "inbound_nodes": [[["activation_28", 0, 0, {}]]]}, {"config": {"gamma_initializer": {"config": {}, "class_name": "Ones"}, "moving_variance_initializer": {"config": {}, "class_name": "Ones"}, "axis": 3, "center": true, "gamma_constraint": null, "trainable": false, "momentum": 0.99, "beta_regularizer": null, "scale": false, "epsilon": 0.001, "gamma_regularizer": null, "beta_initializer": {"config": {}, "class_name": "Zeros"}, "moving_mean_initializer": {"config": {}, "class_name": "Zeros"}, "name": "batch_normalization_29", "beta_constraint": null}, "name": "batch_normalization_29", "class_name": "BatchNormalization", "inbound_nodes": [[["conv2d_29", 0, 0, {}]]]}, {"config": {"activation": "relu", "name": "activation_29", "trainable": false}, "name": "activation_29", "class_name": "Activation", "inbound_nodes": [[["batch_normalization_29", 0, 0, {}]]]}, {"config": {"kernel_initializer": {"config": {"mode": "fan_avg", "distribution": "uniform", "scale": 1.0, "seed": null}, "class_name": "VarianceScaling"}, "padding": "valid", "bias_constraint": null, "use_bias": false, "bias_initializer": {"config": {}, "class_name": "Zeros"}, "activity_regularizer": null, "trainable": false, "activation": "linear", "bias_regularizer": null, "strides": [2, 2], "filters": 384, "dilation_rate": [1, 1], "kernel_size": [3, 3], "kernel_regularizer": null, "kernel_constraint": null, "name": "conv2d_27", "data_format": "channels_last"}, "name": "conv2d_27", "class_name": "Conv2D", "inbound_nodes": [[["mixed2", 0, 0, {}]]]}, {"config": {"kernel_initializer": {"config": {"mode": "fan_avg", "distribution": "uniform", "scale": 1.0, "seed": null}, "class_name": "VarianceScaling"}, "padding": "valid", "bias_constraint": null, "use_bias": false, "bias_initializer": {"config": {}, "class_name": "Zeros"}, "activity_regularizer": null, "trainable": false, "activation": "linear", "bias_regularizer": null, "strides": [2, 2], "filters": 96, "dilation_rate": [1, 1], "kernel_size": [3, 3], "kernel_regularizer": null, "kernel_constraint": null, "name": "conv2d_30", "data_format": "channels_last"}, "name": "conv2d_30", "class_name": "Conv2D", "inbound_nodes": [[["activation_29", 0, 0, {}]]]}, {"config": {"gamma_initializer": {"config": {}, "class_name": "Ones"}, "moving_variance_initializer": {"config": {}, "class_name": "Ones"}, "axis": 3, "center": true, "gamma_constraint": null, "trainable": false, "momentum": 0.99, "beta_regularizer": null, "scale": false, "epsilon": 0.001, "gamma_regularizer": null, "beta_initializer": {"config": {}, "class_name": "Zeros"}, "moving_mean_initializer": {"config": {}, "class_name": "Zeros"}, "name": "batch_normalization_27", "beta_constraint": null}, "name": "batch_normalization_27", "class_name": "BatchNormalization", "inbound_nodes": [[["conv2d_27", 0, 0, {}]]]}, {"config": {"gamma_initializer": {"config": {}, "class_name": "Ones"}, "moving_variance_initializer": {"config": {}, "class_name": "Ones"}, "axis": 3, "center": true, "gamma_constraint": null, "trainable": false, "momentum": 0.99, "beta_regularizer": null, "scale": false, "epsilon": 0.001, "gamma_regularizer": null, "beta_initializer": {"config": {}, "class_name": "Zeros"}, "moving_mean_initializer": {"config": {}, "class_name": "Zeros"}, "name": "batch_normalization_30", "beta_constraint": null}, "name": "batch_normalization_30", "class_name": "BatchNormalization", "inbound_nodes": [[["conv2d_30", 0, 0, {}]]]}, {"config": {"activation": "relu", "name": "activation_27", "trainable": false}, "name": "activation_27", "class_name": "Activation", "inbound_nodes": [[["batch_normalization_27", 0, 0, {}]]]}, {"config": {"activation": "relu", "name": "activation_30", "trainable": false}, "name": "activation_30", "class_name": "Activation", "inbound_nodes": [[["batch_normalization_30", 0, 0, {}]]]}, {"config": {"pool_size": [3, 3], "strides": [2, 2], "padding": "valid", "trainable": false, "name": "max_pooling2d_3", "data_format": "channels_last"}, "name": "max_pooling2d_3", "class_name": "MaxPooling2D", "inbound_nodes": [[["mixed2", 0, 0, {}]]]}, {"config": {"axis": 3, "name": "mixed3", "trainable": false}, "name": "mixed3", "class_name": "Concatenate", "inbound_nodes": [[["activation_27", 0, 0, {}], ["activation_30", 0, 0, {}], ["max_pooling2d_3", 0, 0, {}]]]}, {"config": {"kernel_initializer": {"config": {"mode": "fan_avg", "distribution": "uniform", "scale": 1.0, "seed": null}, "class_name": "VarianceScaling"}, "padding": "same", "bias_constraint": null, "use_bias": false, "bias_initializer": {"config": {}, "class_name": "Zeros"}, "activity_regularizer": null, "trainable": false, "activation": "linear", "bias_regularizer": null, "strides": [1, 1], "filters": 128, "dilation_rate": [1, 1], "kernel_size": [1, 1], "kernel_regularizer": null, "kernel_constraint": null, "name": "conv2d_35", "data_format": "channels_last"}, "name": "conv2d_35", "class_name": "Conv2D", "inbound_nodes": [[["mixed3", 0, 0, {}]]]}, {"config": {"gamma_initializer": {"config": {}, "class_name": "Ones"}, "moving_variance_initializer": {"config": {}, "class_name": "Ones"}, "axis": 3, "center": true, "gamma_constraint": null, "trainable": false, "momentum": 0.99, "beta_regularizer": null, "scale": false, "epsilon": 0.001, "gamma_regularizer": null, "beta_initializer": {"config": {}, "class_name": "Zeros"}, "moving_mean_initializer": {"config": {}, "class_name": "Zeros"}, "name": "batch_normalization_35", "beta_constraint": null}, "name": "batch_normalization_35", "class_name": "BatchNormalization", "inbound_nodes": [[["conv2d_35", 0, 0, {}]]]}, {"config": {"activation": "relu", "name": "activation_35", "trainable": false}, "name": "activation_35", "class_name": "Activation", "inbound_nodes": [[["batch_normalization_35", 0, 0, {}]]]}, {"config": {"kernel_initializer": {"config": {"mode": "fan_avg", "distribution": "uniform", "scale": 1.0, "seed": null}, "class_name": "VarianceScaling"}, "padding": "same", "bias_constraint": null, "use_bias": false, "bias_initializer": {"config": {}, "class_name": "Zeros"}, "activity_regularizer": null, "trainable": false, "activation": "linear", "bias_regularizer": null, "strides": [1, 1], "filters": 128, "dilation_rate": [1, 1], "kernel_size": [7, 1], "kernel_regularizer": null, "kernel_constraint": null, "name": "conv2d_36", "data_format": "channels_last"}, "name": "conv2d_36", "class_name": "Conv2D", "inbound_nodes": [[["activation_35", 0, 0, {}]]]}, {"config": {"gamma_initializer": {"config": {}, "class_name": "Ones"}, "moving_variance_initializer": {"config": {}, "class_name": "Ones"}, "axis": 3, "center": true, "gamma_constraint": null, "trainable": false, "momentum": 0.99, "beta_regularizer": null, "scale": false, "epsilon": 0.001, "gamma_regularizer": null, "beta_initializer": {"config": {}, "class_name": "Zeros"}, "moving_mean_initializer": {"config": {}, "class_name": "Zeros"}, "name": "batch_normalization_36", "beta_constraint": null}, "name": "batch_normalization_36", "class_name": "BatchNormalization", "inbound_nodes": [[["conv2d_36", 0, 0, {}]]]}, {"config": {"activation": "relu", "name": "activation_36", "trainable": false}, "name": "activation_36", "class_name": "Activation", "inbound_nodes": [[["batch_normalization_36", 0, 0, {}]]]}, {"config": {"kernel_initializer": {"config": {"mode": "fan_avg", "distribution": "uniform", "scale": 1.0, "seed": null}, "class_name": "VarianceScaling"}, "padding": "same", "bias_constraint": null, "use_bias": false, "bias_initializer": {"config": {}, "class_name": "Zeros"}, "activity_regularizer": null, "trainable": false, "activation": "linear", "bias_regularizer": null, "strides": [1, 1], "filters": 128, "dilation_rate": [1, 1], "kernel_size": [1, 1], "kernel_regularizer": null, "kernel_constraint": null, "name": "conv2d_32", "data_format": "channels_last"}, "name": "conv2d_32", "class_name": "Conv2D", "inbound_nodes": [[["mixed3", 0, 0, {}]]]}, {"config": {"kernel_initializer": {"config": {"mode": "fan_avg", "distribution": "uniform", "scale": 1.0, "seed": null}, "class_name": "VarianceScaling"}, "padding": "same", "bias_constraint": null, "use_bias": false, "bias_initializer": {"config": {}, "class_name": "Zeros"}, "activity_regularizer": null, "trainable": false, "activation": "linear", "bias_regularizer": null, "strides": [1, 1], "filters": 128, "dilation_rate": [1, 1], "kernel_size": [1, 7], "kernel_regularizer": null, "kernel_constraint": null, "name": "conv2d_37", "data_format": "channels_last"}, "name": "conv2d_37", "class_name": "Conv2D", "inbound_nodes": [[["activation_36", 0, 0, {}]]]}, {"config": {"gamma_initializer": {"config": {}, "class_name": "Ones"}, "moving_variance_initializer": {"config": {}, "class_name": "Ones"}, "axis": 3, "center": true, "gamma_constraint": null, "trainable": false, "momentum": 0.99, "beta_regularizer": null, "scale": false, "epsilon": 0.001, "gamma_regularizer": null, "beta_initializer": {"config": {}, "class_name": "Zeros"}, "moving_mean_initializer": {"config": {}, "class_name": "Zeros"}, "name": "batch_normalization_32", "beta_constraint": null}, "name": "batch_normalization_32", "class_name": "BatchNormalization", "inbound_nodes": [[["conv2d_32", 0, 0, {}]]]}, {"config": {"gamma_initializer": {"config": {}, "class_name": "Ones"}, "moving_variance_initializer": {"config": {}, "class_name": "Ones"}, "axis": 3, "center": true, "gamma_constraint": null, "trainable": false, "momentum": 0.99, "beta_regularizer": null, "scale": false, "epsilon": 0.001, "gamma_regularizer": null, "beta_initializer": {"config": {}, "class_name": "Zeros"}, "moving_mean_initializer": {"config": {}, "class_name": "Zeros"}, "name": "batch_normalization_37", "beta_constraint": null}, "name": "batch_normalization_37", "class_name": "BatchNormalization", "inbound_nodes": [[["conv2d_37", 0, 0, {}]]]}, {"config": {"activation": "relu", "name": "activation_32", "trainable": false}, "name": "activation_32", "class_name": "Activation", "inbound_nodes": [[["batch_normalization_32", 0, 0, {}]]]}, {"config": {"activation": "relu", "name": "activation_37", "trainable": false}, "name": "activation_37", "class_name": "Activation", "inbound_nodes": [[["batch_normalization_37", 0, 0, {}]]]}, {"config": {"kernel_initializer": {"config": {"mode": "fan_avg", "distribution": "uniform", "scale": 1.0, "seed": null}, "class_name": "VarianceScaling"}, "padding": "same", "bias_constraint": null, "use_bias": false, "bias_initializer": {"config": {}, "class_name": "Zeros"}, "activity_regularizer": null, "trainable": false, "activation": "linear", "bias_regularizer": null, "strides": [1, 1], "filters": 128, "dilation_rate": [1, 1], "kernel_size": [1, 7], "kernel_regularizer": null, "kernel_constraint": null, "name": "conv2d_33", "data_format": "channels_last"}, "name": "conv2d_33", "class_name": "Conv2D", "inbound_nodes": [[["activation_32", 0, 0, {}]]]}, {"config": {"kernel_initializer": {"config": {"mode": "fan_avg", "distribution": "uniform", "scale": 1.0, "seed": null}, "class_name": "VarianceScaling"}, "padding": "same", "bias_constraint": null, "use_bias": false, "bias_initializer": {"config": {}, "class_name": "Zeros"}, "activity_regularizer": null, "trainable": false, "activation": "linear", "bias_regularizer": null, "strides": [1, 1], "filters": 128, "dilation_rate": [1, 1], "kernel_size": [7, 1], "kernel_regularizer": null, "kernel_constraint": null, "name": "conv2d_38", "data_format": "channels_last"}, "name": "conv2d_38", "class_name": "Conv2D", "inbound_nodes": [[["activation_37", 0, 0, {}]]]}, {"config": {"gamma_initializer": {"config": {}, "class_name": "Ones"}, "moving_variance_initializer": {"config": {}, "class_name": "Ones"}, "axis": 3, "center": true, "gamma_constraint": null, "trainable": false, "momentum": 0.99, "beta_regularizer": null, "scale": false, "epsilon": 0.001, "gamma_regularizer": null, "beta_initializer": {"config": {}, "class_name": "Zeros"}, "moving_mean_initializer": {"config": {}, "class_name": "Zeros"}, "name": "batch_normalization_33", "beta_constraint": null}, "name": "batch_normalization_33", "class_name": "BatchNormalization", "inbound_nodes": [[["conv2d_33", 0, 0, {}]]]}, {"config": {"gamma_initializer": {"config": {}, "class_name": "Ones"}, "moving_variance_initializer": {"config": {}, "class_name": "Ones"}, "axis": 3, "center": true, "gamma_constraint": null, "trainable": false, "momentum": 0.99, "beta_regularizer": null, "scale": false, "epsilon": 0.001, "gamma_regularizer": null, "beta_initializer": {"config": {}, "class_name": "Zeros"}, "moving_mean_initializer": {"config": {}, "class_name": "Zeros"}, "name": "batch_normalization_38", "beta_constraint": null}, "name": "batch_normalization_38", "class_name": "BatchNormalization", "inbound_nodes": [[["conv2d_38", 0, 0, {}]]]}, {"config": {"activation": "relu", "name": "activation_33", "trainable": false}, "name": "activation_33", "class_name": "Activation", "inbound_nodes": [[["batch_normalization_33", 0, 0, {}]]]}, {"config": {"activation": "relu", "name": "activation_38", "trainable": false}, "name": "activation_38", "class_name": "Activation", "inbound_nodes": [[["batch_normalization_38", 0, 0, {}]]]}, {"config": {"pool_size": [3, 3], "strides": [1, 1], "padding": "same", "trainable": false, "name": "average_pooling2d_4", "data_format": "channels_last"}, "name": "average_pooling2d_4", "class_name": "AveragePooling2D", "inbound_nodes": [[["mixed3", 0, 0, {}]]]}, {"config": {"kernel_initializer": {"config": {"mode": "fan_avg", "distribution": "uniform", "scale": 1.0, "seed": null}, "class_name": "VarianceScaling"}, "padding": "same", "bias_constraint": null, "use_bias": false, "bias_initializer": {"config": {}, "class_name": "Zeros"}, "activity_regularizer": null, "trainable": false, "activation": "linear", "bias_regularizer": null, "strides": [1, 1], "filters": 192, "dilation_rate": [1, 1], "kernel_size": [1, 1], "kernel_regularizer": null, "kernel_constraint": null, "name": "conv2d_31", "data_format": "channels_last"}, "name": "conv2d_31", "class_name": "Conv2D", "inbound_nodes": [[["mixed3", 0, 0, {}]]]}, {"config": {"kernel_initializer": {"config": {"mode": "fan_avg", "distribution": "uniform", "scale": 1.0, "seed": null}, "class_name": "VarianceScaling"}, "padding": "same", "bias_constraint": null, "use_bias": false, "bias_initializer": {"config": {}, "class_name": "Zeros"}, "activity_regularizer": null, "trainable": false, "activation": "linear", "bias_regularizer": null, "strides": [1, 1], "filters": 192, "dilation_rate": [1, 1], "kernel_size": [7, 1], "kernel_regularizer": null, "kernel_constraint": null, "name": "conv2d_34", "data_format": "channels_last"}, "name": "conv2d_34", "class_name": "Conv2D", "inbound_nodes": [[["activation_33", 0, 0, {}]]]}, {"config": {"kernel_initializer": {"config": {"mode": "fan_avg", "distribution": "uniform", "scale": 1.0, "seed": null}, "class_name": "VarianceScaling"}, "padding": "same", "bias_constraint": null, "use_bias": false, "bias_initializer": {"config": {}, "class_name": "Zeros"}, "activity_regularizer": null, "trainable": false, "activation": "linear", "bias_regularizer": null, "strides": [1, 1], "filters": 192, "dilation_rate": [1, 1], "kernel_size": [1, 7], "kernel_regularizer": null, "kernel_constraint": null, "name": "conv2d_39", "data_format": "channels_last"}, "name": "conv2d_39", "class_name": "Conv2D", "inbound_nodes": [[["activation_38", 0, 0, {}]]]}, {"config": {"kernel_initializer": {"config": {"mode": "fan_avg", "distribution": "uniform", "scale": 1.0, "seed": null}, "class_name": "VarianceScaling"}, "padding": "same", "bias_constraint": null, "use_bias": false, "bias_initializer": {"config": {}, "class_name": "Zeros"}, "activity_regularizer": null, "trainable": false, "activation": "linear", "bias_regularizer": null, "strides": [1, 1], "filters": 192, "dilation_rate": [1, 1], "kernel_size": [1, 1], "kernel_regularizer": null, "kernel_constraint": null, "name": "conv2d_40", "data_format": "channels_last"}, "name": "conv2d_40", "class_name": "Conv2D", "inbound_nodes": [[["average_pooling2d_4", 0, 0, {}]]]}, {"config": {"gamma_initializer": {"config": {}, "class_name": "Ones"}, "moving_variance_initializer": {"config": {}, "class_name": "Ones"}, "axis": 3, "center": true, "gamma_constraint": null, "trainable": false, "momentum": 0.99, "beta_regularizer": null, "scale": false, "epsilon": 0.001, "gamma_regularizer": null, "beta_initializer": {"config": {}, "class_name": "Zeros"}, "moving_mean_initializer": {"config": {}, "class_name": "Zeros"}, "name": "batch_normalization_31", "beta_constraint": null}, "name": "batch_normalization_31", "class_name": "BatchNormalization", "inbound_nodes": [[["conv2d_31", 0, 0, {}]]]}, {"config": {"gamma_initializer": {"config": {}, "class_name": "Ones"}, "moving_variance_initializer": {"config": {}, "class_name": "Ones"}, "axis": 3, "center": true, "gamma_constraint": null, "trainable": false, "momentum": 0.99, "beta_regularizer": null, "scale": false, "epsilon": 0.001, "gamma_regularizer": null, "beta_initializer": {"config": {}, "class_name": "Zeros"}, "moving_mean_initializer": {"config": {}, "class_name": "Zeros"}, "name": "batch_normalization_34", "beta_constraint": null}, "name": "batch_normalization_34", "class_name": "BatchNormalization", "inbound_nodes": [[["conv2d_34", 0, 0, {}]]]}, {"config": {"gamma_initializer": {"config": {}, "class_name": "Ones"}, "moving_variance_initializer": {"config": {}, "class_name": "Ones"}, "axis": 3, "center": true, "gamma_constraint": null, "trainable": false, "momentum": 0.99, "beta_regularizer": null, "scale": false, "epsilon": 0.001, "gamma_regularizer": null, "beta_initializer": {"config": {}, "class_name": "Zeros"}, "moving_mean_initializer": {"config": {}, "class_name": "Zeros"}, "name": "batch_normalization_39", "beta_constraint": null}, "name": "batch_normalization_39", "class_name": "BatchNormalization", "inbound_nodes": [[["conv2d_39", 0, 0, {}]]]}, {"config": {"gamma_initializer": {"config": {}, "class_name": "Ones"}, "moving_variance_initializer": {"config": {}, "class_name": "Ones"}, "axis": 3, "center": true, "gamma_constraint": null, "trainable": false, "momentum": 0.99, "beta_regularizer": null, "scale": false, "epsilon": 0.001, "gamma_regularizer": null, "beta_initializer": {"config": {}, "class_name": "Zeros"}, "moving_mean_initializer": {"config": {}, "class_name": "Zeros"}, "name": "batch_normalization_40", "beta_constraint": null}, "name": "batch_normalization_40", "class_name": "BatchNormalization", "inbound_nodes": [[["conv2d_40", 0, 0, {}]]]}, {"config": {"activation": "relu", "name": "activation_31", "trainable": false}, "name": "activation_31", "class_name": "Activation", "inbound_nodes": [[["batch_normalization_31", 0, 0, {}]]]}, {"config": {"activation": "relu", "name": "activation_34", "trainable": false}, "name": "activation_34", "class_name": "Activation", "inbound_nodes": [[["batch_normalization_34", 0, 0, {}]]]}, {"config": {"activation": "relu", "name": "activation_39", "trainable": false}, "name": "activation_39", "class_name": "Activation", "inbound_nodes": [[["batch_normalization_39", 0, 0, {}]]]}, {"config": {"activation": "relu", "name": "activation_40", "trainable": false}, "name": "activation_40", "class_name": "Activation", "inbound_nodes": [[["batch_normalization_40", 0, 0, {}]]]}, {"config": {"axis": 3, "name": "mixed4", "trainable": false}, "name": "mixed4", "class_name": "Concatenate", "inbound_nodes": [[["activation_31", 0, 0, {}], ["activation_34", 0, 0, {}], ["activation_39", 0, 0, {}], ["activation_40", 0, 0, {}]]]}, {"config": {"kernel_initializer": {"config": {"mode": "fan_avg", "distribution": "uniform", "scale": 1.0, "seed": null}, "class_name": "VarianceScaling"}, "padding": "same", "bias_constraint": null, "use_bias": false, "bias_initializer": {"config": {}, "class_name": "Zeros"}, "activity_regularizer": null, "trainable": false, "activation": "linear", "bias_regularizer": null, "strides": [1, 1], "filters": 160, "dilation_rate": [1, 1], "kernel_size": [1, 1], "kernel_regularizer": null, "kernel_constraint": null, "name": "conv2d_45", "data_format": "channels_last"}, "name": "conv2d_45", "class_name": "Conv2D", "inbound_nodes": [[["mixed4", 0, 0, {}]]]}, {"config": {"gamma_initializer": {"config": {}, "class_name": "Ones"}, "moving_variance_initializer": {"config": {}, "class_name": "Ones"}, "axis": 3, "center": true, "gamma_constraint": null, "trainable": false, "momentum": 0.99, "beta_regularizer": null, "scale": false, "epsilon": 0.001, "gamma_regularizer": null, "beta_initializer": {"config": {}, "class_name": "Zeros"}, "moving_mean_initializer": {"config": {}, "class_name": "Zeros"}, "name": "batch_normalization_45", "beta_constraint": null}, "name": "batch_normalization_45", "class_name": "BatchNormalization", "inbound_nodes": [[["conv2d_45", 0, 0, {}]]]}, {"config": {"activation": "relu", "name": "activation_45", "trainable": false}, "name": "activation_45", "class_name": "Activation", "inbound_nodes": [[["batch_normalization_45", 0, 0, {}]]]}, {"config": {"kernel_initializer": {"config": {"mode": "fan_avg", "distribution": "uniform", "scale": 1.0, "seed": null}, "class_name": "VarianceScaling"}, "padding": "same", "bias_constraint": null, "use_bias": false, "bias_initializer": {"config": {}, "class_name": "Zeros"}, "activity_regularizer": null, "trainable": false, "activation": "linear", "bias_regularizer": null, "strides": [1, 1], "filters": 160, "dilation_rate": [1, 1], "kernel_size": [7, 1], "kernel_regularizer": null, "kernel_constraint": null, "name": "conv2d_46", "data_format": "channels_last"}, "name": "conv2d_46", "class_name": "Conv2D", "inbound_nodes": [[["activation_45", 0, 0, {}]]]}, {"config": {"gamma_initializer": {"config": {}, "class_name": "Ones"}, "moving_variance_initializer": {"config": {}, "class_name": "Ones"}, "axis": 3, "center": true, "gamma_constraint": null, "trainable": false, "momentum": 0.99, "beta_regularizer": null, "scale": false, "epsilon": 0.001, "gamma_regularizer": null, "beta_initializer": {"config": {}, "class_name": "Zeros"}, "moving_mean_initializer": {"config": {}, "class_name": "Zeros"}, "name": "batch_normalization_46", "beta_constraint": null}, "name": "batch_normalization_46", "class_name": "BatchNormalization", "inbound_nodes": [[["conv2d_46", 0, 0, {}]]]}, {"config": {"activation": "relu", "name": "activation_46", "trainable": false}, "name": "activation_46", "class_name": "Activation", "inbound_nodes": [[["batch_normalization_46", 0, 0, {}]]]}, {"config": {"kernel_initializer": {"config": {"mode": "fan_avg", "distribution": "uniform", "scale": 1.0, "seed": null}, "class_name": "VarianceScaling"}, "padding": "same", "bias_constraint": null, "use_bias": false, "bias_initializer": {"config": {}, "class_name": "Zeros"}, "activity_regularizer": null, "trainable": false, "activation": "linear", "bias_regularizer": null, "strides": [1, 1], "filters": 160, "dilation_rate": [1, 1], "kernel_size": [1, 1], "kernel_regularizer": null, "kernel_constraint": null, "name": "conv2d_42", "data_format": "channels_last"}, "name": "conv2d_42", "class_name": "Conv2D", "inbound_nodes": [[["mixed4", 0, 0, {}]]]}, {"config": {"kernel_initializer": {"config": {"mode": "fan_avg", "distribution": "uniform", "scale": 1.0, "seed": null}, "class_name": "VarianceScaling"}, "padding": "same", "bias_constraint": null, "use_bias": false, "bias_initializer": {"config": {}, "class_name": "Zeros"}, "activity_regularizer": null, "trainable": false, "activation": "linear", "bias_regularizer": null, "strides": [1, 1], "filters": 160, "dilation_rate": [1, 1], "kernel_size": [1, 7], "kernel_regularizer": null, "kernel_constraint": null, "name": "conv2d_47", "data_format": "channels_last"}, "name": "conv2d_47", "class_name": "Conv2D", "inbound_nodes": [[["activation_46", 0, 0, {}]]]}, {"config": {"gamma_initializer": {"config": {}, "class_name": "Ones"}, "moving_variance_initializer": {"config": {}, "class_name": "Ones"}, "axis": 3, "center": true, "gamma_constraint": null, "trainable": false, "momentum": 0.99, "beta_regularizer": null, "scale": false, "epsilon": 0.001, "gamma_regularizer": null, "beta_initializer": {"config": {}, "class_name": "Zeros"}, "moving_mean_initializer": {"config": {}, "class_name": "Zeros"}, "name": "batch_normalization_42", "beta_constraint": null}, "name": "batch_normalization_42", "class_name": "BatchNormalization", "inbound_nodes": [[["conv2d_42", 0, 0, {}]]]}, {"config": {"gamma_initializer": {"config": {}, "class_name": "Ones"}, "moving_variance_initializer": {"config": {}, "class_name": "Ones"}, "axis": 3, "center": true, "gamma_constraint": null, "trainable": false, "momentum": 0.99, "beta_regularizer": null, "scale": false, "epsilon": 0.001, "gamma_regularizer": null, "beta_initializer": {"config": {}, "class_name": "Zeros"}, "moving_mean_initializer": {"config": {}, "class_name": "Zeros"}, "name": "batch_normalization_47", "beta_constraint": null}, "name": "batch_normalization_47", "class_name": "BatchNormalization", "inbound_nodes": [[["conv2d_47", 0, 0, {}]]]}, {"config": {"activation": "relu", "name": "activation_42", "trainable": false}, "name": "activation_42", "class_name": "Activation", "inbound_nodes": [[["batch_normalization_42", 0, 0, {}]]]}, {"config": {"activation": "relu", "name": "activation_47", "trainable": false}, "name": "activation_47", "class_name": "Activation", "inbound_nodes": [[["batch_normalization_47", 0, 0, {}]]]}, {"config": {"kernel_initializer": {"config": {"mode": "fan_avg", "distribution": "uniform", "scale": 1.0, "seed": null}, "class_name": "VarianceScaling"}, "padding": "same", "bias_constraint": null, "use_bias": false, "bias_initializer": {"config": {}, "class_name": "Zeros"}, "activity_regularizer": null, "trainable": false, "activation": "linear", "bias_regularizer": null, "strides": [1, 1], "filters": 160, "dilation_rate": [1, 1], "kernel_size": [1, 7], "kernel_regularizer": null, "kernel_constraint": null, "name": "conv2d_43", "data_format": "channels_last"}, "name": "conv2d_43", "class_name": "Conv2D", "inbound_nodes": [[["activation_42", 0, 0, {}]]]}, {"config": {"kernel_initializer": {"config": {"mode": "fan_avg", "distribution": "uniform", "scale": 1.0, "seed": null}, "class_name": "VarianceScaling"}, "padding": "same", "bias_constraint": null, "use_bias": false, "bias_initializer": {"config": {}, "class_name": "Zeros"}, "activity_regularizer": null, "trainable": false, "activation": "linear", "bias_regularizer": null, "strides": [1, 1], "filters": 160, "dilation_rate": [1, 1], "kernel_size": [7, 1], "kernel_regularizer": null, "kernel_constraint": null, "name": "conv2d_48", "data_format": "channels_last"}, "name": "conv2d_48", "class_name": "Conv2D", "inbound_nodes": [[["activation_47", 0, 0, {}]]]}, {"config": {"gamma_initializer": {"config": {}, "class_name": "Ones"}, "moving_variance_initializer": {"config": {}, "class_name": "Ones"}, "axis": 3, "center": true, "gamma_constraint": null, "trainable": false, "momentum": 0.99, "beta_regularizer": null, "scale": false, "epsilon": 0.001, "gamma_regularizer": null, "beta_initializer": {"config": {}, "class_name": "Zeros"}, "moving_mean_initializer": {"config": {}, "class_name": "Zeros"}, "name": "batch_normalization_43", "beta_constraint": null}, "name": "batch_normalization_43", "class_name": "BatchNormalization", "inbound_nodes": [[["conv2d_43", 0, 0, {}]]]}, {"config": {"gamma_initializer": {"config": {}, "class_name": "Ones"}, "moving_variance_initializer": {"config": {}, "class_name": "Ones"}, "axis": 3, "center": true, "gamma_constraint": null, "trainable": false, "momentum": 0.99, "beta_regularizer": null, "scale": false, "epsilon": 0.001, "gamma_regularizer": null, "beta_initializer": {"config": {}, "class_name": "Zeros"}, "moving_mean_initializer": {"config": {}, "class_name": "Zeros"}, "name": "batch_normalization_48", "beta_constraint": null}, "name": "batch_normalization_48", "class_name": "BatchNormalization", "inbound_nodes": [[["conv2d_48", 0, 0, {}]]]}, {"config": {"activation": "relu", "name": "activation_43", "trainable": false}, "name": "activation_43", "class_name": "Activation", "inbound_nodes": [[["batch_normalization_43", 0, 0, {}]]]}, {"config": {"activation": "relu", "name": "activation_48", "trainable": false}, "name": "activation_48", "class_name": "Activation", "inbound_nodes": [[["batch_normalization_48", 0, 0, {}]]]}, {"config": {"pool_size": [3, 3], "strides": [1, 1], "padding": "same", "trainable": false, "name": "average_pooling2d_5", "data_format": "channels_last"}, "name": "average_pooling2d_5", "class_name": "AveragePooling2D", "inbound_nodes": [[["mixed4", 0, 0, {}]]]}, {"config": {"kernel_initializer": {"config": {"mode": "fan_avg", "distribution": "uniform", "scale": 1.0, "seed": null}, "class_name": "VarianceScaling"}, "padding": "same", "bias_constraint": null, "use_bias": false, "bias_initializer": {"config": {}, "class_name": "Zeros"}, "activity_regularizer": null, "trainable": false, "activation": "linear", "bias_regularizer": null, "strides": [1, 1], "filters": 192, "dilation_rate": [1, 1], "kernel_size": [1, 1], "kernel_regularizer": null, "kernel_constraint": null, "name": "conv2d_41", "data_format": "channels_last"}, "name": "conv2d_41", "class_name": "Conv2D", "inbound_nodes": [[["mixed4", 0, 0, {}]]]}, {"config": {"kernel_initializer": {"config": {"mode": "fan_avg", "distribution": "uniform", "scale": 1.0, "seed": null}, "class_name": "VarianceScaling"}, "padding": "same", "bias_constraint": null, "use_bias": false, "bias_initializer": {"config": {}, "class_name": "Zeros"}, "activity_regularizer": null, "trainable": false, "activation": "linear", "bias_regularizer": null, "strides": [1, 1], "filters": 192, "dilation_rate": [1, 1], "kernel_size": [7, 1], "kernel_regularizer": null, "kernel_constraint": null, "name": "conv2d_44", "data_format": "channels_last"}, "name": "conv2d_44", "class_name": "Conv2D", "inbound_nodes": [[["activation_43", 0, 0, {}]]]}, {"config": {"kernel_initializer": {"config": {"mode": "fan_avg", "distribution": "uniform", "scale": 1.0, "seed": null}, "class_name": "VarianceScaling"}, "padding": "same", "bias_constraint": null, "use_bias": false, "bias_initializer": {"config": {}, "class_name": "Zeros"}, "activity_regularizer": null, "trainable": false, "activation": "linear", "bias_regularizer": null, "strides": [1, 1], "filters": 192, "dilation_rate": [1, 1], "kernel_size": [1, 7], "kernel_regularizer": null, "kernel_constraint": null, "name": "conv2d_49", "data_format": "channels_last"}, "name": "conv2d_49", "class_name": "Conv2D", "inbound_nodes": [[["activation_48", 0, 0, {}]]]}, {"config": {"kernel_initializer": {"config": {"mode": "fan_avg", "distribution": "uniform", "scale": 1.0, "seed": null}, "class_name": "VarianceScaling"}, "padding": "same", "bias_constraint": null, "use_bias": false, "bias_initializer": {"config": {}, "class_name": "Zeros"}, "activity_regularizer": null, "trainable": false, "activation": "linear", "bias_regularizer": null, "strides": [1, 1], "filters": 192, "dilation_rate": [1, 1], "kernel_size": [1, 1], "kernel_regularizer": null, "kernel_constraint": null, "name": "conv2d_50", "data_format": "channels_last"}, "name": "conv2d_50", "class_name": "Conv2D", "inbound_nodes": [[["average_pooling2d_5", 0, 0, {}]]]}, {"config": {"gamma_initializer": {"config": {}, "class_name": "Ones"}, "moving_variance_initializer": {"config": {}, "class_name": "Ones"}, "axis": 3, "center": true, "gamma_constraint": null, "trainable": false, "momentum": 0.99, "beta_regularizer": null, "scale": false, "epsilon": 0.001, "gamma_regularizer": null, "beta_initializer": {"config": {}, "class_name": "Zeros"}, "moving_mean_initializer": {"config": {}, "class_name": "Zeros"}, "name": "batch_normalization_41", "beta_constraint": null}, "name": "batch_normalization_41", "class_name": "BatchNormalization", "inbound_nodes": [[["conv2d_41", 0, 0, {}]]]}, {"config": {"gamma_initializer": {"config": {}, "class_name": "Ones"}, "moving_variance_initializer": {"config": {}, "class_name": "Ones"}, "axis": 3, "center": true, "gamma_constraint": null, "trainable": false, "momentum": 0.99, "beta_regularizer": null, "scale": false, "epsilon": 0.001, "gamma_regularizer": null, "beta_initializer": {"config": {}, "class_name": "Zeros"}, "moving_mean_initializer": {"config": {}, "class_name": "Zeros"}, "name": "batch_normalization_44", "beta_constraint": null}, "name": "batch_normalization_44", "class_name": "BatchNormalization", "inbound_nodes": [[["conv2d_44", 0, 0, {}]]]}, {"config": {"gamma_initializer": {"config": {}, "class_name": "Ones"}, "moving_variance_initializer": {"config": {}, "class_name": "Ones"}, "axis": 3, "center": true, "gamma_constraint": null, "trainable": false, "momentum": 0.99, "beta_regularizer": null, "scale": false, "epsilon": 0.001, "gamma_regularizer": null, "beta_initializer": {"config": {}, "class_name": "Zeros"}, "moving_mean_initializer": {"config": {}, "class_name": "Zeros"}, "name": "batch_normalization_49", "beta_constraint": null}, "name": "batch_normalization_49", "class_name": "BatchNormalization", "inbound_nodes": [[["conv2d_49", 0, 0, {}]]]}, {"config": {"gamma_initializer": {"config": {}, "class_name": "Ones"}, "moving_variance_initializer": {"config": {}, "class_name": "Ones"}, "axis": 3, "center": true, "gamma_constraint": null, "trainable": false, "momentum": 0.99, "beta_regularizer": null, "scale": false, "epsilon": 0.001, "gamma_regularizer": null, "beta_initializer": {"config": {}, "class_name": "Zeros"}, "moving_mean_initializer": {"config": {}, "class_name": "Zeros"}, "name": "batch_normalization_50", "beta_constraint": null}, "name": "batch_normalization_50", "class_name": "BatchNormalization", "inbound_nodes": [[["conv2d_50", 0, 0, {}]]]}, {"config": {"activation": "relu", "name": "activation_41", "trainable": false}, "name": "activation_41", "class_name": "Activation", "inbound_nodes": [[["batch_normalization_41", 0, 0, {}]]]}, {"config": {"activation": "relu", "name": "activation_44", "trainable": false}, "name": "activation_44", "class_name": "Activation", "inbound_nodes": [[["batch_normalization_44", 0, 0, {}]]]}, {"config": {"activation": "relu", "name": "activation_49", "trainable": false}, "name": "activation_49", "class_name": "Activation", "inbound_nodes": [[["batch_normalization_49", 0, 0, {}]]]}, {"config": {"activation": "relu", "name": "activation_50", "trainable": false}, "name": "activation_50", "class_name": "Activation", "inbound_nodes": [[["batch_normalization_50", 0, 0, {}]]]}, {"config": {"axis": 3, "name": "mixed5", "trainable": false}, "name": "mixed5", "class_name": "Concatenate", "inbound_nodes": [[["activation_41", 0, 0, {}], ["activation_44", 0, 0, {}], ["activation_49", 0, 0, {}], ["activation_50", 0, 0, {}]]]}, {"config": {"kernel_initializer": {"config": {"mode": "fan_avg", "distribution": "uniform", "scale": 1.0, "seed": null}, "class_name": "VarianceScaling"}, "padding": "same", "bias_constraint": null, "use_bias": false, "bias_initializer": {"config": {}, "class_name": "Zeros"}, "activity_regularizer": null, "trainable": false, "activation": "linear", "bias_regularizer": null, "strides": [1, 1], "filters": 160, "dilation_rate": [1, 1], "kernel_size": [1, 1], "kernel_regularizer": null, "kernel_constraint": null, "name": "conv2d_55", "data_format": "channels_last"}, "name": "conv2d_55", "class_name": "Conv2D", "inbound_nodes": [[["mixed5", 0, 0, {}]]]}, {"config": {"gamma_initializer": {"config": {}, "class_name": "Ones"}, "moving_variance_initializer": {"config": {}, "class_name": "Ones"}, "axis": 3, "center": true, "gamma_constraint": null, "trainable": false, "momentum": 0.99, "beta_regularizer": null, "scale": false, "epsilon": 0.001, "gamma_regularizer": null, "beta_initializer": {"config": {}, "class_name": "Zeros"}, "moving_mean_initializer": {"config": {}, "class_name": "Zeros"}, "name": "batch_normalization_55", "beta_constraint": null}, "name": "batch_normalization_55", "class_name": "BatchNormalization", "inbound_nodes": [[["conv2d_55", 0, 0, {}]]]}, {"config": {"activation": "relu", "name": "activation_55", "trainable": false}, "name": "activation_55", "class_name": "Activation", "inbound_nodes": [[["batch_normalization_55", 0, 0, {}]]]}, {"config": {"kernel_initializer": {"config": {"mode": "fan_avg", "distribution": "uniform", "scale": 1.0, "seed": null}, "class_name": "VarianceScaling"}, "padding": "same", "bias_constraint": null, "use_bias": false, "bias_initializer": {"config": {}, "class_name": "Zeros"}, "activity_regularizer": null, "trainable": false, "activation": "linear", "bias_regularizer": null, "strides": [1, 1], "filters": 160, "dilation_rate": [1, 1], "kernel_size": [7, 1], "kernel_regularizer": null, "kernel_constraint": null, "name": "conv2d_56", "data_format": "channels_last"}, "name": "conv2d_56", "class_name": "Conv2D", "inbound_nodes": [[["activation_55", 0, 0, {}]]]}, {"config": {"gamma_initializer": {"config": {}, "class_name": "Ones"}, "moving_variance_initializer": {"config": {}, "class_name": "Ones"}, "axis": 3, "center": true, "gamma_constraint": null, "trainable": false, "momentum": 0.99, "beta_regularizer": null, "scale": false, "epsilon": 0.001, "gamma_regularizer": null, "beta_initializer": {"config": {}, "class_name": "Zeros"}, "moving_mean_initializer": {"config": {}, "class_name": "Zeros"}, "name": "batch_normalization_56", "beta_constraint": null}, "name": "batch_normalization_56", "class_name": "BatchNormalization", "inbound_nodes": [[["conv2d_56", 0, 0, {}]]]}, {"config": {"activation": "relu", "name": "activation_56", "trainable": false}, "name": "activation_56", "class_name": "Activation", "inbound_nodes": [[["batch_normalization_56", 0, 0, {}]]]}, {"config": {"kernel_initializer": {"config": {"mode": "fan_avg", "distribution": "uniform", "scale": 1.0, "seed": null}, "class_name": "VarianceScaling"}, "padding": "same", "bias_constraint": null, "use_bias": false, "bias_initializer": {"config": {}, "class_name": "Zeros"}, "activity_regularizer": null, "trainable": false, "activation": "linear", "bias_regularizer": null, "strides": [1, 1], "filters": 160, "dilation_rate": [1, 1], "kernel_size": [1, 1], "kernel_regularizer": null, "kernel_constraint": null, "name": "conv2d_52", "data_format": "channels_last"}, "name": "conv2d_52", "class_name": "Conv2D", "inbound_nodes": [[["mixed5", 0, 0, {}]]]}, {"config": {"kernel_initializer": {"config": {"mode": "fan_avg", "distribution": "uniform", "scale": 1.0, "seed": null}, "class_name": "VarianceScaling"}, "padding": "same", "bias_constraint": null, "use_bias": false, "bias_initializer": {"config": {}, "class_name": "Zeros"}, "activity_regularizer": null, "trainable": true, "activation": "linear", "bias_regularizer": null, "strides": [1, 1], "filters": 160, "dilation_rate": [1, 1], "kernel_size": [1, 7], "kernel_regularizer": null, "kernel_constraint": null, "name": "conv2d_57", "data_format": "channels_last"}, "name": "conv2d_57", "class_name": "Conv2D", "inbound_nodes": [[["activation_56", 0, 0, {}]]]}, {"config": {"gamma_initializer": {"config": {}, "class_name": "Ones"}, "moving_variance_initializer": {"config": {}, "class_name": "Ones"}, "axis": 3, "center": true, "gamma_constraint": null, "trainable": true, "momentum": 0.99, "beta_regularizer": null, "scale": false, "epsilon": 0.001, "gamma_regularizer": null, "beta_initializer": {"config": {}, "class_name": "Zeros"}, "moving_mean_initializer": {"config": {}, "class_name": "Zeros"}, "name": "batch_normalization_52", "beta_constraint": null}, "name": "batch_normalization_52", "class_name": "BatchNormalization", "inbound_nodes": [[["conv2d_52", 0, 0, {}]]]}, {"config": {"gamma_initializer": {"config": {}, "class_name": "Ones"}, "moving_variance_initializer": {"config": {}, "class_name": "Ones"}, "axis": 3, "center": true, "gamma_constraint": null, "trainable": true, "momentum": 0.99, "beta_regularizer": null, "scale": false, "epsilon": 0.001, "gamma_regularizer": null, "beta_initializer": {"config": {}, "class_name": "Zeros"}, "moving_mean_initializer": {"config": {}, "class_name": "Zeros"}, "name": "batch_normalization_57", "beta_constraint": null}, "name": "batch_normalization_57", "class_name": "BatchNormalization", "inbound_nodes": [[["conv2d_57", 0, 0, {}]]]}, {"config": {"activation": "relu", "name": "activation_52", "trainable": true}, "name": "activation_52", "class_name": "Activation", "inbound_nodes": [[["batch_normalization_52", 0, 0, {}]]]}, {"config": {"activation": "relu", "name": "activation_57", "trainable": true}, "name": "activation_57", "class_name": "Activation", "inbound_nodes": [[["batch_normalization_57", 0, 0, {}]]]}, {"config": {"kernel_initializer": {"config": {"mode": "fan_avg", "distribution": "uniform", "scale": 1.0, "seed": null}, "class_name": "VarianceScaling"}, "padding": "same", "bias_constraint": null, "use_bias": false, "bias_initializer": {"config": {}, "class_name": "Zeros"}, "activity_regularizer": null, "trainable": true, "activation": "linear", "bias_regularizer": null, "strides": [1, 1], "filters": 160, "dilation_rate": [1, 1], "kernel_size": [1, 7], "kernel_regularizer": null, "kernel_constraint": null, "name": "conv2d_53", "data_format": "channels_last"}, "name": "conv2d_53", "class_name": "Conv2D", "inbound_nodes": [[["activation_52", 0, 0, {}]]]}, {"config": {"kernel_initializer": {"config": {"mode": "fan_avg", "distribution": "uniform", "scale": 1.0, "seed": null}, "class_name": "VarianceScaling"}, "padding": "same", "bias_constraint": null, "use_bias": false, "bias_initializer": {"config": {}, "class_name": "Zeros"}, "activity_regularizer": null, "trainable": true, "activation": "linear", "bias_regularizer": null, "strides": [1, 1], "filters": 160, "dilation_rate": [1, 1], "kernel_size": [7, 1], "kernel_regularizer": null, "kernel_constraint": null, "name": "conv2d_58", "data_format": "channels_last"}, "name": "conv2d_58", "class_name": "Conv2D", "inbound_nodes": [[["activation_57", 0, 0, {}]]]}, {"config": {"gamma_initializer": {"config": {}, "class_name": "Ones"}, "moving_variance_initializer": {"config": {}, "class_name": "Ones"}, "axis": 3, "center": true, "gamma_constraint": null, "trainable": true, "momentum": 0.99, "beta_regularizer": null, "scale": false, "epsilon": 0.001, "gamma_regularizer": null, "beta_initializer": {"config": {}, "class_name": "Zeros"}, "moving_mean_initializer": {"config": {}, "class_name": "Zeros"}, "name": "batch_normalization_53", "beta_constraint": null}, "name": "batch_normalization_53", "class_name": "BatchNormalization", "inbound_nodes": [[["conv2d_53", 0, 0, {}]]]}, {"config": {"gamma_initializer": {"config": {}, "class_name": "Ones"}, "moving_variance_initializer": {"config": {}, "class_name": "Ones"}, "axis": 3, "center": true, "gamma_constraint": null, "trainable": true, "momentum": 0.99, "beta_regularizer": null, "scale": false, "epsilon": 0.001, "gamma_regularizer": null, "beta_initializer": {"config": {}, "class_name": "Zeros"}, "moving_mean_initializer": {"config": {}, "class_name": "Zeros"}, "name": "batch_normalization_58", "beta_constraint": null}, "name": "batch_normalization_58", "class_name": "BatchNormalization", "inbound_nodes": [[["conv2d_58", 0, 0, {}]]]}, {"config": {"activation": "relu", "name": "activation_53", "trainable": true}, "name": "activation_53", "class_name": "Activation", "inbound_nodes": [[["batch_normalization_53", 0, 0, {}]]]}, {"config": {"activation": "relu", "name": "activation_58", "trainable": true}, "name": "activation_58", "class_name": "Activation", "inbound_nodes": [[["batch_normalization_58", 0, 0, {}]]]}, {"config": {"pool_size": [3, 3], "strides": [1, 1], "padding": "same", "trainable": true, "name": "average_pooling2d_6", "data_format": "channels_last"}, "name": "average_pooling2d_6", "class_name": "AveragePooling2D", "inbound_nodes": [[["mixed5", 0, 0, {}]]]}, {"config": {"kernel_initializer": {"config": {"mode": "fan_avg", "distribution": "uniform", "scale": 1.0, "seed": null}, "class_name": "VarianceScaling"}, "padding": "same", "bias_constraint": null, "use_bias": false, "bias_initializer": {"config": {}, "class_name": "Zeros"}, "activity_regularizer": null, "trainable": true, "activation": "linear", "bias_regularizer": null, "strides": [1, 1], "filters": 192, "dilation_rate": [1, 1], "kernel_size": [1, 1], "kernel_regularizer": null, "kernel_constraint": null, "name": "conv2d_51", "data_format": "channels_last"}, "name": "conv2d_51", "class_name": "Conv2D", "inbound_nodes": [[["mixed5", 0, 0, {}]]]}, {"config": {"kernel_initializer": {"config": {"mode": "fan_avg", "distribution": "uniform", "scale": 1.0, "seed": null}, "class_name": "VarianceScaling"}, "padding": "same", "bias_constraint": null, "use_bias": false, "bias_initializer": {"config": {}, "class_name": "Zeros"}, "activity_regularizer": null, "trainable": true, "activation": "linear", "bias_regularizer": null, "strides": [1, 1], "filters": 192, "dilation_rate": [1, 1], "kernel_size": [7, 1], "kernel_regularizer": null, "kernel_constraint": null, "name": "conv2d_54", "data_format": "channels_last"}, "name": "conv2d_54", "class_name": "Conv2D", "inbound_nodes": [[["activation_53", 0, 0, {}]]]}, {"config": {"kernel_initializer": {"config": {"mode": "fan_avg", "distribution": "uniform", "scale": 1.0, "seed": null}, "class_name": "VarianceScaling"}, "padding": "same", "bias_constraint": null, "use_bias": false, "bias_initializer": {"config": {}, "class_name": "Zeros"}, "activity_regularizer": null, "trainable": true, "activation": "linear", "bias_regularizer": null, "strides": [1, 1], "filters": 192, "dilation_rate": [1, 1], "kernel_size": [1, 7], "kernel_regularizer": null, "kernel_constraint": null, "name": "conv2d_59", "data_format": "channels_last"}, "name": "conv2d_59", "class_name": "Conv2D", "inbound_nodes": [[["activation_58", 0, 0, {}]]]}, {"config": {"kernel_initializer": {"config": {"mode": "fan_avg", "distribution": "uniform", "scale": 1.0, "seed": null}, "class_name": "VarianceScaling"}, "padding": "same", "bias_constraint": null, "use_bias": false, "bias_initializer": {"config": {}, "class_name": "Zeros"}, "activity_regularizer": null, "trainable": true, "activation": "linear", "bias_regularizer": null, "strides": [1, 1], "filters": 192, "dilation_rate": [1, 1], "kernel_size": [1, 1], "kernel_regularizer": null, "kernel_constraint": null, "name": "conv2d_60", "data_format": "channels_last"}, "name": "conv2d_60", "class_name": "Conv2D", "inbound_nodes": [[["average_pooling2d_6", 0, 0, {}]]]}, {"config": {"gamma_initializer": {"config": {}, "class_name": "Ones"}, "moving_variance_initializer": {"config": {}, "class_name": "Ones"}, "axis": 3, "center": true, "gamma_constraint": null, "trainable": true, "momentum": 0.99, "beta_regularizer": null, "scale": false, "epsilon": 0.001, "gamma_regularizer": null, "beta_initializer": {"config": {}, "class_name": "Zeros"}, "moving_mean_initializer": {"config": {}, "class_name": "Zeros"}, "name": "batch_normalization_51", "beta_constraint": null}, "name": "batch_normalization_51", "class_name": "BatchNormalization", "inbound_nodes": [[["conv2d_51", 0, 0, {}]]]}, {"config": {"gamma_initializer": {"config": {}, "class_name": "Ones"}, "moving_variance_initializer": {"config": {}, "class_name": "Ones"}, "axis": 3, "center": true, "gamma_constraint": null, "trainable": true, "momentum": 0.99, "beta_regularizer": null, "scale": false, "epsilon": 0.001, "gamma_regularizer": null, "beta_initializer": {"config": {}, "class_name": "Zeros"}, "moving_mean_initializer": {"config": {}, "class_name": "Zeros"}, "name": "batch_normalization_54", "beta_constraint": null}, "name": "batch_normalization_54", "class_name": "BatchNormalization", "inbound_nodes": [[["conv2d_54", 0, 0, {}]]]}, {"config": {"gamma_initializer": {"config": {}, "class_name": "Ones"}, "moving_variance_initializer": {"config": {}, "class_name": "Ones"}, "axis": 3, "center": true, "gamma_constraint": null, "trainable": true, "momentum": 0.99, "beta_regularizer": null, "scale": false, "epsilon": 0.001, "gamma_regularizer": null, "beta_initializer": {"config": {}, "class_name": "Zeros"}, "moving_mean_initializer": {"config": {}, "class_name": "Zeros"}, "name": "batch_normalization_59", "beta_constraint": null}, "name": "batch_normalization_59", "class_name": "BatchNormalization", "inbound_nodes": [[["conv2d_59", 0, 0, {}]]]}, {"config": {"gamma_initializer": {"config": {}, "class_name": "Ones"}, "moving_variance_initializer": {"config": {}, "class_name": "Ones"}, "axis": 3, "center": true, "gamma_constraint": null, "trainable": true, "momentum": 0.99, "beta_regularizer": null, "scale": false, "epsilon": 0.001, "gamma_regularizer": null, "beta_initializer": {"config": {}, "class_name": "Zeros"}, "moving_mean_initializer": {"config": {}, "class_name": "Zeros"}, "name": "batch_normalization_60", "beta_constraint": null}, "name": "batch_normalization_60", "class_name": "BatchNormalization", "inbound_nodes": [[["conv2d_60", 0, 0, {}]]]}, {"config": {"activation": "relu", "name": "activation_51", "trainable": true}, "name": "activation_51", "class_name": "Activation", "inbound_nodes": [[["batch_normalization_51", 0, 0, {}]]]}, {"config": {"activation": "relu", "name": "activation_54", "trainable": true}, "name": "activation_54", "class_name": "Activation", "inbound_nodes": [[["batch_normalization_54", 0, 0, {}]]]}, {"config": {"activation": "relu", "name": "activation_59", "trainable": true}, "name": "activation_59", "class_name": "Activation", "inbound_nodes": [[["batch_normalization_59", 0, 0, {}]]]}, {"config": {"activation": "relu", "name": "activation_60", "trainable": true}, "name": "activation_60", "class_name": "Activation", "inbound_nodes": [[["batch_normalization_60", 0, 0, {}]]]}, {"config": {"axis": 3, "name": "mixed6", "trainable": true}, "name": "mixed6", "class_name": "Concatenate", "inbound_nodes": [[["activation_51", 0, 0, {}], ["activation_54", 0, 0, {}], ["activation_59", 0, 0, {}], ["activation_60", 0, 0, {}]]]}, {"config": {"kernel_initializer": {"config": {"mode": "fan_avg", "distribution": "uniform", "scale": 1.0, "seed": null}, "class_name": "VarianceScaling"}, "padding": "same", "bias_constraint": null, "use_bias": false, "bias_initializer": {"config": {}, "class_name": "Zeros"}, "activity_regularizer": null, "trainable": true, "activation": "linear", "bias_regularizer": null, "strides": [1, 1], "filters": 192, "dilation_rate": [1, 1], "kernel_size": [1, 1], "kernel_regularizer": null, "kernel_constraint": null, "name": "conv2d_65", "data_format": "channels_last"}, "name": "conv2d_65", "class_name": "Conv2D", "inbound_nodes": [[["mixed6", 0, 0, {}]]]}, {"config": {"gamma_initializer": {"config": {}, "class_name": "Ones"}, "moving_variance_initializer": {"config": {}, "class_name": "Ones"}, "axis": 3, "center": true, "gamma_constraint": null, "trainable": true, "momentum": 0.99, "beta_regularizer": null, "scale": false, "epsilon": 0.001, "gamma_regularizer": null, "beta_initializer": {"config": {}, "class_name": "Zeros"}, "moving_mean_initializer": {"config": {}, "class_name": "Zeros"}, "name": "batch_normalization_65", "beta_constraint": null}, "name": "batch_normalization_65", "class_name": "BatchNormalization", "inbound_nodes": [[["conv2d_65", 0, 0, {}]]]}, {"config": {"activation": "relu", "name": "activation_65", "trainable": true}, "name": "activation_65", "class_name": "Activation", "inbound_nodes": [[["batch_normalization_65", 0, 0, {}]]]}, {"config": {"kernel_initializer": {"config": {"mode": "fan_avg", "distribution": "uniform", "scale": 1.0, "seed": null}, "class_name": "VarianceScaling"}, "padding": "same", "bias_constraint": null, "use_bias": false, "bias_initializer": {"config": {}, "class_name": "Zeros"}, "activity_regularizer": null, "trainable": true, "activation": "linear", "bias_regularizer": null, "strides": [1, 1], "filters": 192, "dilation_rate": [1, 1], "kernel_size": [7, 1], "kernel_regularizer": null, "kernel_constraint": null, "name": "conv2d_66", "data_format": "channels_last"}, "name": "conv2d_66", "class_name": "Conv2D", "inbound_nodes": [[["activation_65", 0, 0, {}]]]}, {"config": {"gamma_initializer": {"config": {}, "class_name": "Ones"}, "moving_variance_initializer": {"config": {}, "class_name": "Ones"}, "axis": 3, "center": true, "gamma_constraint": null, "trainable": true, "momentum": 0.99, "beta_regularizer": null, "scale": false, "epsilon": 0.001, "gamma_regularizer": null, "beta_initializer": {"config": {}, "class_name": "Zeros"}, "moving_mean_initializer": {"config": {}, "class_name": "Zeros"}, "name": "batch_normalization_66", "beta_constraint": null}, "name": "batch_normalization_66", "class_name": "BatchNormalization", "inbound_nodes": [[["conv2d_66", 0, 0, {}]]]}, {"config": {"activation": "relu", "name": "activation_66", "trainable": true}, "name": "activation_66", "class_name": "Activation", "inbound_nodes": [[["batch_normalization_66", 0, 0, {}]]]}, {"config": {"kernel_initializer": {"config": {"mode": "fan_avg", "distribution": "uniform", "scale": 1.0, "seed": null}, "class_name": "VarianceScaling"}, "padding": "same", "bias_constraint": null, "use_bias": false, "bias_initializer": {"config": {}, "class_name": "Zeros"}, "activity_regularizer": null, "trainable": true, "activation": "linear", "bias_regularizer": null, "strides": [1, 1], "filters": 192, "dilation_rate": [1, 1], "kernel_size": [1, 1], "kernel_regularizer": null, "kernel_constraint": null, "name": "conv2d_62", "data_format": "channels_last"}, "name": "conv2d_62", "class_name": "Conv2D", "inbound_nodes": [[["mixed6", 0, 0, {}]]]}, {"config": {"kernel_initializer": {"config": {"mode": "fan_avg", "distribution": "uniform", "scale": 1.0, "seed": null}, "class_name": "VarianceScaling"}, "padding": "same", "bias_constraint": null, "use_bias": false, "bias_initializer": {"config": {}, "class_name": "Zeros"}, "activity_regularizer": null, "trainable": true, "activation": "linear", "bias_regularizer": null, "strides": [1, 1], "filters": 192, "dilation_rate": [1, 1], "kernel_size": [1, 7], "kernel_regularizer": null, "kernel_constraint": null, "name": "conv2d_67", "data_format": "channels_last"}, "name": "conv2d_67", "class_name": "Conv2D", "inbound_nodes": [[["activation_66", 0, 0, {}]]]}, {"config": {"gamma_initializer": {"config": {}, "class_name": "Ones"}, "moving_variance_initializer": {"config": {}, "class_name": "Ones"}, "axis": 3, "center": true, "gamma_constraint": null, "trainable": true, "momentum": 0.99, "beta_regularizer": null, "scale": false, "epsilon": 0.001, "gamma_regularizer": null, "beta_initializer": {"config": {}, "class_name": "Zeros"}, "moving_mean_initializer": {"config": {}, "class_name": "Zeros"}, "name": "batch_normalization_62", "beta_constraint": null}, "name": "batch_normalization_62", "class_name": "BatchNormalization", "inbound_nodes": [[["conv2d_62", 0, 0, {}]]]}, {"config": {"gamma_initializer": {"config": {}, "class_name": "Ones"}, "moving_variance_initializer": {"config": {}, "class_name": "Ones"}, "axis": 3, "center": true, "gamma_constraint": null, "trainable": true, "momentum": 0.99, "beta_regularizer": null, "scale": false, "epsilon": 0.001, "gamma_regularizer": null, "beta_initializer": {"config": {}, "class_name": "Zeros"}, "moving_mean_initializer": {"config": {}, "class_name": "Zeros"}, "name": "batch_normalization_67", "beta_constraint": null}, "name": "batch_normalization_67", "class_name": "BatchNormalization", "inbound_nodes": [[["conv2d_67", 0, 0, {}]]]}, {"config": {"activation": "relu", "name": "activation_62", "trainable": true}, "name": "activation_62", "class_name": "Activation", "inbound_nodes": [[["batch_normalization_62", 0, 0, {}]]]}, {"config": {"activation": "relu", "name": "activation_67", "trainable": true}, "name": "activation_67", "class_name": "Activation", "inbound_nodes": [[["batch_normalization_67", 0, 0, {}]]]}, {"config": {"kernel_initializer": {"config": {"mode": "fan_avg", "distribution": "uniform", "scale": 1.0, "seed": null}, "class_name": "VarianceScaling"}, "padding": "same", "bias_constraint": null, "use_bias": false, "bias_initializer": {"config": {}, "class_name": "Zeros"}, "activity_regularizer": null, "trainable": true, "activation": "linear", "bias_regularizer": null, "strides": [1, 1], "filters": 192, "dilation_rate": [1, 1], "kernel_size": [1, 7], "kernel_regularizer": null, "kernel_constraint": null, "name": "conv2d_63", "data_format": "channels_last"}, "name": "conv2d_63", "class_name": "Conv2D", "inbound_nodes": [[["activation_62", 0, 0, {}]]]}, {"config": {"kernel_initializer": {"config": {"mode": "fan_avg", "distribution": "uniform", "scale": 1.0, "seed": null}, "class_name": "VarianceScaling"}, "padding": "same", "bias_constraint": null, "use_bias": false, "bias_initializer": {"config": {}, "class_name": "Zeros"}, "activity_regularizer": null, "trainable": true, "activation": "linear", "bias_regularizer": null, "strides": [1, 1], "filters": 192, "dilation_rate": [1, 1], "kernel_size": [7, 1], "kernel_regularizer": null, "kernel_constraint": null, "name": "conv2d_68", "data_format": "channels_last"}, "name": "conv2d_68", "class_name": "Conv2D", "inbound_nodes": [[["activation_67", 0, 0, {}]]]}, {"config": {"gamma_initializer": {"config": {}, "class_name": "Ones"}, "moving_variance_initializer": {"config": {}, "class_name": "Ones"}, "axis": 3, "center": true, "gamma_constraint": null, "trainable": true, "momentum": 0.99, "beta_regularizer": null, "scale": false, "epsilon": 0.001, "gamma_regularizer": null, "beta_initializer": {"config": {}, "class_name": "Zeros"}, "moving_mean_initializer": {"config": {}, "class_name": "Zeros"}, "name": "batch_normalization_63", "beta_constraint": null}, "name": "batch_normalization_63", "class_name": "BatchNormalization", "inbound_nodes": [[["conv2d_63", 0, 0, {}]]]}, {"config": {"gamma_initializer": {"config": {}, "class_name": "Ones"}, "moving_variance_initializer": {"config": {}, "class_name": "Ones"}, "axis": 3, "center": true, "gamma_constraint": null, "trainable": true, "momentum": 0.99, "beta_regularizer": null, "scale": false, "epsilon": 0.001, "gamma_regularizer": null, "beta_initializer": {"config": {}, "class_name": "Zeros"}, "moving_mean_initializer": {"config": {}, "class_name": "Zeros"}, "name": "batch_normalization_68", "beta_constraint": null}, "name": "batch_normalization_68", "class_name": "BatchNormalization", "inbound_nodes": [[["conv2d_68", 0, 0, {}]]]}, {"config": {"activation": "relu", "name": "activation_63", "trainable": true}, "name": "activation_63", "class_name": "Activation", "inbound_nodes": [[["batch_normalization_63", 0, 0, {}]]]}, {"config": {"activation": "relu", "name": "activation_68", "trainable": true}, "name": "activation_68", "class_name": "Activation", "inbound_nodes": [[["batch_normalization_68", 0, 0, {}]]]}, {"config": {"pool_size": [3, 3], "strides": [1, 1], "padding": "same", "trainable": true, "name": "average_pooling2d_7", "data_format": "channels_last"}, "name": "average_pooling2d_7", "class_name": "AveragePooling2D", "inbound_nodes": [[["mixed6", 0, 0, {}]]]}, {"config": {"kernel_initializer": {"config": {"mode": "fan_avg", "distribution": "uniform", "scale": 1.0, "seed": null}, "class_name": "VarianceScaling"}, "padding": "same", "bias_constraint": null, "use_bias": false, "bias_initializer": {"config": {}, "class_name": "Zeros"}, "activity_regularizer": null, "trainable": true, "activation": "linear", "bias_regularizer": null, "strides": [1, 1], "filters": 192, "dilation_rate": [1, 1], "kernel_size": [1, 1], "kernel_regularizer": null, "kernel_constraint": null, "name": "conv2d_61", "data_format": "channels_last"}, "name": "conv2d_61", "class_name": "Conv2D", "inbound_nodes": [[["mixed6", 0, 0, {}]]]}, {"config": {"kernel_initializer": {"config": {"mode": "fan_avg", "distribution": "uniform", "scale": 1.0, "seed": null}, "class_name": "VarianceScaling"}, "padding": "same", "bias_constraint": null, "use_bias": false, "bias_initializer": {"config": {}, "class_name": "Zeros"}, "activity_regularizer": null, "trainable": true, "activation": "linear", "bias_regularizer": null, "strides": [1, 1], "filters": 192, "dilation_rate": [1, 1], "kernel_size": [7, 1], "kernel_regularizer": null, "kernel_constraint": null, "name": "conv2d_64", "data_format": "channels_last"}, "name": "conv2d_64", "class_name": "Conv2D", "inbound_nodes": [[["activation_63", 0, 0, {}]]]}, {"config": {"kernel_initializer": {"config": {"mode": "fan_avg", "distribution": "uniform", "scale": 1.0, "seed": null}, "class_name": "VarianceScaling"}, "padding": "same", "bias_constraint": null, "use_bias": false, "bias_initializer": {"config": {}, "class_name": "Zeros"}, "activity_regularizer": null, "trainable": true, "activation": "linear", "bias_regularizer": null, "strides": [1, 1], "filters": 192, "dilation_rate": [1, 1], "kernel_size": [1, 7], "kernel_regularizer": null, "kernel_constraint": null, "name": "conv2d_69", "data_format": "channels_last"}, "name": "conv2d_69", "class_name": "Conv2D", "inbound_nodes": [[["activation_68", 0, 0, {}]]]}, {"config": {"kernel_initializer": {"config": {"mode": "fan_avg", "distribution": "uniform", "scale": 1.0, "seed": null}, "class_name": "VarianceScaling"}, "padding": "same", "bias_constraint": null, "use_bias": false, "bias_initializer": {"config": {}, "class_name": "Zeros"}, "activity_regularizer": null, "trainable": true, "activation": "linear", "bias_regularizer": null, "strides": [1, 1], "filters": 192, "dilation_rate": [1, 1], "kernel_size": [1, 1], "kernel_regularizer": null, "kernel_constraint": null, "name": "conv2d_70", "data_format": "channels_last"}, "name": "conv2d_70", "class_name": "Conv2D", "inbound_nodes": [[["average_pooling2d_7", 0, 0, {}]]]}, {"config": {"gamma_initializer": {"config": {}, "class_name": "Ones"}, "moving_variance_initializer": {"config": {}, "class_name": "Ones"}, "axis": 3, "center": true, "gamma_constraint": null, "trainable": true, "momentum": 0.99, "beta_regularizer": null, "scale": false, "epsilon": 0.001, "gamma_regularizer": null, "beta_initializer": {"config": {}, "class_name": "Zeros"}, "moving_mean_initializer": {"config": {}, "class_name": "Zeros"}, "name": "batch_normalization_61", "beta_constraint": null}, "name": "batch_normalization_61", "class_name": "BatchNormalization", "inbound_nodes": [[["conv2d_61", 0, 0, {}]]]}, {"config": {"gamma_initializer": {"config": {}, "class_name": "Ones"}, "moving_variance_initializer": {"config": {}, "class_name": "Ones"}, "axis": 3, "center": true, "gamma_constraint": null, "trainable": true, "momentum": 0.99, "beta_regularizer": null, "scale": false, "epsilon": 0.001, "gamma_regularizer": null, "beta_initializer": {"config": {}, "class_name": "Zeros"}, "moving_mean_initializer": {"config": {}, "class_name": "Zeros"}, "name": "batch_normalization_64", "beta_constraint": null}, "name": "batch_normalization_64", "class_name": "BatchNormalization", "inbound_nodes": [[["conv2d_64", 0, 0, {}]]]}, {"config": {"gamma_initializer": {"config": {}, "class_name": "Ones"}, "moving_variance_initializer": {"config": {}, "class_name": "Ones"}, "axis": 3, "center": true, "gamma_constraint": null, "trainable": true, "momentum": 0.99, "beta_regularizer": null, "scale": false, "epsilon": 0.001, "gamma_regularizer": null, "beta_initializer": {"config": {}, "class_name": "Zeros"}, "moving_mean_initializer": {"config": {}, "class_name": "Zeros"}, "name": "batch_normalization_69", "beta_constraint": null}, "name": "batch_normalization_69", "class_name": "BatchNormalization", "inbound_nodes": [[["conv2d_69", 0, 0, {}]]]}, {"config": {"gamma_initializer": {"config": {}, "class_name": "Ones"}, "moving_variance_initializer": {"config": {}, "class_name": "Ones"}, "axis": 3, "center": true, "gamma_constraint": null, "trainable": true, "momentum": 0.99, "beta_regularizer": null, "scale": false, "epsilon": 0.001, "gamma_regularizer": null, "beta_initializer": {"config": {}, "class_name": "Zeros"}, "moving_mean_initializer": {"config": {}, "class_name": "Zeros"}, "name": "batch_normalization_70", "beta_constraint": null}, "name": "batch_normalization_70", "class_name": "BatchNormalization", "inbound_nodes": [[["conv2d_70", 0, 0, {}]]]}, {"config": {"activation": "relu", "name": "activation_61", "trainable": true}, "name": "activation_61", "class_name": "Activation", "inbound_nodes": [[["batch_normalization_61", 0, 0, {}]]]}, {"config": {"activation": "relu", "name": "activation_64", "trainable": true}, "name": "activation_64", "class_name": "Activation", "inbound_nodes": [[["batch_normalization_64", 0, 0, {}]]]}, {"config": {"activation": "relu", "name": "activation_69", "trainable": true}, "name": "activation_69", "class_name": "Activation", "inbound_nodes": [[["batch_normalization_69", 0, 0, {}]]]}, {"config": {"activation": "relu", "name": "activation_70", "trainable": true}, "name": "activation_70", "class_name": "Activation", "inbound_nodes": [[["batch_normalization_70", 0, 0, {}]]]}, {"config": {"axis": 3, "name": "mixed7", "trainable": true}, "name": "mixed7", "class_name": "Concatenate", "inbound_nodes": [[["activation_61", 0, 0, {}], ["activation_64", 0, 0, {}], ["activation_69", 0, 0, {}], ["activation_70", 0, 0, {}]]]}, {"config": {"kernel_initializer": {"config": {"mode": "fan_avg", "distribution": "uniform", "scale": 1.0, "seed": null}, "class_name": "VarianceScaling"}, "padding": "same", "bias_constraint": null, "use_bias": false, "bias_initializer": {"config": {}, "class_name": "Zeros"}, "activity_regularizer": null, "trainable": true, "activation": "linear", "bias_regularizer": null, "strides": [1, 1], "filters": 192, "dilation_rate": [1, 1], "kernel_size": [1, 1], "kernel_regularizer": null, "kernel_constraint": null, "name": "conv2d_73", "data_format": "channels_last"}, "name": "conv2d_73", "class_name": "Conv2D", "inbound_nodes": [[["mixed7", 0, 0, {}]]]}, {"config": {"gamma_initializer": {"config": {}, "class_name": "Ones"}, "moving_variance_initializer": {"config": {}, "class_name": "Ones"}, "axis": 3, "center": true, "gamma_constraint": null, "trainable": true, "momentum": 0.99, "beta_regularizer": null, "scale": false, "epsilon": 0.001, "gamma_regularizer": null, "beta_initializer": {"config": {}, "class_name": "Zeros"}, "moving_mean_initializer": {"config": {}, "class_name": "Zeros"}, "name": "batch_normalization_73", "beta_constraint": null}, "name": "batch_normalization_73", "class_name": "BatchNormalization", "inbound_nodes": [[["conv2d_73", 0, 0, {}]]]}, {"config": {"activation": "relu", "name": "activation_73", "trainable": true}, "name": "activation_73", "class_name": "Activation", "inbound_nodes": [[["batch_normalization_73", 0, 0, {}]]]}, {"config": {"kernel_initializer": {"config": {"mode": "fan_avg", "distribution": "uniform", "scale": 1.0, "seed": null}, "class_name": "VarianceScaling"}, "padding": "same", "bias_constraint": null, "use_bias": false, "bias_initializer": {"config": {}, "class_name": "Zeros"}, "activity_regularizer": null, "trainable": true, "activation": "linear", "bias_regularizer": null, "strides": [1, 1], "filters": 192, "dilation_rate": [1, 1], "kernel_size": [1, 7], "kernel_regularizer": null, "kernel_constraint": null, "name": "conv2d_74", "data_format": "channels_last"}, "name": "conv2d_74", "class_name": "Conv2D", "inbound_nodes": [[["activation_73", 0, 0, {}]]]}, {"config": {"gamma_initializer": {"config": {}, "class_name": "Ones"}, "moving_variance_initializer": {"config": {}, "class_name": "Ones"}, "axis": 3, "center": true, "gamma_constraint": null, "trainable": true, "momentum": 0.99, "beta_regularizer": null, "scale": false, "epsilon": 0.001, "gamma_regularizer": null, "beta_initializer": {"config": {}, "class_name": "Zeros"}, "moving_mean_initializer": {"config": {}, "class_name": "Zeros"}, "name": "batch_normalization_74", "beta_constraint": null}, "name": "batch_normalization_74", "class_name": "BatchNormalization", "inbound_nodes": [[["conv2d_74", 0, 0, {}]]]}, {"config": {"activation": "relu", "name": "activation_74", "trainable": true}, "name": "activation_74", "class_name": "Activation", "inbound_nodes": [[["batch_normalization_74", 0, 0, {}]]]}, {"config": {"kernel_initializer": {"config": {"mode": "fan_avg", "distribution": "uniform", "scale": 1.0, "seed": null}, "class_name": "VarianceScaling"}, "padding": "same", "bias_constraint": null, "use_bias": false, "bias_initializer": {"config": {}, "class_name": "Zeros"}, "activity_regularizer": null, "trainable": true, "activation": "linear", "bias_regularizer": null, "strides": [1, 1], "filters": 192, "dilation_rate": [1, 1], "kernel_size": [1, 1], "kernel_regularizer": null, "kernel_constraint": null, "name": "conv2d_71", "data_format": "channels_last"}, "name": "conv2d_71", "class_name": "Conv2D", "inbound_nodes": [[["mixed7", 0, 0, {}]]]}, {"config": {"kernel_initializer": {"config": {"mode": "fan_avg", "distribution": "uniform", "scale": 1.0, "seed": null}, "class_name": "VarianceScaling"}, "padding": "same", "bias_constraint": null, "use_bias": false, "bias_initializer": {"config": {}, "class_name": "Zeros"}, "activity_regularizer": null, "trainable": true, "activation": "linear", "bias_regularizer": null, "strides": [1, 1], "filters": 192, "dilation_rate": [1, 1], "kernel_size": [7, 1], "kernel_regularizer": null, "kernel_constraint": null, "name": "conv2d_75", "data_format": "channels_last"}, "name": "conv2d_75", "class_name": "Conv2D", "inbound_nodes": [[["activation_74", 0, 0, {}]]]}, {"config": {"gamma_initializer": {"config": {}, "class_name": "Ones"}, "moving_variance_initializer": {"config": {}, "class_name": "Ones"}, "axis": 3, "center": true, "gamma_constraint": null, "trainable": true, "momentum": 0.99, "beta_regularizer": null, "scale": false, "epsilon": 0.001, "gamma_regularizer": null, "beta_initializer": {"config": {}, "class_name": "Zeros"}, "moving_mean_initializer": {"config": {}, "class_name": "Zeros"}, "name": "batch_normalization_71", "beta_constraint": null}, "name": "batch_normalization_71", "class_name": "BatchNormalization", "inbound_nodes": [[["conv2d_71", 0, 0, {}]]]}, {"config": {"gamma_initializer": {"config": {}, "class_name": "Ones"}, "moving_variance_initializer": {"config": {}, "class_name": "Ones"}, "axis": 3, "center": true, "gamma_constraint": null, "trainable": true, "momentum": 0.99, "beta_regularizer": null, "scale": false, "epsilon": 0.001, "gamma_regularizer": null, "beta_initializer": {"config": {}, "class_name": "Zeros"}, "moving_mean_initializer": {"config": {}, "class_name": "Zeros"}, "name": "batch_normalization_75", "beta_constraint": null}, "name": "batch_normalization_75", "class_name": "BatchNormalization", "inbound_nodes": [[["conv2d_75", 0, 0, {}]]]}, {"config": {"activation": "relu", "name": "activation_71", "trainable": true}, "name": "activation_71", "class_name": "Activation", "inbound_nodes": [[["batch_normalization_71", 0, 0, {}]]]}, {"config": {"activation": "relu", "name": "activation_75", "trainable": true}, "name": "activation_75", "class_name": "Activation", "inbound_nodes": [[["batch_normalization_75", 0, 0, {}]]]}, {"config": {"kernel_initializer": {"config": {"mode": "fan_avg", "distribution": "uniform", "scale": 1.0, "seed": null}, "class_name": "VarianceScaling"}, "padding": "valid", "bias_constraint": null, "use_bias": false, "bias_initializer": {"config": {}, "class_name": "Zeros"}, "activity_regularizer": null, "trainable": true, "activation": "linear", "bias_regularizer": null, "strides": [2, 2], "filters": 320, "dilation_rate": [1, 1], "kernel_size": [3, 3], "kernel_regularizer": null, "kernel_constraint": null, "name": "conv2d_72", "data_format": "channels_last"}, "name": "conv2d_72", "class_name": "Conv2D", "inbound_nodes": [[["activation_71", 0, 0, {}]]]}, {"config": {"kernel_initializer": {"config": {"mode": "fan_avg", "distribution": "uniform", "scale": 1.0, "seed": null}, "class_name": "VarianceScaling"}, "padding": "valid", "bias_constraint": null, "use_bias": false, "bias_initializer": {"config": {}, "class_name": "Zeros"}, "activity_regularizer": null, "trainable": true, "activation": "linear", "bias_regularizer": null, "strides": [2, 2], "filters": 192, "dilation_rate": [1, 1], "kernel_size": [3, 3], "kernel_regularizer": null, "kernel_constraint": null, "name": "conv2d_76", "data_format": "channels_last"}, "name": "conv2d_76", "class_name": "Conv2D", "inbound_nodes": [[["activation_75", 0, 0, {}]]]}, {"config": {"gamma_initializer": {"config": {}, "class_name": "Ones"}, "moving_variance_initializer": {"config": {}, "class_name": "Ones"}, "axis": 3, "center": true, "gamma_constraint": null, "trainable": true, "momentum": 0.99, "beta_regularizer": null, "scale": false, "epsilon": 0.001, "gamma_regularizer": null, "beta_initializer": {"config": {}, "class_name": "Zeros"}, "moving_mean_initializer": {"config": {}, "class_name": "Zeros"}, "name": "batch_normalization_72", "beta_constraint": null}, "name": "batch_normalization_72", "class_name": "BatchNormalization", "inbound_nodes": [[["conv2d_72", 0, 0, {}]]]}, {"config": {"gamma_initializer": {"config": {}, "class_name": "Ones"}, "moving_variance_initializer": {"config": {}, "class_name": "Ones"}, "axis": 3, "center": true, "gamma_constraint": null, "trainable": true, "momentum": 0.99, "beta_regularizer": null, "scale": false, "epsilon": 0.001, "gamma_regularizer": null, "beta_initializer": {"config": {}, "class_name": "Zeros"}, "moving_mean_initializer": {"config": {}, "class_name": "Zeros"}, "name": "batch_normalization_76", "beta_constraint": null}, "name": "batch_normalization_76", "class_name": "BatchNormalization", "inbound_nodes": [[["conv2d_76", 0, 0, {}]]]}, {"config": {"activation": "relu", "name": "activation_72", "trainable": true}, "name": "activation_72", "class_name": "Activation", "inbound_nodes": [[["batch_normalization_72", 0, 0, {}]]]}, {"config": {"activation": "relu", "name": "activation_76", "trainable": true}, "name": "activation_76", "class_name": "Activation", "inbound_nodes": [[["batch_normalization_76", 0, 0, {}]]]}, {"config": {"pool_size": [3, 3], "strides": [2, 2], "padding": "valid", "trainable": true, "name": "max_pooling2d_4", "data_format": "channels_last"}, "name": "max_pooling2d_4", "class_name": "MaxPooling2D", "inbound_nodes": [[["mixed7", 0, 0, {}]]]}, {"config": {"axis": 3, "name": "mixed8", "trainable": true}, "name": "mixed8", "class_name": "Concatenate", "inbound_nodes": [[["activation_72", 0, 0, {}], ["activation_76", 0, 0, {}], ["max_pooling2d_4", 0, 0, {}]]]}, {"config": {"kernel_initializer": {"config": {"mode": "fan_avg", "distribution": "uniform", "scale": 1.0, "seed": null}, "class_name": "VarianceScaling"}, "padding": "same", "bias_constraint": null, "use_bias": false, "bias_initializer": {"config": {}, "class_name": "Zeros"}, "activity_regularizer": null, "trainable": true, "activation": "linear", "bias_regularizer": null, "strides": [1, 1], "filters": 448, "dilation_rate": [1, 1], "kernel_size": [1, 1], "kernel_regularizer": null, "kernel_constraint": null, "name": "conv2d_81", "data_format": "channels_last"}, "name": "conv2d_81", "class_name": "Conv2D", "inbound_nodes": [[["mixed8", 0, 0, {}]]]}, {"config": {"gamma_initializer": {"config": {}, "class_name": "Ones"}, "moving_variance_initializer": {"config": {}, "class_name": "Ones"}, "axis": 3, "center": true, "gamma_constraint": null, "trainable": true, "momentum": 0.99, "beta_regularizer": null, "scale": false, "epsilon": 0.001, "gamma_regularizer": null, "beta_initializer": {"config": {}, "class_name": "Zeros"}, "moving_mean_initializer": {"config": {}, "class_name": "Zeros"}, "name": "batch_normalization_81", "beta_constraint": null}, "name": "batch_normalization_81", "class_name": "BatchNormalization", "inbound_nodes": [[["conv2d_81", 0, 0, {}]]]}, {"config": {"activation": "relu", "name": "activation_81", "trainable": true}, "name": "activation_81", "class_name": "Activation", "inbound_nodes": [[["batch_normalization_81", 0, 0, {}]]]}, {"config": {"kernel_initializer": {"config": {"mode": "fan_avg", "distribution": "uniform", "scale": 1.0, "seed": null}, "class_name": "VarianceScaling"}, "padding": "same", "bias_constraint": null, "use_bias": false, "bias_initializer": {"config": {}, "class_name": "Zeros"}, "activity_regularizer": null, "trainable": true, "activation": "linear", "bias_regularizer": null, "strides": [1, 1], "filters": 384, "dilation_rate": [1, 1], "kernel_size": [1, 1], "kernel_regularizer": null, "kernel_constraint": null, "name": "conv2d_78", "data_format": "channels_last"}, "name": "conv2d_78", "class_name": "Conv2D", "inbound_nodes": [[["mixed8", 0, 0, {}]]]}, {"config": {"kernel_initializer": {"config": {"mode": "fan_avg", "distribution": "uniform", "scale": 1.0, "seed": null}, "class_name": "VarianceScaling"}, "padding": "same", "bias_constraint": null, "use_bias": false, "bias_initializer": {"config": {}, "class_name": "Zeros"}, "activity_regularizer": null, "trainable": true, "activation": "linear", "bias_regularizer": null, "strides": [1, 1], "filters": 384, "dilation_rate": [1, 1], "kernel_size": [3, 3], "kernel_regularizer": null, "kernel_constraint": null, "name": "conv2d_82", "data_format": "channels_last"}, "name": "conv2d_82", "class_name": "Conv2D", "inbound_nodes": [[["activation_81", 0, 0, {}]]]}, {"config": {"gamma_initializer": {"config": {}, "class_name": "Ones"}, "moving_variance_initializer": {"config": {}, "class_name": "Ones"}, "axis": 3, "center": true, "gamma_constraint": null, "trainable": true, "momentum": 0.99, "beta_regularizer": null, "scale": false, "epsilon": 0.001, "gamma_regularizer": null, "beta_initializer": {"config": {}, "class_name": "Zeros"}, "moving_mean_initializer": {"config": {}, "class_name": "Zeros"}, "name": "batch_normalization_78", "beta_constraint": null}, "name": "batch_normalization_78", "class_name": "BatchNormalization", "inbound_nodes": [[["conv2d_78", 0, 0, {}]]]}, {"config": {"gamma_initializer": {"config": {}, "class_name": "Ones"}, "moving_variance_initializer": {"config": {}, "class_name": "Ones"}, "axis": 3, "center": true, "gamma_constraint": null, "trainable": true, "momentum": 0.99, "beta_regularizer": null, "scale": false, "epsilon": 0.001, "gamma_regularizer": null, "beta_initializer": {"config": {}, "class_name": "Zeros"}, "moving_mean_initializer": {"config": {}, "class_name": "Zeros"}, "name": "batch_normalization_82", "beta_constraint": null}, "name": "batch_normalization_82", "class_name": "BatchNormalization", "inbound_nodes": [[["conv2d_82", 0, 0, {}]]]}, {"config": {"activation": "relu", "name": "activation_78", "trainable": true}, "name": "activation_78", "class_name": "Activation", "inbound_nodes": [[["batch_normalization_78", 0, 0, {}]]]}, {"config": {"activation": "relu", "name": "activation_82", "trainable": true}, "name": "activation_82", "class_name": "Activation", "inbound_nodes": [[["batch_normalization_82", 0, 0, {}]]]}, {"config": {"kernel_initializer": {"config": {"mode": "fan_avg", "distribution": "uniform", "scale": 1.0, "seed": null}, "class_name": "VarianceScaling"}, "padding": "same", "bias_constraint": null, "use_bias": false, "bias_initializer": {"config": {}, "class_name": "Zeros"}, "activity_regularizer": null, "trainable": true, "activation": "linear", "bias_regularizer": null, "strides": [1, 1], "filters": 384, "dilation_rate": [1, 1], "kernel_size": [1, 3], "kernel_regularizer": null, "kernel_constraint": null, "name": "conv2d_79", "data_format": "channels_last"}, "name": "conv2d_79", "class_name": "Conv2D", "inbound_nodes": [[["activation_78", 0, 0, {}]]]}, {"config": {"kernel_initializer": {"config": {"mode": "fan_avg", "distribution": "uniform", "scale": 1.0, "seed": null}, "class_name": "VarianceScaling"}, "padding": "same", "bias_constraint": null, "use_bias": false, "bias_initializer": {"config": {}, "class_name": "Zeros"}, "activity_regularizer": null, "trainable": true, "activation": "linear", "bias_regularizer": null, "strides": [1, 1], "filters": 384, "dilation_rate": [1, 1], "kernel_size": [3, 1], "kernel_regularizer": null, "kernel_constraint": null, "name": "conv2d_80", "data_format": "channels_last"}, "name": "conv2d_80", "class_name": "Conv2D", "inbound_nodes": [[["activation_78", 0, 0, {}]]]}, {"config": {"kernel_initializer": {"config": {"mode": "fan_avg", "distribution": "uniform", "scale": 1.0, "seed": null}, "class_name": "VarianceScaling"}, "padding": "same", "bias_constraint": null, "use_bias": false, "bias_initializer": {"config": {}, "class_name": "Zeros"}, "activity_regularizer": null, "trainable": true, "activation": "linear", "bias_regularizer": null, "strides": [1, 1], "filters": 384, "dilation_rate": [1, 1], "kernel_size": [1, 3], "kernel_regularizer": null, "kernel_constraint": null, "name": "conv2d_83", "data_format": "channels_last"}, "name": "conv2d_83", "class_name": "Conv2D", "inbound_nodes": [[["activation_82", 0, 0, {}]]]}, {"config": {"kernel_initializer": {"config": {"mode": "fan_avg", "distribution": "uniform", "scale": 1.0, "seed": null}, "class_name": "VarianceScaling"}, "padding": "same", "bias_constraint": null, "use_bias": false, "bias_initializer": {"config": {}, "class_name": "Zeros"}, "activity_regularizer": null, "trainable": true, "activation": "linear", "bias_regularizer": null, "strides": [1, 1], "filters": 384, "dilation_rate": [1, 1], "kernel_size": [3, 1], "kernel_regularizer": null, "kernel_constraint": null, "name": "conv2d_84", "data_format": "channels_last"}, "name": "conv2d_84", "class_name": "Conv2D", "inbound_nodes": [[["activation_82", 0, 0, {}]]]}, {"config": {"pool_size": [3, 3], "strides": [1, 1], "padding": "same", "trainable": true, "name": "average_pooling2d_8", "data_format": "channels_last"}, "name": "average_pooling2d_8", "class_name": "AveragePooling2D", "inbound_nodes": [[["mixed8", 0, 0, {}]]]}, {"config": {"kernel_initializer": {"config": {"mode": "fan_avg", "distribution": "uniform", "scale": 1.0, "seed": null}, "class_name": "VarianceScaling"}, "padding": "same", "bias_constraint": null, "use_bias": false, "bias_initializer": {"config": {}, "class_name": "Zeros"}, "activity_regularizer": null, "trainable": true, "activation": "linear", "bias_regularizer": null, "strides": [1, 1], "filters": 320, "dilation_rate": [1, 1], "kernel_size": [1, 1], "kernel_regularizer": null, "kernel_constraint": null, "name": "conv2d_77", "data_format": "channels_last"}, "name": "conv2d_77", "class_name": "Conv2D", "inbound_nodes": [[["mixed8", 0, 0, {}]]]}, {"config": {"gamma_initializer": {"config": {}, "class_name": "Ones"}, "moving_variance_initializer": {"config": {}, "class_name": "Ones"}, "axis": 3, "center": true, "gamma_constraint": null, "trainable": true, "momentum": 0.99, "beta_regularizer": null, "scale": false, "epsilon": 0.001, "gamma_regularizer": null, "beta_initializer": {"config": {}, "class_name": "Zeros"}, "moving_mean_initializer": {"config": {}, "class_name": "Zeros"}, "name": "batch_normalization_79", "beta_constraint": null}, "name": "batch_normalization_79", "class_name": "BatchNormalization", "inbound_nodes": [[["conv2d_79", 0, 0, {}]]]}, {"config": {"gamma_initializer": {"config": {}, "class_name": "Ones"}, "moving_variance_initializer": {"config": {}, "class_name": "Ones"}, "axis": 3, "center": true, "gamma_constraint": null, "trainable": true, "momentum": 0.99, "beta_regularizer": null, "scale": false, "epsilon": 0.001, "gamma_regularizer": null, "beta_initializer": {"config": {}, "class_name": "Zeros"}, "moving_mean_initializer": {"config": {}, "class_name": "Zeros"}, "name": "batch_normalization_80", "beta_constraint": null}, "name": "batch_normalization_80", "class_name": "BatchNormalization", "inbound_nodes": [[["conv2d_80", 0, 0, {}]]]}, {"config": {"gamma_initializer": {"config": {}, "class_name": "Ones"}, "moving_variance_initializer": {"config": {}, "class_name": "Ones"}, "axis": 3, "center": true, "gamma_constraint": null, "trainable": true, "momentum": 0.99, "beta_regularizer": null, "scale": false, "epsilon": 0.001, "gamma_regularizer": null, "beta_initializer": {"config": {}, "class_name": "Zeros"}, "moving_mean_initializer": {"config": {}, "class_name": "Zeros"}, "name": "batch_normalization_83", "beta_constraint": null}, "name": "batch_normalization_83", "class_name": "BatchNormalization", "inbound_nodes": [[["conv2d_83", 0, 0, {}]]]}, {"config": {"gamma_initializer": {"config": {}, "class_name": "Ones"}, "moving_variance_initializer": {"config": {}, "class_name": "Ones"}, "axis": 3, "center": true, "gamma_constraint": null, "trainable": true, "momentum": 0.99, "beta_regularizer": null, "scale": false, "epsilon": 0.001, "gamma_regularizer": null, "beta_initializer": {"config": {}, "class_name": "Zeros"}, "moving_mean_initializer": {"config": {}, "class_name": "Zeros"}, "name": "batch_normalization_84", "beta_constraint": null}, "name": "batch_normalization_84", "class_name": "BatchNormalization", "inbound_nodes": [[["conv2d_84", 0, 0, {}]]]}, {"config": {"kernel_initializer": {"config": {"mode": "fan_avg", "distribution": "uniform", "scale": 1.0, "seed": null}, "class_name": "VarianceScaling"}, "padding": "same", "bias_constraint": null, "use_bias": false, "bias_initializer": {"config": {}, "class_name": "Zeros"}, "activity_regularizer": null, "trainable": true, "activation": "linear", "bias_regularizer": null, "strides": [1, 1], "filters": 192, "dilation_rate": [1, 1], "kernel_size": [1, 1], "kernel_regularizer": null, "kernel_constraint": null, "name": "conv2d_85", "data_format": "channels_last"}, "name": "conv2d_85", "class_name": "Conv2D", "inbound_nodes": [[["average_pooling2d_8", 0, 0, {}]]]}, {"config": {"gamma_initializer": {"config": {}, "class_name": "Ones"}, "moving_variance_initializer": {"config": {}, "class_name": "Ones"}, "axis": 3, "center": true, "gamma_constraint": null, "trainable": true, "momentum": 0.99, "beta_regularizer": null, "scale": false, "epsilon": 0.001, "gamma_regularizer": null, "beta_initializer": {"config": {}, "class_name": "Zeros"}, "moving_mean_initializer": {"config": {}, "class_name": "Zeros"}, "name": "batch_normalization_77", "beta_constraint": null}, "name": "batch_normalization_77", "class_name": "BatchNormalization", "inbound_nodes": [[["conv2d_77", 0, 0, {}]]]}, {"config": {"activation": "relu", "name": "activation_79", "trainable": true}, "name": "activation_79", "class_name": "Activation", "inbound_nodes": [[["batch_normalization_79", 0, 0, {}]]]}, {"config": {"activation": "relu", "name": "activation_80", "trainable": true}, "name": "activation_80", "class_name": "Activation", "inbound_nodes": [[["batch_normalization_80", 0, 0, {}]]]}, {"config": {"activation": "relu", "name": "activation_83", "trainable": true}, "name": "activation_83", "class_name": "Activation", "inbound_nodes": [[["batch_normalization_83", 0, 0, {}]]]}, {"config": {"activation": "relu", "name": "activation_84", "trainable": true}, "name": "activation_84", "class_name": "Activation", "inbound_nodes": [[["batch_normalization_84", 0, 0, {}]]]}, {"config": {"gamma_initializer": {"config": {}, "class_name": "Ones"}, "moving_variance_initializer": {"config": {}, "class_name": "Ones"}, "axis": 3, "center": true, "gamma_constraint": null, "trainable": true, "momentum": 0.99, "beta_regularizer": null, "scale": false, "epsilon": 0.001, "gamma_regularizer": null, "beta_initializer": {"config": {}, "class_name": "Zeros"}, "moving_mean_initializer": {"config": {}, "class_name": "Zeros"}, "name": "batch_normalization_85", "beta_constraint": null}, "name": "batch_normalization_85", "class_name": "BatchNormalization", "inbound_nodes": [[["conv2d_85", 0, 0, {}]]]}, {"config": {"activation": "relu", "name": "activation_77", "trainable": true}, "name": "activation_77", "class_name": "Activation", "inbound_nodes": [[["batch_normalization_77", 0, 0, {}]]]}, {"config": {"axis": 3, "name": "mixed9_0", "trainable": true}, "name": "mixed9_0", "class_name": "Concatenate", "inbound_nodes": [[["activation_79", 0, 0, {}], ["activation_80", 0, 0, {}]]]}, {"config": {"axis": 3, "name": "concatenate_1", "trainable": true}, "name": "concatenate_1", "class_name": "Concatenate", "inbound_nodes": [[["activation_83", 0, 0, {}], ["activation_84", 0, 0, {}]]]}, {"config": {"activation": "relu", "name": "activation_85", "trainable": true}, "name": "activation_85", "class_name": "Activation", "inbound_nodes": [[["batch_normalization_85", 0, 0, {}]]]}, {"config": {"axis": 3, "name": "mixed9", "trainable": true}, "name": "mixed9", "class_name": "Concatenate", "inbound_nodes": [[["activation_77", 0, 0, {}], ["mixed9_0", 0, 0, {}], ["concatenate_1", 0, 0, {}], ["activation_85", 0, 0, {}]]]}, {"config": {"kernel_initializer": {"config": {"mode": "fan_avg", "distribution": "uniform", "scale": 1.0, "seed": null}, "class_name": "VarianceScaling"}, "padding": "same", "bias_constraint": null, "use_bias": false, "bias_initializer": {"config": {}, "class_name": "Zeros"}, "activity_regularizer": null, "trainable": true, "activation": "linear", "bias_regularizer": null, "strides": [1, 1], "filters": 448, "dilation_rate": [1, 1], "kernel_size": [1, 1], "kernel_regularizer": null, "kernel_constraint": null, "name": "conv2d_90", "data_format": "channels_last"}, "name": "conv2d_90", "class_name": "Conv2D", "inbound_nodes": [[["mixed9", 0, 0, {}]]]}, {"config": {"gamma_initializer": {"config": {}, "class_name": "Ones"}, "moving_variance_initializer": {"config": {}, "class_name": "Ones"}, "axis": 3, "center": true, "gamma_constraint": null, "trainable": true, "momentum": 0.99, "beta_regularizer": null, "scale": false, "epsilon": 0.001, "gamma_regularizer": null, "beta_initializer": {"config": {}, "class_name": "Zeros"}, "moving_mean_initializer": {"config": {}, "class_name": "Zeros"}, "name": "batch_normalization_90", "beta_constraint": null}, "name": "batch_normalization_90", "class_name": "BatchNormalization", "inbound_nodes": [[["conv2d_90", 0, 0, {}]]]}, {"config": {"activation": "relu", "name": "activation_90", "trainable": true}, "name": "activation_90", "class_name": "Activation", "inbound_nodes": [[["batch_normalization_90", 0, 0, {}]]]}, {"config": {"kernel_initializer": {"config": {"mode": "fan_avg", "distribution": "uniform", "scale": 1.0, "seed": null}, "class_name": "VarianceScaling"}, "padding": "same", "bias_constraint": null, "use_bias": false, "bias_initializer": {"config": {}, "class_name": "Zeros"}, "activity_regularizer": null, "trainable": true, "activation": "linear", "bias_regularizer": null, "strides": [1, 1], "filters": 384, "dilation_rate": [1, 1], "kernel_size": [1, 1], "kernel_regularizer": null, "kernel_constraint": null, "name": "conv2d_87", "data_format": "channels_last"}, "name": "conv2d_87", "class_name": "Conv2D", "inbound_nodes": [[["mixed9", 0, 0, {}]]]}, {"config": {"kernel_initializer": {"config": {"mode": "fan_avg", "distribution": "uniform", "scale": 1.0, "seed": null}, "class_name": "VarianceScaling"}, "padding": "same", "bias_constraint": null, "use_bias": false, "bias_initializer": {"config": {}, "class_name": "Zeros"}, "activity_regularizer": null, "trainable": true, "activation": "linear", "bias_regularizer": null, "strides": [1, 1], "filters": 384, "dilation_rate": [1, 1], "kernel_size": [3, 3], "kernel_regularizer": null, "kernel_constraint": null, "name": "conv2d_91", "data_format": "channels_last"}, "name": "conv2d_91", "class_name": "Conv2D", "inbound_nodes": [[["activation_90", 0, 0, {}]]]}, {"config": {"gamma_initializer": {"config": {}, "class_name": "Ones"}, "moving_variance_initializer": {"config": {}, "class_name": "Ones"}, "axis": 3, "center": true, "gamma_constraint": null, "trainable": true, "momentum": 0.99, "beta_regularizer": null, "scale": false, "epsilon": 0.001, "gamma_regularizer": null, "beta_initializer": {"config": {}, "class_name": "Zeros"}, "moving_mean_initializer": {"config": {}, "class_name": "Zeros"}, "name": "batch_normalization_87", "beta_constraint": null}, "name": "batch_normalization_87", "class_name": "BatchNormalization", "inbound_nodes": [[["conv2d_87", 0, 0, {}]]]}, {"config": {"gamma_initializer": {"config": {}, "class_name": "Ones"}, "moving_variance_initializer": {"config": {}, "class_name": "Ones"}, "axis": 3, "center": true, "gamma_constraint": null, "trainable": true, "momentum": 0.99, "beta_regularizer": null, "scale": false, "epsilon": 0.001, "gamma_regularizer": null, "beta_initializer": {"config": {}, "class_name": "Zeros"}, "moving_mean_initializer": {"config": {}, "class_name": "Zeros"}, "name": "batch_normalization_91", "beta_constraint": null}, "name": "batch_normalization_91", "class_name": "BatchNormalization", "inbound_nodes": [[["conv2d_91", 0, 0, {}]]]}, {"config": {"activation": "relu", "name": "activation_87", "trainable": true}, "name": "activation_87", "class_name": "Activation", "inbound_nodes": [[["batch_normalization_87", 0, 0, {}]]]}, {"config": {"activation": "relu", "name": "activation_91", "trainable": true}, "name": "activation_91", "class_name": "Activation", "inbound_nodes": [[["batch_normalization_91", 0, 0, {}]]]}, {"config": {"kernel_initializer": {"config": {"mode": "fan_avg", "distribution": "uniform", "scale": 1.0, "seed": null}, "class_name": "VarianceScaling"}, "padding": "same", "bias_constraint": null, "use_bias": false, "bias_initializer": {"config": {}, "class_name": "Zeros"}, "activity_regularizer": null, "trainable": true, "activation": "linear", "bias_regularizer": null, "strides": [1, 1], "filters": 384, "dilation_rate": [1, 1], "kernel_size": [1, 3], "kernel_regularizer": null, "kernel_constraint": null, "name": "conv2d_88", "data_format": "channels_last"}, "name": "conv2d_88", "class_name": "Conv2D", "inbound_nodes": [[["activation_87", 0, 0, {}]]]}, {"config": {"kernel_initializer": {"config": {"mode": "fan_avg", "distribution": "uniform", "scale": 1.0, "seed": null}, "class_name": "VarianceScaling"}, "padding": "same", "bias_constraint": null, "use_bias": false, "bias_initializer": {"config": {}, "class_name": "Zeros"}, "activity_regularizer": null, "trainable": true, "activation": "linear", "bias_regularizer": null, "strides": [1, 1], "filters": 384, "dilation_rate": [1, 1], "kernel_size": [3, 1], "kernel_regularizer": null, "kernel_constraint": null, "name": "conv2d_89", "data_format": "channels_last"}, "name": "conv2d_89", "class_name": "Conv2D", "inbound_nodes": [[["activation_87", 0, 0, {}]]]}, {"config": {"kernel_initializer": {"config": {"mode": "fan_avg", "distribution": "uniform", "scale": 1.0, "seed": null}, "class_name": "VarianceScaling"}, "padding": "same", "bias_constraint": null, "use_bias": false, "bias_initializer": {"config": {}, "class_name": "Zeros"}, "activity_regularizer": null, "trainable": true, "activation": "linear", "bias_regularizer": null, "strides": [1, 1], "filters": 384, "dilation_rate": [1, 1], "kernel_size": [1, 3], "kernel_regularizer": null, "kernel_constraint": null, "name": "conv2d_92", "data_format": "channels_last"}, "name": "conv2d_92", "class_name": "Conv2D", "inbound_nodes": [[["activation_91", 0, 0, {}]]]}, {"config": {"kernel_initializer": {"config": {"mode": "fan_avg", "distribution": "uniform", "scale": 1.0, "seed": null}, "class_name": "VarianceScaling"}, "padding": "same", "bias_constraint": null, "use_bias": false, "bias_initializer": {"config": {}, "class_name": "Zeros"}, "activity_regularizer": null, "trainable": true, "activation": "linear", "bias_regularizer": null, "strides": [1, 1], "filters": 384, "dilation_rate": [1, 1], "kernel_size": [3, 1], "kernel_regularizer": null, "kernel_constraint": null, "name": "conv2d_93", "data_format": "channels_last"}, "name": "conv2d_93", "class_name": "Conv2D", "inbound_nodes": [[["activation_91", 0, 0, {}]]]}, {"config": {"pool_size": [3, 3], "strides": [1, 1], "padding": "same", "trainable": true, "name": "average_pooling2d_9", "data_format": "channels_last"}, "name": "average_pooling2d_9", "class_name": "AveragePooling2D", "inbound_nodes": [[["mixed9", 0, 0, {}]]]}, {"config": {"kernel_initializer": {"config": {"mode": "fan_avg", "distribution": "uniform", "scale": 1.0, "seed": null}, "class_name": "VarianceScaling"}, "padding": "same", "bias_constraint": null, "use_bias": false, "bias_initializer": {"config": {}, "class_name": "Zeros"}, "activity_regularizer": null, "trainable": true, "activation": "linear", "bias_regularizer": null, "strides": [1, 1], "filters": 320, "dilation_rate": [1, 1], "kernel_size": [1, 1], "kernel_regularizer": null, "kernel_constraint": null, "name": "conv2d_86", "data_format": "channels_last"}, "name": "conv2d_86", "class_name": "Conv2D", "inbound_nodes": [[["mixed9", 0, 0, {}]]]}, {"config": {"gamma_initializer": {"config": {}, "class_name": "Ones"}, "moving_variance_initializer": {"config": {}, "class_name": "Ones"}, "axis": 3, "center": true, "gamma_constraint": null, "trainable": true, "momentum": 0.99, "beta_regularizer": null, "scale": false, "epsilon": 0.001, "gamma_regularizer": null, "beta_initializer": {"config": {}, "class_name": "Zeros"}, "moving_mean_initializer": {"config": {}, "class_name": "Zeros"}, "name": "batch_normalization_88", "beta_constraint": null}, "name": "batch_normalization_88", "class_name": "BatchNormalization", "inbound_nodes": [[["conv2d_88", 0, 0, {}]]]}, {"config": {"gamma_initializer": {"config": {}, "class_name": "Ones"}, "moving_variance_initializer": {"config": {}, "class_name": "Ones"}, "axis": 3, "center": true, "gamma_constraint": null, "trainable": true, "momentum": 0.99, "beta_regularizer": null, "scale": false, "epsilon": 0.001, "gamma_regularizer": null, "beta_initializer": {"config": {}, "class_name": "Zeros"}, "moving_mean_initializer": {"config": {}, "class_name": "Zeros"}, "name": "batch_normalization_89", "beta_constraint": null}, "name": "batch_normalization_89", "class_name": "BatchNormalization", "inbound_nodes": [[["conv2d_89", 0, 0, {}]]]}, {"config": {"gamma_initializer": {"config": {}, "class_name": "Ones"}, "moving_variance_initializer": {"config": {}, "class_name": "Ones"}, "axis": 3, "center": true, "gamma_constraint": null, "trainable": true, "momentum": 0.99, "beta_regularizer": null, "scale": false, "epsilon": 0.001, "gamma_regularizer": null, "beta_initializer": {"config": {}, "class_name": "Zeros"}, "moving_mean_initializer": {"config": {}, "class_name": "Zeros"}, "name": "batch_normalization_92", "beta_constraint": null}, "name": "batch_normalization_92", "class_name": "BatchNormalization", "inbound_nodes": [[["conv2d_92", 0, 0, {}]]]}, {"config": {"gamma_initializer": {"config": {}, "class_name": "Ones"}, "moving_variance_initializer": {"config": {}, "class_name": "Ones"}, "axis": 3, "center": true, "gamma_constraint": null, "trainable": true, "momentum": 0.99, "beta_regularizer": null, "scale": false, "epsilon": 0.001, "gamma_regularizer": null, "beta_initializer": {"config": {}, "class_name": "Zeros"}, "moving_mean_initializer": {"config": {}, "class_name": "Zeros"}, "name": "batch_normalization_93", "beta_constraint": null}, "name": "batch_normalization_93", "class_name": "BatchNormalization", "inbound_nodes": [[["conv2d_93", 0, 0, {}]]]}, {"config": {"kernel_initializer": {"config": {"mode": "fan_avg", "distribution": "uniform", "scale": 1.0, "seed": null}, "class_name": "VarianceScaling"}, "padding": "same", "bias_constraint": null, "use_bias": false, "bias_initializer": {"config": {}, "class_name": "Zeros"}, "activity_regularizer": null, "trainable": true, "activation": "linear", "bias_regularizer": null, "strides": [1, 1], "filters": 192, "dilation_rate": [1, 1], "kernel_size": [1, 1], "kernel_regularizer": null, "kernel_constraint": null, "name": "conv2d_94", "data_format": "channels_last"}, "name": "conv2d_94", "class_name": "Conv2D", "inbound_nodes": [[["average_pooling2d_9", 0, 0, {}]]]}, {"config": {"gamma_initializer": {"config": {}, "class_name": "Ones"}, "moving_variance_initializer": {"config": {}, "class_name": "Ones"}, "axis": 3, "center": true, "gamma_constraint": null, "trainable": true, "momentum": 0.99, "beta_regularizer": null, "scale": false, "epsilon": 0.001, "gamma_regularizer": null, "beta_initializer": {"config": {}, "class_name": "Zeros"}, "moving_mean_initializer": {"config": {}, "class_name": "Zeros"}, "name": "batch_normalization_86", "beta_constraint": null}, "name": "batch_normalization_86", "class_name": "BatchNormalization", "inbound_nodes": [[["conv2d_86", 0, 0, {}]]]}, {"config": {"activation": "relu", "name": "activation_88", "trainable": true}, "name": "activation_88", "class_name": "Activation", "inbound_nodes": [[["batch_normalization_88", 0, 0, {}]]]}, {"config": {"activation": "relu", "name": "activation_89", "trainable": true}, "name": "activation_89", "class_name": "Activation", "inbound_nodes": [[["batch_normalization_89", 0, 0, {}]]]}, {"config": {"activation": "relu", "name": "activation_92", "trainable": true}, "name": "activation_92", "class_name": "Activation", "inbound_nodes": [[["batch_normalization_92", 0, 0, {}]]]}, {"config": {"activation": "relu", "name": "activation_93", "trainable": true}, "name": "activation_93", "class_name": "Activation", "inbound_nodes": [[["batch_normalization_93", 0, 0, {}]]]}, {"config": {"gamma_initializer": {"config": {}, "class_name": "Ones"}, "moving_variance_initializer": {"config": {}, "class_name": "Ones"}, "axis": 3, "center": true, "gamma_constraint": null, "trainable": true, "momentum": 0.99, "beta_regularizer": null, "scale": false, "epsilon": 0.001, "gamma_regularizer": null, "beta_initializer": {"config": {}, "class_name": "Zeros"}, "moving_mean_initializer": {"config": {}, "class_name": "Zeros"}, "name": "batch_normalization_94", "beta_constraint": null}, "name": "batch_normalization_94", "class_name": "BatchNormalization", "inbound_nodes": [[["conv2d_94", 0, 0, {}]]]}, {"config": {"activation": "relu", "name": "activation_86", "trainable": true}, "name": "activation_86", "class_name": "Activation", "inbound_nodes": [[["batch_normalization_86", 0, 0, {}]]]}, {"config": {"axis": 3, "name": "mixed9_1", "trainable": true}, "name": "mixed9_1", "class_name": "Concatenate", "inbound_nodes": [[["activation_88", 0, 0, {}], ["activation_89", 0, 0, {}]]]}, {"config": {"axis": 3, "name": "concatenate_2", "trainable": true}, "name": "concatenate_2", "class_name": "Concatenate", "inbound_nodes": [[["activation_92", 0, 0, {}], ["activation_93", 0, 0, {}]]]}, {"config": {"activation": "relu", "name": "activation_94", "trainable": true}, "name": "activation_94", "class_name": "Activation", "inbound_nodes": [[["batch_normalization_94", 0, 0, {}]]]}, {"config": {"axis": 3, "name": "mixed10", "trainable": true}, "name": "mixed10", "class_name": "Concatenate", "inbound_nodes": [[["activation_86", 0, 0, {}], ["mixed9_1", 0, 0, {}], ["concatenate_2", 0, 0, {}], ["activation_94", 0, 0, {}]]]}, {"config": {"trainable": true, "name": "global_average_pooling2d_1", "data_format": "channels_last"}, "name": "global_average_pooling2d_1", "class_name": "GlobalAveragePooling2D", "inbound_nodes": [[["mixed10", 0, 0, {}]]]}, {"config": {"kernel_initializer": {"config": {"mode": "fan_avg", "distribution": "uniform", "scale": 1.0, "seed": null}, "class_name": "VarianceScaling"}, "bias_constraint": null, "use_bias": true, "bias_initializer": {"config": {}, "class_name": "Zeros"}, "activity_regularizer": null, "trainable": true, "activation": "relu", "bias_regularizer": null, "units": 256, "kernel_constraint": null, "name": "dense_1", "kernel_regularizer": null}, "name": "dense_1", "class_name": "Dense", "inbound_nodes": [[["global_average_pooling2d_1", 0, 0, {}]]]}, {"config": {"noise_shape": null, "seed": null, "trainable": true, "name": "dropout_1", "rate": 0.5}, "name": "dropout_1", "class_name": "Dropout", "inbound_nodes": [[["dense_1", 0, 0, {}]]]}, {"config": {"kernel_initializer": {"config": {"mode": "fan_avg", "distribution": "uniform", "scale": 1.0, "seed": null}, "class_name": "VarianceScaling"}, "bias_constraint": null, "use_bias": true, "bias_initializer": {"config": {}, "class_name": "Zeros"}, "activity_regularizer": null, "trainable": true, "activation": "sigmoid", "bias_regularizer": null, "units": 1, "kernel_constraint": null, "name": "dense_2", "kernel_regularizer": null}, "name": "dense_2", "class_name": "Dense", "inbound_nodes": [[["dropout_1", 0, 0, {}]]]}], "input_layers": [["input_1", 0, 0]], "name": "model_1", "output_layers": [["dense_2", 0, 0]]}, "backend": "tensorflow", "keras_version": "2.0.9", "class_name": "Model"}