{"backend": "tensorflow", "class_name": "Model", "config": {"layers": [{"config": {"dtype": "float32", "batch_input_shape": [null, null, null, 3], "sparse": false, "name": "input_1"}, "class_name": "InputLayer", "inbound_nodes": [], "name": "input_1"}, {"config": {"kernel_initializer": {"class_name": "VarianceScaling", "config": {"scale": 1.0, "distribution": "uniform", "mode": "fan_avg", "seed": null}}, "filters": 32, "bias_initializer": {"class_name": "Zeros", "config": {}}, "bias_regularizer": null, "use_bias": false, "data_format": "channels_last", "padding": "valid", "kernel_constraint": null, "trainable": false, "activation": "linear", "kernel_size": [3, 3], "bias_constraint": null, "activity_regularizer": null, "kernel_regularizer": null, "strides": [2, 2], "dilation_rate": [1, 1], "name": "conv2d_1"}, "class_name": "Conv2D", "inbound_nodes": [[["input_1", 0, 0, {}]]], "name": "conv2d_1"}, {"config": {"epsilon": 0.001, "center": true, "gamma_regularizer": null, "beta_regularizer": null, "momentum": 0.99, "trainable": false, "scale": false, "beta_constraint": null, "moving_mean_initializer": {"class_name": "Zeros", "config": {}}, "gamma_initializer": {"class_name": "Ones", "config": {}}, "beta_initializer": {"class_name": "Zeros", "config": {}}, "axis": 3, "moving_variance_initializer": {"class_name": "Ones", "config": {}}, "gamma_constraint": null, "name": "batch_normalization_1"}, "class_name": "BatchNormalization", "inbound_nodes": [[["conv2d_1", 0, 0, {}]]], "name": "batch_normalization_1"}, {"config": {"trainable": false, "name": "activation_1", "activation": "relu"}, "class_name": "Activation", "inbound_nodes": [[["batch_normalization_1", 0, 0, {}]]], "name": "activation_1"}, {"config": {"kernel_initializer": {"class_name": "VarianceScaling", "config": {"scale": 1.0, "distribution": "uniform", "mode": "fan_avg", "seed": null}}, "filters": 32, "bias_initializer": {"class_name": "Zeros", "config": {}}, "bias_regularizer": null, "use_bias": false, "data_format": "channels_last", "padding": "valid", "kernel_constraint": null, "trainable": false, "activation": "linear", "kernel_size": [3, 3], "bias_constraint": null, "activity_regularizer": null, "kernel_regularizer": null, "strides": [1, 1], "dilation_rate": [1, 1], "name": "conv2d_2"}, "class_name": "Conv2D", "inbound_nodes": [[["activation_1", 0, 0, {}]]], "name": "conv2d_2"}, {"config": {"epsilon": 0.001, "center": true, "gamma_regularizer": null, "beta_regularizer": null, "momentum": 0.99, "trainable": false, "scale": false, "beta_constraint": null, "moving_mean_initializer": {"class_name": "Zeros", "config": {}}, "gamma_initializer": {"class_name": "Ones", "config": {}}, "beta_initializer": {"class_name": "Zeros", "config": {}}, "axis": 3, "moving_variance_initializer": {"class_name": "Ones", "config": {}}, "gamma_constraint": null, "name": "batch_normalization_2"}, "class_name": "BatchNormalization", "inbound_nodes": [[["conv2d_2", 0, 0, {}]]], "name": "batch_normalization_2"}, {"config": {"trainable": false, "name": "activation_2", "activation": "relu"}, "class_name": "Activation", "inbound_nodes": [[["batch_normalization_2", 0, 0, {}]]], "name": "activation_2"}, {"config": {"kernel_initializer": {"class_name": "VarianceScaling", "config": {"scale": 1.0, "distribution": "uniform", "mode": "fan_avg", "seed": null}}, "filters": 64, "bias_initializer": {"class_name": "Zeros", "config": {}}, "bias_regularizer": null, "use_bias": false, "data_format": "channels_last", "padding": "same", "kernel_constraint": null, "trainable": false, "activation": "linear", "kernel_size": [3, 3], "bias_constraint": null, "activity_regularizer": null, "kernel_regularizer": null, "strides": [1, 1], "dilation_rate": [1, 1], "name": "conv2d_3"}, "class_name": "Conv2D", "inbound_nodes": [[["activation_2", 0, 0, {}]]], "name": "conv2d_3"}, {"config": {"epsilon": 0.001, "center": true, "gamma_regularizer": null, "beta_regularizer": null, "momentum": 0.99, "trainable": false, "scale": false, "beta_constraint": null, "moving_mean_initializer": {"class_name": "Zeros", "config": {}}, "gamma_initializer": {"class_name": "Ones", "config": {}}, "beta_initializer": {"class_name": "Zeros", "config": {}}, "axis": 3, "moving_variance_initializer": {"class_name": "Ones", "config": {}}, "gamma_constraint": null, "name": "batch_normalization_3"}, "class_name": "BatchNormalization", "inbound_nodes": [[["conv2d_3", 0, 0, {}]]], "name": "batch_normalization_3"}, {"config": {"trainable": false, "name": "activation_3", "activation": "relu"}, "class_name": "Activation", "inbound_nodes": [[["batch_normalization_3", 0, 0, {}]]], "name": "activation_3"}, {"config": {"name": "max_pooling2d_1", "pool_size": [3, 3], "data_format": "channels_last", "strides": [2, 2], "padding": "valid", "trainable": false}, "class_name": "MaxPooling2D", "inbound_nodes": [[["activation_3", 0, 0, {}]]], "name": "max_pooling2d_1"}, {"config": {"kernel_initializer": {"class_name": "VarianceScaling", "config": {"scale": 1.0, "distribution": "uniform", "mode": "fan_avg", "seed": null}}, "filters": 80, "bias_initializer": {"class_name": "Zeros", "config": {}}, "bias_regularizer": null, "use_bias": false, "data_format": "channels_last", "padding": "valid", "kernel_constraint": null, "trainable": false, "activation": "linear", "kernel_size": [1, 1], "bias_constraint": null, "activity_regularizer": null, "kernel_regularizer": null, "strides": [1, 1], "dilation_rate": [1, 1], "name": "conv2d_4"}, "class_name": "Conv2D", "inbound_nodes": [[["max_pooling2d_1", 0, 0, {}]]], "name": "conv2d_4"}, {"config": {"epsilon": 0.001, "center": true, "gamma_regularizer": null, "beta_regularizer": null, "momentum": 0.99, "trainable": false, "scale": false, "beta_constraint": null, "moving_mean_initializer": {"class_name": "Zeros", "config": {}}, "gamma_initializer": {"class_name": "Ones", "config": {}}, "beta_initializer": {"class_name": "Zeros", "config": {}}, "axis": 3, "moving_variance_initializer": {"class_name": "Ones", "config": {}}, "gamma_constraint": null, "name": "batch_normalization_4"}, "class_name": "BatchNormalization", "inbound_nodes": [[["conv2d_4", 0, 0, {}]]], "name": "batch_normalization_4"}, {"config": {"trainable": false, "name": "activation_4", "activation": "relu"}, "class_name": "Activation", "inbound_nodes": [[["batch_normalization_4", 0, 0, {}]]], "name": "activation_4"}, {"config": {"kernel_initializer": {"class_name": "VarianceScaling", "config": {"scale": 1.0, "distribution": "uniform", "mode": "fan_avg", "seed": null}}, "filters": 192, "bias_initializer": {"class_name": "Zeros", "config": {}}, "bias_regularizer": null, "use_bias": false, "data_format": "channels_last", "padding": "valid", "kernel_constraint": null, "trainable": false, "activation": "linear", "kernel_size": [3, 3], "bias_constraint": null, "activity_regularizer": null, "kernel_regularizer": null, "strides": [1, 1], "dilation_rate": [1, 1], "name": "conv2d_5"}, "class_name": "Conv2D", "inbound_nodes": [[["activation_4", 0, 0, {}]]], "name": "conv2d_5"}, {"config": {"epsilon": 0.001, "center": true, "gamma_regularizer": null, "beta_regularizer": null, "momentum": 0.99, "trainable": false, "scale": false, "beta_constraint": null, "moving_mean_initializer": {"class_name": "Zeros", "config": {}}, "gamma_initializer": {"class_name": "Ones", "config": {}}, "beta_initializer": {"class_name": "Zeros", "config": {}}, "axis": 3, "moving_variance_initializer": {"class_name": "Ones", "config": {}}, "gamma_constraint": null, "name": "batch_normalization_5"}, "class_name": "BatchNormalization", "inbound_nodes": [[["conv2d_5", 0, 0, {}]]], "name": "batch_normalization_5"}, {"config": {"trainable": false, "name": "activation_5", "activation": "relu"}, "class_name": "Activation", "inbound_nodes": [[["batch_normalization_5", 0, 0, {}]]], "name": "activation_5"}, {"config": {"name": "max_pooling2d_2", "pool_size": [3, 3], "data_format": "channels_last", "strides": [2, 2], "padding": "valid", "trainable": false}, "class_name": "MaxPooling2D", "inbound_nodes": [[["activation_5", 0, 0, {}]]], "name": "max_pooling2d_2"}, {"config": {"kernel_initializer": {"class_name": "VarianceScaling", "config": {"scale": 1.0, "distribution": "uniform", "mode": "fan_avg", "seed": null}}, "filters": 64, "bias_initializer": {"class_name": "Zeros", "config": {}}, "bias_regularizer": null, "use_bias": false, "data_format": "channels_last", "padding": "same", "kernel_constraint": null, "trainable": false, "activation": "linear", "kernel_size": [1, 1], "bias_constraint": null, "activity_regularizer": null, "kernel_regularizer": null, "strides": [1, 1], "dilation_rate": [1, 1], "name": "conv2d_9"}, "class_name": "Conv2D", "inbound_nodes": [[["max_pooling2d_2", 0, 0, {}]]], "name": "conv2d_9"}, {"config": {"epsilon": 0.001, "center": true, "gamma_regularizer": null, "beta_regularizer": null, "momentum": 0.99, "trainable": false, "scale": false, "beta_constraint": null, "moving_mean_initializer": {"class_name": "Zeros", "config": {}}, "gamma_initializer": {"class_name": "Ones", "config": {}}, "beta_initializer": {"class_name": "Zeros", "config": {}}, "axis": 3, "moving_variance_initializer": {"class_name": "Ones", "config": {}}, "gamma_constraint": null, "name": "batch_normalization_9"}, "class_name": "BatchNormalization", "inbound_nodes": [[["conv2d_9", 0, 0, {}]]], "name": "batch_normalization_9"}, {"config": {"trainable": false, "name": "activation_9", "activation": "relu"}, "class_name": "Activation", "inbound_nodes": [[["batch_normalization_9", 0, 0, {}]]], "name": "activation_9"}, {"config": {"kernel_initializer": {"class_name": "VarianceScaling", "config": {"scale": 1.0, "distribution": "uniform", "mode": "fan_avg", "seed": null}}, "filters": 48, "bias_initializer": {"class_name": "Zeros", "config": {}}, "bias_regularizer": null, "use_bias": false, "data_format": "channels_last", "padding": "same", "kernel_constraint": null, "trainable": false, "activation": "linear", "kernel_size": [1, 1], "bias_constraint": null, "activity_regularizer": null, "kernel_regularizer": null, "strides": [1, 1], "dilation_rate": [1, 1], "name": "conv2d_7"}, "class_name": "Conv2D", "inbound_nodes": [[["max_pooling2d_2", 0, 0, {}]]], "name": "conv2d_7"}, {"config": {"kernel_initializer": {"class_name": "VarianceScaling", "config": {"scale": 1.0, "distribution": "uniform", "mode": "fan_avg", "seed": null}}, "filters": 96, "bias_initializer": {"class_name": "Zeros", "config": {}}, "bias_regularizer": null, "use_bias": false, "data_format": "channels_last", "padding": "same", "kernel_constraint": null, "trainable": false, "activation": "linear", "kernel_size": [3, 3], "bias_constraint": null, "activity_regularizer": null, "kernel_regularizer": null, "strides": [1, 1], "dilation_rate": [1, 1], "name": "conv2d_10"}, "class_name": "Conv2D", "inbound_nodes": [[["activation_9", 0, 0, {}]]], "name": "conv2d_10"}, {"config": {"epsilon": 0.001, "center": true, "gamma_regularizer": null, "beta_regularizer": null, "momentum": 0.99, "trainable": false, "scale": false, "beta_constraint": null, "moving_mean_initializer": {"class_name": "Zeros", "config": {}}, "gamma_initializer": {"class_name": "Ones", "config": {}}, "beta_initializer": {"class_name": "Zeros", "config": {}}, "axis": 3, "moving_variance_initializer": {"class_name": "Ones", "config": {}}, "gamma_constraint": null, "name": "batch_normalization_7"}, "class_name": "BatchNormalization", "inbound_nodes": [[["conv2d_7", 0, 0, {}]]], "name": "batch_normalization_7"}, {"config": {"epsilon": 0.001, "center": true, "gamma_regularizer": null, "beta_regularizer": null, "momentum": 0.99, "trainable": false, "scale": false, "beta_constraint": null, "moving_mean_initializer": {"class_name": "Zeros", "config": {}}, "gamma_initializer": {"class_name": "Ones", "config": {}}, "beta_initializer": {"class_name": "Zeros", "config": {}}, "axis": 3, "moving_variance_initializer": {"class_name": "Ones", "config": {}}, "gamma_constraint": null, "name": "batch_normalization_10"}, "class_name": "BatchNormalization", "inbound_nodes": [[["conv2d_10", 0, 0, {}]]], "name": "batch_normalization_10"}, {"config": {"trainable": false, "name": "activation_7", "activation": "relu"}, "class_name": "Activation", "inbound_nodes": [[["batch_normalization_7", 0, 0, {}]]], "name": "activation_7"}, {"config": {"trainable": false, "name": "activation_10", "activation": "relu"}, "class_name": "Activation", "inbound_nodes": [[["batch_normalization_10", 0, 0, {}]]], "name": "activation_10"}, {"config": {"name": "average_pooling2d_1", "pool_size": [3, 3], "data_format": "channels_last", "strides": [1, 1], "padding": "same", "trainable": false}, "class_name": "AveragePooling2D", "inbound_nodes": [[["max_pooling2d_2", 0, 0, {}]]], "name": "average_pooling2d_1"}, {"config": {"kernel_initializer": {"class_name": "VarianceScaling", "config": {"scale": 1.0, "distribution": "uniform", "mode": "fan_avg", "seed": null}}, "filters": 64, "bias_initializer": {"class_name": "Zeros", "config": {}}, "bias_regularizer": null, "use_bias": false, "data_format": "channels_last", "padding": "same", "kernel_constraint": null, "trainable": false, "activation": "linear", "kernel_size": [1, 1], "bias_constraint": null, "activity_regularizer": null, "kernel_regularizer": null, "strides": [1, 1], "dilation_rate": [1, 1], "name": "conv2d_6"}, "class_name": "Conv2D", "inbound_nodes": [[["max_pooling2d_2", 0, 0, {}]]], "name": "conv2d_6"}, {"config": {"kernel_initializer": {"class_name": "VarianceScaling", "config": {"scale": 1.0, "distribution": "uniform", "mode": "fan_avg", "seed": null}}, "filters": 64, "bias_initializer": {"class_name": "Zeros", "config": {}}, "bias_regularizer": null, "use_bias": false, "data_format": "channels_last", "padding": "same", "kernel_constraint": null, "trainable": false, "activation": "linear", "kernel_size": [5, 5], "bias_constraint": null, "activity_regularizer": null, "kernel_regularizer": null, "strides": [1, 1], "dilation_rate": [1, 1], "name": "conv2d_8"}, "class_name": "Conv2D", "inbound_nodes": [[["activation_7", 0, 0, {}]]], "name": "conv2d_8"}, {"config": {"kernel_initializer": {"class_name": "VarianceScaling", "config": {"scale": 1.0, "distribution": "uniform", "mode": "fan_avg", "seed": null}}, "filters": 96, "bias_initializer": {"class_name": "Zeros", "config": {}}, "bias_regularizer": null, "use_bias": false, "data_format": "channels_last", "padding": "same", "kernel_constraint": null, "trainable": false, "activation": "linear", "kernel_size": [3, 3], "bias_constraint": null, "activity_regularizer": null, "kernel_regularizer": null, "strides": [1, 1], "dilation_rate": [1, 1], "name": "conv2d_11"}, "class_name": "Conv2D", "inbound_nodes": [[["activation_10", 0, 0, {}]]], "name": "conv2d_11"}, {"config": {"kernel_initializer": {"class_name": "VarianceScaling", "config": {"scale": 1.0, "distribution": "uniform", "mode": "fan_avg", "seed": null}}, "filters": 32, "bias_initializer": {"class_name": "Zeros", "config": {}}, "bias_regularizer": null, "use_bias": false, "data_format": "channels_last", "padding": "same", "kernel_constraint": null, "trainable": false, "activation": "linear", "kernel_size": [1, 1], "bias_constraint": null, "activity_regularizer": null, "kernel_regularizer": null, "strides": [1, 1], "dilation_rate": [1, 1], "name": "conv2d_12"}, "class_name": "Conv2D", "inbound_nodes": [[["average_pooling2d_1", 0, 0, {}]]], "name": "conv2d_12"}, {"config": {"epsilon": 0.001, "center": true, "gamma_regularizer": null, "beta_regularizer": null, "momentum": 0.99, "trainable": false, "scale": false, "beta_constraint": null, "moving_mean_initializer": {"class_name": "Zeros", "config": {}}, "gamma_initializer": {"class_name": "Ones", "config": {}}, "beta_initializer": {"class_name": "Zeros", "config": {}}, "axis": 3, "moving_variance_initializer": {"class_name": "Ones", "config": {}}, "gamma_constraint": null, "name": "batch_normalization_6"}, "class_name": "BatchNormalization", "inbound_nodes": [[["conv2d_6", 0, 0, {}]]], "name": "batch_normalization_6"}, {"config": {"epsilon": 0.001, "center": true, "gamma_regularizer": null, "beta_regularizer": null, "momentum": 0.99, "trainable": false, "scale": false, "beta_constraint": null, "moving_mean_initializer": {"class_name": "Zeros", "config": {}}, "gamma_initializer": {"class_name": "Ones", "config": {}}, "beta_initializer": {"class_name": "Zeros", "config": {}}, "axis": 3, "moving_variance_initializer": {"class_name": "Ones", "config": {}}, "gamma_constraint": null, "name": "batch_normalization_8"}, "class_name": "BatchNormalization", "inbound_nodes": [[["conv2d_8", 0, 0, {}]]], "name": "batch_normalization_8"}, {"config": {"epsilon": 0.001, "center": true, "gamma_regularizer": null, "beta_regularizer": null, "momentum": 0.99, "trainable": false, "scale": false, "beta_constraint": null, "moving_mean_initializer": {"class_name": "Zeros", "config": {}}, "gamma_initializer": {"class_name": "Ones", "config": {}}, "beta_initializer": {"class_name": "Zeros", "config": {}}, "axis": 3, "moving_variance_initializer": {"class_name": "Ones", "config": {}}, "gamma_constraint": null, "name": "batch_normalization_11"}, "class_name": "BatchNormalization", "inbound_nodes": [[["conv2d_11", 0, 0, {}]]], "name": "batch_normalization_11"}, {"config": {"epsilon": 0.001, "center": true, "gamma_regularizer": null, "beta_regularizer": null, "momentum": 0.99, "trainable": false, "scale": false, "beta_constraint": null, "moving_mean_initializer": {"class_name": "Zeros", "config": {}}, "gamma_initializer": {"class_name": "Ones", "config": {}}, "beta_initializer": {"class_name": "Zeros", "config": {}}, "axis": 3, "moving_variance_initializer": {"class_name": "Ones", "config": {}}, "gamma_constraint": null, "name": "batch_normalization_12"}, "class_name": "BatchNormalization", "inbound_nodes": [[["conv2d_12", 0, 0, {}]]], "name": "batch_normalization_12"}, {"config": {"trainable": false, "name": "activation_6", "activation": "relu"}, "class_name": "Activation", "inbound_nodes": [[["batch_normalization_6", 0, 0, {}]]], "name": "activation_6"}, {"config": {"trainable": false, "name": "activation_8", "activation": "relu"}, "class_name": "Activation", "inbound_nodes": [[["batch_normalization_8", 0, 0, {}]]], "name": "activation_8"}, {"config": {"trainable": false, "name": "activation_11", "activation": "relu"}, "class_name": "Activation", "inbound_nodes": [[["batch_normalization_11", 0, 0, {}]]], "name": "activation_11"}, {"config": {"trainable": false, "name": "activation_12", "activation": "relu"}, "class_name": "Activation", "inbound_nodes": [[["batch_normalization_12", 0, 0, {}]]], "name": "activation_12"}, {"config": {"axis": 3, "trainable": false, "name": "mixed0"}, "class_name": "Concatenate", "inbound_nodes": [[["activation_6", 0, 0, {}], ["activation_8", 0, 0, {}], ["activation_11", 0, 0, {}], ["activation_12", 0, 0, {}]]], "name": "mixed0"}, {"config": {"kernel_initializer": {"class_name": "VarianceScaling", "config": {"scale": 1.0, "distribution": "uniform", "mode": "fan_avg", "seed": null}}, "filters": 64, "bias_initializer": {"class_name": "Zeros", "config": {}}, "bias_regularizer": null, "use_bias": false, "data_format": "channels_last", "padding": "same", "kernel_constraint": null, "trainable": false, "activation": "linear", "kernel_size": [1, 1], "bias_constraint": null, "activity_regularizer": null, "kernel_regularizer": null, "strides": [1, 1], "dilation_rate": [1, 1], "name": "conv2d_16"}, "class_name": "Conv2D", "inbound_nodes": [[["mixed0", 0, 0, {}]]], "name": "conv2d_16"}, {"config": {"epsilon": 0.001, "center": true, "gamma_regularizer": null, "beta_regularizer": null, "momentum": 0.99, "trainable": false, "scale": false, "beta_constraint": null, "moving_mean_initializer": {"class_name": "Zeros", "config": {}}, "gamma_initializer": {"class_name": "Ones", "config": {}}, "beta_initializer": {"class_name": "Zeros", "config": {}}, "axis": 3, "moving_variance_initializer": {"class_name": "Ones", "config": {}}, "gamma_constraint": null, "name": "batch_normalization_16"}, "class_name": "BatchNormalization", "inbound_nodes": [[["conv2d_16", 0, 0, {}]]], "name": "batch_normalization_16"}, {"config": {"trainable": false, "name": "activation_16", "activation": "relu"}, "class_name": "Activation", "inbound_nodes": [[["batch_normalization_16", 0, 0, {}]]], "name": "activation_16"}, {"config": {"kernel_initializer": {"class_name": "VarianceScaling", "config": {"scale": 1.0, "distribution": "uniform", "mode": "fan_avg", "seed": null}}, "filters": 48, "bias_initializer": {"class_name": "Zeros", "config": {}}, "bias_regularizer": null, "use_bias": false, "data_format": "channels_last", "padding": "same", "kernel_constraint": null, "trainable": false, "activation": "linear", "kernel_size": [1, 1], "bias_constraint": null, "activity_regularizer": null, "kernel_regularizer": null, "strides": [1, 1], "dilation_rate": [1, 1], "name": "conv2d_14"}, "class_name": "Conv2D", "inbound_nodes": [[["mixed0", 0, 0, {}]]], "name": "conv2d_14"}, {"config": {"kernel_initializer": {"class_name": "VarianceScaling", "config": {"scale": 1.0, "distribution": "uniform", "mode": "fan_avg", "seed": null}}, "filters": 96, "bias_initializer": {"class_name": "Zeros", "config": {}}, "bias_regularizer": null, "use_bias": false, "data_format": "channels_last", "padding": "same", "kernel_constraint": null, "trainable": false, "activation": "linear", "kernel_size": [3, 3], "bias_constraint": null, "activity_regularizer": null, "kernel_regularizer": null, "strides": [1, 1], "dilation_rate": [1, 1], "name": "conv2d_17"}, "class_name": "Conv2D", "inbound_nodes": [[["activation_16", 0, 0, {}]]], "name": "conv2d_17"}, {"config": {"epsilon": 0.001, "center": true, "gamma_regularizer": null, "beta_regularizer": null, "momentum": 0.99, "trainable": false, "scale": false, "beta_constraint": null, "moving_mean_initializer": {"class_name": "Zeros", "config": {}}, "gamma_initializer": {"class_name": "Ones", "config": {}}, "beta_initializer": {"class_name": "Zeros", "config": {}}, "axis": 3, "moving_variance_initializer": {"class_name": "Ones", "config": {}}, "gamma_constraint": null, "name": "batch_normalization_14"}, "class_name": "BatchNormalization", "inbound_nodes": [[["conv2d_14", 0, 0, {}]]], "name": "batch_normalization_14"}, {"config": {"epsilon": 0.001, "center": true, "gamma_regularizer": null, "beta_regularizer": null, "momentum": 0.99, "trainable": false, "scale": false, "beta_constraint": null, "moving_mean_initializer": {"class_name": "Zeros", "config": {}}, "gamma_initializer": {"class_name": "Ones", "config": {}}, "beta_initializer": {"class_name": "Zeros", "config": {}}, "axis": 3, "moving_variance_initializer": {"class_name": "Ones", "config": {}}, "gamma_constraint": null, "name": "batch_normalization_17"}, "class_name": "BatchNormalization", "inbound_nodes": [[["conv2d_17", 0, 0, {}]]], "name": "batch_normalization_17"}, {"config": {"trainable": false, "name": "activation_14", "activation": "relu"}, "class_name": "Activation", "inbound_nodes": [[["batch_normalization_14", 0, 0, {}]]], "name": "activation_14"}, {"config": {"trainable": false, "name": "activation_17", "activation": "relu"}, "class_name": "Activation", "inbound_nodes": [[["batch_normalization_17", 0, 0, {}]]], "name": "activation_17"}, {"config": {"name": "average_pooling2d_2", "pool_size": [3, 3], "data_format": "channels_last", "strides": [1, 1], "padding": "same", "trainable": false}, "class_name": "AveragePooling2D", "inbound_nodes": [[["mixed0", 0, 0, {}]]], "name": "average_pooling2d_2"}, {"config": {"kernel_initializer": {"class_name": "VarianceScaling", "config": {"scale": 1.0, "distribution": "uniform", "mode": "fan_avg", "seed": null}}, "filters": 64, "bias_initializer": {"class_name": "Zeros", "config": {}}, "bias_regularizer": null, "use_bias": false, "data_format": "channels_last", "padding": "same", "kernel_constraint": null, "trainable": false, "activation": "linear", "kernel_size": [1, 1], "bias_constraint": null, "activity_regularizer": null, "kernel_regularizer": null, "strides": [1, 1], "dilation_rate": [1, 1], "name": "conv2d_13"}, "class_name": "Conv2D", "inbound_nodes": [[["mixed0", 0, 0, {}]]], "name": "conv2d_13"}, {"config": {"kernel_initializer": {"class_name": "VarianceScaling", "config": {"scale": 1.0, "distribution": "uniform", "mode": "fan_avg", "seed": null}}, "filters": 64, "bias_initializer": {"class_name": "Zeros", "config": {}}, "bias_regularizer": null, "use_bias": false, "data_format": "channels_last", "padding": "same", "kernel_constraint": null, "trainable": false, "activation": "linear", "kernel_size": [5, 5], "bias_constraint": null, "activity_regularizer": null, "kernel_regularizer": null, "strides": [1, 1], "dilation_rate": [1, 1], "name": "conv2d_15"}, "class_name": "Conv2D", "inbound_nodes": [[["activation_14", 0, 0, {}]]], "name": "conv2d_15"}, {"config": {"kernel_initializer": {"class_name": "VarianceScaling", "config": {"scale": 1.0, "distribution": "uniform", "mode": "fan_avg", "seed": null}}, "filters": 96, "bias_initializer": {"class_name": "Zeros", "config": {}}, "bias_regularizer": null, "use_bias": false, "data_format": "channels_last", "padding": "same", "kernel_constraint": null, "trainable": false, "activation": "linear", "kernel_size": [3, 3], "bias_constraint": null, "activity_regularizer": null, "kernel_regularizer": null, "strides": [1, 1], "dilation_rate": [1, 1], "name": "conv2d_18"}, "class_name": "Conv2D", "inbound_nodes": [[["activation_17", 0, 0, {}]]], "name": "conv2d_18"}, {"config": {"kernel_initializer": {"class_name": "VarianceScaling", "config": {"scale": 1.0, "distribution": "uniform", "mode": "fan_avg", "seed": null}}, "filters": 64, "bias_initializer": {"class_name": "Zeros", "config": {}}, "bias_regularizer": null, "use_bias": false, "data_format": "channels_last", "padding": "same", "kernel_constraint": null, "trainable": false, "activation": "linear", "kernel_size": [1, 1], "bias_constraint": null, "activity_regularizer": null, "kernel_regularizer": null, "strides": [1, 1], "dilation_rate": [1, 1], "name": "conv2d_19"}, "class_name": "Conv2D", "inbound_nodes": [[["average_pooling2d_2", 0, 0, {}]]], "name": "conv2d_19"}, {"config": {"epsilon": 0.001, "center": true, "gamma_regularizer": null, "beta_regularizer": null, "momentum": 0.99, "trainable": false, "scale": false, "beta_constraint": null, "moving_mean_initializer": {"class_name": "Zeros", "config": {}}, "gamma_initializer": {"class_name": "Ones", "config": {}}, "beta_initializer": {"class_name": "Zeros", "config": {}}, "axis": 3, "moving_variance_initializer": {"class_name": "Ones", "config": {}}, "gamma_constraint": null, "name": "batch_normalization_13"}, "class_name": "BatchNormalization", "inbound_nodes": [[["conv2d_13", 0, 0, {}]]], "name": "batch_normalization_13"}, {"config": {"epsilon": 0.001, "center": true, "gamma_regularizer": null, "beta_regularizer": null, "momentum": 0.99, "trainable": false, "scale": false, "beta_constraint": null, "moving_mean_initializer": {"class_name": "Zeros", "config": {}}, "gamma_initializer": {"class_name": "Ones", "config": {}}, "beta_initializer": {"class_name": "Zeros", "config": {}}, "axis": 3, "moving_variance_initializer": {"class_name": "Ones", "config": {}}, "gamma_constraint": null, "name": "batch_normalization_15"}, "class_name": "BatchNormalization", "inbound_nodes": [[["conv2d_15", 0, 0, {}]]], "name": "batch_normalization_15"}, {"config": {"epsilon": 0.001, "center": true, "gamma_regularizer": null, "beta_regularizer": null, "momentum": 0.99, "trainable": false, "scale": false, "beta_constraint": null, "moving_mean_initializer": {"class_name": "Zeros", "config": {}}, "gamma_initializer": {"class_name": "Ones", "config": {}}, "beta_initializer": {"class_name": "Zeros", "config": {}}, "axis": 3, "moving_variance_initializer": {"class_name": "Ones", "config": {}}, "gamma_constraint": null, "name": "batch_normalization_18"}, "class_name": "BatchNormalization", "inbound_nodes": [[["conv2d_18", 0, 0, {}]]], "name": "batch_normalization_18"}, {"config": {"epsilon": 0.001, "center": true, "gamma_regularizer": null, "beta_regularizer": null, "momentum": 0.99, "trainable": false, "scale": false, "beta_constraint": null, "moving_mean_initializer": {"class_name": "Zeros", "config": {}}, "gamma_initializer": {"class_name": "Ones", "config": {}}, "beta_initializer": {"class_name": "Zeros", "config": {}}, "axis": 3, "moving_variance_initializer": {"class_name": "Ones", "config": {}}, "gamma_constraint": null, "name": "batch_normalization_19"}, "class_name": "BatchNormalization", "inbound_nodes": [[["conv2d_19", 0, 0, {}]]], "name": "batch_normalization_19"}, {"config": {"trainable": false, "name": "activation_13", "activation": "relu"}, "class_name": "Activation", "inbound_nodes": [[["batch_normalization_13", 0, 0, {}]]], "name": "activation_13"}, {"config": {"trainable": false, "name": "activation_15", "activation": "relu"}, "class_name": "Activation", "inbound_nodes": [[["batch_normalization_15", 0, 0, {}]]], "name": "activation_15"}, {"config": {"trainable": false, "name": "activation_18", "activation": "relu"}, "class_name": "Activation", "inbound_nodes": [[["batch_normalization_18", 0, 0, {}]]], "name": "activation_18"}, {"config": {"trainable": false, "name": "activation_19", "activation": "relu"}, "class_name": "Activation", "inbound_nodes": [[["batch_normalization_19", 0, 0, {}]]], "name": "activation_19"}, {"config": {"axis": 3, "trainable": false, "name": "mixed1"}, "class_name": "Concatenate", "inbound_nodes": [[["activation_13", 0, 0, {}], ["activation_15", 0, 0, {}], ["activation_18", 0, 0, {}], ["activation_19", 0, 0, {}]]], "name": "mixed1"}, {"config": {"kernel_initializer": {"class_name": "VarianceScaling", "config": {"scale": 1.0, "distribution": "uniform", "mode": "fan_avg", "seed": null}}, "filters": 64, "bias_initializer": {"class_name": "Zeros", "config": {}}, "bias_regularizer": null, "use_bias": false, "data_format": "channels_last", "padding": "same", "kernel_constraint": null, "trainable": false, "activation": "linear", "kernel_size": [1, 1], "bias_constraint": null, "activity_regularizer": null, "kernel_regularizer": null, "strides": [1, 1], "dilation_rate": [1, 1], "name": "conv2d_23"}, "class_name": "Conv2D", "inbound_nodes": [[["mixed1", 0, 0, {}]]], "name": "conv2d_23"}, {"config": {"epsilon": 0.001, "center": true, "gamma_regularizer": null, "beta_regularizer": null, "momentum": 0.99, "trainable": false, "scale": false, "beta_constraint": null, "moving_mean_initializer": {"class_name": "Zeros", "config": {}}, "gamma_initializer": {"class_name": "Ones", "config": {}}, "beta_initializer": {"class_name": "Zeros", "config": {}}, "axis": 3, "moving_variance_initializer": {"class_name": "Ones", "config": {}}, "gamma_constraint": null, "name": "batch_normalization_23"}, "class_name": "BatchNormalization", "inbound_nodes": [[["conv2d_23", 0, 0, {}]]], "name": "batch_normalization_23"}, {"config": {"trainable": false, "name": "activation_23", "activation": "relu"}, "class_name": "Activation", "inbound_nodes": [[["batch_normalization_23", 0, 0, {}]]], "name": "activation_23"}, {"config": {"kernel_initializer": {"class_name": "VarianceScaling", "config": {"scale": 1.0, "distribution": "uniform", "mode": "fan_avg", "seed": null}}, "filters": 48, "bias_initializer": {"class_name": "Zeros", "config": {}}, "bias_regularizer": null, "use_bias": false, "data_format": "channels_last", "padding": "same", "kernel_constraint": null, "trainable": false, "activation": "linear", "kernel_size": [1, 1], "bias_constraint": null, "activity_regularizer": null, "kernel_regularizer": null, "strides": [1, 1], "dilation_rate": [1, 1], "name": "conv2d_21"}, "class_name": "Conv2D", "inbound_nodes": [[["mixed1", 0, 0, {}]]], "name": "conv2d_21"}, {"config": {"kernel_initializer": {"class_name": "VarianceScaling", "config": {"scale": 1.0, "distribution": "uniform", "mode": "fan_avg", "seed": null}}, "filters": 96, "bias_initializer": {"class_name": "Zeros", "config": {}}, "bias_regularizer": null, "use_bias": false, "data_format": "channels_last", "padding": "same", "kernel_constraint": null, "trainable": false, "activation": "linear", "kernel_size": [3, 3], "bias_constraint": null, "activity_regularizer": null, "kernel_regularizer": null, "strides": [1, 1], "dilation_rate": [1, 1], "name": "conv2d_24"}, "class_name": "Conv2D", "inbound_nodes": [[["activation_23", 0, 0, {}]]], "name": "conv2d_24"}, {"config": {"epsilon": 0.001, "center": true, "gamma_regularizer": null, "beta_regularizer": null, "momentum": 0.99, "trainable": false, "scale": false, "beta_constraint": null, "moving_mean_initializer": {"class_name": "Zeros", "config": {}}, "gamma_initializer": {"class_name": "Ones", "config": {}}, "beta_initializer": {"class_name": "Zeros", "config": {}}, "axis": 3, "moving_variance_initializer": {"class_name": "Ones", "config": {}}, "gamma_constraint": null, "name": "batch_normalization_21"}, "class_name": "BatchNormalization", "inbound_nodes": [[["conv2d_21", 0, 0, {}]]], "name": "batch_normalization_21"}, {"config": {"epsilon": 0.001, "center": true, "gamma_regularizer": null, "beta_regularizer": null, "momentum": 0.99, "trainable": false, "scale": false, "beta_constraint": null, "moving_mean_initializer": {"class_name": "Zeros", "config": {}}, "gamma_initializer": {"class_name": "Ones", "config": {}}, "beta_initializer": {"class_name": "Zeros", "config": {}}, "axis": 3, "moving_variance_initializer": {"class_name": "Ones", "config": {}}, "gamma_constraint": null, "name": "batch_normalization_24"}, "class_name": "BatchNormalization", "inbound_nodes": [[["conv2d_24", 0, 0, {}]]], "name": "batch_normalization_24"}, {"config": {"trainable": false, "name": "activation_21", "activation": "relu"}, "class_name": "Activation", "inbound_nodes": [[["batch_normalization_21", 0, 0, {}]]], "name": "activation_21"}, {"config": {"trainable": false, "name": "activation_24", "activation": "relu"}, "class_name": "Activation", "inbound_nodes": [[["batch_normalization_24", 0, 0, {}]]], "name": "activation_24"}, {"config": {"name": "average_pooling2d_3", "pool_size": [3, 3], "data_format": "channels_last", "strides": [1, 1], "padding": "same", "trainable": false}, "class_name": "AveragePooling2D", "inbound_nodes": [[["mixed1", 0, 0, {}]]], "name": "average_pooling2d_3"}, {"config": {"kernel_initializer": {"class_name": "VarianceScaling", "config": {"scale": 1.0, "distribution": "uniform", "mode": "fan_avg", "seed": null}}, "filters": 64, "bias_initializer": {"class_name": "Zeros", "config": {}}, "bias_regularizer": null, "use_bias": false, "data_format": "channels_last", "padding": "same", "kernel_constraint": null, "trainable": false, "activation": "linear", "kernel_size": [1, 1], "bias_constraint": null, "activity_regularizer": null, "kernel_regularizer": null, "strides": [1, 1], "dilation_rate": [1, 1], "name": "conv2d_20"}, "class_name": "Conv2D", "inbound_nodes": [[["mixed1", 0, 0, {}]]], "name": "conv2d_20"}, {"config": {"kernel_initializer": {"class_name": "VarianceScaling", "config": {"scale": 1.0, "distribution": "uniform", "mode": "fan_avg", "seed": null}}, "filters": 64, "bias_initializer": {"class_name": "Zeros", "config": {}}, "bias_regularizer": null, "use_bias": false, "data_format": "channels_last", "padding": "same", "kernel_constraint": null, "trainable": false, "activation": "linear", "kernel_size": [5, 5], "bias_constraint": null, "activity_regularizer": null, "kernel_regularizer": null, "strides": [1, 1], "dilation_rate": [1, 1], "name": "conv2d_22"}, "class_name": "Conv2D", "inbound_nodes": [[["activation_21", 0, 0, {}]]], "name": "conv2d_22"}, {"config": {"kernel_initializer": {"class_name": "VarianceScaling", "config": {"scale": 1.0, "distribution": "uniform", "mode": "fan_avg", "seed": null}}, "filters": 96, "bias_initializer": {"class_name": "Zeros", "config": {}}, "bias_regularizer": null, "use_bias": false, "data_format": "channels_last", "padding": "same", "kernel_constraint": null, "trainable": false, "activation": "linear", "kernel_size": [3, 3], "bias_constraint": null, "activity_regularizer": null, "kernel_regularizer": null, "strides": [1, 1], "dilation_rate": [1, 1], "name": "conv2d_25"}, "class_name": "Conv2D", "inbound_nodes": [[["activation_24", 0, 0, {}]]], "name": "conv2d_25"}, {"config": {"kernel_initializer": {"class_name": "VarianceScaling", "config": {"scale": 1.0, "distribution": "uniform", "mode": "fan_avg", "seed": null}}, "filters": 64, "bias_initializer": {"class_name": "Zeros", "config": {}}, "bias_regularizer": null, "use_bias": false, "data_format": "channels_last", "padding": "same", "kernel_constraint": null, "trainable": false, "activation": "linear", "kernel_size": [1, 1], "bias_constraint": null, "activity_regularizer": null, "kernel_regularizer": null, "strides": [1, 1], "dilation_rate": [1, 1], "name": "conv2d_26"}, "class_name": "Conv2D", "inbound_nodes": [[["average_pooling2d_3", 0, 0, {}]]], "name": "conv2d_26"}, {"config": {"epsilon": 0.001, "center": true, "gamma_regularizer": null, "beta_regularizer": null, "momentum": 0.99, "trainable": false, "scale": false, "beta_constraint": null, "moving_mean_initializer": {"class_name": "Zeros", "config": {}}, "gamma_initializer": {"class_name": "Ones", "config": {}}, "beta_initializer": {"class_name": "Zeros", "config": {}}, "axis": 3, "moving_variance_initializer": {"class_name": "Ones", "config": {}}, "gamma_constraint": null, "name": "batch_normalization_20"}, "class_name": "BatchNormalization", "inbound_nodes": [[["conv2d_20", 0, 0, {}]]], "name": "batch_normalization_20"}, {"config": {"epsilon": 0.001, "center": true, "gamma_regularizer": null, "beta_regularizer": null, "momentum": 0.99, "trainable": false, "scale": false, "beta_constraint": null, "moving_mean_initializer": {"class_name": "Zeros", "config": {}}, "gamma_initializer": {"class_name": "Ones", "config": {}}, "beta_initializer": {"class_name": "Zeros", "config": {}}, "axis": 3, "moving_variance_initializer": {"class_name": "Ones", "config": {}}, "gamma_constraint": null, "name": "batch_normalization_22"}, "class_name": "BatchNormalization", "inbound_nodes": [[["conv2d_22", 0, 0, {}]]], "name": "batch_normalization_22"}, {"config": {"epsilon": 0.001, "center": true, "gamma_regularizer": null, "beta_regularizer": null, "momentum": 0.99, "trainable": false, "scale": false, "beta_constraint": null, "moving_mean_initializer": {"class_name": "Zeros", "config": {}}, "gamma_initializer": {"class_name": "Ones", "config": {}}, "beta_initializer": {"class_name": "Zeros", "config": {}}, "axis": 3, "moving_variance_initializer": {"class_name": "Ones", "config": {}}, "gamma_constraint": null, "name": "batch_normalization_25"}, "class_name": "BatchNormalization", "inbound_nodes": [[["conv2d_25", 0, 0, {}]]], "name": "batch_normalization_25"}, {"config": {"epsilon": 0.001, "center": true, "gamma_regularizer": null, "beta_regularizer": null, "momentum": 0.99, "trainable": false, "scale": false, "beta_constraint": null, "moving_mean_initializer": {"class_name": "Zeros", "config": {}}, "gamma_initializer": {"class_name": "Ones", "config": {}}, "beta_initializer": {"class_name": "Zeros", "config": {}}, "axis": 3, "moving_variance_initializer": {"class_name": "Ones", "config": {}}, "gamma_constraint": null, "name": "batch_normalization_26"}, "class_name": "BatchNormalization", "inbound_nodes": [[["conv2d_26", 0, 0, {}]]], "name": "batch_normalization_26"}, {"config": {"trainable": false, "name": "activation_20", "activation": "relu"}, "class_name": "Activation", "inbound_nodes": [[["batch_normalization_20", 0, 0, {}]]], "name": "activation_20"}, {"config": {"trainable": false, "name": "activation_22", "activation": "relu"}, "class_name": "Activation", "inbound_nodes": [[["batch_normalization_22", 0, 0, {}]]], "name": "activation_22"}, {"config": {"trainable": false, "name": "activation_25", "activation": "relu"}, "class_name": "Activation", "inbound_nodes": [[["batch_normalization_25", 0, 0, {}]]], "name": "activation_25"}, {"config": {"trainable": false, "name": "activation_26", "activation": "relu"}, "class_name": "Activation", "inbound_nodes": [[["batch_normalization_26", 0, 0, {}]]], "name": "activation_26"}, {"config": {"axis": 3, "trainable": false, "name": "mixed2"}, "class_name": "Concatenate", "inbound_nodes": [[["activation_20", 0, 0, {}], ["activation_22", 0, 0, {}], ["activation_25", 0, 0, {}], ["activation_26", 0, 0, {}]]], "name": "mixed2"}, {"config": {"kernel_initializer": {"class_name": "VarianceScaling", "config": {"scale": 1.0, "distribution": "uniform", "mode": "fan_avg", "seed": null}}, "filters": 64, "bias_initializer": {"class_name": "Zeros", "config": {}}, "bias_regularizer": null, "use_bias": false, "data_format": "channels_last", "padding": "same", "kernel_constraint": null, "trainable": false, "activation": "linear", "kernel_size": [1, 1], "bias_constraint": null, "activity_regularizer": null, "kernel_regularizer": null, "strides": [1, 1], "dilation_rate": [1, 1], "name": "conv2d_28"}, "class_name": "Conv2D", "inbound_nodes": [[["mixed2", 0, 0, {}]]], "name": "conv2d_28"}, {"config": {"epsilon": 0.001, "center": true, "gamma_regularizer": null, "beta_regularizer": null, "momentum": 0.99, "trainable": false, "scale": false, "beta_constraint": null, "moving_mean_initializer": {"class_name": "Zeros", "config": {}}, "gamma_initializer": {"class_name": "Ones", "config": {}}, "beta_initializer": {"class_name": "Zeros", "config": {}}, "axis": 3, "moving_variance_initializer": {"class_name": "Ones", "config": {}}, "gamma_constraint": null, "name": "batch_normalization_28"}, "class_name": "BatchNormalization", "inbound_nodes": [[["conv2d_28", 0, 0, {}]]], "name": "batch_normalization_28"}, {"config": {"trainable": false, "name": "activation_28", "activation": "relu"}, "class_name": "Activation", "inbound_nodes": [[["batch_normalization_28", 0, 0, {}]]], "name": "activation_28"}, {"config": {"kernel_initializer": {"class_name": "VarianceScaling", "config": {"scale": 1.0, "distribution": "uniform", "mode": "fan_avg", "seed": null}}, "filters": 96, "bias_initializer": {"class_name": "Zeros", "config": {}}, "bias_regularizer": null, "use_bias": false, "data_format": "channels_last", "padding": "same", "kernel_constraint": null, "trainable": false, "activation": "linear", "kernel_size": [3, 3], "bias_constraint": null, "activity_regularizer": null, "kernel_regularizer": null, "strides": [1, 1], "dilation_rate": [1, 1], "name": "conv2d_29"}, "class_name": "Conv2D", "inbound_nodes": [[["activation_28", 0, 0, {}]]], "name": "conv2d_29"}, {"config": {"epsilon": 0.001, "center": true, "gamma_regularizer": null, "beta_regularizer": null, "momentum": 0.99, "trainable": false, "scale": false, "beta_constraint": null, "moving_mean_initializer": {"class_name": "Zeros", "config": {}}, "gamma_initializer": {"class_name": "Ones", "config": {}}, "beta_initializer": {"class_name": "Zeros", "config": {}}, "axis": 3, "moving_variance_initializer": {"class_name": "Ones", "config": {}}, "gamma_constraint": null, "name": "batch_normalization_29"}, "class_name": "BatchNormalization", "inbound_nodes": [[["conv2d_29", 0, 0, {}]]], "name": "batch_normalization_29"}, {"config": {"trainable": false, "name": "activation_29", "activation": "relu"}, "class_name": "Activation", "inbound_nodes": [[["batch_normalization_29", 0, 0, {}]]], "name": "activation_29"}, {"config": {"kernel_initializer": {"class_name": "VarianceScaling", "config": {"scale": 1.0, "distribution": "uniform", "mode": "fan_avg", "seed": null}}, "filters": 384, "bias_initializer": {"class_name": "Zeros", "config": {}}, "bias_regularizer": null, "use_bias": false, "data_format": "channels_last", "padding": "valid", "kernel_constraint": null, "trainable": false, "activation": "linear", "kernel_size": [3, 3], "bias_constraint": null, "activity_regularizer": null, "kernel_regularizer": null, "strides": [2, 2], "dilation_rate": [1, 1], "name": "conv2d_27"}, "class_name": "Conv2D", "inbound_nodes": [[["mixed2", 0, 0, {}]]], "name": "conv2d_27"}, {"config": {"kernel_initializer": {"class_name": "VarianceScaling", "config": {"scale": 1.0, "distribution": "uniform", "mode": "fan_avg", "seed": null}}, "filters": 96, "bias_initializer": {"class_name": "Zeros", "config": {}}, "bias_regularizer": null, "use_bias": false, "data_format": "channels_last", "padding": "valid", "kernel_constraint": null, "trainable": false, "activation": "linear", "kernel_size": [3, 3], "bias_constraint": null, "activity_regularizer": null, "kernel_regularizer": null, "strides": [2, 2], "dilation_rate": [1, 1], "name": "conv2d_30"}, "class_name": "Conv2D", "inbound_nodes": [[["activation_29", 0, 0, {}]]], "name": "conv2d_30"}, {"config": {"epsilon": 0.001, "center": true, "gamma_regularizer": null, "beta_regularizer": null, "momentum": 0.99, "trainable": false, "scale": false, "beta_constraint": null, "moving_mean_initializer": {"class_name": "Zeros", "config": {}}, "gamma_initializer": {"class_name": "Ones", "config": {}}, "beta_initializer": {"class_name": "Zeros", "config": {}}, "axis": 3, "moving_variance_initializer": {"class_name": "Ones", "config": {}}, "gamma_constraint": null, "name": "batch_normalization_27"}, "class_name": "BatchNormalization", "inbound_nodes": [[["conv2d_27", 0, 0, {}]]], "name": "batch_normalization_27"}, {"config": {"epsilon": 0.001, "center": true, "gamma_regularizer": null, "beta_regularizer": null, "momentum": 0.99, "trainable": false, "scale": false, "beta_constraint": null, "moving_mean_initializer": {"class_name": "Zeros", "config": {}}, "gamma_initializer": {"class_name": "Ones", "config": {}}, "beta_initializer": {"class_name": "Zeros", "config": {}}, "axis": 3, "moving_variance_initializer": {"class_name": "Ones", "config": {}}, "gamma_constraint": null, "name": "batch_normalization_30"}, "class_name": "BatchNormalization", "inbound_nodes": [[["conv2d_30", 0, 0, {}]]], "name": "batch_normalization_30"}, {"config": {"trainable": false, "name": "activation_27", "activation": "relu"}, "class_name": "Activation", "inbound_nodes": [[["batch_normalization_27", 0, 0, {}]]], "name": "activation_27"}, {"config": {"trainable": false, "name": "activation_30", "activation": "relu"}, "class_name": "Activation", "inbound_nodes": [[["batch_normalization_30", 0, 0, {}]]], "name": "activation_30"}, {"config": {"name": "max_pooling2d_3", "pool_size": [3, 3], "data_format": "channels_last", "strides": [2, 2], "padding": "valid", "trainable": false}, "class_name": "MaxPooling2D", "inbound_nodes": [[["mixed2", 0, 0, {}]]], "name": "max_pooling2d_3"}, {"config": {"axis": 3, "trainable": false, "name": "mixed3"}, "class_name": "Concatenate", "inbound_nodes": [[["activation_27", 0, 0, {}], ["activation_30", 0, 0, {}], ["max_pooling2d_3", 0, 0, {}]]], "name": "mixed3"}, {"config": {"kernel_initializer": {"class_name": "VarianceScaling", "config": {"scale": 1.0, "distribution": "uniform", "mode": "fan_avg", "seed": null}}, "filters": 128, "bias_initializer": {"class_name": "Zeros", "config": {}}, "bias_regularizer": null, "use_bias": false, "data_format": "channels_last", "padding": "same", "kernel_constraint": null, "trainable": false, "activation": "linear", "kernel_size": [1, 1], "bias_constraint": null, "activity_regularizer": null, "kernel_regularizer": null, "strides": [1, 1], "dilation_rate": [1, 1], "name": "conv2d_35"}, "class_name": "Conv2D", "inbound_nodes": [[["mixed3", 0, 0, {}]]], "name": "conv2d_35"}, {"config": {"epsilon": 0.001, "center": true, "gamma_regularizer": null, "beta_regularizer": null, "momentum": 0.99, "trainable": false, "scale": false, "beta_constraint": null, "moving_mean_initializer": {"class_name": "Zeros", "config": {}}, "gamma_initializer": {"class_name": "Ones", "config": {}}, "beta_initializer": {"class_name": "Zeros", "config": {}}, "axis": 3, "moving_variance_initializer": {"class_name": "Ones", "config": {}}, "gamma_constraint": null, "name": "batch_normalization_35"}, "class_name": "BatchNormalization", "inbound_nodes": [[["conv2d_35", 0, 0, {}]]], "name": "batch_normalization_35"}, {"config": {"trainable": false, "name": "activation_35", "activation": "relu"}, "class_name": "Activation", "inbound_nodes": [[["batch_normalization_35", 0, 0, {}]]], "name": "activation_35"}, {"config": {"kernel_initializer": {"class_name": "VarianceScaling", "config": {"scale": 1.0, "distribution": "uniform", "mode": "fan_avg", "seed": null}}, "filters": 128, "bias_initializer": {"class_name": "Zeros", "config": {}}, "bias_regularizer": null, "use_bias": false, "data_format": "channels_last", "padding": "same", "kernel_constraint": null, "trainable": false, "activation": "linear", "kernel_size": [7, 1], "bias_constraint": null, "activity_regularizer": null, "kernel_regularizer": null, "strides": [1, 1], "dilation_rate": [1, 1], "name": "conv2d_36"}, "class_name": "Conv2D", "inbound_nodes": [[["activation_35", 0, 0, {}]]], "name": "conv2d_36"}, {"config": {"epsilon": 0.001, "center": true, "gamma_regularizer": null, "beta_regularizer": null, "momentum": 0.99, "trainable": false, "scale": false, "beta_constraint": null, "moving_mean_initializer": {"class_name": "Zeros", "config": {}}, "gamma_initializer": {"class_name": "Ones", "config": {}}, "beta_initializer": {"class_name": "Zeros", "config": {}}, "axis": 3, "moving_variance_initializer": {"class_name": "Ones", "config": {}}, "gamma_constraint": null, "name": "batch_normalization_36"}, "class_name": "BatchNormalization", "inbound_nodes": [[["conv2d_36", 0, 0, {}]]], "name": "batch_normalization_36"}, {"config": {"trainable": false, "name": "activation_36", "activation": "relu"}, "class_name": "Activation", "inbound_nodes": [[["batch_normalization_36", 0, 0, {}]]], "name": "activation_36"}, {"config": {"kernel_initializer": {"class_name": "VarianceScaling", "config": {"scale": 1.0, "distribution": "uniform", "mode": "fan_avg", "seed": null}}, "filters": 128, "bias_initializer": {"class_name": "Zeros", "config": {}}, "bias_regularizer": null, "use_bias": false, "data_format": "channels_last", "padding": "same", "kernel_constraint": null, "trainable": false, "activation": "linear", "kernel_size": [1, 1], "bias_constraint": null, "activity_regularizer": null, "kernel_regularizer": null, "strides": [1, 1], "dilation_rate": [1, 1], "name": "conv2d_32"}, "class_name": "Conv2D", "inbound_nodes": [[["mixed3", 0, 0, {}]]], "name": "conv2d_32"}, {"config": {"kernel_initializer": {"class_name": "VarianceScaling", "config": {"scale": 1.0, "distribution": "uniform", "mode": "fan_avg", "seed": null}}, "filters": 128, "bias_initializer": {"class_name": "Zeros", "config": {}}, "bias_regularizer": null, "use_bias": false, "data_format": "channels_last", "padding": "same", "kernel_constraint": null, "trainable": false, "activation": "linear", "kernel_size": [1, 7], "bias_constraint": null, "activity_regularizer": null, "kernel_regularizer": null, "strides": [1, 1], "dilation_rate": [1, 1], "name": "conv2d_37"}, "class_name": "Conv2D", "inbound_nodes": [[["activation_36", 0, 0, {}]]], "name": "conv2d_37"}, {"config": {"epsilon": 0.001, "center": true, "gamma_regularizer": null, "beta_regularizer": null, "momentum": 0.99, "trainable": false, "scale": false, "beta_constraint": null, "moving_mean_initializer": {"class_name": "Zeros", "config": {}}, "gamma_initializer": {"class_name": "Ones", "config": {}}, "beta_initializer": {"class_name": "Zeros", "config": {}}, "axis": 3, "moving_variance_initializer": {"class_name": "Ones", "config": {}}, "gamma_constraint": null, "name": "batch_normalization_32"}, "class_name": "BatchNormalization", "inbound_nodes": [[["conv2d_32", 0, 0, {}]]], "name": "batch_normalization_32"}, {"config": {"epsilon": 0.001, "center": true, "gamma_regularizer": null, "beta_regularizer": null, "momentum": 0.99, "trainable": false, "scale": false, "beta_constraint": null, "moving_mean_initializer": {"class_name": "Zeros", "config": {}}, "gamma_initializer": {"class_name": "Ones", "config": {}}, "beta_initializer": {"class_name": "Zeros", "config": {}}, "axis": 3, "moving_variance_initializer": {"class_name": "Ones", "config": {}}, "gamma_constraint": null, "name": "batch_normalization_37"}, "class_name": "BatchNormalization", "inbound_nodes": [[["conv2d_37", 0, 0, {}]]], "name": "batch_normalization_37"}, {"config": {"trainable": false, "name": "activation_32", "activation": "relu"}, "class_name": "Activation", "inbound_nodes": [[["batch_normalization_32", 0, 0, {}]]], "name": "activation_32"}, {"config": {"trainable": false, "name": "activation_37", "activation": "relu"}, "class_name": "Activation", "inbound_nodes": [[["batch_normalization_37", 0, 0, {}]]], "name": "activation_37"}, {"config": {"kernel_initializer": {"class_name": "VarianceScaling", "config": {"scale": 1.0, "distribution": "uniform", "mode": "fan_avg", "seed": null}}, "filters": 128, "bias_initializer": {"class_name": "Zeros", "config": {}}, "bias_regularizer": null, "use_bias": false, "data_format": "channels_last", "padding": "same", "kernel_constraint": null, "trainable": false, "activation": "linear", "kernel_size": [1, 7], "bias_constraint": null, "activity_regularizer": null, "kernel_regularizer": null, "strides": [1, 1], "dilation_rate": [1, 1], "name": "conv2d_33"}, "class_name": "Conv2D", "inbound_nodes": [[["activation_32", 0, 0, {}]]], "name": "conv2d_33"}, {"config": {"kernel_initializer": {"class_name": "VarianceScaling", "config": {"scale": 1.0, "distribution": "uniform", "mode": "fan_avg", "seed": null}}, "filters": 128, "bias_initializer": {"class_name": "Zeros", "config": {}}, "bias_regularizer": null, "use_bias": false, "data_format": "channels_last", "padding": "same", "kernel_constraint": null, "trainable": false, "activation": "linear", "kernel_size": [7, 1], "bias_constraint": null, "activity_regularizer": null, "kernel_regularizer": null, "strides": [1, 1], "dilation_rate": [1, 1], "name": "conv2d_38"}, "class_name": "Conv2D", "inbound_nodes": [[["activation_37", 0, 0, {}]]], "name": "conv2d_38"}, {"config": {"epsilon": 0.001, "center": true, "gamma_regularizer": null, "beta_regularizer": null, "momentum": 0.99, "trainable": false, "scale": false, "beta_constraint": null, "moving_mean_initializer": {"class_name": "Zeros", "config": {}}, "gamma_initializer": {"class_name": "Ones", "config": {}}, "beta_initializer": {"class_name": "Zeros", "config": {}}, "axis": 3, "moving_variance_initializer": {"class_name": "Ones", "config": {}}, "gamma_constraint": null, "name": "batch_normalization_33"}, "class_name": "BatchNormalization", "inbound_nodes": [[["conv2d_33", 0, 0, {}]]], "name": "batch_normalization_33"}, {"config": {"epsilon": 0.001, "center": true, "gamma_regularizer": null, "beta_regularizer": null, "momentum": 0.99, "trainable": false, "scale": false, "beta_constraint": null, "moving_mean_initializer": {"class_name": "Zeros", "config": {}}, "gamma_initializer": {"class_name": "Ones", "config": {}}, "beta_initializer": {"class_name": "Zeros", "config": {}}, "axis": 3, "moving_variance_initializer": {"class_name": "Ones", "config": {}}, "gamma_constraint": null, "name": "batch_normalization_38"}, "class_name": "BatchNormalization", "inbound_nodes": [[["conv2d_38", 0, 0, {}]]], "name": "batch_normalization_38"}, {"config": {"trainable": false, "name": "activation_33", "activation": "relu"}, "class_name": "Activation", "inbound_nodes": [[["batch_normalization_33", 0, 0, {}]]], "name": "activation_33"}, {"config": {"trainable": false, "name": "activation_38", "activation": "relu"}, "class_name": "Activation", "inbound_nodes": [[["batch_normalization_38", 0, 0, {}]]], "name": "activation_38"}, {"config": {"name": "average_pooling2d_4", "pool_size": [3, 3], "data_format": "channels_last", "strides": [1, 1], "padding": "same", "trainable": false}, "class_name": "AveragePooling2D", "inbound_nodes": [[["mixed3", 0, 0, {}]]], "name": "average_pooling2d_4"}, {"config": {"kernel_initializer": {"class_name": "VarianceScaling", "config": {"scale": 1.0, "distribution": "uniform", "mode": "fan_avg", "seed": null}}, "filters": 192, "bias_initializer": {"class_name": "Zeros", "config": {}}, "bias_regularizer": null, "use_bias": false, "data_format": "channels_last", "padding": "same", "kernel_constraint": null, "trainable": false, "activation": "linear", "kernel_size": [1, 1], "bias_constraint": null, "activity_regularizer": null, "kernel_regularizer": null, "strides": [1, 1], "dilation_rate": [1, 1], "name": "conv2d_31"}, "class_name": "Conv2D", "inbound_nodes": [[["mixed3", 0, 0, {}]]], "name": "conv2d_31"}, {"config": {"kernel_initializer": {"class_name": "VarianceScaling", "config": {"scale": 1.0, "distribution": "uniform", "mode": "fan_avg", "seed": null}}, "filters": 192, "bias_initializer": {"class_name": "Zeros", "config": {}}, "bias_regularizer": null, "use_bias": false, "data_format": "channels_last", "padding": "same", "kernel_constraint": null, "trainable": false, "activation": "linear", "kernel_size": [7, 1], "bias_constraint": null, "activity_regularizer": null, "kernel_regularizer": null, "strides": [1, 1], "dilation_rate": [1, 1], "name": "conv2d_34"}, "class_name": "Conv2D", "inbound_nodes": [[["activation_33", 0, 0, {}]]], "name": "conv2d_34"}, {"config": {"kernel_initializer": {"class_name": "VarianceScaling", "config": {"scale": 1.0, "distribution": "uniform", "mode": "fan_avg", "seed": null}}, "filters": 192, "bias_initializer": {"class_name": "Zeros", "config": {}}, "bias_regularizer": null, "use_bias": false, "data_format": "channels_last", "padding": "same", "kernel_constraint": null, "trainable": false, "activation": "linear", "kernel_size": [1, 7], "bias_constraint": null, "activity_regularizer": null, "kernel_regularizer": null, "strides": [1, 1], "dilation_rate": [1, 1], "name": "conv2d_39"}, "class_name": "Conv2D", "inbound_nodes": [[["activation_38", 0, 0, {}]]], "name": "conv2d_39"}, {"config": {"kernel_initializer": {"class_name": "VarianceScaling", "config": {"scale": 1.0, "distribution": "uniform", "mode": "fan_avg", "seed": null}}, "filters": 192, "bias_initializer": {"class_name": "Zeros", "config": {}}, "bias_regularizer": null, "use_bias": false, "data_format": "channels_last", "padding": "same", "kernel_constraint": null, "trainable": false, "activation": "linear", "kernel_size": [1, 1], "bias_constraint": null, "activity_regularizer": null, "kernel_regularizer": null, "strides": [1, 1], "dilation_rate": [1, 1], "name": "conv2d_40"}, "class_name": "Conv2D", "inbound_nodes": [[["average_pooling2d_4", 0, 0, {}]]], "name": "conv2d_40"}, {"config": {"epsilon": 0.001, "center": true, "gamma_regularizer": null, "beta_regularizer": null, "momentum": 0.99, "trainable": false, "scale": false, "beta_constraint": null, "moving_mean_initializer": {"class_name": "Zeros", "config": {}}, "gamma_initializer": {"class_name": "Ones", "config": {}}, "beta_initializer": {"class_name": "Zeros", "config": {}}, "axis": 3, "moving_variance_initializer": {"class_name": "Ones", "config": {}}, "gamma_constraint": null, "name": "batch_normalization_31"}, "class_name": "BatchNormalization", "inbound_nodes": [[["conv2d_31", 0, 0, {}]]], "name": "batch_normalization_31"}, {"config": {"epsilon": 0.001, "center": true, "gamma_regularizer": null, "beta_regularizer": null, "momentum": 0.99, "trainable": false, "scale": false, "beta_constraint": null, "moving_mean_initializer": {"class_name": "Zeros", "config": {}}, "gamma_initializer": {"class_name": "Ones", "config": {}}, "beta_initializer": {"class_name": "Zeros", "config": {}}, "axis": 3, "moving_variance_initializer": {"class_name": "Ones", "config": {}}, "gamma_constraint": null, "name": "batch_normalization_34"}, "class_name": "BatchNormalization", "inbound_nodes": [[["conv2d_34", 0, 0, {}]]], "name": "batch_normalization_34"}, {"config": {"epsilon": 0.001, "center": true, "gamma_regularizer": null, "beta_regularizer": null, "momentum": 0.99, "trainable": false, "scale": false, "beta_constraint": null, "moving_mean_initializer": {"class_name": "Zeros", "config": {}}, "gamma_initializer": {"class_name": "Ones", "config": {}}, "beta_initializer": {"class_name": "Zeros", "config": {}}, "axis": 3, "moving_variance_initializer": {"class_name": "Ones", "config": {}}, "gamma_constraint": null, "name": "batch_normalization_39"}, "class_name": "BatchNormalization", "inbound_nodes": [[["conv2d_39", 0, 0, {}]]], "name": "batch_normalization_39"}, {"config": {"epsilon": 0.001, "center": true, "gamma_regularizer": null, "beta_regularizer": null, "momentum": 0.99, "trainable": false, "scale": false, "beta_constraint": null, "moving_mean_initializer": {"class_name": "Zeros", "config": {}}, "gamma_initializer": {"class_name": "Ones", "config": {}}, "beta_initializer": {"class_name": "Zeros", "config": {}}, "axis": 3, "moving_variance_initializer": {"class_name": "Ones", "config": {}}, "gamma_constraint": null, "name": "batch_normalization_40"}, "class_name": "BatchNormalization", "inbound_nodes": [[["conv2d_40", 0, 0, {}]]], "name": "batch_normalization_40"}, {"config": {"trainable": false, "name": "activation_31", "activation": "relu"}, "class_name": "Activation", "inbound_nodes": [[["batch_normalization_31", 0, 0, {}]]], "name": "activation_31"}, {"config": {"trainable": false, "name": "activation_34", "activation": "relu"}, "class_name": "Activation", "inbound_nodes": [[["batch_normalization_34", 0, 0, {}]]], "name": "activation_34"}, {"config": {"trainable": false, "name": "activation_39", "activation": "relu"}, "class_name": "Activation", "inbound_nodes": [[["batch_normalization_39", 0, 0, {}]]], "name": "activation_39"}, {"config": {"trainable": false, "name": "activation_40", "activation": "relu"}, "class_name": "Activation", "inbound_nodes": [[["batch_normalization_40", 0, 0, {}]]], "name": "activation_40"}, {"config": {"axis": 3, "trainable": false, "name": "mixed4"}, "class_name": "Concatenate", "inbound_nodes": [[["activation_31", 0, 0, {}], ["activation_34", 0, 0, {}], ["activation_39", 0, 0, {}], ["activation_40", 0, 0, {}]]], "name": "mixed4"}, {"config": {"kernel_initializer": {"class_name": "VarianceScaling", "config": {"scale": 1.0, "distribution": "uniform", "mode": "fan_avg", "seed": null}}, "filters": 160, "bias_initializer": {"class_name": "Zeros", "config": {}}, "bias_regularizer": null, "use_bias": false, "data_format": "channels_last", "padding": "same", "kernel_constraint": null, "trainable": false, "activation": "linear", "kernel_size": [1, 1], "bias_constraint": null, "activity_regularizer": null, "kernel_regularizer": null, "strides": [1, 1], "dilation_rate": [1, 1], "name": "conv2d_45"}, "class_name": "Conv2D", "inbound_nodes": [[["mixed4", 0, 0, {}]]], "name": "conv2d_45"}, {"config": {"epsilon": 0.001, "center": true, "gamma_regularizer": null, "beta_regularizer": null, "momentum": 0.99, "trainable": false, "scale": false, "beta_constraint": null, "moving_mean_initializer": {"class_name": "Zeros", "config": {}}, "gamma_initializer": {"class_name": "Ones", "config": {}}, "beta_initializer": {"class_name": "Zeros", "config": {}}, "axis": 3, "moving_variance_initializer": {"class_name": "Ones", "config": {}}, "gamma_constraint": null, "name": "batch_normalization_45"}, "class_name": "BatchNormalization", "inbound_nodes": [[["conv2d_45", 0, 0, {}]]], "name": "batch_normalization_45"}, {"config": {"trainable": false, "name": "activation_45", "activation": "relu"}, "class_name": "Activation", "inbound_nodes": [[["batch_normalization_45", 0, 0, {}]]], "name": "activation_45"}, {"config": {"kernel_initializer": {"class_name": "VarianceScaling", "config": {"scale": 1.0, "distribution": "uniform", "mode": "fan_avg", "seed": null}}, "filters": 160, "bias_initializer": {"class_name": "Zeros", "config": {}}, "bias_regularizer": null, "use_bias": false, "data_format": "channels_last", "padding": "same", "kernel_constraint": null, "trainable": false, "activation": "linear", "kernel_size": [7, 1], "bias_constraint": null, "activity_regularizer": null, "kernel_regularizer": null, "strides": [1, 1], "dilation_rate": [1, 1], "name": "conv2d_46"}, "class_name": "Conv2D", "inbound_nodes": [[["activation_45", 0, 0, {}]]], "name": "conv2d_46"}, {"config": {"epsilon": 0.001, "center": true, "gamma_regularizer": null, "beta_regularizer": null, "momentum": 0.99, "trainable": false, "scale": false, "beta_constraint": null, "moving_mean_initializer": {"class_name": "Zeros", "config": {}}, "gamma_initializer": {"class_name": "Ones", "config": {}}, "beta_initializer": {"class_name": "Zeros", "config": {}}, "axis": 3, "moving_variance_initializer": {"class_name": "Ones", "config": {}}, "gamma_constraint": null, "name": "batch_normalization_46"}, "class_name": "BatchNormalization", "inbound_nodes": [[["conv2d_46", 0, 0, {}]]], "name": "batch_normalization_46"}, {"config": {"trainable": false, "name": "activation_46", "activation": "relu"}, "class_name": "Activation", "inbound_nodes": [[["batch_normalization_46", 0, 0, {}]]], "name": "activation_46"}, {"config": {"kernel_initializer": {"class_name": "VarianceScaling", "config": {"scale": 1.0, "distribution": "uniform", "mode": "fan_avg", "seed": null}}, "filters": 160, "bias_initializer": {"class_name": "Zeros", "config": {}}, "bias_regularizer": null, "use_bias": false, "data_format": "channels_last", "padding": "same", "kernel_constraint": null, "trainable": false, "activation": "linear", "kernel_size": [1, 1], "bias_constraint": null, "activity_regularizer": null, "kernel_regularizer": null, "strides": [1, 1], "dilation_rate": [1, 1], "name": "conv2d_42"}, "class_name": "Conv2D", "inbound_nodes": [[["mixed4", 0, 0, {}]]], "name": "conv2d_42"}, {"config": {"kernel_initializer": {"class_name": "VarianceScaling", "config": {"scale": 1.0, "distribution": "uniform", "mode": "fan_avg", "seed": null}}, "filters": 160, "bias_initializer": {"class_name": "Zeros", "config": {}}, "bias_regularizer": null, "use_bias": false, "data_format": "channels_last", "padding": "same", "kernel_constraint": null, "trainable": false, "activation": "linear", "kernel_size": [1, 7], "bias_constraint": null, "activity_regularizer": null, "kernel_regularizer": null, "strides": [1, 1], "dilation_rate": [1, 1], "name": "conv2d_47"}, "class_name": "Conv2D", "inbound_nodes": [[["activation_46", 0, 0, {}]]], "name": "conv2d_47"}, {"config": {"epsilon": 0.001, "center": true, "gamma_regularizer": null, "beta_regularizer": null, "momentum": 0.99, "trainable": false, "scale": false, "beta_constraint": null, "moving_mean_initializer": {"class_name": "Zeros", "config": {}}, "gamma_initializer": {"class_name": "Ones", "config": {}}, "beta_initializer": {"class_name": "Zeros", "config": {}}, "axis": 3, "moving_variance_initializer": {"class_name": "Ones", "config": {}}, "gamma_constraint": null, "name": "batch_normalization_42"}, "class_name": "BatchNormalization", "inbound_nodes": [[["conv2d_42", 0, 0, {}]]], "name": "batch_normalization_42"}, {"config": {"epsilon": 0.001, "center": true, "gamma_regularizer": null, "beta_regularizer": null, "momentum": 0.99, "trainable": false, "scale": false, "beta_constraint": null, "moving_mean_initializer": {"class_name": "Zeros", "config": {}}, "gamma_initializer": {"class_name": "Ones", "config": {}}, "beta_initializer": {"class_name": "Zeros", "config": {}}, "axis": 3, "moving_variance_initializer": {"class_name": "Ones", "config": {}}, "gamma_constraint": null, "name": "batch_normalization_47"}, "class_name": "BatchNormalization", "inbound_nodes": [[["conv2d_47", 0, 0, {}]]], "name": "batch_normalization_47"}, {"config": {"trainable": false, "name": "activation_42", "activation": "relu"}, "class_name": "Activation", "inbound_nodes": [[["batch_normalization_42", 0, 0, {}]]], "name": "activation_42"}, {"config": {"trainable": false, "name": "activation_47", "activation": "relu"}, "class_name": "Activation", "inbound_nodes": [[["batch_normalization_47", 0, 0, {}]]], "name": "activation_47"}, {"config": {"kernel_initializer": {"class_name": "VarianceScaling", "config": {"scale": 1.0, "distribution": "uniform", "mode": "fan_avg", "seed": null}}, "filters": 160, "bias_initializer": {"class_name": "Zeros", "config": {}}, "bias_regularizer": null, "use_bias": false, "data_format": "channels_last", "padding": "same", "kernel_constraint": null, "trainable": false, "activation": "linear", "kernel_size": [1, 7], "bias_constraint": null, "activity_regularizer": null, "kernel_regularizer": null, "strides": [1, 1], "dilation_rate": [1, 1], "name": "conv2d_43"}, "class_name": "Conv2D", "inbound_nodes": [[["activation_42", 0, 0, {}]]], "name": "conv2d_43"}, {"config": {"kernel_initializer": {"class_name": "VarianceScaling", "config": {"scale": 1.0, "distribution": "uniform", "mode": "fan_avg", "seed": null}}, "filters": 160, "bias_initializer": {"class_name": "Zeros", "config": {}}, "bias_regularizer": null, "use_bias": false, "data_format": "channels_last", "padding": "same", "kernel_constraint": null, "trainable": false, "activation": "linear", "kernel_size": [7, 1], "bias_constraint": null, "activity_regularizer": null, "kernel_regularizer": null, "strides": [1, 1], "dilation_rate": [1, 1], "name": "conv2d_48"}, "class_name": "Conv2D", "inbound_nodes": [[["activation_47", 0, 0, {}]]], "name": "conv2d_48"}, {"config": {"epsilon": 0.001, "center": true, "gamma_regularizer": null, "beta_regularizer": null, "momentum": 0.99, "trainable": false, "scale": false, "beta_constraint": null, "moving_mean_initializer": {"class_name": "Zeros", "config": {}}, "gamma_initializer": {"class_name": "Ones", "config": {}}, "beta_initializer": {"class_name": "Zeros", "config": {}}, "axis": 3, "moving_variance_initializer": {"class_name": "Ones", "config": {}}, "gamma_constraint": null, "name": "batch_normalization_43"}, "class_name": "BatchNormalization", "inbound_nodes": [[["conv2d_43", 0, 0, {}]]], "name": "batch_normalization_43"}, {"config": {"epsilon": 0.001, "center": true, "gamma_regularizer": null, "beta_regularizer": null, "momentum": 0.99, "trainable": false, "scale": false, "beta_constraint": null, "moving_mean_initializer": {"class_name": "Zeros", "config": {}}, "gamma_initializer": {"class_name": "Ones", "config": {}}, "beta_initializer": {"class_name": "Zeros", "config": {}}, "axis": 3, "moving_variance_initializer": {"class_name": "Ones", "config": {}}, "gamma_constraint": null, "name": "batch_normalization_48"}, "class_name": "BatchNormalization", "inbound_nodes": [[["conv2d_48", 0, 0, {}]]], "name": "batch_normalization_48"}, {"config": {"trainable": false, "name": "activation_43", "activation": "relu"}, "class_name": "Activation", "inbound_nodes": [[["batch_normalization_43", 0, 0, {}]]], "name": "activation_43"}, {"config": {"trainable": false, "name": "activation_48", "activation": "relu"}, "class_name": "Activation", "inbound_nodes": [[["batch_normalization_48", 0, 0, {}]]], "name": "activation_48"}, {"config": {"name": "average_pooling2d_5", "pool_size": [3, 3], "data_format": "channels_last", "strides": [1, 1], "padding": "same", "trainable": false}, "class_name": "AveragePooling2D", "inbound_nodes": [[["mixed4", 0, 0, {}]]], "name": "average_pooling2d_5"}, {"config": {"kernel_initializer": {"class_name": "VarianceScaling", "config": {"scale": 1.0, "distribution": "uniform", "mode": "fan_avg", "seed": null}}, "filters": 192, "bias_initializer": {"class_name": "Zeros", "config": {}}, "bias_regularizer": null, "use_bias": false, "data_format": "channels_last", "padding": "same", "kernel_constraint": null, "trainable": false, "activation": "linear", "kernel_size": [1, 1], "bias_constraint": null, "activity_regularizer": null, "kernel_regularizer": null, "strides": [1, 1], "dilation_rate": [1, 1], "name": "conv2d_41"}, "class_name": "Conv2D", "inbound_nodes": [[["mixed4", 0, 0, {}]]], "name": "conv2d_41"}, {"config": {"kernel_initializer": {"class_name": "VarianceScaling", "config": {"scale": 1.0, "distribution": "uniform", "mode": "fan_avg", "seed": null}}, "filters": 192, "bias_initializer": {"class_name": "Zeros", "config": {}}, "bias_regularizer": null, "use_bias": false, "data_format": "channels_last", "padding": "same", "kernel_constraint": null, "trainable": false, "activation": "linear", "kernel_size": [7, 1], "bias_constraint": null, "activity_regularizer": null, "kernel_regularizer": null, "strides": [1, 1], "dilation_rate": [1, 1], "name": "conv2d_44"}, "class_name": "Conv2D", "inbound_nodes": [[["activation_43", 0, 0, {}]]], "name": "conv2d_44"}, {"config": {"kernel_initializer": {"class_name": "VarianceScaling", "config": {"scale": 1.0, "distribution": "uniform", "mode": "fan_avg", "seed": null}}, "filters": 192, "bias_initializer": {"class_name": "Zeros", "config": {}}, "bias_regularizer": null, "use_bias": false, "data_format": "channels_last", "padding": "same", "kernel_constraint": null, "trainable": false, "activation": "linear", "kernel_size": [1, 7], "bias_constraint": null, "activity_regularizer": null, "kernel_regularizer": null, "strides": [1, 1], "dilation_rate": [1, 1], "name": "conv2d_49"}, "class_name": "Conv2D", "inbound_nodes": [[["activation_48", 0, 0, {}]]], "name": "conv2d_49"}, {"config": {"kernel_initializer": {"class_name": "VarianceScaling", "config": {"scale": 1.0, "distribution": "uniform", "mode": "fan_avg", "seed": null}}, "filters": 192, "bias_initializer": {"class_name": "Zeros", "config": {}}, "bias_regularizer": null, "use_bias": false, "data_format": "channels_last", "padding": "same", "kernel_constraint": null, "trainable": false, "activation": "linear", "kernel_size": [1, 1], "bias_constraint": null, "activity_regularizer": null, "kernel_regularizer": null, "strides": [1, 1], "dilation_rate": [1, 1], "name": "conv2d_50"}, "class_name": "Conv2D", "inbound_nodes": [[["average_pooling2d_5", 0, 0, {}]]], "name": "conv2d_50"}, {"config": {"epsilon": 0.001, "center": true, "gamma_regularizer": null, "beta_regularizer": null, "momentum": 0.99, "trainable": false, "scale": false, "beta_constraint": null, "moving_mean_initializer": {"class_name": "Zeros", "config": {}}, "gamma_initializer": {"class_name": "Ones", "config": {}}, "beta_initializer": {"class_name": "Zeros", "config": {}}, "axis": 3, "moving_variance_initializer": {"class_name": "Ones", "config": {}}, "gamma_constraint": null, "name": "batch_normalization_41"}, "class_name": "BatchNormalization", "inbound_nodes": [[["conv2d_41", 0, 0, {}]]], "name": "batch_normalization_41"}, {"config": {"epsilon": 0.001, "center": true, "gamma_regularizer": null, "beta_regularizer": null, "momentum": 0.99, "trainable": false, "scale": false, "beta_constraint": null, "moving_mean_initializer": {"class_name": "Zeros", "config": {}}, "gamma_initializer": {"class_name": "Ones", "config": {}}, "beta_initializer": {"class_name": "Zeros", "config": {}}, "axis": 3, "moving_variance_initializer": {"class_name": "Ones", "config": {}}, "gamma_constraint": null, "name": "batch_normalization_44"}, "class_name": "BatchNormalization", "inbound_nodes": [[["conv2d_44", 0, 0, {}]]], "name": "batch_normalization_44"}, {"config": {"epsilon": 0.001, "center": true, "gamma_regularizer": null, "beta_regularizer": null, "momentum": 0.99, "trainable": false, "scale": false, "beta_constraint": null, "moving_mean_initializer": {"class_name": "Zeros", "config": {}}, "gamma_initializer": {"class_name": "Ones", "config": {}}, "beta_initializer": {"class_name": "Zeros", "config": {}}, "axis": 3, "moving_variance_initializer": {"class_name": "Ones", "config": {}}, "gamma_constraint": null, "name": "batch_normalization_49"}, "class_name": "BatchNormalization", "inbound_nodes": [[["conv2d_49", 0, 0, {}]]], "name": "batch_normalization_49"}, {"config": {"epsilon": 0.001, "center": true, "gamma_regularizer": null, "beta_regularizer": null, "momentum": 0.99, "trainable": false, "scale": false, "beta_constraint": null, "moving_mean_initializer": {"class_name": "Zeros", "config": {}}, "gamma_initializer": {"class_name": "Ones", "config": {}}, "beta_initializer": {"class_name": "Zeros", "config": {}}, "axis": 3, "moving_variance_initializer": {"class_name": "Ones", "config": {}}, "gamma_constraint": null, "name": "batch_normalization_50"}, "class_name": "BatchNormalization", "inbound_nodes": [[["conv2d_50", 0, 0, {}]]], "name": "batch_normalization_50"}, {"config": {"trainable": false, "name": "activation_41", "activation": "relu"}, "class_name": "Activation", "inbound_nodes": [[["batch_normalization_41", 0, 0, {}]]], "name": "activation_41"}, {"config": {"trainable": false, "name": "activation_44", "activation": "relu"}, "class_name": "Activation", "inbound_nodes": [[["batch_normalization_44", 0, 0, {}]]], "name": "activation_44"}, {"config": {"trainable": false, "name": "activation_49", "activation": "relu"}, "class_name": "Activation", "inbound_nodes": [[["batch_normalization_49", 0, 0, {}]]], "name": "activation_49"}, {"config": {"trainable": false, "name": "activation_50", "activation": "relu"}, "class_name": "Activation", "inbound_nodes": [[["batch_normalization_50", 0, 0, {}]]], "name": "activation_50"}, {"config": {"axis": 3, "trainable": false, "name": "mixed5"}, "class_name": "Concatenate", "inbound_nodes": [[["activation_41", 0, 0, {}], ["activation_44", 0, 0, {}], ["activation_49", 0, 0, {}], ["activation_50", 0, 0, {}]]], "name": "mixed5"}, {"config": {"kernel_initializer": {"class_name": "VarianceScaling", "config": {"scale": 1.0, "distribution": "uniform", "mode": "fan_avg", "seed": null}}, "filters": 160, "bias_initializer": {"class_name": "Zeros", "config": {}}, "bias_regularizer": null, "use_bias": false, "data_format": "channels_last", "padding": "same", "kernel_constraint": null, "trainable": false, "activation": "linear", "kernel_size": [1, 1], "bias_constraint": null, "activity_regularizer": null, "kernel_regularizer": null, "strides": [1, 1], "dilation_rate": [1, 1], "name": "conv2d_55"}, "class_name": "Conv2D", "inbound_nodes": [[["mixed5", 0, 0, {}]]], "name": "conv2d_55"}, {"config": {"epsilon": 0.001, "center": true, "gamma_regularizer": null, "beta_regularizer": null, "momentum": 0.99, "trainable": false, "scale": false, "beta_constraint": null, "moving_mean_initializer": {"class_name": "Zeros", "config": {}}, "gamma_initializer": {"class_name": "Ones", "config": {}}, "beta_initializer": {"class_name": "Zeros", "config": {}}, "axis": 3, "moving_variance_initializer": {"class_name": "Ones", "config": {}}, "gamma_constraint": null, "name": "batch_normalization_55"}, "class_name": "BatchNormalization", "inbound_nodes": [[["conv2d_55", 0, 0, {}]]], "name": "batch_normalization_55"}, {"config": {"trainable": false, "name": "activation_55", "activation": "relu"}, "class_name": "Activation", "inbound_nodes": [[["batch_normalization_55", 0, 0, {}]]], "name": "activation_55"}, {"config": {"kernel_initializer": {"class_name": "VarianceScaling", "config": {"scale": 1.0, "distribution": "uniform", "mode": "fan_avg", "seed": null}}, "filters": 160, "bias_initializer": {"class_name": "Zeros", "config": {}}, "bias_regularizer": null, "use_bias": false, "data_format": "channels_last", "padding": "same", "kernel_constraint": null, "trainable": false, "activation": "linear", "kernel_size": [7, 1], "bias_constraint": null, "activity_regularizer": null, "kernel_regularizer": null, "strides": [1, 1], "dilation_rate": [1, 1], "name": "conv2d_56"}, "class_name": "Conv2D", "inbound_nodes": [[["activation_55", 0, 0, {}]]], "name": "conv2d_56"}, {"config": {"epsilon": 0.001, "center": true, "gamma_regularizer": null, "beta_regularizer": null, "momentum": 0.99, "trainable": false, "scale": false, "beta_constraint": null, "moving_mean_initializer": {"class_name": "Zeros", "config": {}}, "gamma_initializer": {"class_name": "Ones", "config": {}}, "beta_initializer": {"class_name": "Zeros", "config": {}}, "axis": 3, "moving_variance_initializer": {"class_name": "Ones", "config": {}}, "gamma_constraint": null, "name": "batch_normalization_56"}, "class_name": "BatchNormalization", "inbound_nodes": [[["conv2d_56", 0, 0, {}]]], "name": "batch_normalization_56"}, {"config": {"trainable": false, "name": "activation_56", "activation": "relu"}, "class_name": "Activation", "inbound_nodes": [[["batch_normalization_56", 0, 0, {}]]], "name": "activation_56"}, {"config": {"kernel_initializer": {"class_name": "VarianceScaling", "config": {"scale": 1.0, "distribution": "uniform", "mode": "fan_avg", "seed": null}}, "filters": 160, "bias_initializer": {"class_name": "Zeros", "config": {}}, "bias_regularizer": null, "use_bias": false, "data_format": "channels_last", "padding": "same", "kernel_constraint": null, "trainable": false, "activation": "linear", "kernel_size": [1, 1], "bias_constraint": null, "activity_regularizer": null, "kernel_regularizer": null, "strides": [1, 1], "dilation_rate": [1, 1], "name": "conv2d_52"}, "class_name": "Conv2D", "inbound_nodes": [[["mixed5", 0, 0, {}]]], "name": "conv2d_52"}, {"config": {"kernel_initializer": {"class_name": "VarianceScaling", "config": {"scale": 1.0, "distribution": "uniform", "mode": "fan_avg", "seed": null}}, "filters": 160, "bias_initializer": {"class_name": "Zeros", "config": {}}, "bias_regularizer": null, "use_bias": false, "data_format": "channels_last", "padding": "same", "kernel_constraint": null, "trainable": true, "activation": "linear", "kernel_size": [1, 7], "bias_constraint": null, "activity_regularizer": null, "kernel_regularizer": null, "strides": [1, 1], "dilation_rate": [1, 1], "name": "conv2d_57"}, "class_name": "Conv2D", "inbound_nodes": [[["activation_56", 0, 0, {}]]], "name": "conv2d_57"}, {"config": {"epsilon": 0.001, "center": true, "gamma_regularizer": null, "beta_regularizer": null, "momentum": 0.99, "trainable": true, "scale": false, "beta_constraint": null, "moving_mean_initializer": {"class_name": "Zeros", "config": {}}, "gamma_initializer": {"class_name": "Ones", "config": {}}, "beta_initializer": {"class_name": "Zeros", "config": {}}, "axis": 3, "moving_variance_initializer": {"class_name": "Ones", "config": {}}, "gamma_constraint": null, "name": "batch_normalization_52"}, "class_name": "BatchNormalization", "inbound_nodes": [[["conv2d_52", 0, 0, {}]]], "name": "batch_normalization_52"}, {"config": {"epsilon": 0.001, "center": true, "gamma_regularizer": null, "beta_regularizer": null, "momentum": 0.99, "trainable": true, "scale": false, "beta_constraint": null, "moving_mean_initializer": {"class_name": "Zeros", "config": {}}, "gamma_initializer": {"class_name": "Ones", "config": {}}, "beta_initializer": {"class_name": "Zeros", "config": {}}, "axis": 3, "moving_variance_initializer": {"class_name": "Ones", "config": {}}, "gamma_constraint": null, "name": "batch_normalization_57"}, "class_name": "BatchNormalization", "inbound_nodes": [[["conv2d_57", 0, 0, {}]]], "name": "batch_normalization_57"}, {"config": {"trainable": true, "name": "activation_52", "activation": "relu"}, "class_name": "Activation", "inbound_nodes": [[["batch_normalization_52", 0, 0, {}]]], "name": "activation_52"}, {"config": {"trainable": true, "name": "activation_57", "activation": "relu"}, "class_name": "Activation", "inbound_nodes": [[["batch_normalization_57", 0, 0, {}]]], "name": "activation_57"}, {"config": {"kernel_initializer": {"class_name": "VarianceScaling", "config": {"scale": 1.0, "distribution": "uniform", "mode": "fan_avg", "seed": null}}, "filters": 160, "bias_initializer": {"class_name": "Zeros", "config": {}}, "bias_regularizer": null, "use_bias": false, "data_format": "channels_last", "padding": "same", "kernel_constraint": null, "trainable": true, "activation": "linear", "kernel_size": [1, 7], "bias_constraint": null, "activity_regularizer": null, "kernel_regularizer": null, "strides": [1, 1], "dilation_rate": [1, 1], "name": "conv2d_53"}, "class_name": "Conv2D", "inbound_nodes": [[["activation_52", 0, 0, {}]]], "name": "conv2d_53"}, {"config": {"kernel_initializer": {"class_name": "VarianceScaling", "config": {"scale": 1.0, "distribution": "uniform", "mode": "fan_avg", "seed": null}}, "filters": 160, "bias_initializer": {"class_name": "Zeros", "config": {}}, "bias_regularizer": null, "use_bias": false, "data_format": "channels_last", "padding": "same", "kernel_constraint": null, "trainable": true, "activation": "linear", "kernel_size": [7, 1], "bias_constraint": null, "activity_regularizer": null, "kernel_regularizer": null, "strides": [1, 1], "dilation_rate": [1, 1], "name": "conv2d_58"}, "class_name": "Conv2D", "inbound_nodes": [[["activation_57", 0, 0, {}]]], "name": "conv2d_58"}, {"config": {"epsilon": 0.001, "center": true, "gamma_regularizer": null, "beta_regularizer": null, "momentum": 0.99, "trainable": true, "scale": false, "beta_constraint": null, "moving_mean_initializer": {"class_name": "Zeros", "config": {}}, "gamma_initializer": {"class_name": "Ones", "config": {}}, "beta_initializer": {"class_name": "Zeros", "config": {}}, "axis": 3, "moving_variance_initializer": {"class_name": "Ones", "config": {}}, "gamma_constraint": null, "name": "batch_normalization_53"}, "class_name": "BatchNormalization", "inbound_nodes": [[["conv2d_53", 0, 0, {}]]], "name": "batch_normalization_53"}, {"config": {"epsilon": 0.001, "center": true, "gamma_regularizer": null, "beta_regularizer": null, "momentum": 0.99, "trainable": true, "scale": false, "beta_constraint": null, "moving_mean_initializer": {"class_name": "Zeros", "config": {}}, "gamma_initializer": {"class_name": "Ones", "config": {}}, "beta_initializer": {"class_name": "Zeros", "config": {}}, "axis": 3, "moving_variance_initializer": {"class_name": "Ones", "config": {}}, "gamma_constraint": null, "name": "batch_normalization_58"}, "class_name": "BatchNormalization", "inbound_nodes": [[["conv2d_58", 0, 0, {}]]], "name": "batch_normalization_58"}, {"config": {"trainable": true, "name": "activation_53", "activation": "relu"}, "class_name": "Activation", "inbound_nodes": [[["batch_normalization_53", 0, 0, {}]]], "name": "activation_53"}, {"config": {"trainable": true, "name": "activation_58", "activation": "relu"}, "class_name": "Activation", "inbound_nodes": [[["batch_normalization_58", 0, 0, {}]]], "name": "activation_58"}, {"config": {"name": "average_pooling2d_6", "pool_size": [3, 3], "data_format": "channels_last", "strides": [1, 1], "padding": "same", "trainable": true}, "class_name": "AveragePooling2D", "inbound_nodes": [[["mixed5", 0, 0, {}]]], "name": "average_pooling2d_6"}, {"config": {"kernel_initializer": {"class_name": "VarianceScaling", "config": {"scale": 1.0, "distribution": "uniform", "mode": "fan_avg", "seed": null}}, "filters": 192, "bias_initializer": {"class_name": "Zeros", "config": {}}, "bias_regularizer": null, "use_bias": false, "data_format": "channels_last", "padding": "same", "kernel_constraint": null, "trainable": true, "activation": "linear", "kernel_size": [1, 1], "bias_constraint": null, "activity_regularizer": null, "kernel_regularizer": null, "strides": [1, 1], "dilation_rate": [1, 1], "name": "conv2d_51"}, "class_name": "Conv2D", "inbound_nodes": [[["mixed5", 0, 0, {}]]], "name": "conv2d_51"}, {"config": {"kernel_initializer": {"class_name": "VarianceScaling", "config": {"scale": 1.0, "distribution": "uniform", "mode": "fan_avg", "seed": null}}, "filters": 192, "bias_initializer": {"class_name": "Zeros", "config": {}}, "bias_regularizer": null, "use_bias": false, "data_format": "channels_last", "padding": "same", "kernel_constraint": null, "trainable": true, "activation": "linear", "kernel_size": [7, 1], "bias_constraint": null, "activity_regularizer": null, "kernel_regularizer": null, "strides": [1, 1], "dilation_rate": [1, 1], "name": "conv2d_54"}, "class_name": "Conv2D", "inbound_nodes": [[["activation_53", 0, 0, {}]]], "name": "conv2d_54"}, {"config": {"kernel_initializer": {"class_name": "VarianceScaling", "config": {"scale": 1.0, "distribution": "uniform", "mode": "fan_avg", "seed": null}}, "filters": 192, "bias_initializer": {"class_name": "Zeros", "config": {}}, "bias_regularizer": null, "use_bias": false, "data_format": "channels_last", "padding": "same", "kernel_constraint": null, "trainable": true, "activation": "linear", "kernel_size": [1, 7], "bias_constraint": null, "activity_regularizer": null, "kernel_regularizer": null, "strides": [1, 1], "dilation_rate": [1, 1], "name": "conv2d_59"}, "class_name": "Conv2D", "inbound_nodes": [[["activation_58", 0, 0, {}]]], "name": "conv2d_59"}, {"config": {"kernel_initializer": {"class_name": "VarianceScaling", "config": {"scale": 1.0, "distribution": "uniform", "mode": "fan_avg", "seed": null}}, "filters": 192, "bias_initializer": {"class_name": "Zeros", "config": {}}, "bias_regularizer": null, "use_bias": false, "data_format": "channels_last", "padding": "same", "kernel_constraint": null, "trainable": true, "activation": "linear", "kernel_size": [1, 1], "bias_constraint": null, "activity_regularizer": null, "kernel_regularizer": null, "strides": [1, 1], "dilation_rate": [1, 1], "name": "conv2d_60"}, "class_name": "Conv2D", "inbound_nodes": [[["average_pooling2d_6", 0, 0, {}]]], "name": "conv2d_60"}, {"config": {"epsilon": 0.001, "center": true, "gamma_regularizer": null, "beta_regularizer": null, "momentum": 0.99, "trainable": true, "scale": false, "beta_constraint": null, "moving_mean_initializer": {"class_name": "Zeros", "config": {}}, "gamma_initializer": {"class_name": "Ones", "config": {}}, "beta_initializer": {"class_name": "Zeros", "config": {}}, "axis": 3, "moving_variance_initializer": {"class_name": "Ones", "config": {}}, "gamma_constraint": null, "name": "batch_normalization_51"}, "class_name": "BatchNormalization", "inbound_nodes": [[["conv2d_51", 0, 0, {}]]], "name": "batch_normalization_51"}, {"config": {"epsilon": 0.001, "center": true, "gamma_regularizer": null, "beta_regularizer": null, "momentum": 0.99, "trainable": true, "scale": false, "beta_constraint": null, "moving_mean_initializer": {"class_name": "Zeros", "config": {}}, "gamma_initializer": {"class_name": "Ones", "config": {}}, "beta_initializer": {"class_name": "Zeros", "config": {}}, "axis": 3, "moving_variance_initializer": {"class_name": "Ones", "config": {}}, "gamma_constraint": null, "name": "batch_normalization_54"}, "class_name": "BatchNormalization", "inbound_nodes": [[["conv2d_54", 0, 0, {}]]], "name": "batch_normalization_54"}, {"config": {"epsilon": 0.001, "center": true, "gamma_regularizer": null, "beta_regularizer": null, "momentum": 0.99, "trainable": true, "scale": false, "beta_constraint": null, "moving_mean_initializer": {"class_name": "Zeros", "config": {}}, "gamma_initializer": {"class_name": "Ones", "config": {}}, "beta_initializer": {"class_name": "Zeros", "config": {}}, "axis": 3, "moving_variance_initializer": {"class_name": "Ones", "config": {}}, "gamma_constraint": null, "name": "batch_normalization_59"}, "class_name": "BatchNormalization", "inbound_nodes": [[["conv2d_59", 0, 0, {}]]], "name": "batch_normalization_59"}, {"config": {"epsilon": 0.001, "center": true, "gamma_regularizer": null, "beta_regularizer": null, "momentum": 0.99, "trainable": true, "scale": false, "beta_constraint": null, "moving_mean_initializer": {"class_name": "Zeros", "config": {}}, "gamma_initializer": {"class_name": "Ones", "config": {}}, "beta_initializer": {"class_name": "Zeros", "config": {}}, "axis": 3, "moving_variance_initializer": {"class_name": "Ones", "config": {}}, "gamma_constraint": null, "name": "batch_normalization_60"}, "class_name": "BatchNormalization", "inbound_nodes": [[["conv2d_60", 0, 0, {}]]], "name": "batch_normalization_60"}, {"config": {"trainable": true, "name": "activation_51", "activation": "relu"}, "class_name": "Activation", "inbound_nodes": [[["batch_normalization_51", 0, 0, {}]]], "name": "activation_51"}, {"config": {"trainable": true, "name": "activation_54", "activation": "relu"}, "class_name": "Activation", "inbound_nodes": [[["batch_normalization_54", 0, 0, {}]]], "name": "activation_54"}, {"config": {"trainable": true, "name": "activation_59", "activation": "relu"}, "class_name": "Activation", "inbound_nodes": [[["batch_normalization_59", 0, 0, {}]]], "name": "activation_59"}, {"config": {"trainable": true, "name": "activation_60", "activation": "relu"}, "class_name": "Activation", "inbound_nodes": [[["batch_normalization_60", 0, 0, {}]]], "name": "activation_60"}, {"config": {"axis": 3, "trainable": true, "name": "mixed6"}, "class_name": "Concatenate", "inbound_nodes": [[["activation_51", 0, 0, {}], ["activation_54", 0, 0, {}], ["activation_59", 0, 0, {}], ["activation_60", 0, 0, {}]]], "name": "mixed6"}, {"config": {"kernel_initializer": {"class_name": "VarianceScaling", "config": {"scale": 1.0, "distribution": "uniform", "mode": "fan_avg", "seed": null}}, "filters": 192, "bias_initializer": {"class_name": "Zeros", "config": {}}, "bias_regularizer": null, "use_bias": false, "data_format": "channels_last", "padding": "same", "kernel_constraint": null, "trainable": true, "activation": "linear", "kernel_size": [1, 1], "bias_constraint": null, "activity_regularizer": null, "kernel_regularizer": null, "strides": [1, 1], "dilation_rate": [1, 1], "name": "conv2d_65"}, "class_name": "Conv2D", "inbound_nodes": [[["mixed6", 0, 0, {}]]], "name": "conv2d_65"}, {"config": {"epsilon": 0.001, "center": true, "gamma_regularizer": null, "beta_regularizer": null, "momentum": 0.99, "trainable": true, "scale": false, "beta_constraint": null, "moving_mean_initializer": {"class_name": "Zeros", "config": {}}, "gamma_initializer": {"class_name": "Ones", "config": {}}, "beta_initializer": {"class_name": "Zeros", "config": {}}, "axis": 3, "moving_variance_initializer": {"class_name": "Ones", "config": {}}, "gamma_constraint": null, "name": "batch_normalization_65"}, "class_name": "BatchNormalization", "inbound_nodes": [[["conv2d_65", 0, 0, {}]]], "name": "batch_normalization_65"}, {"config": {"trainable": true, "name": "activation_65", "activation": "relu"}, "class_name": "Activation", "inbound_nodes": [[["batch_normalization_65", 0, 0, {}]]], "name": "activation_65"}, {"config": {"kernel_initializer": {"class_name": "VarianceScaling", "config": {"scale": 1.0, "distribution": "uniform", "mode": "fan_avg", "seed": null}}, "filters": 192, "bias_initializer": {"class_name": "Zeros", "config": {}}, "bias_regularizer": null, "use_bias": false, "data_format": "channels_last", "padding": "same", "kernel_constraint": null, "trainable": true, "activation": "linear", "kernel_size": [7, 1], "bias_constraint": null, "activity_regularizer": null, "kernel_regularizer": null, "strides": [1, 1], "dilation_rate": [1, 1], "name": "conv2d_66"}, "class_name": "Conv2D", "inbound_nodes": [[["activation_65", 0, 0, {}]]], "name": "conv2d_66"}, {"config": {"epsilon": 0.001, "center": true, "gamma_regularizer": null, "beta_regularizer": null, "momentum": 0.99, "trainable": true, "scale": false, "beta_constraint": null, "moving_mean_initializer": {"class_name": "Zeros", "config": {}}, "gamma_initializer": {"class_name": "Ones", "config": {}}, "beta_initializer": {"class_name": "Zeros", "config": {}}, "axis": 3, "moving_variance_initializer": {"class_name": "Ones", "config": {}}, "gamma_constraint": null, "name": "batch_normalization_66"}, "class_name": "BatchNormalization", "inbound_nodes": [[["conv2d_66", 0, 0, {}]]], "name": "batch_normalization_66"}, {"config": {"trainable": true, "name": "activation_66", "activation": "relu"}, "class_name": "Activation", "inbound_nodes": [[["batch_normalization_66", 0, 0, {}]]], "name": "activation_66"}, {"config": {"kernel_initializer": {"class_name": "VarianceScaling", "config": {"scale": 1.0, "distribution": "uniform", "mode": "fan_avg", "seed": null}}, "filters": 192, "bias_initializer": {"class_name": "Zeros", "config": {}}, "bias_regularizer": null, "use_bias": false, "data_format": "channels_last", "padding": "same", "kernel_constraint": null, "trainable": true, "activation": "linear", "kernel_size": [1, 1], "bias_constraint": null, "activity_regularizer": null, "kernel_regularizer": null, "strides": [1, 1], "dilation_rate": [1, 1], "name": "conv2d_62"}, "class_name": "Conv2D", "inbound_nodes": [[["mixed6", 0, 0, {}]]], "name": "conv2d_62"}, {"config": {"kernel_initializer": {"class_name": "VarianceScaling", "config": {"scale": 1.0, "distribution": "uniform", "mode": "fan_avg", "seed": null}}, "filters": 192, "bias_initializer": {"class_name": "Zeros", "config": {}}, "bias_regularizer": null, "use_bias": false, "data_format": "channels_last", "padding": "same", "kernel_constraint": null, "trainable": true, "activation": "linear", "kernel_size": [1, 7], "bias_constraint": null, "activity_regularizer": null, "kernel_regularizer": null, "strides": [1, 1], "dilation_rate": [1, 1], "name": "conv2d_67"}, "class_name": "Conv2D", "inbound_nodes": [[["activation_66", 0, 0, {}]]], "name": "conv2d_67"}, {"config": {"epsilon": 0.001, "center": true, "gamma_regularizer": null, "beta_regularizer": null, "momentum": 0.99, "trainable": true, "scale": false, "beta_constraint": null, "moving_mean_initializer": {"class_name": "Zeros", "config": {}}, "gamma_initializer": {"class_name": "Ones", "config": {}}, "beta_initializer": {"class_name": "Zeros", "config": {}}, "axis": 3, "moving_variance_initializer": {"class_name": "Ones", "config": {}}, "gamma_constraint": null, "name": "batch_normalization_62"}, "class_name": "BatchNormalization", "inbound_nodes": [[["conv2d_62", 0, 0, {}]]], "name": "batch_normalization_62"}, {"config": {"epsilon": 0.001, "center": true, "gamma_regularizer": null, "beta_regularizer": null, "momentum": 0.99, "trainable": true, "scale": false, "beta_constraint": null, "moving_mean_initializer": {"class_name": "Zeros", "config": {}}, "gamma_initializer": {"class_name": "Ones", "config": {}}, "beta_initializer": {"class_name": "Zeros", "config": {}}, "axis": 3, "moving_variance_initializer": {"class_name": "Ones", "config": {}}, "gamma_constraint": null, "name": "batch_normalization_67"}, "class_name": "BatchNormalization", "inbound_nodes": [[["conv2d_67", 0, 0, {}]]], "name": "batch_normalization_67"}, {"config": {"trainable": true, "name": "activation_62", "activation": "relu"}, "class_name": "Activation", "inbound_nodes": [[["batch_normalization_62", 0, 0, {}]]], "name": "activation_62"}, {"config": {"trainable": true, "name": "activation_67", "activation": "relu"}, "class_name": "Activation", "inbound_nodes": [[["batch_normalization_67", 0, 0, {}]]], "name": "activation_67"}, {"config": {"kernel_initializer": {"class_name": "VarianceScaling", "config": {"scale": 1.0, "distribution": "uniform", "mode": "fan_avg", "seed": null}}, "filters": 192, "bias_initializer": {"class_name": "Zeros", "config": {}}, "bias_regularizer": null, "use_bias": false, "data_format": "channels_last", "padding": "same", "kernel_constraint": null, "trainable": true, "activation": "linear", "kernel_size": [1, 7], "bias_constraint": null, "activity_regularizer": null, "kernel_regularizer": null, "strides": [1, 1], "dilation_rate": [1, 1], "name": "conv2d_63"}, "class_name": "Conv2D", "inbound_nodes": [[["activation_62", 0, 0, {}]]], "name": "conv2d_63"}, {"config": {"kernel_initializer": {"class_name": "VarianceScaling", "config": {"scale": 1.0, "distribution": "uniform", "mode": "fan_avg", "seed": null}}, "filters": 192, "bias_initializer": {"class_name": "Zeros", "config": {}}, "bias_regularizer": null, "use_bias": false, "data_format": "channels_last", "padding": "same", "kernel_constraint": null, "trainable": true, "activation": "linear", "kernel_size": [7, 1], "bias_constraint": null, "activity_regularizer": null, "kernel_regularizer": null, "strides": [1, 1], "dilation_rate": [1, 1], "name": "conv2d_68"}, "class_name": "Conv2D", "inbound_nodes": [[["activation_67", 0, 0, {}]]], "name": "conv2d_68"}, {"config": {"epsilon": 0.001, "center": true, "gamma_regularizer": null, "beta_regularizer": null, "momentum": 0.99, "trainable": true, "scale": false, "beta_constraint": null, "moving_mean_initializer": {"class_name": "Zeros", "config": {}}, "gamma_initializer": {"class_name": "Ones", "config": {}}, "beta_initializer": {"class_name": "Zeros", "config": {}}, "axis": 3, "moving_variance_initializer": {"class_name": "Ones", "config": {}}, "gamma_constraint": null, "name": "batch_normalization_63"}, "class_name": "BatchNormalization", "inbound_nodes": [[["conv2d_63", 0, 0, {}]]], "name": "batch_normalization_63"}, {"config": {"epsilon": 0.001, "center": true, "gamma_regularizer": null, "beta_regularizer": null, "momentum": 0.99, "trainable": true, "scale": false, "beta_constraint": null, "moving_mean_initializer": {"class_name": "Zeros", "config": {}}, "gamma_initializer": {"class_name": "Ones", "config": {}}, "beta_initializer": {"class_name": "Zeros", "config": {}}, "axis": 3, "moving_variance_initializer": {"class_name": "Ones", "config": {}}, "gamma_constraint": null, "name": "batch_normalization_68"}, "class_name": "BatchNormalization", "inbound_nodes": [[["conv2d_68", 0, 0, {}]]], "name": "batch_normalization_68"}, {"config": {"trainable": true, "name": "activation_63", "activation": "relu"}, "class_name": "Activation", "inbound_nodes": [[["batch_normalization_63", 0, 0, {}]]], "name": "activation_63"}, {"config": {"trainable": true, "name": "activation_68", "activation": "relu"}, "class_name": "Activation", "inbound_nodes": [[["batch_normalization_68", 0, 0, {}]]], "name": "activation_68"}, {"config": {"name": "average_pooling2d_7", "pool_size": [3, 3], "data_format": "channels_last", "strides": [1, 1], "padding": "same", "trainable": true}, "class_name": "AveragePooling2D", "inbound_nodes": [[["mixed6", 0, 0, {}]]], "name": "average_pooling2d_7"}, {"config": {"kernel_initializer": {"class_name": "VarianceScaling", "config": {"scale": 1.0, "distribution": "uniform", "mode": "fan_avg", "seed": null}}, "filters": 192, "bias_initializer": {"class_name": "Zeros", "config": {}}, "bias_regularizer": null, "use_bias": false, "data_format": "channels_last", "padding": "same", "kernel_constraint": null, "trainable": true, "activation": "linear", "kernel_size": [1, 1], "bias_constraint": null, "activity_regularizer": null, "kernel_regularizer": null, "strides": [1, 1], "dilation_rate": [1, 1], "name": "conv2d_61"}, "class_name": "Conv2D", "inbound_nodes": [[["mixed6", 0, 0, {}]]], "name": "conv2d_61"}, {"config": {"kernel_initializer": {"class_name": "VarianceScaling", "config": {"scale": 1.0, "distribution": "uniform", "mode": "fan_avg", "seed": null}}, "filters": 192, "bias_initializer": {"class_name": "Zeros", "config": {}}, "bias_regularizer": null, "use_bias": false, "data_format": "channels_last", "padding": "same", "kernel_constraint": null, "trainable": true, "activation": "linear", "kernel_size": [7, 1], "bias_constraint": null, "activity_regularizer": null, "kernel_regularizer": null, "strides": [1, 1], "dilation_rate": [1, 1], "name": "conv2d_64"}, "class_name": "Conv2D", "inbound_nodes": [[["activation_63", 0, 0, {}]]], "name": "conv2d_64"}, {"config": {"kernel_initializer": {"class_name": "VarianceScaling", "config": {"scale": 1.0, "distribution": "uniform", "mode": "fan_avg", "seed": null}}, "filters": 192, "bias_initializer": {"class_name": "Zeros", "config": {}}, "bias_regularizer": null, "use_bias": false, "data_format": "channels_last", "padding": "same", "kernel_constraint": null, "trainable": true, "activation": "linear", "kernel_size": [1, 7], "bias_constraint": null, "activity_regularizer": null, "kernel_regularizer": null, "strides": [1, 1], "dilation_rate": [1, 1], "name": "conv2d_69"}, "class_name": "Conv2D", "inbound_nodes": [[["activation_68", 0, 0, {}]]], "name": "conv2d_69"}, {"config": {"kernel_initializer": {"class_name": "VarianceScaling", "config": {"scale": 1.0, "distribution": "uniform", "mode": "fan_avg", "seed": null}}, "filters": 192, "bias_initializer": {"class_name": "Zeros", "config": {}}, "bias_regularizer": null, "use_bias": false, "data_format": "channels_last", "padding": "same", "kernel_constraint": null, "trainable": true, "activation": "linear", "kernel_size": [1, 1], "bias_constraint": null, "activity_regularizer": null, "kernel_regularizer": null, "strides": [1, 1], "dilation_rate": [1, 1], "name": "conv2d_70"}, "class_name": "Conv2D", "inbound_nodes": [[["average_pooling2d_7", 0, 0, {}]]], "name": "conv2d_70"}, {"config": {"epsilon": 0.001, "center": true, "gamma_regularizer": null, "beta_regularizer": null, "momentum": 0.99, "trainable": true, "scale": false, "beta_constraint": null, "moving_mean_initializer": {"class_name": "Zeros", "config": {}}, "gamma_initializer": {"class_name": "Ones", "config": {}}, "beta_initializer": {"class_name": "Zeros", "config": {}}, "axis": 3, "moving_variance_initializer": {"class_name": "Ones", "config": {}}, "gamma_constraint": null, "name": "batch_normalization_61"}, "class_name": "BatchNormalization", "inbound_nodes": [[["conv2d_61", 0, 0, {}]]], "name": "batch_normalization_61"}, {"config": {"epsilon": 0.001, "center": true, "gamma_regularizer": null, "beta_regularizer": null, "momentum": 0.99, "trainable": true, "scale": false, "beta_constraint": null, "moving_mean_initializer": {"class_name": "Zeros", "config": {}}, "gamma_initializer": {"class_name": "Ones", "config": {}}, "beta_initializer": {"class_name": "Zeros", "config": {}}, "axis": 3, "moving_variance_initializer": {"class_name": "Ones", "config": {}}, "gamma_constraint": null, "name": "batch_normalization_64"}, "class_name": "BatchNormalization", "inbound_nodes": [[["conv2d_64", 0, 0, {}]]], "name": "batch_normalization_64"}, {"config": {"epsilon": 0.001, "center": true, "gamma_regularizer": null, "beta_regularizer": null, "momentum": 0.99, "trainable": true, "scale": false, "beta_constraint": null, "moving_mean_initializer": {"class_name": "Zeros", "config": {}}, "gamma_initializer": {"class_name": "Ones", "config": {}}, "beta_initializer": {"class_name": "Zeros", "config": {}}, "axis": 3, "moving_variance_initializer": {"class_name": "Ones", "config": {}}, "gamma_constraint": null, "name": "batch_normalization_69"}, "class_name": "BatchNormalization", "inbound_nodes": [[["conv2d_69", 0, 0, {}]]], "name": "batch_normalization_69"}, {"config": {"epsilon": 0.001, "center": true, "gamma_regularizer": null, "beta_regularizer": null, "momentum": 0.99, "trainable": true, "scale": false, "beta_constraint": null, "moving_mean_initializer": {"class_name": "Zeros", "config": {}}, "gamma_initializer": {"class_name": "Ones", "config": {}}, "beta_initializer": {"class_name": "Zeros", "config": {}}, "axis": 3, "moving_variance_initializer": {"class_name": "Ones", "config": {}}, "gamma_constraint": null, "name": "batch_normalization_70"}, "class_name": "BatchNormalization", "inbound_nodes": [[["conv2d_70", 0, 0, {}]]], "name": "batch_normalization_70"}, {"config": {"trainable": true, "name": "activation_61", "activation": "relu"}, "class_name": "Activation", "inbound_nodes": [[["batch_normalization_61", 0, 0, {}]]], "name": "activation_61"}, {"config": {"trainable": true, "name": "activation_64", "activation": "relu"}, "class_name": "Activation", "inbound_nodes": [[["batch_normalization_64", 0, 0, {}]]], "name": "activation_64"}, {"config": {"trainable": true, "name": "activation_69", "activation": "relu"}, "class_name": "Activation", "inbound_nodes": [[["batch_normalization_69", 0, 0, {}]]], "name": "activation_69"}, {"config": {"trainable": true, "name": "activation_70", "activation": "relu"}, "class_name": "Activation", "inbound_nodes": [[["batch_normalization_70", 0, 0, {}]]], "name": "activation_70"}, {"config": {"axis": 3, "trainable": true, "name": "mixed7"}, "class_name": "Concatenate", "inbound_nodes": [[["activation_61", 0, 0, {}], ["activation_64", 0, 0, {}], ["activation_69", 0, 0, {}], ["activation_70", 0, 0, {}]]], "name": "mixed7"}, {"config": {"kernel_initializer": {"class_name": "VarianceScaling", "config": {"scale": 1.0, "distribution": "uniform", "mode": "fan_avg", "seed": null}}, "filters": 192, "bias_initializer": {"class_name": "Zeros", "config": {}}, "bias_regularizer": null, "use_bias": false, "data_format": "channels_last", "padding": "same", "kernel_constraint": null, "trainable": true, "activation": "linear", "kernel_size": [1, 1], "bias_constraint": null, "activity_regularizer": null, "kernel_regularizer": null, "strides": [1, 1], "dilation_rate": [1, 1], "name": "conv2d_73"}, "class_name": "Conv2D", "inbound_nodes": [[["mixed7", 0, 0, {}]]], "name": "conv2d_73"}, {"config": {"epsilon": 0.001, "center": true, "gamma_regularizer": null, "beta_regularizer": null, "momentum": 0.99, "trainable": true, "scale": false, "beta_constraint": null, "moving_mean_initializer": {"class_name": "Zeros", "config": {}}, "gamma_initializer": {"class_name": "Ones", "config": {}}, "beta_initializer": {"class_name": "Zeros", "config": {}}, "axis": 3, "moving_variance_initializer": {"class_name": "Ones", "config": {}}, "gamma_constraint": null, "name": "batch_normalization_73"}, "class_name": "BatchNormalization", "inbound_nodes": [[["conv2d_73", 0, 0, {}]]], "name": "batch_normalization_73"}, {"config": {"trainable": true, "name": "activation_73", "activation": "relu"}, "class_name": "Activation", "inbound_nodes": [[["batch_normalization_73", 0, 0, {}]]], "name": "activation_73"}, {"config": {"kernel_initializer": {"class_name": "VarianceScaling", "config": {"scale": 1.0, "distribution": "uniform", "mode": "fan_avg", "seed": null}}, "filters": 192, "bias_initializer": {"class_name": "Zeros", "config": {}}, "bias_regularizer": null, "use_bias": false, "data_format": "channels_last", "padding": "same", "kernel_constraint": null, "trainable": true, "activation": "linear", "kernel_size": [1, 7], "bias_constraint": null, "activity_regularizer": null, "kernel_regularizer": null, "strides": [1, 1], "dilation_rate": [1, 1], "name": "conv2d_74"}, "class_name": "Conv2D", "inbound_nodes": [[["activation_73", 0, 0, {}]]], "name": "conv2d_74"}, {"config": {"epsilon": 0.001, "center": true, "gamma_regularizer": null, "beta_regularizer": null, "momentum": 0.99, "trainable": true, "scale": false, "beta_constraint": null, "moving_mean_initializer": {"class_name": "Zeros", "config": {}}, "gamma_initializer": {"class_name": "Ones", "config": {}}, "beta_initializer": {"class_name": "Zeros", "config": {}}, "axis": 3, "moving_variance_initializer": {"class_name": "Ones", "config": {}}, "gamma_constraint": null, "name": "batch_normalization_74"}, "class_name": "BatchNormalization", "inbound_nodes": [[["conv2d_74", 0, 0, {}]]], "name": "batch_normalization_74"}, {"config": {"trainable": true, "name": "activation_74", "activation": "relu"}, "class_name": "Activation", "inbound_nodes": [[["batch_normalization_74", 0, 0, {}]]], "name": "activation_74"}, {"config": {"kernel_initializer": {"class_name": "VarianceScaling", "config": {"scale": 1.0, "distribution": "uniform", "mode": "fan_avg", "seed": null}}, "filters": 192, "bias_initializer": {"class_name": "Zeros", "config": {}}, "bias_regularizer": null, "use_bias": false, "data_format": "channels_last", "padding": "same", "kernel_constraint": null, "trainable": true, "activation": "linear", "kernel_size": [1, 1], "bias_constraint": null, "activity_regularizer": null, "kernel_regularizer": null, "strides": [1, 1], "dilation_rate": [1, 1], "name": "conv2d_71"}, "class_name": "Conv2D", "inbound_nodes": [[["mixed7", 0, 0, {}]]], "name": "conv2d_71"}, {"config": {"kernel_initializer": {"class_name": "VarianceScaling", "config": {"scale": 1.0, "distribution": "uniform", "mode": "fan_avg", "seed": null}}, "filters": 192, "bias_initializer": {"class_name": "Zeros", "config": {}}, "bias_regularizer": null, "use_bias": false, "data_format": "channels_last", "padding": "same", "kernel_constraint": null, "trainable": true, "activation": "linear", "kernel_size": [7, 1], "bias_constraint": null, "activity_regularizer": null, "kernel_regularizer": null, "strides": [1, 1], "dilation_rate": [1, 1], "name": "conv2d_75"}, "class_name": "Conv2D", "inbound_nodes": [[["activation_74", 0, 0, {}]]], "name": "conv2d_75"}, {"config": {"epsilon": 0.001, "center": true, "gamma_regularizer": null, "beta_regularizer": null, "momentum": 0.99, "trainable": true, "scale": false, "beta_constraint": null, "moving_mean_initializer": {"class_name": "Zeros", "config": {}}, "gamma_initializer": {"class_name": "Ones", "config": {}}, "beta_initializer": {"class_name": "Zeros", "config": {}}, "axis": 3, "moving_variance_initializer": {"class_name": "Ones", "config": {}}, "gamma_constraint": null, "name": "batch_normalization_71"}, "class_name": "BatchNormalization", "inbound_nodes": [[["conv2d_71", 0, 0, {}]]], "name": "batch_normalization_71"}, {"config": {"epsilon": 0.001, "center": true, "gamma_regularizer": null, "beta_regularizer": null, "momentum": 0.99, "trainable": true, "scale": false, "beta_constraint": null, "moving_mean_initializer": {"class_name": "Zeros", "config": {}}, "gamma_initializer": {"class_name": "Ones", "config": {}}, "beta_initializer": {"class_name": "Zeros", "config": {}}, "axis": 3, "moving_variance_initializer": {"class_name": "Ones", "config": {}}, "gamma_constraint": null, "name": "batch_normalization_75"}, "class_name": "BatchNormalization", "inbound_nodes": [[["conv2d_75", 0, 0, {}]]], "name": "batch_normalization_75"}, {"config": {"trainable": true, "name": "activation_71", "activation": "relu"}, "class_name": "Activation", "inbound_nodes": [[["batch_normalization_71", 0, 0, {}]]], "name": "activation_71"}, {"config": {"trainable": true, "name": "activation_75", "activation": "relu"}, "class_name": "Activation", "inbound_nodes": [[["batch_normalization_75", 0, 0, {}]]], "name": "activation_75"}, {"config": {"kernel_initializer": {"class_name": "VarianceScaling", "config": {"scale": 1.0, "distribution": "uniform", "mode": "fan_avg", "seed": null}}, "filters": 320, "bias_initializer": {"class_name": "Zeros", "config": {}}, "bias_regularizer": null, "use_bias": false, "data_format": "channels_last", "padding": "valid", "kernel_constraint": null, "trainable": true, "activation": "linear", "kernel_size": [3, 3], "bias_constraint": null, "activity_regularizer": null, "kernel_regularizer": null, "strides": [2, 2], "dilation_rate": [1, 1], "name": "conv2d_72"}, "class_name": "Conv2D", "inbound_nodes": [[["activation_71", 0, 0, {}]]], "name": "conv2d_72"}, {"config": {"kernel_initializer": {"class_name": "VarianceScaling", "config": {"scale": 1.0, "distribution": "uniform", "mode": "fan_avg", "seed": null}}, "filters": 192, "bias_initializer": {"class_name": "Zeros", "config": {}}, "bias_regularizer": null, "use_bias": false, "data_format": "channels_last", "padding": "valid", "kernel_constraint": null, "trainable": true, "activation": "linear", "kernel_size": [3, 3], "bias_constraint": null, "activity_regularizer": null, "kernel_regularizer": null, "strides": [2, 2], "dilation_rate": [1, 1], "name": "conv2d_76"}, "class_name": "Conv2D", "inbound_nodes": [[["activation_75", 0, 0, {}]]], "name": "conv2d_76"}, {"config": {"epsilon": 0.001, "center": true, "gamma_regularizer": null, "beta_regularizer": null, "momentum": 0.99, "trainable": true, "scale": false, "beta_constraint": null, "moving_mean_initializer": {"class_name": "Zeros", "config": {}}, "gamma_initializer": {"class_name": "Ones", "config": {}}, "beta_initializer": {"class_name": "Zeros", "config": {}}, "axis": 3, "moving_variance_initializer": {"class_name": "Ones", "config": {}}, "gamma_constraint": null, "name": "batch_normalization_72"}, "class_name": "BatchNormalization", "inbound_nodes": [[["conv2d_72", 0, 0, {}]]], "name": "batch_normalization_72"}, {"config": {"epsilon": 0.001, "center": true, "gamma_regularizer": null, "beta_regularizer": null, "momentum": 0.99, "trainable": true, "scale": false, "beta_constraint": null, "moving_mean_initializer": {"class_name": "Zeros", "config": {}}, "gamma_initializer": {"class_name": "Ones", "config": {}}, "beta_initializer": {"class_name": "Zeros", "config": {}}, "axis": 3, "moving_variance_initializer": {"class_name": "Ones", "config": {}}, "gamma_constraint": null, "name": "batch_normalization_76"}, "class_name": "BatchNormalization", "inbound_nodes": [[["conv2d_76", 0, 0, {}]]], "name": "batch_normalization_76"}, {"config": {"trainable": true, "name": "activation_72", "activation": "relu"}, "class_name": "Activation", "inbound_nodes": [[["batch_normalization_72", 0, 0, {}]]], "name": "activation_72"}, {"config": {"trainable": true, "name": "activation_76", "activation": "relu"}, "class_name": "Activation", "inbound_nodes": [[["batch_normalization_76", 0, 0, {}]]], "name": "activation_76"}, {"config": {"name": "max_pooling2d_4", "pool_size": [3, 3], "data_format": "channels_last", "strides": [2, 2], "padding": "valid", "trainable": true}, "class_name": "MaxPooling2D", "inbound_nodes": [[["mixed7", 0, 0, {}]]], "name": "max_pooling2d_4"}, {"config": {"axis": 3, "trainable": true, "name": "mixed8"}, "class_name": "Concatenate", "inbound_nodes": [[["activation_72", 0, 0, {}], ["activation_76", 0, 0, {}], ["max_pooling2d_4", 0, 0, {}]]], "name": "mixed8"}, {"config": {"kernel_initializer": {"class_name": "VarianceScaling", "config": {"scale": 1.0, "distribution": "uniform", "mode": "fan_avg", "seed": null}}, "filters": 448, "bias_initializer": {"class_name": "Zeros", "config": {}}, "bias_regularizer": null, "use_bias": false, "data_format": "channels_last", "padding": "same", "kernel_constraint": null, "trainable": true, "activation": "linear", "kernel_size": [1, 1], "bias_constraint": null, "activity_regularizer": null, "kernel_regularizer": null, "strides": [1, 1], "dilation_rate": [1, 1], "name": "conv2d_81"}, "class_name": "Conv2D", "inbound_nodes": [[["mixed8", 0, 0, {}]]], "name": "conv2d_81"}, {"config": {"epsilon": 0.001, "center": true, "gamma_regularizer": null, "beta_regularizer": null, "momentum": 0.99, "trainable": true, "scale": false, "beta_constraint": null, "moving_mean_initializer": {"class_name": "Zeros", "config": {}}, "gamma_initializer": {"class_name": "Ones", "config": {}}, "beta_initializer": {"class_name": "Zeros", "config": {}}, "axis": 3, "moving_variance_initializer": {"class_name": "Ones", "config": {}}, "gamma_constraint": null, "name": "batch_normalization_81"}, "class_name": "BatchNormalization", "inbound_nodes": [[["conv2d_81", 0, 0, {}]]], "name": "batch_normalization_81"}, {"config": {"trainable": true, "name": "activation_81", "activation": "relu"}, "class_name": "Activation", "inbound_nodes": [[["batch_normalization_81", 0, 0, {}]]], "name": "activation_81"}, {"config": {"kernel_initializer": {"class_name": "VarianceScaling", "config": {"scale": 1.0, "distribution": "uniform", "mode": "fan_avg", "seed": null}}, "filters": 384, "bias_initializer": {"class_name": "Zeros", "config": {}}, "bias_regularizer": null, "use_bias": false, "data_format": "channels_last", "padding": "same", "kernel_constraint": null, "trainable": true, "activation": "linear", "kernel_size": [1, 1], "bias_constraint": null, "activity_regularizer": null, "kernel_regularizer": null, "strides": [1, 1], "dilation_rate": [1, 1], "name": "conv2d_78"}, "class_name": "Conv2D", "inbound_nodes": [[["mixed8", 0, 0, {}]]], "name": "conv2d_78"}, {"config": {"kernel_initializer": {"class_name": "VarianceScaling", "config": {"scale": 1.0, "distribution": "uniform", "mode": "fan_avg", "seed": null}}, "filters": 384, "bias_initializer": {"class_name": "Zeros", "config": {}}, "bias_regularizer": null, "use_bias": false, "data_format": "channels_last", "padding": "same", "kernel_constraint": null, "trainable": true, "activation": "linear", "kernel_size": [3, 3], "bias_constraint": null, "activity_regularizer": null, "kernel_regularizer": null, "strides": [1, 1], "dilation_rate": [1, 1], "name": "conv2d_82"}, "class_name": "Conv2D", "inbound_nodes": [[["activation_81", 0, 0, {}]]], "name": "conv2d_82"}, {"config": {"epsilon": 0.001, "center": true, "gamma_regularizer": null, "beta_regularizer": null, "momentum": 0.99, "trainable": true, "scale": false, "beta_constraint": null, "moving_mean_initializer": {"class_name": "Zeros", "config": {}}, "gamma_initializer": {"class_name": "Ones", "config": {}}, "beta_initializer": {"class_name": "Zeros", "config": {}}, "axis": 3, "moving_variance_initializer": {"class_name": "Ones", "config": {}}, "gamma_constraint": null, "name": "batch_normalization_78"}, "class_name": "BatchNormalization", "inbound_nodes": [[["conv2d_78", 0, 0, {}]]], "name": "batch_normalization_78"}, {"config": {"epsilon": 0.001, "center": true, "gamma_regularizer": null, "beta_regularizer": null, "momentum": 0.99, "trainable": true, "scale": false, "beta_constraint": null, "moving_mean_initializer": {"class_name": "Zeros", "config": {}}, "gamma_initializer": {"class_name": "Ones", "config": {}}, "beta_initializer": {"class_name": "Zeros", "config": {}}, "axis": 3, "moving_variance_initializer": {"class_name": "Ones", "config": {}}, "gamma_constraint": null, "name": "batch_normalization_82"}, "class_name": "BatchNormalization", "inbound_nodes": [[["conv2d_82", 0, 0, {}]]], "name": "batch_normalization_82"}, {"config": {"trainable": true, "name": "activation_78", "activation": "relu"}, "class_name": "Activation", "inbound_nodes": [[["batch_normalization_78", 0, 0, {}]]], "name": "activation_78"}, {"config": {"trainable": true, "name": "activation_82", "activation": "relu"}, "class_name": "Activation", "inbound_nodes": [[["batch_normalization_82", 0, 0, {}]]], "name": "activation_82"}, {"config": {"kernel_initializer": {"class_name": "VarianceScaling", "config": {"scale": 1.0, "distribution": "uniform", "mode": "fan_avg", "seed": null}}, "filters": 384, "bias_initializer": {"class_name": "Zeros", "config": {}}, "bias_regularizer": null, "use_bias": false, "data_format": "channels_last", "padding": "same", "kernel_constraint": null, "trainable": true, "activation": "linear", "kernel_size": [1, 3], "bias_constraint": null, "activity_regularizer": null, "kernel_regularizer": null, "strides": [1, 1], "dilation_rate": [1, 1], "name": "conv2d_79"}, "class_name": "Conv2D", "inbound_nodes": [[["activation_78", 0, 0, {}]]], "name": "conv2d_79"}, {"config": {"kernel_initializer": {"class_name": "VarianceScaling", "config": {"scale": 1.0, "distribution": "uniform", "mode": "fan_avg", "seed": null}}, "filters": 384, "bias_initializer": {"class_name": "Zeros", "config": {}}, "bias_regularizer": null, "use_bias": false, "data_format": "channels_last", "padding": "same", "kernel_constraint": null, "trainable": true, "activation": "linear", "kernel_size": [3, 1], "bias_constraint": null, "activity_regularizer": null, "kernel_regularizer": null, "strides": [1, 1], "dilation_rate": [1, 1], "name": "conv2d_80"}, "class_name": "Conv2D", "inbound_nodes": [[["activation_78", 0, 0, {}]]], "name": "conv2d_80"}, {"config": {"kernel_initializer": {"class_name": "VarianceScaling", "config": {"scale": 1.0, "distribution": "uniform", "mode": "fan_avg", "seed": null}}, "filters": 384, "bias_initializer": {"class_name": "Zeros", "config": {}}, "bias_regularizer": null, "use_bias": false, "data_format": "channels_last", "padding": "same", "kernel_constraint": null, "trainable": true, "activation": "linear", "kernel_size": [1, 3], "bias_constraint": null, "activity_regularizer": null, "kernel_regularizer": null, "strides": [1, 1], "dilation_rate": [1, 1], "name": "conv2d_83"}, "class_name": "Conv2D", "inbound_nodes": [[["activation_82", 0, 0, {}]]], "name": "conv2d_83"}, {"config": {"kernel_initializer": {"class_name": "VarianceScaling", "config": {"scale": 1.0, "distribution": "uniform", "mode": "fan_avg", "seed": null}}, "filters": 384, "bias_initializer": {"class_name": "Zeros", "config": {}}, "bias_regularizer": null, "use_bias": false, "data_format": "channels_last", "padding": "same", "kernel_constraint": null, "trainable": true, "activation": "linear", "kernel_size": [3, 1], "bias_constraint": null, "activity_regularizer": null, "kernel_regularizer": null, "strides": [1, 1], "dilation_rate": [1, 1], "name": "conv2d_84"}, "class_name": "Conv2D", "inbound_nodes": [[["activation_82", 0, 0, {}]]], "name": "conv2d_84"}, {"config": {"name": "average_pooling2d_8", "pool_size": [3, 3], "data_format": "channels_last", "strides": [1, 1], "padding": "same", "trainable": true}, "class_name": "AveragePooling2D", "inbound_nodes": [[["mixed8", 0, 0, {}]]], "name": "average_pooling2d_8"}, {"config": {"kernel_initializer": {"class_name": "VarianceScaling", "config": {"scale": 1.0, "distribution": "uniform", "mode": "fan_avg", "seed": null}}, "filters": 320, "bias_initializer": {"class_name": "Zeros", "config": {}}, "bias_regularizer": null, "use_bias": false, "data_format": "channels_last", "padding": "same", "kernel_constraint": null, "trainable": true, "activation": "linear", "kernel_size": [1, 1], "bias_constraint": null, "activity_regularizer": null, "kernel_regularizer": null, "strides": [1, 1], "dilation_rate": [1, 1], "name": "conv2d_77"}, "class_name": "Conv2D", "inbound_nodes": [[["mixed8", 0, 0, {}]]], "name": "conv2d_77"}, {"config": {"epsilon": 0.001, "center": true, "gamma_regularizer": null, "beta_regularizer": null, "momentum": 0.99, "trainable": true, "scale": false, "beta_constraint": null, "moving_mean_initializer": {"class_name": "Zeros", "config": {}}, "gamma_initializer": {"class_name": "Ones", "config": {}}, "beta_initializer": {"class_name": "Zeros", "config": {}}, "axis": 3, "moving_variance_initializer": {"class_name": "Ones", "config": {}}, "gamma_constraint": null, "name": "batch_normalization_79"}, "class_name": "BatchNormalization", "inbound_nodes": [[["conv2d_79", 0, 0, {}]]], "name": "batch_normalization_79"}, {"config": {"epsilon": 0.001, "center": true, "gamma_regularizer": null, "beta_regularizer": null, "momentum": 0.99, "trainable": true, "scale": false, "beta_constraint": null, "moving_mean_initializer": {"class_name": "Zeros", "config": {}}, "gamma_initializer": {"class_name": "Ones", "config": {}}, "beta_initializer": {"class_name": "Zeros", "config": {}}, "axis": 3, "moving_variance_initializer": {"class_name": "Ones", "config": {}}, "gamma_constraint": null, "name": "batch_normalization_80"}, "class_name": "BatchNormalization", "inbound_nodes": [[["conv2d_80", 0, 0, {}]]], "name": "batch_normalization_80"}, {"config": {"epsilon": 0.001, "center": true, "gamma_regularizer": null, "beta_regularizer": null, "momentum": 0.99, "trainable": true, "scale": false, "beta_constraint": null, "moving_mean_initializer": {"class_name": "Zeros", "config": {}}, "gamma_initializer": {"class_name": "Ones", "config": {}}, "beta_initializer": {"class_name": "Zeros", "config": {}}, "axis": 3, "moving_variance_initializer": {"class_name": "Ones", "config": {}}, "gamma_constraint": null, "name": "batch_normalization_83"}, "class_name": "BatchNormalization", "inbound_nodes": [[["conv2d_83", 0, 0, {}]]], "name": "batch_normalization_83"}, {"config": {"epsilon": 0.001, "center": true, "gamma_regularizer": null, "beta_regularizer": null, "momentum": 0.99, "trainable": true, "scale": false, "beta_constraint": null, "moving_mean_initializer": {"class_name": "Zeros", "config": {}}, "gamma_initializer": {"class_name": "Ones", "config": {}}, "beta_initializer": {"class_name": "Zeros", "config": {}}, "axis": 3, "moving_variance_initializer": {"class_name": "Ones", "config": {}}, "gamma_constraint": null, "name": "batch_normalization_84"}, "class_name": "BatchNormalization", "inbound_nodes": [[["conv2d_84", 0, 0, {}]]], "name": "batch_normalization_84"}, {"config": {"kernel_initializer": {"class_name": "VarianceScaling", "config": {"scale": 1.0, "distribution": "uniform", "mode": "fan_avg", "seed": null}}, "filters": 192, "bias_initializer": {"class_name": "Zeros", "config": {}}, "bias_regularizer": null, "use_bias": false, "data_format": "channels_last", "padding": "same", "kernel_constraint": null, "trainable": true, "activation": "linear", "kernel_size": [1, 1], "bias_constraint": null, "activity_regularizer": null, "kernel_regularizer": null, "strides": [1, 1], "dilation_rate": [1, 1], "name": "conv2d_85"}, "class_name": "Conv2D", "inbound_nodes": [[["average_pooling2d_8", 0, 0, {}]]], "name": "conv2d_85"}, {"config": {"epsilon": 0.001, "center": true, "gamma_regularizer": null, "beta_regularizer": null, "momentum": 0.99, "trainable": true, "scale": false, "beta_constraint": null, "moving_mean_initializer": {"class_name": "Zeros", "config": {}}, "gamma_initializer": {"class_name": "Ones", "config": {}}, "beta_initializer": {"class_name": "Zeros", "config": {}}, "axis": 3, "moving_variance_initializer": {"class_name": "Ones", "config": {}}, "gamma_constraint": null, "name": "batch_normalization_77"}, "class_name": "BatchNormalization", "inbound_nodes": [[["conv2d_77", 0, 0, {}]]], "name": "batch_normalization_77"}, {"config": {"trainable": true, "name": "activation_79", "activation": "relu"}, "class_name": "Activation", "inbound_nodes": [[["batch_normalization_79", 0, 0, {}]]], "name": "activation_79"}, {"config": {"trainable": true, "name": "activation_80", "activation": "relu"}, "class_name": "Activation", "inbound_nodes": [[["batch_normalization_80", 0, 0, {}]]], "name": "activation_80"}, {"config": {"trainable": true, "name": "activation_83", "activation": "relu"}, "class_name": "Activation", "inbound_nodes": [[["batch_normalization_83", 0, 0, {}]]], "name": "activation_83"}, {"config": {"trainable": true, "name": "activation_84", "activation": "relu"}, "class_name": "Activation", "inbound_nodes": [[["batch_normalization_84", 0, 0, {}]]], "name": "activation_84"}, {"config": {"epsilon": 0.001, "center": true, "gamma_regularizer": null, "beta_regularizer": null, "momentum": 0.99, "trainable": true, "scale": false, "beta_constraint": null, "moving_mean_initializer": {"class_name": "Zeros", "config": {}}, "gamma_initializer": {"class_name": "Ones", "config": {}}, "beta_initializer": {"class_name": "Zeros", "config": {}}, "axis": 3, "moving_variance_initializer": {"class_name": "Ones", "config": {}}, "gamma_constraint": null, "name": "batch_normalization_85"}, "class_name": "BatchNormalization", "inbound_nodes": [[["conv2d_85", 0, 0, {}]]], "name": "batch_normalization_85"}, {"config": {"trainable": true, "name": "activation_77", "activation": "relu"}, "class_name": "Activation", "inbound_nodes": [[["batch_normalization_77", 0, 0, {}]]], "name": "activation_77"}, {"config": {"axis": 3, "trainable": true, "name": "mixed9_0"}, "class_name": "Concatenate", "inbound_nodes": [[["activation_79", 0, 0, {}], ["activation_80", 0, 0, {}]]], "name": "mixed9_0"}, {"config": {"axis": 3, "trainable": true, "name": "concatenate_1"}, "class_name": "Concatenate", "inbound_nodes": [[["activation_83", 0, 0, {}], ["activation_84", 0, 0, {}]]], "name": "concatenate_1"}, {"config": {"trainable": true, "name": "activation_85", "activation": "relu"}, "class_name": "Activation", "inbound_nodes": [[["batch_normalization_85", 0, 0, {}]]], "name": "activation_85"}, {"config": {"axis": 3, "trainable": true, "name": "mixed9"}, "class_name": "Concatenate", "inbound_nodes": [[["activation_77", 0, 0, {}], ["mixed9_0", 0, 0, {}], ["concatenate_1", 0, 0, {}], ["activation_85", 0, 0, {}]]], "name": "mixed9"}, {"config": {"kernel_initializer": {"class_name": "VarianceScaling", "config": {"scale": 1.0, "distribution": "uniform", "mode": "fan_avg", "seed": null}}, "filters": 448, "bias_initializer": {"class_name": "Zeros", "config": {}}, "bias_regularizer": null, "use_bias": false, "data_format": "channels_last", "padding": "same", "kernel_constraint": null, "trainable": true, "activation": "linear", "kernel_size": [1, 1], "bias_constraint": null, "activity_regularizer": null, "kernel_regularizer": null, "strides": [1, 1], "dilation_rate": [1, 1], "name": "conv2d_90"}, "class_name": "Conv2D", "inbound_nodes": [[["mixed9", 0, 0, {}]]], "name": "conv2d_90"}, {"config": {"epsilon": 0.001, "center": true, "gamma_regularizer": null, "beta_regularizer": null, "momentum": 0.99, "trainable": true, "scale": false, "beta_constraint": null, "moving_mean_initializer": {"class_name": "Zeros", "config": {}}, "gamma_initializer": {"class_name": "Ones", "config": {}}, "beta_initializer": {"class_name": "Zeros", "config": {}}, "axis": 3, "moving_variance_initializer": {"class_name": "Ones", "config": {}}, "gamma_constraint": null, "name": "batch_normalization_90"}, "class_name": "BatchNormalization", "inbound_nodes": [[["conv2d_90", 0, 0, {}]]], "name": "batch_normalization_90"}, {"config": {"trainable": true, "name": "activation_90", "activation": "relu"}, "class_name": "Activation", "inbound_nodes": [[["batch_normalization_90", 0, 0, {}]]], "name": "activation_90"}, {"config": {"kernel_initializer": {"class_name": "VarianceScaling", "config": {"scale": 1.0, "distribution": "uniform", "mode": "fan_avg", "seed": null}}, "filters": 384, "bias_initializer": {"class_name": "Zeros", "config": {}}, "bias_regularizer": null, "use_bias": false, "data_format": "channels_last", "padding": "same", "kernel_constraint": null, "trainable": true, "activation": "linear", "kernel_size": [1, 1], "bias_constraint": null, "activity_regularizer": null, "kernel_regularizer": null, "strides": [1, 1], "dilation_rate": [1, 1], "name": "conv2d_87"}, "class_name": "Conv2D", "inbound_nodes": [[["mixed9", 0, 0, {}]]], "name": "conv2d_87"}, {"config": {"kernel_initializer": {"class_name": "VarianceScaling", "config": {"scale": 1.0, "distribution": "uniform", "mode": "fan_avg", "seed": null}}, "filters": 384, "bias_initializer": {"class_name": "Zeros", "config": {}}, "bias_regularizer": null, "use_bias": false, "data_format": "channels_last", "padding": "same", "kernel_constraint": null, "trainable": true, "activation": "linear", "kernel_size": [3, 3], "bias_constraint": null, "activity_regularizer": null, "kernel_regularizer": null, "strides": [1, 1], "dilation_rate": [1, 1], "name": "conv2d_91"}, "class_name": "Conv2D", "inbound_nodes": [[["activation_90", 0, 0, {}]]], "name": "conv2d_91"}, {"config": {"epsilon": 0.001, "center": true, "gamma_regularizer": null, "beta_regularizer": null, "momentum": 0.99, "trainable": true, "scale": false, "beta_constraint": null, "moving_mean_initializer": {"class_name": "Zeros", "config": {}}, "gamma_initializer": {"class_name": "Ones", "config": {}}, "beta_initializer": {"class_name": "Zeros", "config": {}}, "axis": 3, "moving_variance_initializer": {"class_name": "Ones", "config": {}}, "gamma_constraint": null, "name": "batch_normalization_87"}, "class_name": "BatchNormalization", "inbound_nodes": [[["conv2d_87", 0, 0, {}]]], "name": "batch_normalization_87"}, {"config": {"epsilon": 0.001, "center": true, "gamma_regularizer": null, "beta_regularizer": null, "momentum": 0.99, "trainable": true, "scale": false, "beta_constraint": null, "moving_mean_initializer": {"class_name": "Zeros", "config": {}}, "gamma_initializer": {"class_name": "Ones", "config": {}}, "beta_initializer": {"class_name": "Zeros", "config": {}}, "axis": 3, "moving_variance_initializer": {"class_name": "Ones", "config": {}}, "gamma_constraint": null, "name": "batch_normalization_91"}, "class_name": "BatchNormalization", "inbound_nodes": [[["conv2d_91", 0, 0, {}]]], "name": "batch_normalization_91"}, {"config": {"trainable": true, "name": "activation_87", "activation": "relu"}, "class_name": "Activation", "inbound_nodes": [[["batch_normalization_87", 0, 0, {}]]], "name": "activation_87"}, {"config": {"trainable": true, "name": "activation_91", "activation": "relu"}, "class_name": "Activation", "inbound_nodes": [[["batch_normalization_91", 0, 0, {}]]], "name": "activation_91"}, {"config": {"kernel_initializer": {"class_name": "VarianceScaling", "config": {"scale": 1.0, "distribution": "uniform", "mode": "fan_avg", "seed": null}}, "filters": 384, "bias_initializer": {"class_name": "Zeros", "config": {}}, "bias_regularizer": null, "use_bias": false, "data_format": "channels_last", "padding": "same", "kernel_constraint": null, "trainable": true, "activation": "linear", "kernel_size": [1, 3], "bias_constraint": null, "activity_regularizer": null, "kernel_regularizer": null, "strides": [1, 1], "dilation_rate": [1, 1], "name": "conv2d_88"}, "class_name": "Conv2D", "inbound_nodes": [[["activation_87", 0, 0, {}]]], "name": "conv2d_88"}, {"config": {"kernel_initializer": {"class_name": "VarianceScaling", "config": {"scale": 1.0, "distribution": "uniform", "mode": "fan_avg", "seed": null}}, "filters": 384, "bias_initializer": {"class_name": "Zeros", "config": {}}, "bias_regularizer": null, "use_bias": false, "data_format": "channels_last", "padding": "same", "kernel_constraint": null, "trainable": true, "activation": "linear", "kernel_size": [3, 1], "bias_constraint": null, "activity_regularizer": null, "kernel_regularizer": null, "strides": [1, 1], "dilation_rate": [1, 1], "name": "conv2d_89"}, "class_name": "Conv2D", "inbound_nodes": [[["activation_87", 0, 0, {}]]], "name": "conv2d_89"}, {"config": {"kernel_initializer": {"class_name": "VarianceScaling", "config": {"scale": 1.0, "distribution": "uniform", "mode": "fan_avg", "seed": null}}, "filters": 384, "bias_initializer": {"class_name": "Zeros", "config": {}}, "bias_regularizer": null, "use_bias": false, "data_format": "channels_last", "padding": "same", "kernel_constraint": null, "trainable": true, "activation": "linear", "kernel_size": [1, 3], "bias_constraint": null, "activity_regularizer": null, "kernel_regularizer": null, "strides": [1, 1], "dilation_rate": [1, 1], "name": "conv2d_92"}, "class_name": "Conv2D", "inbound_nodes": [[["activation_91", 0, 0, {}]]], "name": "conv2d_92"}, {"config": {"kernel_initializer": {"class_name": "VarianceScaling", "config": {"scale": 1.0, "distribution": "uniform", "mode": "fan_avg", "seed": null}}, "filters": 384, "bias_initializer": {"class_name": "Zeros", "config": {}}, "bias_regularizer": null, "use_bias": false, "data_format": "channels_last", "padding": "same", "kernel_constraint": null, "trainable": true, "activation": "linear", "kernel_size": [3, 1], "bias_constraint": null, "activity_regularizer": null, "kernel_regularizer": null, "strides": [1, 1], "dilation_rate": [1, 1], "name": "conv2d_93"}, "class_name": "Conv2D", "inbound_nodes": [[["activation_91", 0, 0, {}]]], "name": "conv2d_93"}, {"config": {"name": "average_pooling2d_9", "pool_size": [3, 3], "data_format": "channels_last", "strides": [1, 1], "padding": "same", "trainable": true}, "class_name": "AveragePooling2D", "inbound_nodes": [[["mixed9", 0, 0, {}]]], "name": "average_pooling2d_9"}, {"config": {"kernel_initializer": {"class_name": "VarianceScaling", "config": {"scale": 1.0, "distribution": "uniform", "mode": "fan_avg", "seed": null}}, "filters": 320, "bias_initializer": {"class_name": "Zeros", "config": {}}, "bias_regularizer": null, "use_bias": false, "data_format": "channels_last", "padding": "same", "kernel_constraint": null, "trainable": true, "activation": "linear", "kernel_size": [1, 1], "bias_constraint": null, "activity_regularizer": null, "kernel_regularizer": null, "strides": [1, 1], "dilation_rate": [1, 1], "name": "conv2d_86"}, "class_name": "Conv2D", "inbound_nodes": [[["mixed9", 0, 0, {}]]], "name": "conv2d_86"}, {"config": {"epsilon": 0.001, "center": true, "gamma_regularizer": null, "beta_regularizer": null, "momentum": 0.99, "trainable": true, "scale": false, "beta_constraint": null, "moving_mean_initializer": {"class_name": "Zeros", "config": {}}, "gamma_initializer": {"class_name": "Ones", "config": {}}, "beta_initializer": {"class_name": "Zeros", "config": {}}, "axis": 3, "moving_variance_initializer": {"class_name": "Ones", "config": {}}, "gamma_constraint": null, "name": "batch_normalization_88"}, "class_name": "BatchNormalization", "inbound_nodes": [[["conv2d_88", 0, 0, {}]]], "name": "batch_normalization_88"}, {"config": {"epsilon": 0.001, "center": true, "gamma_regularizer": null, "beta_regularizer": null, "momentum": 0.99, "trainable": true, "scale": false, "beta_constraint": null, "moving_mean_initializer": {"class_name": "Zeros", "config": {}}, "gamma_initializer": {"class_name": "Ones", "config": {}}, "beta_initializer": {"class_name": "Zeros", "config": {}}, "axis": 3, "moving_variance_initializer": {"class_name": "Ones", "config": {}}, "gamma_constraint": null, "name": "batch_normalization_89"}, "class_name": "BatchNormalization", "inbound_nodes": [[["conv2d_89", 0, 0, {}]]], "name": "batch_normalization_89"}, {"config": {"epsilon": 0.001, "center": true, "gamma_regularizer": null, "beta_regularizer": null, "momentum": 0.99, "trainable": true, "scale": false, "beta_constraint": null, "moving_mean_initializer": {"class_name": "Zeros", "config": {}}, "gamma_initializer": {"class_name": "Ones", "config": {}}, "beta_initializer": {"class_name": "Zeros", "config": {}}, "axis": 3, "moving_variance_initializer": {"class_name": "Ones", "config": {}}, "gamma_constraint": null, "name": "batch_normalization_92"}, "class_name": "BatchNormalization", "inbound_nodes": [[["conv2d_92", 0, 0, {}]]], "name": "batch_normalization_92"}, {"config": {"epsilon": 0.001, "center": true, "gamma_regularizer": null, "beta_regularizer": null, "momentum": 0.99, "trainable": true, "scale": false, "beta_constraint": null, "moving_mean_initializer": {"class_name": "Zeros", "config": {}}, "gamma_initializer": {"class_name": "Ones", "config": {}}, "beta_initializer": {"class_name": "Zeros", "config": {}}, "axis": 3, "moving_variance_initializer": {"class_name": "Ones", "config": {}}, "gamma_constraint": null, "name": "batch_normalization_93"}, "class_name": "BatchNormalization", "inbound_nodes": [[["conv2d_93", 0, 0, {}]]], "name": "batch_normalization_93"}, {"config": {"kernel_initializer": {"class_name": "VarianceScaling", "config": {"scale": 1.0, "distribution": "uniform", "mode": "fan_avg", "seed": null}}, "filters": 192, "bias_initializer": {"class_name": "Zeros", "config": {}}, "bias_regularizer": null, "use_bias": false, "data_format": "channels_last", "padding": "same", "kernel_constraint": null, "trainable": true, "activation": "linear", "kernel_size": [1, 1], "bias_constraint": null, "activity_regularizer": null, "kernel_regularizer": null, "strides": [1, 1], "dilation_rate": [1, 1], "name": "conv2d_94"}, "class_name": "Conv2D", "inbound_nodes": [[["average_pooling2d_9", 0, 0, {}]]], "name": "conv2d_94"}, {"config": {"epsilon": 0.001, "center": true, "gamma_regularizer": null, "beta_regularizer": null, "momentum": 0.99, "trainable": true, "scale": false, "beta_constraint": null, "moving_mean_initializer": {"class_name": "Zeros", "config": {}}, "gamma_initializer": {"class_name": "Ones", "config": {}}, "beta_initializer": {"class_name": "Zeros", "config": {}}, "axis": 3, "moving_variance_initializer": {"class_name": "Ones", "config": {}}, "gamma_constraint": null, "name": "batch_normalization_86"}, "class_name": "BatchNormalization", "inbound_nodes": [[["conv2d_86", 0, 0, {}]]], "name": "batch_normalization_86"}, {"config": {"trainable": true, "name": "activation_88", "activation": "relu"}, "class_name": "Activation", "inbound_nodes": [[["batch_normalization_88", 0, 0, {}]]], "name": "activation_88"}, {"config": {"trainable": true, "name": "activation_89", "activation": "relu"}, "class_name": "Activation", "inbound_nodes": [[["batch_normalization_89", 0, 0, {}]]], "name": "activation_89"}, {"config": {"trainable": true, "name": "activation_92", "activation": "relu"}, "class_name": "Activation", "inbound_nodes": [[["batch_normalization_92", 0, 0, {}]]], "name": "activation_92"}, {"config": {"trainable": true, "name": "activation_93", "activation": "relu"}, "class_name": "Activation", "inbound_nodes": [[["batch_normalization_93", 0, 0, {}]]], "name": "activation_93"}, {"config": {"epsilon": 0.001, "center": true, "gamma_regularizer": null, "beta_regularizer": null, "momentum": 0.99, "trainable": true, "scale": false, "beta_constraint": null, "moving_mean_initializer": {"class_name": "Zeros", "config": {}}, "gamma_initializer": {"class_name": "Ones", "config": {}}, "beta_initializer": {"class_name": "Zeros", "config": {}}, "axis": 3, "moving_variance_initializer": {"class_name": "Ones", "config": {}}, "gamma_constraint": null, "name": "batch_normalization_94"}, "class_name": "BatchNormalization", "inbound_nodes": [[["conv2d_94", 0, 0, {}]]], "name": "batch_normalization_94"}, {"config": {"trainable": true, "name": "activation_86", "activation": "relu"}, "class_name": "Activation", "inbound_nodes": [[["batch_normalization_86", 0, 0, {}]]], "name": "activation_86"}, {"config": {"axis": 3, "trainable": true, "name": "mixed9_1"}, "class_name": "Concatenate", "inbound_nodes": [[["activation_88", 0, 0, {}], ["activation_89", 0, 0, {}]]], "name": "mixed9_1"}, {"config": {"axis": 3, "trainable": true, "name": "concatenate_2"}, "class_name": "Concatenate", "inbound_nodes": [[["activation_92", 0, 0, {}], ["activation_93", 0, 0, {}]]], "name": "concatenate_2"}, {"config": {"trainable": true, "name": "activation_94", "activation": "relu"}, "class_name": "Activation", "inbound_nodes": [[["batch_normalization_94", 0, 0, {}]]], "name": "activation_94"}, {"config": {"axis": 3, "trainable": true, "name": "mixed10"}, "class_name": "Concatenate", "inbound_nodes": [[["activation_86", 0, 0, {}], ["mixed9_1", 0, 0, {}], ["concatenate_2", 0, 0, {}], ["activation_94", 0, 0, {}]]], "name": "mixed10"}, {"config": {"data_format": "channels_last", "trainable": true, "name": "global_average_pooling2d_1"}, "class_name": "GlobalAveragePooling2D", "inbound_nodes": [[["mixed10", 0, 0, {}]]], "name": "global_average_pooling2d_1"}, {"config": {"kernel_initializer": {"class_name": "VarianceScaling", "config": {"scale": 1.0, "distribution": "uniform", "mode": "fan_avg", "seed": null}}, "bias_initializer": {"class_name": "Zeros", "config": {}}, "use_bias": true, "activity_regularizer": null, "kernel_constraint": null, "trainable": true, "bias_regularizer": null, "bias_constraint": null, "units": 256, "kernel_regularizer": null, "activation": "relu", "name": "dense_1"}, "class_name": "Dense", "inbound_nodes": [[["global_average_pooling2d_1", 0, 0, {}]]], "name": "dense_1"}, {"config": {"seed": null, "noise_shape": null, "trainable": true, "name": "dropout_1", "rate": 0.5}, "class_name": "Dropout", "inbound_nodes": [[["dense_1", 0, 0, {}]]], "name": "dropout_1"}, {"config": {"kernel_initializer": {"class_name": "VarianceScaling", "config": {"scale": 1.0, "distribution": "uniform", "mode": "fan_avg", "seed": null}}, "bias_initializer": {"class_name": "Zeros", "config": {}}, "use_bias": true, "activity_regularizer": null, "kernel_constraint": null, "trainable": true, "bias_regularizer": null, "bias_constraint": null, "units": 1, "kernel_regularizer": null, "activation": "sigmoid", "name": "dense_2"}, "class_name": "Dense", "inbound_nodes": [[["dropout_1", 0, 0, {}]]], "name": "dense_2"}], "input_layers": [["input_1", 0, 0]], "name": "model_1", "output_layers": [["dense_2", 0, 0]]}, "keras_version": "2.0.9"}