{"keras_version": "2.1.1", "backend": "tensorflow", "config": {"name": "model_1", "layers": [{"name": "input_1", "config": {"name": "input_1", "batch_input_shape": [null, null, null, 3], "dtype": "float32", "sparse": false}, "class_name": "InputLayer", "inbound_nodes": []}, {"name": "conv2d_1", "config": {"dilation_rate": [1, 1], "padding": "valid", "kernel_regularizer": null, "name": "conv2d_1", "bias_regularizer": null, "activation": "linear", "bias_constraint": null, "bias_initializer": {"config": {}, "class_name": "Zeros"}, "data_format": "channels_last", "filters": 32, "strides": [2, 2], "trainable": false, "use_bias": false, "kernel_constraint": null, "activity_regularizer": null, "kernel_initializer": {"config": {"scale": 1.0, "distribution": "uniform", "seed": null, "mode": "fan_avg"}, "class_name": "VarianceScaling"}, "kernel_size": [3, 3]}, "class_name": "Conv2D", "inbound_nodes": [[["input_1", 0, 0, {}]]]}, {"name": "batch_normalization_1", "config": {"gamma_constraint": null, "scale": false, "epsilon": 0.001, "name": "batch_normalization_1", "beta_initializer": {"config": {}, "class_name": "Zeros"}, "momentum": 0.99, "gamma_initializer": {"config": {}, "class_name": "Ones"}, "beta_constraint": null, "center": true, "gamma_regularizer": null, "moving_mean_initializer": {"config": {}, "class_name": "Zeros"}, "trainable": false, "beta_regularizer": null, "moving_variance_initializer": {"config": {}, "class_name": "Ones"}, "axis": 3}, "class_name": "BatchNormalization", "inbound_nodes": [[["conv2d_1", 0, 0, {}]]]}, {"name": "activation_1", "config": {"name": "activation_1", "trainable": false, "activation": "relu"}, "class_name": "Activation", "inbound_nodes": [[["batch_normalization_1", 0, 0, {}]]]}, {"name": "conv2d_2", "config": {"dilation_rate": [1, 1], "padding": "valid", "kernel_regularizer": null, "name": "conv2d_2", "bias_regularizer": null, "activation": "linear", "bias_constraint": null, "bias_initializer": {"config": {}, "class_name": "Zeros"}, "data_format": "channels_last", "filters": 32, "strides": [1, 1], "trainable": false, "use_bias": false, "kernel_constraint": null, "activity_regularizer": null, "kernel_initializer": {"config": {"scale": 1.0, "distribution": "uniform", "seed": null, "mode": "fan_avg"}, "class_name": "VarianceScaling"}, "kernel_size": [3, 3]}, "class_name": "Conv2D", "inbound_nodes": [[["activation_1", 0, 0, {}]]]}, {"name": "batch_normalization_2", "config": {"gamma_constraint": null, "scale": false, "epsilon": 0.001, "name": "batch_normalization_2", "beta_initializer": {"config": {}, "class_name": "Zeros"}, "momentum": 0.99, "gamma_initializer": {"config": {}, "class_name": "Ones"}, "beta_constraint": null, "center": true, "gamma_regularizer": null, "moving_mean_initializer": {"config": {}, "class_name": "Zeros"}, "trainable": false, "beta_regularizer": null, "moving_variance_initializer": {"config": {}, "class_name": "Ones"}, "axis": 3}, "class_name": "BatchNormalization", "inbound_nodes": [[["conv2d_2", 0, 0, {}]]]}, {"name": "activation_2", "config": {"name": "activation_2", "trainable": false, "activation": "relu"}, "class_name": "Activation", "inbound_nodes": [[["batch_normalization_2", 0, 0, {}]]]}, {"name": "conv2d_3", "config": {"dilation_rate": [1, 1], "padding": "same", "kernel_regularizer": null, "name": "conv2d_3", "bias_regularizer": null, "activation": "linear", "bias_constraint": null, "bias_initializer": {"config": {}, "class_name": "Zeros"}, "data_format": "channels_last", "filters": 64, "strides": [1, 1], "trainable": false, "use_bias": false, "kernel_constraint": null, "activity_regularizer": null, "kernel_initializer": {"config": {"scale": 1.0, "distribution": "uniform", "seed": null, "mode": "fan_avg"}, "class_name": "VarianceScaling"}, "kernel_size": [3, 3]}, "class_name": "Conv2D", "inbound_nodes": [[["activation_2", 0, 0, {}]]]}, {"name": "batch_normalization_3", "config": {"gamma_constraint": null, "scale": false, "epsilon": 0.001, "name": "batch_normalization_3", "beta_initializer": {"config": {}, "class_name": "Zeros"}, "momentum": 0.99, "gamma_initializer": {"config": {}, "class_name": "Ones"}, "beta_constraint": null, "center": true, "gamma_regularizer": null, "moving_mean_initializer": {"config": {}, "class_name": "Zeros"}, "trainable": false, "beta_regularizer": null, "moving_variance_initializer": {"config": {}, "class_name": "Ones"}, "axis": 3}, "class_name": "BatchNormalization", "inbound_nodes": [[["conv2d_3", 0, 0, {}]]]}, {"name": "activation_3", "config": {"name": "activation_3", "trainable": false, "activation": "relu"}, "class_name": "Activation", "inbound_nodes": [[["batch_normalization_3", 0, 0, {}]]]}, {"name": "max_pooling2d_1", "config": {"data_format": "channels_last", "strides": [2, 2], "padding": "valid", "pool_size": [3, 3], "name": "max_pooling2d_1", "trainable": false}, "class_name": "MaxPooling2D", "inbound_nodes": [[["activation_3", 0, 0, {}]]]}, {"name": "conv2d_4", "config": {"dilation_rate": [1, 1], "padding": "valid", "kernel_regularizer": null, "name": "conv2d_4", "bias_regularizer": null, "activation": "linear", "bias_constraint": null, "bias_initializer": {"config": {}, "class_name": "Zeros"}, "data_format": "channels_last", "filters": 80, "strides": [1, 1], "trainable": false, "use_bias": false, "kernel_constraint": null, "activity_regularizer": null, "kernel_initializer": {"config": {"scale": 1.0, "distribution": "uniform", "seed": null, "mode": "fan_avg"}, "class_name": "VarianceScaling"}, "kernel_size": [1, 1]}, "class_name": "Conv2D", "inbound_nodes": [[["max_pooling2d_1", 0, 0, {}]]]}, {"name": "batch_normalization_4", "config": {"gamma_constraint": null, "scale": false, "epsilon": 0.001, "name": "batch_normalization_4", "beta_initializer": {"config": {}, "class_name": "Zeros"}, "momentum": 0.99, "gamma_initializer": {"config": {}, "class_name": "Ones"}, "beta_constraint": null, "center": true, "gamma_regularizer": null, "moving_mean_initializer": {"config": {}, "class_name": "Zeros"}, "trainable": false, "beta_regularizer": null, "moving_variance_initializer": {"config": {}, "class_name": "Ones"}, "axis": 3}, "class_name": "BatchNormalization", "inbound_nodes": [[["conv2d_4", 0, 0, {}]]]}, {"name": "activation_4", "config": {"name": "activation_4", "trainable": false, "activation": "relu"}, "class_name": "Activation", "inbound_nodes": [[["batch_normalization_4", 0, 0, {}]]]}, {"name": "conv2d_5", "config": {"dilation_rate": [1, 1], "padding": "valid", "kernel_regularizer": null, "name": "conv2d_5", "bias_regularizer": null, "activation": "linear", "bias_constraint": null, "bias_initializer": {"config": {}, "class_name": "Zeros"}, "data_format": "channels_last", "filters": 192, "strides": [1, 1], "trainable": false, "use_bias": false, "kernel_constraint": null, "activity_regularizer": null, "kernel_initializer": {"config": {"scale": 1.0, "distribution": "uniform", "seed": null, "mode": "fan_avg"}, "class_name": "VarianceScaling"}, "kernel_size": [3, 3]}, "class_name": "Conv2D", "inbound_nodes": [[["activation_4", 0, 0, {}]]]}, {"name": "batch_normalization_5", "config": {"gamma_constraint": null, "scale": false, "epsilon": 0.001, "name": "batch_normalization_5", "beta_initializer": {"config": {}, "class_name": "Zeros"}, "momentum": 0.99, "gamma_initializer": {"config": {}, "class_name": "Ones"}, "beta_constraint": null, "center": true, "gamma_regularizer": null, "moving_mean_initializer": {"config": {}, "class_name": "Zeros"}, "trainable": false, "beta_regularizer": null, "moving_variance_initializer": {"config": {}, "class_name": "Ones"}, "axis": 3}, "class_name": "BatchNormalization", "inbound_nodes": [[["conv2d_5", 0, 0, {}]]]}, {"name": "activation_5", "config": {"name": "activation_5", "trainable": false, "activation": "relu"}, "class_name": "Activation", "inbound_nodes": [[["batch_normalization_5", 0, 0, {}]]]}, {"name": "max_pooling2d_2", "config": {"data_format": "channels_last", "strides": [2, 2], "padding": "valid", "pool_size": [3, 3], "name": "max_pooling2d_2", "trainable": false}, "class_name": "MaxPooling2D", "inbound_nodes": [[["activation_5", 0, 0, {}]]]}, {"name": "conv2d_9", "config": {"dilation_rate": [1, 1], "padding": "same", "kernel_regularizer": null, "name": "conv2d_9", "bias_regularizer": null, "activation": "linear", "bias_constraint": null, "bias_initializer": {"config": {}, "class_name": "Zeros"}, "data_format": "channels_last", "filters": 64, "strides": [1, 1], "trainable": false, "use_bias": false, "kernel_constraint": null, "activity_regularizer": null, "kernel_initializer": {"config": {"scale": 1.0, "distribution": "uniform", "seed": null, "mode": "fan_avg"}, "class_name": "VarianceScaling"}, "kernel_size": [1, 1]}, "class_name": "Conv2D", "inbound_nodes": [[["max_pooling2d_2", 0, 0, {}]]]}, {"name": "batch_normalization_9", "config": {"gamma_constraint": null, "scale": false, "epsilon": 0.001, "name": "batch_normalization_9", "beta_initializer": {"config": {}, "class_name": "Zeros"}, "momentum": 0.99, "gamma_initializer": {"config": {}, "class_name": "Ones"}, "beta_constraint": null, "center": true, "gamma_regularizer": null, "moving_mean_initializer": {"config": {}, "class_name": "Zeros"}, "trainable": false, "beta_regularizer": null, "moving_variance_initializer": {"config": {}, "class_name": "Ones"}, "axis": 3}, "class_name": "BatchNormalization", "inbound_nodes": [[["conv2d_9", 0, 0, {}]]]}, {"name": "activation_9", "config": {"name": "activation_9", "trainable": false, "activation": "relu"}, "class_name": "Activation", "inbound_nodes": [[["batch_normalization_9", 0, 0, {}]]]}, {"name": "conv2d_7", "config": {"dilation_rate": [1, 1], "padding": "same", "kernel_regularizer": null, "name": "conv2d_7", "bias_regularizer": null, "activation": "linear", "bias_constraint": null, "bias_initializer": {"config": {}, "class_name": "Zeros"}, "data_format": "channels_last", "filters": 48, "strides": [1, 1], "trainable": false, "use_bias": false, "kernel_constraint": null, "activity_regularizer": null, "kernel_initializer": {"config": {"scale": 1.0, "distribution": "uniform", "seed": null, "mode": "fan_avg"}, "class_name": "VarianceScaling"}, "kernel_size": [1, 1]}, "class_name": "Conv2D", "inbound_nodes": [[["max_pooling2d_2", 0, 0, {}]]]}, {"name": "conv2d_10", "config": {"dilation_rate": [1, 1], "padding": "same", "kernel_regularizer": null, "name": "conv2d_10", "bias_regularizer": null, "activation": "linear", "bias_constraint": null, "bias_initializer": {"config": {}, "class_name": "Zeros"}, "data_format": "channels_last", "filters": 96, "strides": [1, 1], "trainable": false, "use_bias": false, "kernel_constraint": null, "activity_regularizer": null, "kernel_initializer": {"config": {"scale": 1.0, "distribution": "uniform", "seed": null, "mode": "fan_avg"}, "class_name": "VarianceScaling"}, "kernel_size": [3, 3]}, "class_name": "Conv2D", "inbound_nodes": [[["activation_9", 0, 0, {}]]]}, {"name": "batch_normalization_7", "config": {"gamma_constraint": null, "scale": false, "epsilon": 0.001, "name": "batch_normalization_7", "beta_initializer": {"config": {}, "class_name": "Zeros"}, "momentum": 0.99, "gamma_initializer": {"config": {}, "class_name": "Ones"}, "beta_constraint": null, "center": true, "gamma_regularizer": null, "moving_mean_initializer": {"config": {}, "class_name": "Zeros"}, "trainable": false, "beta_regularizer": null, "moving_variance_initializer": {"config": {}, "class_name": "Ones"}, "axis": 3}, "class_name": "BatchNormalization", "inbound_nodes": [[["conv2d_7", 0, 0, {}]]]}, {"name": "batch_normalization_10", "config": {"gamma_constraint": null, "scale": false, "epsilon": 0.001, "name": "batch_normalization_10", "beta_initializer": {"config": {}, "class_name": "Zeros"}, "momentum": 0.99, "gamma_initializer": {"config": {}, "class_name": "Ones"}, "beta_constraint": null, "center": true, "gamma_regularizer": null, "moving_mean_initializer": {"config": {}, "class_name": "Zeros"}, "trainable": false, "beta_regularizer": null, "moving_variance_initializer": {"config": {}, "class_name": "Ones"}, "axis": 3}, "class_name": "BatchNormalization", "inbound_nodes": [[["conv2d_10", 0, 0, {}]]]}, {"name": "activation_7", "config": {"name": "activation_7", "trainable": false, "activation": "relu"}, "class_name": "Activation", "inbound_nodes": [[["batch_normalization_7", 0, 0, {}]]]}, {"name": "activation_10", "config": {"name": "activation_10", "trainable": false, "activation": "relu"}, "class_name": "Activation", "inbound_nodes": [[["batch_normalization_10", 0, 0, {}]]]}, {"name": "average_pooling2d_1", "config": {"data_format": "channels_last", "strides": [1, 1], "padding": "same", "pool_size": [3, 3], "name": "average_pooling2d_1", "trainable": false}, "class_name": "AveragePooling2D", "inbound_nodes": [[["max_pooling2d_2", 0, 0, {}]]]}, {"name": "conv2d_6", "config": {"dilation_rate": [1, 1], "padding": "same", "kernel_regularizer": null, "name": "conv2d_6", "bias_regularizer": null, "activation": "linear", "bias_constraint": null, "bias_initializer": {"config": {}, "class_name": "Zeros"}, "data_format": "channels_last", "filters": 64, "strides": [1, 1], "trainable": false, "use_bias": false, "kernel_constraint": null, "activity_regularizer": null, "kernel_initializer": {"config": {"scale": 1.0, "distribution": "uniform", "seed": null, "mode": "fan_avg"}, "class_name": "VarianceScaling"}, "kernel_size": [1, 1]}, "class_name": "Conv2D", "inbound_nodes": [[["max_pooling2d_2", 0, 0, {}]]]}, {"name": "conv2d_8", "config": {"dilation_rate": [1, 1], "padding": "same", "kernel_regularizer": null, "name": "conv2d_8", "bias_regularizer": null, "activation": "linear", "bias_constraint": null, "bias_initializer": {"config": {}, "class_name": "Zeros"}, "data_format": "channels_last", "filters": 64, "strides": [1, 1], "trainable": false, "use_bias": false, "kernel_constraint": null, "activity_regularizer": null, "kernel_initializer": {"config": {"scale": 1.0, "distribution": "uniform", "seed": null, "mode": "fan_avg"}, "class_name": "VarianceScaling"}, "kernel_size": [5, 5]}, "class_name": "Conv2D", "inbound_nodes": [[["activation_7", 0, 0, {}]]]}, {"name": "conv2d_11", "config": {"dilation_rate": [1, 1], "padding": "same", "kernel_regularizer": null, "name": "conv2d_11", "bias_regularizer": null, "activation": "linear", "bias_constraint": null, "bias_initializer": {"config": {}, "class_name": "Zeros"}, "data_format": "channels_last", "filters": 96, "strides": [1, 1], "trainable": false, "use_bias": false, "kernel_constraint": null, "activity_regularizer": null, "kernel_initializer": {"config": {"scale": 1.0, "distribution": "uniform", "seed": null, "mode": "fan_avg"}, "class_name": "VarianceScaling"}, "kernel_size": [3, 3]}, "class_name": "Conv2D", "inbound_nodes": [[["activation_10", 0, 0, {}]]]}, {"name": "conv2d_12", "config": {"dilation_rate": [1, 1], "padding": "same", "kernel_regularizer": null, "name": "conv2d_12", "bias_regularizer": null, "activation": "linear", "bias_constraint": null, "bias_initializer": {"config": {}, "class_name": "Zeros"}, "data_format": "channels_last", "filters": 32, "strides": [1, 1], "trainable": false, "use_bias": false, "kernel_constraint": null, "activity_regularizer": null, "kernel_initializer": {"config": {"scale": 1.0, "distribution": "uniform", "seed": null, "mode": "fan_avg"}, "class_name": "VarianceScaling"}, "kernel_size": [1, 1]}, "class_name": "Conv2D", "inbound_nodes": [[["average_pooling2d_1", 0, 0, {}]]]}, {"name": "batch_normalization_6", "config": {"gamma_constraint": null, "scale": false, "epsilon": 0.001, "name": "batch_normalization_6", "beta_initializer": {"config": {}, "class_name": "Zeros"}, "momentum": 0.99, "gamma_initializer": {"config": {}, "class_name": "Ones"}, "beta_constraint": null, "center": true, "gamma_regularizer": null, "moving_mean_initializer": {"config": {}, "class_name": "Zeros"}, "trainable": false, "beta_regularizer": null, "moving_variance_initializer": {"config": {}, "class_name": "Ones"}, "axis": 3}, "class_name": "BatchNormalization", "inbound_nodes": [[["conv2d_6", 0, 0, {}]]]}, {"name": "batch_normalization_8", "config": {"gamma_constraint": null, "scale": false, "epsilon": 0.001, "name": "batch_normalization_8", "beta_initializer": {"config": {}, "class_name": "Zeros"}, "momentum": 0.99, "gamma_initializer": {"config": {}, "class_name": "Ones"}, "beta_constraint": null, "center": true, "gamma_regularizer": null, "moving_mean_initializer": {"config": {}, "class_name": "Zeros"}, "trainable": false, "beta_regularizer": null, "moving_variance_initializer": {"config": {}, "class_name": "Ones"}, "axis": 3}, "class_name": "BatchNormalization", "inbound_nodes": [[["conv2d_8", 0, 0, {}]]]}, {"name": "batch_normalization_11", "config": {"gamma_constraint": null, "scale": false, "epsilon": 0.001, "name": "batch_normalization_11", "beta_initializer": {"config": {}, "class_name": "Zeros"}, "momentum": 0.99, "gamma_initializer": {"config": {}, "class_name": "Ones"}, "beta_constraint": null, "center": true, "gamma_regularizer": null, "moving_mean_initializer": {"config": {}, "class_name": "Zeros"}, "trainable": false, "beta_regularizer": null, "moving_variance_initializer": {"config": {}, "class_name": "Ones"}, "axis": 3}, "class_name": "BatchNormalization", "inbound_nodes": [[["conv2d_11", 0, 0, {}]]]}, {"name": "batch_normalization_12", "config": {"gamma_constraint": null, "scale": false, "epsilon": 0.001, "name": "batch_normalization_12", "beta_initializer": {"config": {}, "class_name": "Zeros"}, "momentum": 0.99, "gamma_initializer": {"config": {}, "class_name": "Ones"}, "beta_constraint": null, "center": true, "gamma_regularizer": null, "moving_mean_initializer": {"config": {}, "class_name": "Zeros"}, "trainable": false, "beta_regularizer": null, "moving_variance_initializer": {"config": {}, "class_name": "Ones"}, "axis": 3}, "class_name": "BatchNormalization", "inbound_nodes": [[["conv2d_12", 0, 0, {}]]]}, {"name": "activation_6", "config": {"name": "activation_6", "trainable": false, "activation": "relu"}, "class_name": "Activation", "inbound_nodes": [[["batch_normalization_6", 0, 0, {}]]]}, {"name": "activation_8", "config": {"name": "activation_8", "trainable": false, "activation": "relu"}, "class_name": "Activation", "inbound_nodes": [[["batch_normalization_8", 0, 0, {}]]]}, {"name": "activation_11", "config": {"name": "activation_11", "trainable": false, "activation": "relu"}, "class_name": "Activation", "inbound_nodes": [[["batch_normalization_11", 0, 0, {}]]]}, {"name": "activation_12", "config": {"name": "activation_12", "trainable": false, "activation": "relu"}, "class_name": "Activation", "inbound_nodes": [[["batch_normalization_12", 0, 0, {}]]]}, {"name": "mixed0", "config": {"name": "mixed0", "trainable": false, "axis": 3}, "class_name": "Concatenate", "inbound_nodes": [[["activation_6", 0, 0, {}], ["activation_8", 0, 0, {}], ["activation_11", 0, 0, {}], ["activation_12", 0, 0, {}]]]}, {"name": "conv2d_16", "config": {"dilation_rate": [1, 1], "padding": "same", "kernel_regularizer": null, "name": "conv2d_16", "bias_regularizer": null, "activation": "linear", "bias_constraint": null, "bias_initializer": {"config": {}, "class_name": "Zeros"}, "data_format": "channels_last", "filters": 64, "strides": [1, 1], "trainable": false, "use_bias": false, "kernel_constraint": null, "activity_regularizer": null, "kernel_initializer": {"config": {"scale": 1.0, "distribution": "uniform", "seed": null, "mode": "fan_avg"}, "class_name": "VarianceScaling"}, "kernel_size": [1, 1]}, "class_name": "Conv2D", "inbound_nodes": [[["mixed0", 0, 0, {}]]]}, {"name": "batch_normalization_16", "config": {"gamma_constraint": null, "scale": false, "epsilon": 0.001, "name": "batch_normalization_16", "beta_initializer": {"config": {}, "class_name": "Zeros"}, "momentum": 0.99, "gamma_initializer": {"config": {}, "class_name": "Ones"}, "beta_constraint": null, "center": true, "gamma_regularizer": null, "moving_mean_initializer": {"config": {}, "class_name": "Zeros"}, "trainable": false, "beta_regularizer": null, "moving_variance_initializer": {"config": {}, "class_name": "Ones"}, "axis": 3}, "class_name": "BatchNormalization", "inbound_nodes": [[["conv2d_16", 0, 0, {}]]]}, {"name": "activation_16", "config": {"name": "activation_16", "trainable": false, "activation": "relu"}, "class_name": "Activation", "inbound_nodes": [[["batch_normalization_16", 0, 0, {}]]]}, {"name": "conv2d_14", "config": {"dilation_rate": [1, 1], "padding": "same", "kernel_regularizer": null, "name": "conv2d_14", "bias_regularizer": null, "activation": "linear", "bias_constraint": null, "bias_initializer": {"config": {}, "class_name": "Zeros"}, "data_format": "channels_last", "filters": 48, "strides": [1, 1], "trainable": false, "use_bias": false, "kernel_constraint": null, "activity_regularizer": null, "kernel_initializer": {"config": {"scale": 1.0, "distribution": "uniform", "seed": null, "mode": "fan_avg"}, "class_name": "VarianceScaling"}, "kernel_size": [1, 1]}, "class_name": "Conv2D", "inbound_nodes": [[["mixed0", 0, 0, {}]]]}, {"name": "conv2d_17", "config": {"dilation_rate": [1, 1], "padding": "same", "kernel_regularizer": null, "name": "conv2d_17", "bias_regularizer": null, "activation": "linear", "bias_constraint": null, "bias_initializer": {"config": {}, "class_name": "Zeros"}, "data_format": "channels_last", "filters": 96, "strides": [1, 1], "trainable": false, "use_bias": false, "kernel_constraint": null, "activity_regularizer": null, "kernel_initializer": {"config": {"scale": 1.0, "distribution": "uniform", "seed": null, "mode": "fan_avg"}, "class_name": "VarianceScaling"}, "kernel_size": [3, 3]}, "class_name": "Conv2D", "inbound_nodes": [[["activation_16", 0, 0, {}]]]}, {"name": "batch_normalization_14", "config": {"gamma_constraint": null, "scale": false, "epsilon": 0.001, "name": "batch_normalization_14", "beta_initializer": {"config": {}, "class_name": "Zeros"}, "momentum": 0.99, "gamma_initializer": {"config": {}, "class_name": "Ones"}, "beta_constraint": null, "center": true, "gamma_regularizer": null, "moving_mean_initializer": {"config": {}, "class_name": "Zeros"}, "trainable": false, "beta_regularizer": null, "moving_variance_initializer": {"config": {}, "class_name": "Ones"}, "axis": 3}, "class_name": "BatchNormalization", "inbound_nodes": [[["conv2d_14", 0, 0, {}]]]}, {"name": "batch_normalization_17", "config": {"gamma_constraint": null, "scale": false, "epsilon": 0.001, "name": "batch_normalization_17", "beta_initializer": {"config": {}, "class_name": "Zeros"}, "momentum": 0.99, "gamma_initializer": {"config": {}, "class_name": "Ones"}, "beta_constraint": null, "center": true, "gamma_regularizer": null, "moving_mean_initializer": {"config": {}, "class_name": "Zeros"}, "trainable": false, "beta_regularizer": null, "moving_variance_initializer": {"config": {}, "class_name": "Ones"}, "axis": 3}, "class_name": "BatchNormalization", "inbound_nodes": [[["conv2d_17", 0, 0, {}]]]}, {"name": "activation_14", "config": {"name": "activation_14", "trainable": false, "activation": "relu"}, "class_name": "Activation", "inbound_nodes": [[["batch_normalization_14", 0, 0, {}]]]}, {"name": "activation_17", "config": {"name": "activation_17", "trainable": false, "activation": "relu"}, "class_name": "Activation", "inbound_nodes": [[["batch_normalization_17", 0, 0, {}]]]}, {"name": "average_pooling2d_2", "config": {"data_format": "channels_last", "strides": [1, 1], "padding": "same", "pool_size": [3, 3], "name": "average_pooling2d_2", "trainable": false}, "class_name": "AveragePooling2D", "inbound_nodes": [[["mixed0", 0, 0, {}]]]}, {"name": "conv2d_13", "config": {"dilation_rate": [1, 1], "padding": "same", "kernel_regularizer": null, "name": "conv2d_13", "bias_regularizer": null, "activation": "linear", "bias_constraint": null, "bias_initializer": {"config": {}, "class_name": "Zeros"}, "data_format": "channels_last", "filters": 64, "strides": [1, 1], "trainable": false, "use_bias": false, "kernel_constraint": null, "activity_regularizer": null, "kernel_initializer": {"config": {"scale": 1.0, "distribution": "uniform", "seed": null, "mode": "fan_avg"}, "class_name": "VarianceScaling"}, "kernel_size": [1, 1]}, "class_name": "Conv2D", "inbound_nodes": [[["mixed0", 0, 0, {}]]]}, {"name": "conv2d_15", "config": {"dilation_rate": [1, 1], "padding": "same", "kernel_regularizer": null, "name": "conv2d_15", "bias_regularizer": null, "activation": "linear", "bias_constraint": null, "bias_initializer": {"config": {}, "class_name": "Zeros"}, "data_format": "channels_last", "filters": 64, "strides": [1, 1], "trainable": false, "use_bias": false, "kernel_constraint": null, "activity_regularizer": null, "kernel_initializer": {"config": {"scale": 1.0, "distribution": "uniform", "seed": null, "mode": "fan_avg"}, "class_name": "VarianceScaling"}, "kernel_size": [5, 5]}, "class_name": "Conv2D", "inbound_nodes": [[["activation_14", 0, 0, {}]]]}, {"name": "conv2d_18", "config": {"dilation_rate": [1, 1], "padding": "same", "kernel_regularizer": null, "name": "conv2d_18", "bias_regularizer": null, "activation": "linear", "bias_constraint": null, "bias_initializer": {"config": {}, "class_name": "Zeros"}, "data_format": "channels_last", "filters": 96, "strides": [1, 1], "trainable": false, "use_bias": false, "kernel_constraint": null, "activity_regularizer": null, "kernel_initializer": {"config": {"scale": 1.0, "distribution": "uniform", "seed": null, "mode": "fan_avg"}, "class_name": "VarianceScaling"}, "kernel_size": [3, 3]}, "class_name": "Conv2D", "inbound_nodes": [[["activation_17", 0, 0, {}]]]}, {"name": "conv2d_19", "config": {"dilation_rate": [1, 1], "padding": "same", "kernel_regularizer": null, "name": "conv2d_19", "bias_regularizer": null, "activation": "linear", "bias_constraint": null, "bias_initializer": {"config": {}, "class_name": "Zeros"}, "data_format": "channels_last", "filters": 64, "strides": [1, 1], "trainable": false, "use_bias": false, "kernel_constraint": null, "activity_regularizer": null, "kernel_initializer": {"config": {"scale": 1.0, "distribution": "uniform", "seed": null, "mode": "fan_avg"}, "class_name": "VarianceScaling"}, "kernel_size": [1, 1]}, "class_name": "Conv2D", "inbound_nodes": [[["average_pooling2d_2", 0, 0, {}]]]}, {"name": "batch_normalization_13", "config": {"gamma_constraint": null, "scale": false, "epsilon": 0.001, "name": "batch_normalization_13", "beta_initializer": {"config": {}, "class_name": "Zeros"}, "momentum": 0.99, "gamma_initializer": {"config": {}, "class_name": "Ones"}, "beta_constraint": null, "center": true, "gamma_regularizer": null, "moving_mean_initializer": {"config": {}, "class_name": "Zeros"}, "trainable": false, "beta_regularizer": null, "moving_variance_initializer": {"config": {}, "class_name": "Ones"}, "axis": 3}, "class_name": "BatchNormalization", "inbound_nodes": [[["conv2d_13", 0, 0, {}]]]}, {"name": "batch_normalization_15", "config": {"gamma_constraint": null, "scale": false, "epsilon": 0.001, "name": "batch_normalization_15", "beta_initializer": {"config": {}, "class_name": "Zeros"}, "momentum": 0.99, "gamma_initializer": {"config": {}, "class_name": "Ones"}, "beta_constraint": null, "center": true, "gamma_regularizer": null, "moving_mean_initializer": {"config": {}, "class_name": "Zeros"}, "trainable": false, "beta_regularizer": null, "moving_variance_initializer": {"config": {}, "class_name": "Ones"}, "axis": 3}, "class_name": "BatchNormalization", "inbound_nodes": [[["conv2d_15", 0, 0, {}]]]}, {"name": "batch_normalization_18", "config": {"gamma_constraint": null, "scale": false, "epsilon": 0.001, "name": "batch_normalization_18", "beta_initializer": {"config": {}, "class_name": "Zeros"}, "momentum": 0.99, "gamma_initializer": {"config": {}, "class_name": "Ones"}, "beta_constraint": null, "center": true, "gamma_regularizer": null, "moving_mean_initializer": {"config": {}, "class_name": "Zeros"}, "trainable": false, "beta_regularizer": null, "moving_variance_initializer": {"config": {}, "class_name": "Ones"}, "axis": 3}, "class_name": "BatchNormalization", "inbound_nodes": [[["conv2d_18", 0, 0, {}]]]}, {"name": "batch_normalization_19", "config": {"gamma_constraint": null, "scale": false, "epsilon": 0.001, "name": "batch_normalization_19", "beta_initializer": {"config": {}, "class_name": "Zeros"}, "momentum": 0.99, "gamma_initializer": {"config": {}, "class_name": "Ones"}, "beta_constraint": null, "center": true, "gamma_regularizer": null, "moving_mean_initializer": {"config": {}, "class_name": "Zeros"}, "trainable": false, "beta_regularizer": null, "moving_variance_initializer": {"config": {}, "class_name": "Ones"}, "axis": 3}, "class_name": "BatchNormalization", "inbound_nodes": [[["conv2d_19", 0, 0, {}]]]}, {"name": "activation_13", "config": {"name": "activation_13", "trainable": false, "activation": "relu"}, "class_name": "Activation", "inbound_nodes": [[["batch_normalization_13", 0, 0, {}]]]}, {"name": "activation_15", "config": {"name": "activation_15", "trainable": false, "activation": "relu"}, "class_name": "Activation", "inbound_nodes": [[["batch_normalization_15", 0, 0, {}]]]}, {"name": "activation_18", "config": {"name": "activation_18", "trainable": false, "activation": "relu"}, "class_name": "Activation", "inbound_nodes": [[["batch_normalization_18", 0, 0, {}]]]}, {"name": "activation_19", "config": {"name": "activation_19", "trainable": false, "activation": "relu"}, "class_name": "Activation", "inbound_nodes": [[["batch_normalization_19", 0, 0, {}]]]}, {"name": "mixed1", "config": {"name": "mixed1", "trainable": false, "axis": 3}, "class_name": "Concatenate", "inbound_nodes": [[["activation_13", 0, 0, {}], ["activation_15", 0, 0, {}], ["activation_18", 0, 0, {}], ["activation_19", 0, 0, {}]]]}, {"name": "conv2d_23", "config": {"dilation_rate": [1, 1], "padding": "same", "kernel_regularizer": null, "name": "conv2d_23", "bias_regularizer": null, "activation": "linear", "bias_constraint": null, "bias_initializer": {"config": {}, "class_name": "Zeros"}, "data_format": "channels_last", "filters": 64, "strides": [1, 1], "trainable": false, "use_bias": false, "kernel_constraint": null, "activity_regularizer": null, "kernel_initializer": {"config": {"scale": 1.0, "distribution": "uniform", "seed": null, "mode": "fan_avg"}, "class_name": "VarianceScaling"}, "kernel_size": [1, 1]}, "class_name": "Conv2D", "inbound_nodes": [[["mixed1", 0, 0, {}]]]}, {"name": "batch_normalization_23", "config": {"gamma_constraint": null, "scale": false, "epsilon": 0.001, "name": "batch_normalization_23", "beta_initializer": {"config": {}, "class_name": "Zeros"}, "momentum": 0.99, "gamma_initializer": {"config": {}, "class_name": "Ones"}, "beta_constraint": null, "center": true, "gamma_regularizer": null, "moving_mean_initializer": {"config": {}, "class_name": "Zeros"}, "trainable": false, "beta_regularizer": null, "moving_variance_initializer": {"config": {}, "class_name": "Ones"}, "axis": 3}, "class_name": "BatchNormalization", "inbound_nodes": [[["conv2d_23", 0, 0, {}]]]}, {"name": "activation_23", "config": {"name": "activation_23", "trainable": false, "activation": "relu"}, "class_name": "Activation", "inbound_nodes": [[["batch_normalization_23", 0, 0, {}]]]}, {"name": "conv2d_21", "config": {"dilation_rate": [1, 1], "padding": "same", "kernel_regularizer": null, "name": "conv2d_21", "bias_regularizer": null, "activation": "linear", "bias_constraint": null, "bias_initializer": {"config": {}, "class_name": "Zeros"}, "data_format": "channels_last", "filters": 48, "strides": [1, 1], "trainable": false, "use_bias": false, "kernel_constraint": null, "activity_regularizer": null, "kernel_initializer": {"config": {"scale": 1.0, "distribution": "uniform", "seed": null, "mode": "fan_avg"}, "class_name": "VarianceScaling"}, "kernel_size": [1, 1]}, "class_name": "Conv2D", "inbound_nodes": [[["mixed1", 0, 0, {}]]]}, {"name": "conv2d_24", "config": {"dilation_rate": [1, 1], "padding": "same", "kernel_regularizer": null, "name": "conv2d_24", "bias_regularizer": null, "activation": "linear", "bias_constraint": null, "bias_initializer": {"config": {}, "class_name": "Zeros"}, "data_format": "channels_last", "filters": 96, "strides": [1, 1], "trainable": false, "use_bias": false, "kernel_constraint": null, "activity_regularizer": null, "kernel_initializer": {"config": {"scale": 1.0, "distribution": "uniform", "seed": null, "mode": "fan_avg"}, "class_name": "VarianceScaling"}, "kernel_size": [3, 3]}, "class_name": "Conv2D", "inbound_nodes": [[["activation_23", 0, 0, {}]]]}, {"name": "batch_normalization_21", "config": {"gamma_constraint": null, "scale": false, "epsilon": 0.001, "name": "batch_normalization_21", "beta_initializer": {"config": {}, "class_name": "Zeros"}, "momentum": 0.99, "gamma_initializer": {"config": {}, "class_name": "Ones"}, "beta_constraint": null, "center": true, "gamma_regularizer": null, "moving_mean_initializer": {"config": {}, "class_name": "Zeros"}, "trainable": false, "beta_regularizer": null, "moving_variance_initializer": {"config": {}, "class_name": "Ones"}, "axis": 3}, "class_name": "BatchNormalization", "inbound_nodes": [[["conv2d_21", 0, 0, {}]]]}, {"name": "batch_normalization_24", "config": {"gamma_constraint": null, "scale": false, "epsilon": 0.001, "name": "batch_normalization_24", "beta_initializer": {"config": {}, "class_name": "Zeros"}, "momentum": 0.99, "gamma_initializer": {"config": {}, "class_name": "Ones"}, "beta_constraint": null, "center": true, "gamma_regularizer": null, "moving_mean_initializer": {"config": {}, "class_name": "Zeros"}, "trainable": false, "beta_regularizer": null, "moving_variance_initializer": {"config": {}, "class_name": "Ones"}, "axis": 3}, "class_name": "BatchNormalization", "inbound_nodes": [[["conv2d_24", 0, 0, {}]]]}, {"name": "activation_21", "config": {"name": "activation_21", "trainable": false, "activation": "relu"}, "class_name": "Activation", "inbound_nodes": [[["batch_normalization_21", 0, 0, {}]]]}, {"name": "activation_24", "config": {"name": "activation_24", "trainable": false, "activation": "relu"}, "class_name": "Activation", "inbound_nodes": [[["batch_normalization_24", 0, 0, {}]]]}, {"name": "average_pooling2d_3", "config": {"data_format": "channels_last", "strides": [1, 1], "padding": "same", "pool_size": [3, 3], "name": "average_pooling2d_3", "trainable": false}, "class_name": "AveragePooling2D", "inbound_nodes": [[["mixed1", 0, 0, {}]]]}, {"name": "conv2d_20", "config": {"dilation_rate": [1, 1], "padding": "same", "kernel_regularizer": null, "name": "conv2d_20", "bias_regularizer": null, "activation": "linear", "bias_constraint": null, "bias_initializer": {"config": {}, "class_name": "Zeros"}, "data_format": "channels_last", "filters": 64, "strides": [1, 1], "trainable": false, "use_bias": false, "kernel_constraint": null, "activity_regularizer": null, "kernel_initializer": {"config": {"scale": 1.0, "distribution": "uniform", "seed": null, "mode": "fan_avg"}, "class_name": "VarianceScaling"}, "kernel_size": [1, 1]}, "class_name": "Conv2D", "inbound_nodes": [[["mixed1", 0, 0, {}]]]}, {"name": "conv2d_22", "config": {"dilation_rate": [1, 1], "padding": "same", "kernel_regularizer": null, "name": "conv2d_22", "bias_regularizer": null, "activation": "linear", "bias_constraint": null, "bias_initializer": {"config": {}, "class_name": "Zeros"}, "data_format": "channels_last", "filters": 64, "strides": [1, 1], "trainable": false, "use_bias": false, "kernel_constraint": null, "activity_regularizer": null, "kernel_initializer": {"config": {"scale": 1.0, "distribution": "uniform", "seed": null, "mode": "fan_avg"}, "class_name": "VarianceScaling"}, "kernel_size": [5, 5]}, "class_name": "Conv2D", "inbound_nodes": [[["activation_21", 0, 0, {}]]]}, {"name": "conv2d_25", "config": {"dilation_rate": [1, 1], "padding": "same", "kernel_regularizer": null, "name": "conv2d_25", "bias_regularizer": null, "activation": "linear", "bias_constraint": null, "bias_initializer": {"config": {}, "class_name": "Zeros"}, "data_format": "channels_last", "filters": 96, "strides": [1, 1], "trainable": false, "use_bias": false, "kernel_constraint": null, "activity_regularizer": null, "kernel_initializer": {"config": {"scale": 1.0, "distribution": "uniform", "seed": null, "mode": "fan_avg"}, "class_name": "VarianceScaling"}, "kernel_size": [3, 3]}, "class_name": "Conv2D", "inbound_nodes": [[["activation_24", 0, 0, {}]]]}, {"name": "conv2d_26", "config": {"dilation_rate": [1, 1], "padding": "same", "kernel_regularizer": null, "name": "conv2d_26", "bias_regularizer": null, "activation": "linear", "bias_constraint": null, "bias_initializer": {"config": {}, "class_name": "Zeros"}, "data_format": "channels_last", "filters": 64, "strides": [1, 1], "trainable": false, "use_bias": false, "kernel_constraint": null, "activity_regularizer": null, "kernel_initializer": {"config": {"scale": 1.0, "distribution": "uniform", "seed": null, "mode": "fan_avg"}, "class_name": "VarianceScaling"}, "kernel_size": [1, 1]}, "class_name": "Conv2D", "inbound_nodes": [[["average_pooling2d_3", 0, 0, {}]]]}, {"name": "batch_normalization_20", "config": {"gamma_constraint": null, "scale": false, "epsilon": 0.001, "name": "batch_normalization_20", "beta_initializer": {"config": {}, "class_name": "Zeros"}, "momentum": 0.99, "gamma_initializer": {"config": {}, "class_name": "Ones"}, "beta_constraint": null, "center": true, "gamma_regularizer": null, "moving_mean_initializer": {"config": {}, "class_name": "Zeros"}, "trainable": false, "beta_regularizer": null, "moving_variance_initializer": {"config": {}, "class_name": "Ones"}, "axis": 3}, "class_name": "BatchNormalization", "inbound_nodes": [[["conv2d_20", 0, 0, {}]]]}, {"name": "batch_normalization_22", "config": {"gamma_constraint": null, "scale": false, "epsilon": 0.001, "name": "batch_normalization_22", "beta_initializer": {"config": {}, "class_name": "Zeros"}, "momentum": 0.99, "gamma_initializer": {"config": {}, "class_name": "Ones"}, "beta_constraint": null, "center": true, "gamma_regularizer": null, "moving_mean_initializer": {"config": {}, "class_name": "Zeros"}, "trainable": false, "beta_regularizer": null, "moving_variance_initializer": {"config": {}, "class_name": "Ones"}, "axis": 3}, "class_name": "BatchNormalization", "inbound_nodes": [[["conv2d_22", 0, 0, {}]]]}, {"name": "batch_normalization_25", "config": {"gamma_constraint": null, "scale": false, "epsilon": 0.001, "name": "batch_normalization_25", "beta_initializer": {"config": {}, "class_name": "Zeros"}, "momentum": 0.99, "gamma_initializer": {"config": {}, "class_name": "Ones"}, "beta_constraint": null, "center": true, "gamma_regularizer": null, "moving_mean_initializer": {"config": {}, "class_name": "Zeros"}, "trainable": false, "beta_regularizer": null, "moving_variance_initializer": {"config": {}, "class_name": "Ones"}, "axis": 3}, "class_name": "BatchNormalization", "inbound_nodes": [[["conv2d_25", 0, 0, {}]]]}, {"name": "batch_normalization_26", "config": {"gamma_constraint": null, "scale": false, "epsilon": 0.001, "name": "batch_normalization_26", "beta_initializer": {"config": {}, "class_name": "Zeros"}, "momentum": 0.99, "gamma_initializer": {"config": {}, "class_name": "Ones"}, "beta_constraint": null, "center": true, "gamma_regularizer": null, "moving_mean_initializer": {"config": {}, "class_name": "Zeros"}, "trainable": false, "beta_regularizer": null, "moving_variance_initializer": {"config": {}, "class_name": "Ones"}, "axis": 3}, "class_name": "BatchNormalization", "inbound_nodes": [[["conv2d_26", 0, 0, {}]]]}, {"name": "activation_20", "config": {"name": "activation_20", "trainable": false, "activation": "relu"}, "class_name": "Activation", "inbound_nodes": [[["batch_normalization_20", 0, 0, {}]]]}, {"name": "activation_22", "config": {"name": "activation_22", "trainable": false, "activation": "relu"}, "class_name": "Activation", "inbound_nodes": [[["batch_normalization_22", 0, 0, {}]]]}, {"name": "activation_25", "config": {"name": "activation_25", "trainable": false, "activation": "relu"}, "class_name": "Activation", "inbound_nodes": [[["batch_normalization_25", 0, 0, {}]]]}, {"name": "activation_26", "config": {"name": "activation_26", "trainable": false, "activation": "relu"}, "class_name": "Activation", "inbound_nodes": [[["batch_normalization_26", 0, 0, {}]]]}, {"name": "mixed2", "config": {"name": "mixed2", "trainable": false, "axis": 3}, "class_name": "Concatenate", "inbound_nodes": [[["activation_20", 0, 0, {}], ["activation_22", 0, 0, {}], ["activation_25", 0, 0, {}], ["activation_26", 0, 0, {}]]]}, {"name": "conv2d_28", "config": {"dilation_rate": [1, 1], "padding": "same", "kernel_regularizer": null, "name": "conv2d_28", "bias_regularizer": null, "activation": "linear", "bias_constraint": null, "bias_initializer": {"config": {}, "class_name": "Zeros"}, "data_format": "channels_last", "filters": 64, "strides": [1, 1], "trainable": false, "use_bias": false, "kernel_constraint": null, "activity_regularizer": null, "kernel_initializer": {"config": {"scale": 1.0, "distribution": "uniform", "seed": null, "mode": "fan_avg"}, "class_name": "VarianceScaling"}, "kernel_size": [1, 1]}, "class_name": "Conv2D", "inbound_nodes": [[["mixed2", 0, 0, {}]]]}, {"name": "batch_normalization_28", "config": {"gamma_constraint": null, "scale": false, "epsilon": 0.001, "name": "batch_normalization_28", "beta_initializer": {"config": {}, "class_name": "Zeros"}, "momentum": 0.99, "gamma_initializer": {"config": {}, "class_name": "Ones"}, "beta_constraint": null, "center": true, "gamma_regularizer": null, "moving_mean_initializer": {"config": {}, "class_name": "Zeros"}, "trainable": false, "beta_regularizer": null, "moving_variance_initializer": {"config": {}, "class_name": "Ones"}, "axis": 3}, "class_name": "BatchNormalization", "inbound_nodes": [[["conv2d_28", 0, 0, {}]]]}, {"name": "activation_28", "config": {"name": "activation_28", "trainable": false, "activation": "relu"}, "class_name": "Activation", "inbound_nodes": [[["batch_normalization_28", 0, 0, {}]]]}, {"name": "conv2d_29", "config": {"dilation_rate": [1, 1], "padding": "same", "kernel_regularizer": null, "name": "conv2d_29", "bias_regularizer": null, "activation": "linear", "bias_constraint": null, "bias_initializer": {"config": {}, "class_name": "Zeros"}, "data_format": "channels_last", "filters": 96, "strides": [1, 1], "trainable": false, "use_bias": false, "kernel_constraint": null, "activity_regularizer": null, "kernel_initializer": {"config": {"scale": 1.0, "distribution": "uniform", "seed": null, "mode": "fan_avg"}, "class_name": "VarianceScaling"}, "kernel_size": [3, 3]}, "class_name": "Conv2D", "inbound_nodes": [[["activation_28", 0, 0, {}]]]}, {"name": "batch_normalization_29", "config": {"gamma_constraint": null, "scale": false, "epsilon": 0.001, "name": "batch_normalization_29", "beta_initializer": {"config": {}, "class_name": "Zeros"}, "momentum": 0.99, "gamma_initializer": {"config": {}, "class_name": "Ones"}, "beta_constraint": null, "center": true, "gamma_regularizer": null, "moving_mean_initializer": {"config": {}, "class_name": "Zeros"}, "trainable": false, "beta_regularizer": null, "moving_variance_initializer": {"config": {}, "class_name": "Ones"}, "axis": 3}, "class_name": "BatchNormalization", "inbound_nodes": [[["conv2d_29", 0, 0, {}]]]}, {"name": "activation_29", "config": {"name": "activation_29", "trainable": false, "activation": "relu"}, "class_name": "Activation", "inbound_nodes": [[["batch_normalization_29", 0, 0, {}]]]}, {"name": "conv2d_27", "config": {"dilation_rate": [1, 1], "padding": "valid", "kernel_regularizer": null, "name": "conv2d_27", "bias_regularizer": null, "activation": "linear", "bias_constraint": null, "bias_initializer": {"config": {}, "class_name": "Zeros"}, "data_format": "channels_last", "filters": 384, "strides": [2, 2], "trainable": false, "use_bias": false, "kernel_constraint": null, "activity_regularizer": null, "kernel_initializer": {"config": {"scale": 1.0, "distribution": "uniform", "seed": null, "mode": "fan_avg"}, "class_name": "VarianceScaling"}, "kernel_size": [3, 3]}, "class_name": "Conv2D", "inbound_nodes": [[["mixed2", 0, 0, {}]]]}, {"name": "conv2d_30", "config": {"dilation_rate": [1, 1], "padding": "valid", "kernel_regularizer": null, "name": "conv2d_30", "bias_regularizer": null, "activation": "linear", "bias_constraint": null, "bias_initializer": {"config": {}, "class_name": "Zeros"}, "data_format": "channels_last", "filters": 96, "strides": [2, 2], "trainable": false, "use_bias": false, "kernel_constraint": null, "activity_regularizer": null, "kernel_initializer": {"config": {"scale": 1.0, "distribution": "uniform", "seed": null, "mode": "fan_avg"}, "class_name": "VarianceScaling"}, "kernel_size": [3, 3]}, "class_name": "Conv2D", "inbound_nodes": [[["activation_29", 0, 0, {}]]]}, {"name": "batch_normalization_27", "config": {"gamma_constraint": null, "scale": false, "epsilon": 0.001, "name": "batch_normalization_27", "beta_initializer": {"config": {}, "class_name": "Zeros"}, "momentum": 0.99, "gamma_initializer": {"config": {}, "class_name": "Ones"}, "beta_constraint": null, "center": true, "gamma_regularizer": null, "moving_mean_initializer": {"config": {}, "class_name": "Zeros"}, "trainable": false, "beta_regularizer": null, "moving_variance_initializer": {"config": {}, "class_name": "Ones"}, "axis": 3}, "class_name": "BatchNormalization", "inbound_nodes": [[["conv2d_27", 0, 0, {}]]]}, {"name": "batch_normalization_30", "config": {"gamma_constraint": null, "scale": false, "epsilon": 0.001, "name": "batch_normalization_30", "beta_initializer": {"config": {}, "class_name": "Zeros"}, "momentum": 0.99, "gamma_initializer": {"config": {}, "class_name": "Ones"}, "beta_constraint": null, "center": true, "gamma_regularizer": null, "moving_mean_initializer": {"config": {}, "class_name": "Zeros"}, "trainable": false, "beta_regularizer": null, "moving_variance_initializer": {"config": {}, "class_name": "Ones"}, "axis": 3}, "class_name": "BatchNormalization", "inbound_nodes": [[["conv2d_30", 0, 0, {}]]]}, {"name": "activation_27", "config": {"name": "activation_27", "trainable": false, "activation": "relu"}, "class_name": "Activation", "inbound_nodes": [[["batch_normalization_27", 0, 0, {}]]]}, {"name": "activation_30", "config": {"name": "activation_30", "trainable": false, "activation": "relu"}, "class_name": "Activation", "inbound_nodes": [[["batch_normalization_30", 0, 0, {}]]]}, {"name": "max_pooling2d_3", "config": {"data_format": "channels_last", "strides": [2, 2], "padding": "valid", "pool_size": [3, 3], "name": "max_pooling2d_3", "trainable": false}, "class_name": "MaxPooling2D", "inbound_nodes": [[["mixed2", 0, 0, {}]]]}, {"name": "mixed3", "config": {"name": "mixed3", "trainable": false, "axis": 3}, "class_name": "Concatenate", "inbound_nodes": [[["activation_27", 0, 0, {}], ["activation_30", 0, 0, {}], ["max_pooling2d_3", 0, 0, {}]]]}, {"name": "conv2d_35", "config": {"dilation_rate": [1, 1], "padding": "same", "kernel_regularizer": null, "name": "conv2d_35", "bias_regularizer": null, "activation": "linear", "bias_constraint": null, "bias_initializer": {"config": {}, "class_name": "Zeros"}, "data_format": "channels_last", "filters": 128, "strides": [1, 1], "trainable": false, "use_bias": false, "kernel_constraint": null, "activity_regularizer": null, "kernel_initializer": {"config": {"scale": 1.0, "distribution": "uniform", "seed": null, "mode": "fan_avg"}, "class_name": "VarianceScaling"}, "kernel_size": [1, 1]}, "class_name": "Conv2D", "inbound_nodes": [[["mixed3", 0, 0, {}]]]}, {"name": "batch_normalization_35", "config": {"gamma_constraint": null, "scale": false, "epsilon": 0.001, "name": "batch_normalization_35", "beta_initializer": {"config": {}, "class_name": "Zeros"}, "momentum": 0.99, "gamma_initializer": {"config": {}, "class_name": "Ones"}, "beta_constraint": null, "center": true, "gamma_regularizer": null, "moving_mean_initializer": {"config": {}, "class_name": "Zeros"}, "trainable": false, "beta_regularizer": null, "moving_variance_initializer": {"config": {}, "class_name": "Ones"}, "axis": 3}, "class_name": "BatchNormalization", "inbound_nodes": [[["conv2d_35", 0, 0, {}]]]}, {"name": "activation_35", "config": {"name": "activation_35", "trainable": false, "activation": "relu"}, "class_name": "Activation", "inbound_nodes": [[["batch_normalization_35", 0, 0, {}]]]}, {"name": "conv2d_36", "config": {"dilation_rate": [1, 1], "padding": "same", "kernel_regularizer": null, "name": "conv2d_36", "bias_regularizer": null, "activation": "linear", "bias_constraint": null, "bias_initializer": {"config": {}, "class_name": "Zeros"}, "data_format": "channels_last", "filters": 128, "strides": [1, 1], "trainable": false, "use_bias": false, "kernel_constraint": null, "activity_regularizer": null, "kernel_initializer": {"config": {"scale": 1.0, "distribution": "uniform", "seed": null, "mode": "fan_avg"}, "class_name": "VarianceScaling"}, "kernel_size": [7, 1]}, "class_name": "Conv2D", "inbound_nodes": [[["activation_35", 0, 0, {}]]]}, {"name": "batch_normalization_36", "config": {"gamma_constraint": null, "scale": false, "epsilon": 0.001, "name": "batch_normalization_36", "beta_initializer": {"config": {}, "class_name": "Zeros"}, "momentum": 0.99, "gamma_initializer": {"config": {}, "class_name": "Ones"}, "beta_constraint": null, "center": true, "gamma_regularizer": null, "moving_mean_initializer": {"config": {}, "class_name": "Zeros"}, "trainable": false, "beta_regularizer": null, "moving_variance_initializer": {"config": {}, "class_name": "Ones"}, "axis": 3}, "class_name": "BatchNormalization", "inbound_nodes": [[["conv2d_36", 0, 0, {}]]]}, {"name": "activation_36", "config": {"name": "activation_36", "trainable": false, "activation": "relu"}, "class_name": "Activation", "inbound_nodes": [[["batch_normalization_36", 0, 0, {}]]]}, {"name": "conv2d_32", "config": {"dilation_rate": [1, 1], "padding": "same", "kernel_regularizer": null, "name": "conv2d_32", "bias_regularizer": null, "activation": "linear", "bias_constraint": null, "bias_initializer": {"config": {}, "class_name": "Zeros"}, "data_format": "channels_last", "filters": 128, "strides": [1, 1], "trainable": false, "use_bias": false, "kernel_constraint": null, "activity_regularizer": null, "kernel_initializer": {"config": {"scale": 1.0, "distribution": "uniform", "seed": null, "mode": "fan_avg"}, "class_name": "VarianceScaling"}, "kernel_size": [1, 1]}, "class_name": "Conv2D", "inbound_nodes": [[["mixed3", 0, 0, {}]]]}, {"name": "conv2d_37", "config": {"dilation_rate": [1, 1], "padding": "same", "kernel_regularizer": null, "name": "conv2d_37", "bias_regularizer": null, "activation": "linear", "bias_constraint": null, "bias_initializer": {"config": {}, "class_name": "Zeros"}, "data_format": "channels_last", "filters": 128, "strides": [1, 1], "trainable": false, "use_bias": false, "kernel_constraint": null, "activity_regularizer": null, "kernel_initializer": {"config": {"scale": 1.0, "distribution": "uniform", "seed": null, "mode": "fan_avg"}, "class_name": "VarianceScaling"}, "kernel_size": [1, 7]}, "class_name": "Conv2D", "inbound_nodes": [[["activation_36", 0, 0, {}]]]}, {"name": "batch_normalization_32", "config": {"gamma_constraint": null, "scale": false, "epsilon": 0.001, "name": "batch_normalization_32", "beta_initializer": {"config": {}, "class_name": "Zeros"}, "momentum": 0.99, "gamma_initializer": {"config": {}, "class_name": "Ones"}, "beta_constraint": null, "center": true, "gamma_regularizer": null, "moving_mean_initializer": {"config": {}, "class_name": "Zeros"}, "trainable": false, "beta_regularizer": null, "moving_variance_initializer": {"config": {}, "class_name": "Ones"}, "axis": 3}, "class_name": "BatchNormalization", "inbound_nodes": [[["conv2d_32", 0, 0, {}]]]}, {"name": "batch_normalization_37", "config": {"gamma_constraint": null, "scale": false, "epsilon": 0.001, "name": "batch_normalization_37", "beta_initializer": {"config": {}, "class_name": "Zeros"}, "momentum": 0.99, "gamma_initializer": {"config": {}, "class_name": "Ones"}, "beta_constraint": null, "center": true, "gamma_regularizer": null, "moving_mean_initializer": {"config": {}, "class_name": "Zeros"}, "trainable": false, "beta_regularizer": null, "moving_variance_initializer": {"config": {}, "class_name": "Ones"}, "axis": 3}, "class_name": "BatchNormalization", "inbound_nodes": [[["conv2d_37", 0, 0, {}]]]}, {"name": "activation_32", "config": {"name": "activation_32", "trainable": false, "activation": "relu"}, "class_name": "Activation", "inbound_nodes": [[["batch_normalization_32", 0, 0, {}]]]}, {"name": "activation_37", "config": {"name": "activation_37", "trainable": false, "activation": "relu"}, "class_name": "Activation", "inbound_nodes": [[["batch_normalization_37", 0, 0, {}]]]}, {"name": "conv2d_33", "config": {"dilation_rate": [1, 1], "padding": "same", "kernel_regularizer": null, "name": "conv2d_33", "bias_regularizer": null, "activation": "linear", "bias_constraint": null, "bias_initializer": {"config": {}, "class_name": "Zeros"}, "data_format": "channels_last", "filters": 128, "strides": [1, 1], "trainable": false, "use_bias": false, "kernel_constraint": null, "activity_regularizer": null, "kernel_initializer": {"config": {"scale": 1.0, "distribution": "uniform", "seed": null, "mode": "fan_avg"}, "class_name": "VarianceScaling"}, "kernel_size": [1, 7]}, "class_name": "Conv2D", "inbound_nodes": [[["activation_32", 0, 0, {}]]]}, {"name": "conv2d_38", "config": {"dilation_rate": [1, 1], "padding": "same", "kernel_regularizer": null, "name": "conv2d_38", "bias_regularizer": null, "activation": "linear", "bias_constraint": null, "bias_initializer": {"config": {}, "class_name": "Zeros"}, "data_format": "channels_last", "filters": 128, "strides": [1, 1], "trainable": false, "use_bias": false, "kernel_constraint": null, "activity_regularizer": null, "kernel_initializer": {"config": {"scale": 1.0, "distribution": "uniform", "seed": null, "mode": "fan_avg"}, "class_name": "VarianceScaling"}, "kernel_size": [7, 1]}, "class_name": "Conv2D", "inbound_nodes": [[["activation_37", 0, 0, {}]]]}, {"name": "batch_normalization_33", "config": {"gamma_constraint": null, "scale": false, "epsilon": 0.001, "name": "batch_normalization_33", "beta_initializer": {"config": {}, "class_name": "Zeros"}, "momentum": 0.99, "gamma_initializer": {"config": {}, "class_name": "Ones"}, "beta_constraint": null, "center": true, "gamma_regularizer": null, "moving_mean_initializer": {"config": {}, "class_name": "Zeros"}, "trainable": false, "beta_regularizer": null, "moving_variance_initializer": {"config": {}, "class_name": "Ones"}, "axis": 3}, "class_name": "BatchNormalization", "inbound_nodes": [[["conv2d_33", 0, 0, {}]]]}, {"name": "batch_normalization_38", "config": {"gamma_constraint": null, "scale": false, "epsilon": 0.001, "name": "batch_normalization_38", "beta_initializer": {"config": {}, "class_name": "Zeros"}, "momentum": 0.99, "gamma_initializer": {"config": {}, "class_name": "Ones"}, "beta_constraint": null, "center": true, "gamma_regularizer": null, "moving_mean_initializer": {"config": {}, "class_name": "Zeros"}, "trainable": false, "beta_regularizer": null, "moving_variance_initializer": {"config": {}, "class_name": "Ones"}, "axis": 3}, "class_name": "BatchNormalization", "inbound_nodes": [[["conv2d_38", 0, 0, {}]]]}, {"name": "activation_33", "config": {"name": "activation_33", "trainable": false, "activation": "relu"}, "class_name": "Activation", "inbound_nodes": [[["batch_normalization_33", 0, 0, {}]]]}, {"name": "activation_38", "config": {"name": "activation_38", "trainable": false, "activation": "relu"}, "class_name": "Activation", "inbound_nodes": [[["batch_normalization_38", 0, 0, {}]]]}, {"name": "average_pooling2d_4", "config": {"data_format": "channels_last", "strides": [1, 1], "padding": "same", "pool_size": [3, 3], "name": "average_pooling2d_4", "trainable": false}, "class_name": "AveragePooling2D", "inbound_nodes": [[["mixed3", 0, 0, {}]]]}, {"name": "conv2d_31", "config": {"dilation_rate": [1, 1], "padding": "same", "kernel_regularizer": null, "name": "conv2d_31", "bias_regularizer": null, "activation": "linear", "bias_constraint": null, "bias_initializer": {"config": {}, "class_name": "Zeros"}, "data_format": "channels_last", "filters": 192, "strides": [1, 1], "trainable": false, "use_bias": false, "kernel_constraint": null, "activity_regularizer": null, "kernel_initializer": {"config": {"scale": 1.0, "distribution": "uniform", "seed": null, "mode": "fan_avg"}, "class_name": "VarianceScaling"}, "kernel_size": [1, 1]}, "class_name": "Conv2D", "inbound_nodes": [[["mixed3", 0, 0, {}]]]}, {"name": "conv2d_34", "config": {"dilation_rate": [1, 1], "padding": "same", "kernel_regularizer": null, "name": "conv2d_34", "bias_regularizer": null, "activation": "linear", "bias_constraint": null, "bias_initializer": {"config": {}, "class_name": "Zeros"}, "data_format": "channels_last", "filters": 192, "strides": [1, 1], "trainable": false, "use_bias": false, "kernel_constraint": null, "activity_regularizer": null, "kernel_initializer": {"config": {"scale": 1.0, "distribution": "uniform", "seed": null, "mode": "fan_avg"}, "class_name": "VarianceScaling"}, "kernel_size": [7, 1]}, "class_name": "Conv2D", "inbound_nodes": [[["activation_33", 0, 0, {}]]]}, {"name": "conv2d_39", "config": {"dilation_rate": [1, 1], "padding": "same", "kernel_regularizer": null, "name": "conv2d_39", "bias_regularizer": null, "activation": "linear", "bias_constraint": null, "bias_initializer": {"config": {}, "class_name": "Zeros"}, "data_format": "channels_last", "filters": 192, "strides": [1, 1], "trainable": false, "use_bias": false, "kernel_constraint": null, "activity_regularizer": null, "kernel_initializer": {"config": {"scale": 1.0, "distribution": "uniform", "seed": null, "mode": "fan_avg"}, "class_name": "VarianceScaling"}, "kernel_size": [1, 7]}, "class_name": "Conv2D", "inbound_nodes": [[["activation_38", 0, 0, {}]]]}, {"name": "conv2d_40", "config": {"dilation_rate": [1, 1], "padding": "same", "kernel_regularizer": null, "name": "conv2d_40", "bias_regularizer": null, "activation": "linear", "bias_constraint": null, "bias_initializer": {"config": {}, "class_name": "Zeros"}, "data_format": "channels_last", "filters": 192, "strides": [1, 1], "trainable": false, "use_bias": false, "kernel_constraint": null, "activity_regularizer": null, "kernel_initializer": {"config": {"scale": 1.0, "distribution": "uniform", "seed": null, "mode": "fan_avg"}, "class_name": "VarianceScaling"}, "kernel_size": [1, 1]}, "class_name": "Conv2D", "inbound_nodes": [[["average_pooling2d_4", 0, 0, {}]]]}, {"name": "batch_normalization_31", "config": {"gamma_constraint": null, "scale": false, "epsilon": 0.001, "name": "batch_normalization_31", "beta_initializer": {"config": {}, "class_name": "Zeros"}, "momentum": 0.99, "gamma_initializer": {"config": {}, "class_name": "Ones"}, "beta_constraint": null, "center": true, "gamma_regularizer": null, "moving_mean_initializer": {"config": {}, "class_name": "Zeros"}, "trainable": false, "beta_regularizer": null, "moving_variance_initializer": {"config": {}, "class_name": "Ones"}, "axis": 3}, "class_name": "BatchNormalization", "inbound_nodes": [[["conv2d_31", 0, 0, {}]]]}, {"name": "batch_normalization_34", "config": {"gamma_constraint": null, "scale": false, "epsilon": 0.001, "name": "batch_normalization_34", "beta_initializer": {"config": {}, "class_name": "Zeros"}, "momentum": 0.99, "gamma_initializer": {"config": {}, "class_name": "Ones"}, "beta_constraint": null, "center": true, "gamma_regularizer": null, "moving_mean_initializer": {"config": {}, "class_name": "Zeros"}, "trainable": false, "beta_regularizer": null, "moving_variance_initializer": {"config": {}, "class_name": "Ones"}, "axis": 3}, "class_name": "BatchNormalization", "inbound_nodes": [[["conv2d_34", 0, 0, {}]]]}, {"name": "batch_normalization_39", "config": {"gamma_constraint": null, "scale": false, "epsilon": 0.001, "name": "batch_normalization_39", "beta_initializer": {"config": {}, "class_name": "Zeros"}, "momentum": 0.99, "gamma_initializer": {"config": {}, "class_name": "Ones"}, "beta_constraint": null, "center": true, "gamma_regularizer": null, "moving_mean_initializer": {"config": {}, "class_name": "Zeros"}, "trainable": false, "beta_regularizer": null, "moving_variance_initializer": {"config": {}, "class_name": "Ones"}, "axis": 3}, "class_name": "BatchNormalization", "inbound_nodes": [[["conv2d_39", 0, 0, {}]]]}, {"name": "batch_normalization_40", "config": {"gamma_constraint": null, "scale": false, "epsilon": 0.001, "name": "batch_normalization_40", "beta_initializer": {"config": {}, "class_name": "Zeros"}, "momentum": 0.99, "gamma_initializer": {"config": {}, "class_name": "Ones"}, "beta_constraint": null, "center": true, "gamma_regularizer": null, "moving_mean_initializer": {"config": {}, "class_name": "Zeros"}, "trainable": false, "beta_regularizer": null, "moving_variance_initializer": {"config": {}, "class_name": "Ones"}, "axis": 3}, "class_name": "BatchNormalization", "inbound_nodes": [[["conv2d_40", 0, 0, {}]]]}, {"name": "activation_31", "config": {"name": "activation_31", "trainable": false, "activation": "relu"}, "class_name": "Activation", "inbound_nodes": [[["batch_normalization_31", 0, 0, {}]]]}, {"name": "activation_34", "config": {"name": "activation_34", "trainable": false, "activation": "relu"}, "class_name": "Activation", "inbound_nodes": [[["batch_normalization_34", 0, 0, {}]]]}, {"name": "activation_39", "config": {"name": "activation_39", "trainable": false, "activation": "relu"}, "class_name": "Activation", "inbound_nodes": [[["batch_normalization_39", 0, 0, {}]]]}, {"name": "activation_40", "config": {"name": "activation_40", "trainable": false, "activation": "relu"}, "class_name": "Activation", "inbound_nodes": [[["batch_normalization_40", 0, 0, {}]]]}, {"name": "mixed4", "config": {"name": "mixed4", "trainable": false, "axis": 3}, "class_name": "Concatenate", "inbound_nodes": [[["activation_31", 0, 0, {}], ["activation_34", 0, 0, {}], ["activation_39", 0, 0, {}], ["activation_40", 0, 0, {}]]]}, {"name": "conv2d_45", "config": {"dilation_rate": [1, 1], "padding": "same", "kernel_regularizer": null, "name": "conv2d_45", "bias_regularizer": null, "activation": "linear", "bias_constraint": null, "bias_initializer": {"config": {}, "class_name": "Zeros"}, "data_format": "channels_last", "filters": 160, "strides": [1, 1], "trainable": false, "use_bias": false, "kernel_constraint": null, "activity_regularizer": null, "kernel_initializer": {"config": {"scale": 1.0, "distribution": "uniform", "seed": null, "mode": "fan_avg"}, "class_name": "VarianceScaling"}, "kernel_size": [1, 1]}, "class_name": "Conv2D", "inbound_nodes": [[["mixed4", 0, 0, {}]]]}, {"name": "batch_normalization_45", "config": {"gamma_constraint": null, "scale": false, "epsilon": 0.001, "name": "batch_normalization_45", "beta_initializer": {"config": {}, "class_name": "Zeros"}, "momentum": 0.99, "gamma_initializer": {"config": {}, "class_name": "Ones"}, "beta_constraint": null, "center": true, "gamma_regularizer": null, "moving_mean_initializer": {"config": {}, "class_name": "Zeros"}, "trainable": false, "beta_regularizer": null, "moving_variance_initializer": {"config": {}, "class_name": "Ones"}, "axis": 3}, "class_name": "BatchNormalization", "inbound_nodes": [[["conv2d_45", 0, 0, {}]]]}, {"name": "activation_45", "config": {"name": "activation_45", "trainable": false, "activation": "relu"}, "class_name": "Activation", "inbound_nodes": [[["batch_normalization_45", 0, 0, {}]]]}, {"name": "conv2d_46", "config": {"dilation_rate": [1, 1], "padding": "same", "kernel_regularizer": null, "name": "conv2d_46", "bias_regularizer": null, "activation": "linear", "bias_constraint": null, "bias_initializer": {"config": {}, "class_name": "Zeros"}, "data_format": "channels_last", "filters": 160, "strides": [1, 1], "trainable": false, "use_bias": false, "kernel_constraint": null, "activity_regularizer": null, "kernel_initializer": {"config": {"scale": 1.0, "distribution": "uniform", "seed": null, "mode": "fan_avg"}, "class_name": "VarianceScaling"}, "kernel_size": [7, 1]}, "class_name": "Conv2D", "inbound_nodes": [[["activation_45", 0, 0, {}]]]}, {"name": "batch_normalization_46", "config": {"gamma_constraint": null, "scale": false, "epsilon": 0.001, "name": "batch_normalization_46", "beta_initializer": {"config": {}, "class_name": "Zeros"}, "momentum": 0.99, "gamma_initializer": {"config": {}, "class_name": "Ones"}, "beta_constraint": null, "center": true, "gamma_regularizer": null, "moving_mean_initializer": {"config": {}, "class_name": "Zeros"}, "trainable": false, "beta_regularizer": null, "moving_variance_initializer": {"config": {}, "class_name": "Ones"}, "axis": 3}, "class_name": "BatchNormalization", "inbound_nodes": [[["conv2d_46", 0, 0, {}]]]}, {"name": "activation_46", "config": {"name": "activation_46", "trainable": false, "activation": "relu"}, "class_name": "Activation", "inbound_nodes": [[["batch_normalization_46", 0, 0, {}]]]}, {"name": "conv2d_42", "config": {"dilation_rate": [1, 1], "padding": "same", "kernel_regularizer": null, "name": "conv2d_42", "bias_regularizer": null, "activation": "linear", "bias_constraint": null, "bias_initializer": {"config": {}, "class_name": "Zeros"}, "data_format": "channels_last", "filters": 160, "strides": [1, 1], "trainable": false, "use_bias": false, "kernel_constraint": null, "activity_regularizer": null, "kernel_initializer": {"config": {"scale": 1.0, "distribution": "uniform", "seed": null, "mode": "fan_avg"}, "class_name": "VarianceScaling"}, "kernel_size": [1, 1]}, "class_name": "Conv2D", "inbound_nodes": [[["mixed4", 0, 0, {}]]]}, {"name": "conv2d_47", "config": {"dilation_rate": [1, 1], "padding": "same", "kernel_regularizer": null, "name": "conv2d_47", "bias_regularizer": null, "activation": "linear", "bias_constraint": null, "bias_initializer": {"config": {}, "class_name": "Zeros"}, "data_format": "channels_last", "filters": 160, "strides": [1, 1], "trainable": false, "use_bias": false, "kernel_constraint": null, "activity_regularizer": null, "kernel_initializer": {"config": {"scale": 1.0, "distribution": "uniform", "seed": null, "mode": "fan_avg"}, "class_name": "VarianceScaling"}, "kernel_size": [1, 7]}, "class_name": "Conv2D", "inbound_nodes": [[["activation_46", 0, 0, {}]]]}, {"name": "batch_normalization_42", "config": {"gamma_constraint": null, "scale": false, "epsilon": 0.001, "name": "batch_normalization_42", "beta_initializer": {"config": {}, "class_name": "Zeros"}, "momentum": 0.99, "gamma_initializer": {"config": {}, "class_name": "Ones"}, "beta_constraint": null, "center": true, "gamma_regularizer": null, "moving_mean_initializer": {"config": {}, "class_name": "Zeros"}, "trainable": false, "beta_regularizer": null, "moving_variance_initializer": {"config": {}, "class_name": "Ones"}, "axis": 3}, "class_name": "BatchNormalization", "inbound_nodes": [[["conv2d_42", 0, 0, {}]]]}, {"name": "batch_normalization_47", "config": {"gamma_constraint": null, "scale": false, "epsilon": 0.001, "name": "batch_normalization_47", "beta_initializer": {"config": {}, "class_name": "Zeros"}, "momentum": 0.99, "gamma_initializer": {"config": {}, "class_name": "Ones"}, "beta_constraint": null, "center": true, "gamma_regularizer": null, "moving_mean_initializer": {"config": {}, "class_name": "Zeros"}, "trainable": false, "beta_regularizer": null, "moving_variance_initializer": {"config": {}, "class_name": "Ones"}, "axis": 3}, "class_name": "BatchNormalization", "inbound_nodes": [[["conv2d_47", 0, 0, {}]]]}, {"name": "activation_42", "config": {"name": "activation_42", "trainable": false, "activation": "relu"}, "class_name": "Activation", "inbound_nodes": [[["batch_normalization_42", 0, 0, {}]]]}, {"name": "activation_47", "config": {"name": "activation_47", "trainable": false, "activation": "relu"}, "class_name": "Activation", "inbound_nodes": [[["batch_normalization_47", 0, 0, {}]]]}, {"name": "conv2d_43", "config": {"dilation_rate": [1, 1], "padding": "same", "kernel_regularizer": null, "name": "conv2d_43", "bias_regularizer": null, "activation": "linear", "bias_constraint": null, "bias_initializer": {"config": {}, "class_name": "Zeros"}, "data_format": "channels_last", "filters": 160, "strides": [1, 1], "trainable": false, "use_bias": false, "kernel_constraint": null, "activity_regularizer": null, "kernel_initializer": {"config": {"scale": 1.0, "distribution": "uniform", "seed": null, "mode": "fan_avg"}, "class_name": "VarianceScaling"}, "kernel_size": [1, 7]}, "class_name": "Conv2D", "inbound_nodes": [[["activation_42", 0, 0, {}]]]}, {"name": "conv2d_48", "config": {"dilation_rate": [1, 1], "padding": "same", "kernel_regularizer": null, "name": "conv2d_48", "bias_regularizer": null, "activation": "linear", "bias_constraint": null, "bias_initializer": {"config": {}, "class_name": "Zeros"}, "data_format": "channels_last", "filters": 160, "strides": [1, 1], "trainable": false, "use_bias": false, "kernel_constraint": null, "activity_regularizer": null, "kernel_initializer": {"config": {"scale": 1.0, "distribution": "uniform", "seed": null, "mode": "fan_avg"}, "class_name": "VarianceScaling"}, "kernel_size": [7, 1]}, "class_name": "Conv2D", "inbound_nodes": [[["activation_47", 0, 0, {}]]]}, {"name": "batch_normalization_43", "config": {"gamma_constraint": null, "scale": false, "epsilon": 0.001, "name": "batch_normalization_43", "beta_initializer": {"config": {}, "class_name": "Zeros"}, "momentum": 0.99, "gamma_initializer": {"config": {}, "class_name": "Ones"}, "beta_constraint": null, "center": true, "gamma_regularizer": null, "moving_mean_initializer": {"config": {}, "class_name": "Zeros"}, "trainable": false, "beta_regularizer": null, "moving_variance_initializer": {"config": {}, "class_name": "Ones"}, "axis": 3}, "class_name": "BatchNormalization", "inbound_nodes": [[["conv2d_43", 0, 0, {}]]]}, {"name": "batch_normalization_48", "config": {"gamma_constraint": null, "scale": false, "epsilon": 0.001, "name": "batch_normalization_48", "beta_initializer": {"config": {}, "class_name": "Zeros"}, "momentum": 0.99, "gamma_initializer": {"config": {}, "class_name": "Ones"}, "beta_constraint": null, "center": true, "gamma_regularizer": null, "moving_mean_initializer": {"config": {}, "class_name": "Zeros"}, "trainable": false, "beta_regularizer": null, "moving_variance_initializer": {"config": {}, "class_name": "Ones"}, "axis": 3}, "class_name": "BatchNormalization", "inbound_nodes": [[["conv2d_48", 0, 0, {}]]]}, {"name": "activation_43", "config": {"name": "activation_43", "trainable": false, "activation": "relu"}, "class_name": "Activation", "inbound_nodes": [[["batch_normalization_43", 0, 0, {}]]]}, {"name": "activation_48", "config": {"name": "activation_48", "trainable": false, "activation": "relu"}, "class_name": "Activation", "inbound_nodes": [[["batch_normalization_48", 0, 0, {}]]]}, {"name": "average_pooling2d_5", "config": {"data_format": "channels_last", "strides": [1, 1], "padding": "same", "pool_size": [3, 3], "name": "average_pooling2d_5", "trainable": false}, "class_name": "AveragePooling2D", "inbound_nodes": [[["mixed4", 0, 0, {}]]]}, {"name": "conv2d_41", "config": {"dilation_rate": [1, 1], "padding": "same", "kernel_regularizer": null, "name": "conv2d_41", "bias_regularizer": null, "activation": "linear", "bias_constraint": null, "bias_initializer": {"config": {}, "class_name": "Zeros"}, "data_format": "channels_last", "filters": 192, "strides": [1, 1], "trainable": false, "use_bias": false, "kernel_constraint": null, "activity_regularizer": null, "kernel_initializer": {"config": {"scale": 1.0, "distribution": "uniform", "seed": null, "mode": "fan_avg"}, "class_name": "VarianceScaling"}, "kernel_size": [1, 1]}, "class_name": "Conv2D", "inbound_nodes": [[["mixed4", 0, 0, {}]]]}, {"name": "conv2d_44", "config": {"dilation_rate": [1, 1], "padding": "same", "kernel_regularizer": null, "name": "conv2d_44", "bias_regularizer": null, "activation": "linear", "bias_constraint": null, "bias_initializer": {"config": {}, "class_name": "Zeros"}, "data_format": "channels_last", "filters": 192, "strides": [1, 1], "trainable": false, "use_bias": false, "kernel_constraint": null, "activity_regularizer": null, "kernel_initializer": {"config": {"scale": 1.0, "distribution": "uniform", "seed": null, "mode": "fan_avg"}, "class_name": "VarianceScaling"}, "kernel_size": [7, 1]}, "class_name": "Conv2D", "inbound_nodes": [[["activation_43", 0, 0, {}]]]}, {"name": "conv2d_49", "config": {"dilation_rate": [1, 1], "padding": "same", "kernel_regularizer": null, "name": "conv2d_49", "bias_regularizer": null, "activation": "linear", "bias_constraint": null, "bias_initializer": {"config": {}, "class_name": "Zeros"}, "data_format": "channels_last", "filters": 192, "strides": [1, 1], "trainable": false, "use_bias": false, "kernel_constraint": null, "activity_regularizer": null, "kernel_initializer": {"config": {"scale": 1.0, "distribution": "uniform", "seed": null, "mode": "fan_avg"}, "class_name": "VarianceScaling"}, "kernel_size": [1, 7]}, "class_name": "Conv2D", "inbound_nodes": [[["activation_48", 0, 0, {}]]]}, {"name": "conv2d_50", "config": {"dilation_rate": [1, 1], "padding": "same", "kernel_regularizer": null, "name": "conv2d_50", "bias_regularizer": null, "activation": "linear", "bias_constraint": null, "bias_initializer": {"config": {}, "class_name": "Zeros"}, "data_format": "channels_last", "filters": 192, "strides": [1, 1], "trainable": false, "use_bias": false, "kernel_constraint": null, "activity_regularizer": null, "kernel_initializer": {"config": {"scale": 1.0, "distribution": "uniform", "seed": null, "mode": "fan_avg"}, "class_name": "VarianceScaling"}, "kernel_size": [1, 1]}, "class_name": "Conv2D", "inbound_nodes": [[["average_pooling2d_5", 0, 0, {}]]]}, {"name": "batch_normalization_41", "config": {"gamma_constraint": null, "scale": false, "epsilon": 0.001, "name": "batch_normalization_41", "beta_initializer": {"config": {}, "class_name": "Zeros"}, "momentum": 0.99, "gamma_initializer": {"config": {}, "class_name": "Ones"}, "beta_constraint": null, "center": true, "gamma_regularizer": null, "moving_mean_initializer": {"config": {}, "class_name": "Zeros"}, "trainable": false, "beta_regularizer": null, "moving_variance_initializer": {"config": {}, "class_name": "Ones"}, "axis": 3}, "class_name": "BatchNormalization", "inbound_nodes": [[["conv2d_41", 0, 0, {}]]]}, {"name": "batch_normalization_44", "config": {"gamma_constraint": null, "scale": false, "epsilon": 0.001, "name": "batch_normalization_44", "beta_initializer": {"config": {}, "class_name": "Zeros"}, "momentum": 0.99, "gamma_initializer": {"config": {}, "class_name": "Ones"}, "beta_constraint": null, "center": true, "gamma_regularizer": null, "moving_mean_initializer": {"config": {}, "class_name": "Zeros"}, "trainable": false, "beta_regularizer": null, "moving_variance_initializer": {"config": {}, "class_name": "Ones"}, "axis": 3}, "class_name": "BatchNormalization", "inbound_nodes": [[["conv2d_44", 0, 0, {}]]]}, {"name": "batch_normalization_49", "config": {"gamma_constraint": null, "scale": false, "epsilon": 0.001, "name": "batch_normalization_49", "beta_initializer": {"config": {}, "class_name": "Zeros"}, "momentum": 0.99, "gamma_initializer": {"config": {}, "class_name": "Ones"}, "beta_constraint": null, "center": true, "gamma_regularizer": null, "moving_mean_initializer": {"config": {}, "class_name": "Zeros"}, "trainable": false, "beta_regularizer": null, "moving_variance_initializer": {"config": {}, "class_name": "Ones"}, "axis": 3}, "class_name": "BatchNormalization", "inbound_nodes": [[["conv2d_49", 0, 0, {}]]]}, {"name": "batch_normalization_50", "config": {"gamma_constraint": null, "scale": false, "epsilon": 0.001, "name": "batch_normalization_50", "beta_initializer": {"config": {}, "class_name": "Zeros"}, "momentum": 0.99, "gamma_initializer": {"config": {}, "class_name": "Ones"}, "beta_constraint": null, "center": true, "gamma_regularizer": null, "moving_mean_initializer": {"config": {}, "class_name": "Zeros"}, "trainable": false, "beta_regularizer": null, "moving_variance_initializer": {"config": {}, "class_name": "Ones"}, "axis": 3}, "class_name": "BatchNormalization", "inbound_nodes": [[["conv2d_50", 0, 0, {}]]]}, {"name": "activation_41", "config": {"name": "activation_41", "trainable": false, "activation": "relu"}, "class_name": "Activation", "inbound_nodes": [[["batch_normalization_41", 0, 0, {}]]]}, {"name": "activation_44", "config": {"name": "activation_44", "trainable": false, "activation": "relu"}, "class_name": "Activation", "inbound_nodes": [[["batch_normalization_44", 0, 0, {}]]]}, {"name": "activation_49", "config": {"name": "activation_49", "trainable": false, "activation": "relu"}, "class_name": "Activation", "inbound_nodes": [[["batch_normalization_49", 0, 0, {}]]]}, {"name": "activation_50", "config": {"name": "activation_50", "trainable": false, "activation": "relu"}, "class_name": "Activation", "inbound_nodes": [[["batch_normalization_50", 0, 0, {}]]]}, {"name": "mixed5", "config": {"name": "mixed5", "trainable": false, "axis": 3}, "class_name": "Concatenate", "inbound_nodes": [[["activation_41", 0, 0, {}], ["activation_44", 0, 0, {}], ["activation_49", 0, 0, {}], ["activation_50", 0, 0, {}]]]}, {"name": "conv2d_55", "config": {"dilation_rate": [1, 1], "padding": "same", "kernel_regularizer": null, "name": "conv2d_55", "bias_regularizer": null, "activation": "linear", "bias_constraint": null, "bias_initializer": {"config": {}, "class_name": "Zeros"}, "data_format": "channels_last", "filters": 160, "strides": [1, 1], "trainable": false, "use_bias": false, "kernel_constraint": null, "activity_regularizer": null, "kernel_initializer": {"config": {"scale": 1.0, "distribution": "uniform", "seed": null, "mode": "fan_avg"}, "class_name": "VarianceScaling"}, "kernel_size": [1, 1]}, "class_name": "Conv2D", "inbound_nodes": [[["mixed5", 0, 0, {}]]]}, {"name": "batch_normalization_55", "config": {"gamma_constraint": null, "scale": false, "epsilon": 0.001, "name": "batch_normalization_55", "beta_initializer": {"config": {}, "class_name": "Zeros"}, "momentum": 0.99, "gamma_initializer": {"config": {}, "class_name": "Ones"}, "beta_constraint": null, "center": true, "gamma_regularizer": null, "moving_mean_initializer": {"config": {}, "class_name": "Zeros"}, "trainable": false, "beta_regularizer": null, "moving_variance_initializer": {"config": {}, "class_name": "Ones"}, "axis": 3}, "class_name": "BatchNormalization", "inbound_nodes": [[["conv2d_55", 0, 0, {}]]]}, {"name": "activation_55", "config": {"name": "activation_55", "trainable": false, "activation": "relu"}, "class_name": "Activation", "inbound_nodes": [[["batch_normalization_55", 0, 0, {}]]]}, {"name": "conv2d_56", "config": {"dilation_rate": [1, 1], "padding": "same", "kernel_regularizer": null, "name": "conv2d_56", "bias_regularizer": null, "activation": "linear", "bias_constraint": null, "bias_initializer": {"config": {}, "class_name": "Zeros"}, "data_format": "channels_last", "filters": 160, "strides": [1, 1], "trainable": false, "use_bias": false, "kernel_constraint": null, "activity_regularizer": null, "kernel_initializer": {"config": {"scale": 1.0, "distribution": "uniform", "seed": null, "mode": "fan_avg"}, "class_name": "VarianceScaling"}, "kernel_size": [7, 1]}, "class_name": "Conv2D", "inbound_nodes": [[["activation_55", 0, 0, {}]]]}, {"name": "batch_normalization_56", "config": {"gamma_constraint": null, "scale": false, "epsilon": 0.001, "name": "batch_normalization_56", "beta_initializer": {"config": {}, "class_name": "Zeros"}, "momentum": 0.99, "gamma_initializer": {"config": {}, "class_name": "Ones"}, "beta_constraint": null, "center": true, "gamma_regularizer": null, "moving_mean_initializer": {"config": {}, "class_name": "Zeros"}, "trainable": false, "beta_regularizer": null, "moving_variance_initializer": {"config": {}, "class_name": "Ones"}, "axis": 3}, "class_name": "BatchNormalization", "inbound_nodes": [[["conv2d_56", 0, 0, {}]]]}, {"name": "activation_56", "config": {"name": "activation_56", "trainable": false, "activation": "relu"}, "class_name": "Activation", "inbound_nodes": [[["batch_normalization_56", 0, 0, {}]]]}, {"name": "conv2d_52", "config": {"dilation_rate": [1, 1], "padding": "same", "kernel_regularizer": null, "name": "conv2d_52", "bias_regularizer": null, "activation": "linear", "bias_constraint": null, "bias_initializer": {"config": {}, "class_name": "Zeros"}, "data_format": "channels_last", "filters": 160, "strides": [1, 1], "trainable": false, "use_bias": false, "kernel_constraint": null, "activity_regularizer": null, "kernel_initializer": {"config": {"scale": 1.0, "distribution": "uniform", "seed": null, "mode": "fan_avg"}, "class_name": "VarianceScaling"}, "kernel_size": [1, 1]}, "class_name": "Conv2D", "inbound_nodes": [[["mixed5", 0, 0, {}]]]}, {"name": "conv2d_57", "config": {"dilation_rate": [1, 1], "padding": "same", "kernel_regularizer": null, "name": "conv2d_57", "bias_regularizer": null, "activation": "linear", "bias_constraint": null, "bias_initializer": {"config": {}, "class_name": "Zeros"}, "data_format": "channels_last", "filters": 160, "strides": [1, 1], "trainable": true, "use_bias": false, "kernel_constraint": null, "activity_regularizer": null, "kernel_initializer": {"config": {"scale": 1.0, "distribution": "uniform", "seed": null, "mode": "fan_avg"}, "class_name": "VarianceScaling"}, "kernel_size": [1, 7]}, "class_name": "Conv2D", "inbound_nodes": [[["activation_56", 0, 0, {}]]]}, {"name": "batch_normalization_52", "config": {"gamma_constraint": null, "scale": false, "epsilon": 0.001, "name": "batch_normalization_52", "beta_initializer": {"config": {}, "class_name": "Zeros"}, "momentum": 0.99, "gamma_initializer": {"config": {}, "class_name": "Ones"}, "beta_constraint": null, "center": true, "gamma_regularizer": null, "moving_mean_initializer": {"config": {}, "class_name": "Zeros"}, "trainable": true, "beta_regularizer": null, "moving_variance_initializer": {"config": {}, "class_name": "Ones"}, "axis": 3}, "class_name": "BatchNormalization", "inbound_nodes": [[["conv2d_52", 0, 0, {}]]]}, {"name": "batch_normalization_57", "config": {"gamma_constraint": null, "scale": false, "epsilon": 0.001, "name": "batch_normalization_57", "beta_initializer": {"config": {}, "class_name": "Zeros"}, "momentum": 0.99, "gamma_initializer": {"config": {}, "class_name": "Ones"}, "beta_constraint": null, "center": true, "gamma_regularizer": null, "moving_mean_initializer": {"config": {}, "class_name": "Zeros"}, "trainable": true, "beta_regularizer": null, "moving_variance_initializer": {"config": {}, "class_name": "Ones"}, "axis": 3}, "class_name": "BatchNormalization", "inbound_nodes": [[["conv2d_57", 0, 0, {}]]]}, {"name": "activation_52", "config": {"name": "activation_52", "trainable": true, "activation": "relu"}, "class_name": "Activation", "inbound_nodes": [[["batch_normalization_52", 0, 0, {}]]]}, {"name": "activation_57", "config": {"name": "activation_57", "trainable": true, "activation": "relu"}, "class_name": "Activation", "inbound_nodes": [[["batch_normalization_57", 0, 0, {}]]]}, {"name": "conv2d_53", "config": {"dilation_rate": [1, 1], "padding": "same", "kernel_regularizer": null, "name": "conv2d_53", "bias_regularizer": null, "activation": "linear", "bias_constraint": null, "bias_initializer": {"config": {}, "class_name": "Zeros"}, "data_format": "channels_last", "filters": 160, "strides": [1, 1], "trainable": true, "use_bias": false, "kernel_constraint": null, "activity_regularizer": null, "kernel_initializer": {"config": {"scale": 1.0, "distribution": "uniform", "seed": null, "mode": "fan_avg"}, "class_name": "VarianceScaling"}, "kernel_size": [1, 7]}, "class_name": "Conv2D", "inbound_nodes": [[["activation_52", 0, 0, {}]]]}, {"name": "conv2d_58", "config": {"dilation_rate": [1, 1], "padding": "same", "kernel_regularizer": null, "name": "conv2d_58", "bias_regularizer": null, "activation": "linear", "bias_constraint": null, "bias_initializer": {"config": {}, "class_name": "Zeros"}, "data_format": "channels_last", "filters": 160, "strides": [1, 1], "trainable": true, "use_bias": false, "kernel_constraint": null, "activity_regularizer": null, "kernel_initializer": {"config": {"scale": 1.0, "distribution": "uniform", "seed": null, "mode": "fan_avg"}, "class_name": "VarianceScaling"}, "kernel_size": [7, 1]}, "class_name": "Conv2D", "inbound_nodes": [[["activation_57", 0, 0, {}]]]}, {"name": "batch_normalization_53", "config": {"gamma_constraint": null, "scale": false, "epsilon": 0.001, "name": "batch_normalization_53", "beta_initializer": {"config": {}, "class_name": "Zeros"}, "momentum": 0.99, "gamma_initializer": {"config": {}, "class_name": "Ones"}, "beta_constraint": null, "center": true, "gamma_regularizer": null, "moving_mean_initializer": {"config": {}, "class_name": "Zeros"}, "trainable": true, "beta_regularizer": null, "moving_variance_initializer": {"config": {}, "class_name": "Ones"}, "axis": 3}, "class_name": "BatchNormalization", "inbound_nodes": [[["conv2d_53", 0, 0, {}]]]}, {"name": "batch_normalization_58", "config": {"gamma_constraint": null, "scale": false, "epsilon": 0.001, "name": "batch_normalization_58", "beta_initializer": {"config": {}, "class_name": "Zeros"}, "momentum": 0.99, "gamma_initializer": {"config": {}, "class_name": "Ones"}, "beta_constraint": null, "center": true, "gamma_regularizer": null, "moving_mean_initializer": {"config": {}, "class_name": "Zeros"}, "trainable": true, "beta_regularizer": null, "moving_variance_initializer": {"config": {}, "class_name": "Ones"}, "axis": 3}, "class_name": "BatchNormalization", "inbound_nodes": [[["conv2d_58", 0, 0, {}]]]}, {"name": "activation_53", "config": {"name": "activation_53", "trainable": true, "activation": "relu"}, "class_name": "Activation", "inbound_nodes": [[["batch_normalization_53", 0, 0, {}]]]}, {"name": "activation_58", "config": {"name": "activation_58", "trainable": true, "activation": "relu"}, "class_name": "Activation", "inbound_nodes": [[["batch_normalization_58", 0, 0, {}]]]}, {"name": "average_pooling2d_6", "config": {"data_format": "channels_last", "strides": [1, 1], "padding": "same", "pool_size": [3, 3], "name": "average_pooling2d_6", "trainable": true}, "class_name": "AveragePooling2D", "inbound_nodes": [[["mixed5", 0, 0, {}]]]}, {"name": "conv2d_51", "config": {"dilation_rate": [1, 1], "padding": "same", "kernel_regularizer": null, "name": "conv2d_51", "bias_regularizer": null, "activation": "linear", "bias_constraint": null, "bias_initializer": {"config": {}, "class_name": "Zeros"}, "data_format": "channels_last", "filters": 192, "strides": [1, 1], "trainable": true, "use_bias": false, "kernel_constraint": null, "activity_regularizer": null, "kernel_initializer": {"config": {"scale": 1.0, "distribution": "uniform", "seed": null, "mode": "fan_avg"}, "class_name": "VarianceScaling"}, "kernel_size": [1, 1]}, "class_name": "Conv2D", "inbound_nodes": [[["mixed5", 0, 0, {}]]]}, {"name": "conv2d_54", "config": {"dilation_rate": [1, 1], "padding": "same", "kernel_regularizer": null, "name": "conv2d_54", "bias_regularizer": null, "activation": "linear", "bias_constraint": null, "bias_initializer": {"config": {}, "class_name": "Zeros"}, "data_format": "channels_last", "filters": 192, "strides": [1, 1], "trainable": true, "use_bias": false, "kernel_constraint": null, "activity_regularizer": null, "kernel_initializer": {"config": {"scale": 1.0, "distribution": "uniform", "seed": null, "mode": "fan_avg"}, "class_name": "VarianceScaling"}, "kernel_size": [7, 1]}, "class_name": "Conv2D", "inbound_nodes": [[["activation_53", 0, 0, {}]]]}, {"name": "conv2d_59", "config": {"dilation_rate": [1, 1], "padding": "same", "kernel_regularizer": null, "name": "conv2d_59", "bias_regularizer": null, "activation": "linear", "bias_constraint": null, "bias_initializer": {"config": {}, "class_name": "Zeros"}, "data_format": "channels_last", "filters": 192, "strides": [1, 1], "trainable": true, "use_bias": false, "kernel_constraint": null, "activity_regularizer": null, "kernel_initializer": {"config": {"scale": 1.0, "distribution": "uniform", "seed": null, "mode": "fan_avg"}, "class_name": "VarianceScaling"}, "kernel_size": [1, 7]}, "class_name": "Conv2D", "inbound_nodes": [[["activation_58", 0, 0, {}]]]}, {"name": "conv2d_60", "config": {"dilation_rate": [1, 1], "padding": "same", "kernel_regularizer": null, "name": "conv2d_60", "bias_regularizer": null, "activation": "linear", "bias_constraint": null, "bias_initializer": {"config": {}, "class_name": "Zeros"}, "data_format": "channels_last", "filters": 192, "strides": [1, 1], "trainable": true, "use_bias": false, "kernel_constraint": null, "activity_regularizer": null, "kernel_initializer": {"config": {"scale": 1.0, "distribution": "uniform", "seed": null, "mode": "fan_avg"}, "class_name": "VarianceScaling"}, "kernel_size": [1, 1]}, "class_name": "Conv2D", "inbound_nodes": [[["average_pooling2d_6", 0, 0, {}]]]}, {"name": "batch_normalization_51", "config": {"gamma_constraint": null, "scale": false, "epsilon": 0.001, "name": "batch_normalization_51", "beta_initializer": {"config": {}, "class_name": "Zeros"}, "momentum": 0.99, "gamma_initializer": {"config": {}, "class_name": "Ones"}, "beta_constraint": null, "center": true, "gamma_regularizer": null, "moving_mean_initializer": {"config": {}, "class_name": "Zeros"}, "trainable": true, "beta_regularizer": null, "moving_variance_initializer": {"config": {}, "class_name": "Ones"}, "axis": 3}, "class_name": "BatchNormalization", "inbound_nodes": [[["conv2d_51", 0, 0, {}]]]}, {"name": "batch_normalization_54", "config": {"gamma_constraint": null, "scale": false, "epsilon": 0.001, "name": "batch_normalization_54", "beta_initializer": {"config": {}, "class_name": "Zeros"}, "momentum": 0.99, "gamma_initializer": {"config": {}, "class_name": "Ones"}, "beta_constraint": null, "center": true, "gamma_regularizer": null, "moving_mean_initializer": {"config": {}, "class_name": "Zeros"}, "trainable": true, "beta_regularizer": null, "moving_variance_initializer": {"config": {}, "class_name": "Ones"}, "axis": 3}, "class_name": "BatchNormalization", "inbound_nodes": [[["conv2d_54", 0, 0, {}]]]}, {"name": "batch_normalization_59", "config": {"gamma_constraint": null, "scale": false, "epsilon": 0.001, "name": "batch_normalization_59", "beta_initializer": {"config": {}, "class_name": "Zeros"}, "momentum": 0.99, "gamma_initializer": {"config": {}, "class_name": "Ones"}, "beta_constraint": null, "center": true, "gamma_regularizer": null, "moving_mean_initializer": {"config": {}, "class_name": "Zeros"}, "trainable": true, "beta_regularizer": null, "moving_variance_initializer": {"config": {}, "class_name": "Ones"}, "axis": 3}, "class_name": "BatchNormalization", "inbound_nodes": [[["conv2d_59", 0, 0, {}]]]}, {"name": "batch_normalization_60", "config": {"gamma_constraint": null, "scale": false, "epsilon": 0.001, "name": "batch_normalization_60", "beta_initializer": {"config": {}, "class_name": "Zeros"}, "momentum": 0.99, "gamma_initializer": {"config": {}, "class_name": "Ones"}, "beta_constraint": null, "center": true, "gamma_regularizer": null, "moving_mean_initializer": {"config": {}, "class_name": "Zeros"}, "trainable": true, "beta_regularizer": null, "moving_variance_initializer": {"config": {}, "class_name": "Ones"}, "axis": 3}, "class_name": "BatchNormalization", "inbound_nodes": [[["conv2d_60", 0, 0, {}]]]}, {"name": "activation_51", "config": {"name": "activation_51", "trainable": true, "activation": "relu"}, "class_name": "Activation", "inbound_nodes": [[["batch_normalization_51", 0, 0, {}]]]}, {"name": "activation_54", "config": {"name": "activation_54", "trainable": true, "activation": "relu"}, "class_name": "Activation", "inbound_nodes": [[["batch_normalization_54", 0, 0, {}]]]}, {"name": "activation_59", "config": {"name": "activation_59", "trainable": true, "activation": "relu"}, "class_name": "Activation", "inbound_nodes": [[["batch_normalization_59", 0, 0, {}]]]}, {"name": "activation_60", "config": {"name": "activation_60", "trainable": true, "activation": "relu"}, "class_name": "Activation", "inbound_nodes": [[["batch_normalization_60", 0, 0, {}]]]}, {"name": "mixed6", "config": {"name": "mixed6", "trainable": true, "axis": 3}, "class_name": "Concatenate", "inbound_nodes": [[["activation_51", 0, 0, {}], ["activation_54", 0, 0, {}], ["activation_59", 0, 0, {}], ["activation_60", 0, 0, {}]]]}, {"name": "conv2d_65", "config": {"dilation_rate": [1, 1], "padding": "same", "kernel_regularizer": null, "name": "conv2d_65", "bias_regularizer": null, "activation": "linear", "bias_constraint": null, "bias_initializer": {"config": {}, "class_name": "Zeros"}, "data_format": "channels_last", "filters": 192, "strides": [1, 1], "trainable": true, "use_bias": false, "kernel_constraint": null, "activity_regularizer": null, "kernel_initializer": {"config": {"scale": 1.0, "distribution": "uniform", "seed": null, "mode": "fan_avg"}, "class_name": "VarianceScaling"}, "kernel_size": [1, 1]}, "class_name": "Conv2D", "inbound_nodes": [[["mixed6", 0, 0, {}]]]}, {"name": "batch_normalization_65", "config": {"gamma_constraint": null, "scale": false, "epsilon": 0.001, "name": "batch_normalization_65", "beta_initializer": {"config": {}, "class_name": "Zeros"}, "momentum": 0.99, "gamma_initializer": {"config": {}, "class_name": "Ones"}, "beta_constraint": null, "center": true, "gamma_regularizer": null, "moving_mean_initializer": {"config": {}, "class_name": "Zeros"}, "trainable": true, "beta_regularizer": null, "moving_variance_initializer": {"config": {}, "class_name": "Ones"}, "axis": 3}, "class_name": "BatchNormalization", "inbound_nodes": [[["conv2d_65", 0, 0, {}]]]}, {"name": "activation_65", "config": {"name": "activation_65", "trainable": true, "activation": "relu"}, "class_name": "Activation", "inbound_nodes": [[["batch_normalization_65", 0, 0, {}]]]}, {"name": "conv2d_66", "config": {"dilation_rate": [1, 1], "padding": "same", "kernel_regularizer": null, "name": "conv2d_66", "bias_regularizer": null, "activation": "linear", "bias_constraint": null, "bias_initializer": {"config": {}, "class_name": "Zeros"}, "data_format": "channels_last", "filters": 192, "strides": [1, 1], "trainable": true, "use_bias": false, "kernel_constraint": null, "activity_regularizer": null, "kernel_initializer": {"config": {"scale": 1.0, "distribution": "uniform", "seed": null, "mode": "fan_avg"}, "class_name": "VarianceScaling"}, "kernel_size": [7, 1]}, "class_name": "Conv2D", "inbound_nodes": [[["activation_65", 0, 0, {}]]]}, {"name": "batch_normalization_66", "config": {"gamma_constraint": null, "scale": false, "epsilon": 0.001, "name": "batch_normalization_66", "beta_initializer": {"config": {}, "class_name": "Zeros"}, "momentum": 0.99, "gamma_initializer": {"config": {}, "class_name": "Ones"}, "beta_constraint": null, "center": true, "gamma_regularizer": null, "moving_mean_initializer": {"config": {}, "class_name": "Zeros"}, "trainable": true, "beta_regularizer": null, "moving_variance_initializer": {"config": {}, "class_name": "Ones"}, "axis": 3}, "class_name": "BatchNormalization", "inbound_nodes": [[["conv2d_66", 0, 0, {}]]]}, {"name": "activation_66", "config": {"name": "activation_66", "trainable": true, "activation": "relu"}, "class_name": "Activation", "inbound_nodes": [[["batch_normalization_66", 0, 0, {}]]]}, {"name": "conv2d_62", "config": {"dilation_rate": [1, 1], "padding": "same", "kernel_regularizer": null, "name": "conv2d_62", "bias_regularizer": null, "activation": "linear", "bias_constraint": null, "bias_initializer": {"config": {}, "class_name": "Zeros"}, "data_format": "channels_last", "filters": 192, "strides": [1, 1], "trainable": true, "use_bias": false, "kernel_constraint": null, "activity_regularizer": null, "kernel_initializer": {"config": {"scale": 1.0, "distribution": "uniform", "seed": null, "mode": "fan_avg"}, "class_name": "VarianceScaling"}, "kernel_size": [1, 1]}, "class_name": "Conv2D", "inbound_nodes": [[["mixed6", 0, 0, {}]]]}, {"name": "conv2d_67", "config": {"dilation_rate": [1, 1], "padding": "same", "kernel_regularizer": null, "name": "conv2d_67", "bias_regularizer": null, "activation": "linear", "bias_constraint": null, "bias_initializer": {"config": {}, "class_name": "Zeros"}, "data_format": "channels_last", "filters": 192, "strides": [1, 1], "trainable": true, "use_bias": false, "kernel_constraint": null, "activity_regularizer": null, "kernel_initializer": {"config": {"scale": 1.0, "distribution": "uniform", "seed": null, "mode": "fan_avg"}, "class_name": "VarianceScaling"}, "kernel_size": [1, 7]}, "class_name": "Conv2D", "inbound_nodes": [[["activation_66", 0, 0, {}]]]}, {"name": "batch_normalization_62", "config": {"gamma_constraint": null, "scale": false, "epsilon": 0.001, "name": "batch_normalization_62", "beta_initializer": {"config": {}, "class_name": "Zeros"}, "momentum": 0.99, "gamma_initializer": {"config": {}, "class_name": "Ones"}, "beta_constraint": null, "center": true, "gamma_regularizer": null, "moving_mean_initializer": {"config": {}, "class_name": "Zeros"}, "trainable": true, "beta_regularizer": null, "moving_variance_initializer": {"config": {}, "class_name": "Ones"}, "axis": 3}, "class_name": "BatchNormalization", "inbound_nodes": [[["conv2d_62", 0, 0, {}]]]}, {"name": "batch_normalization_67", "config": {"gamma_constraint": null, "scale": false, "epsilon": 0.001, "name": "batch_normalization_67", "beta_initializer": {"config": {}, "class_name": "Zeros"}, "momentum": 0.99, "gamma_initializer": {"config": {}, "class_name": "Ones"}, "beta_constraint": null, "center": true, "gamma_regularizer": null, "moving_mean_initializer": {"config": {}, "class_name": "Zeros"}, "trainable": true, "beta_regularizer": null, "moving_variance_initializer": {"config": {}, "class_name": "Ones"}, "axis": 3}, "class_name": "BatchNormalization", "inbound_nodes": [[["conv2d_67", 0, 0, {}]]]}, {"name": "activation_62", "config": {"name": "activation_62", "trainable": true, "activation": "relu"}, "class_name": "Activation", "inbound_nodes": [[["batch_normalization_62", 0, 0, {}]]]}, {"name": "activation_67", "config": {"name": "activation_67", "trainable": true, "activation": "relu"}, "class_name": "Activation", "inbound_nodes": [[["batch_normalization_67", 0, 0, {}]]]}, {"name": "conv2d_63", "config": {"dilation_rate": [1, 1], "padding": "same", "kernel_regularizer": null, "name": "conv2d_63", "bias_regularizer": null, "activation": "linear", "bias_constraint": null, "bias_initializer": {"config": {}, "class_name": "Zeros"}, "data_format": "channels_last", "filters": 192, "strides": [1, 1], "trainable": true, "use_bias": false, "kernel_constraint": null, "activity_regularizer": null, "kernel_initializer": {"config": {"scale": 1.0, "distribution": "uniform", "seed": null, "mode": "fan_avg"}, "class_name": "VarianceScaling"}, "kernel_size": [1, 7]}, "class_name": "Conv2D", "inbound_nodes": [[["activation_62", 0, 0, {}]]]}, {"name": "conv2d_68", "config": {"dilation_rate": [1, 1], "padding": "same", "kernel_regularizer": null, "name": "conv2d_68", "bias_regularizer": null, "activation": "linear", "bias_constraint": null, "bias_initializer": {"config": {}, "class_name": "Zeros"}, "data_format": "channels_last", "filters": 192, "strides": [1, 1], "trainable": true, "use_bias": false, "kernel_constraint": null, "activity_regularizer": null, "kernel_initializer": {"config": {"scale": 1.0, "distribution": "uniform", "seed": null, "mode": "fan_avg"}, "class_name": "VarianceScaling"}, "kernel_size": [7, 1]}, "class_name": "Conv2D", "inbound_nodes": [[["activation_67", 0, 0, {}]]]}, {"name": "batch_normalization_63", "config": {"gamma_constraint": null, "scale": false, "epsilon": 0.001, "name": "batch_normalization_63", "beta_initializer": {"config": {}, "class_name": "Zeros"}, "momentum": 0.99, "gamma_initializer": {"config": {}, "class_name": "Ones"}, "beta_constraint": null, "center": true, "gamma_regularizer": null, "moving_mean_initializer": {"config": {}, "class_name": "Zeros"}, "trainable": true, "beta_regularizer": null, "moving_variance_initializer": {"config": {}, "class_name": "Ones"}, "axis": 3}, "class_name": "BatchNormalization", "inbound_nodes": [[["conv2d_63", 0, 0, {}]]]}, {"name": "batch_normalization_68", "config": {"gamma_constraint": null, "scale": false, "epsilon": 0.001, "name": "batch_normalization_68", "beta_initializer": {"config": {}, "class_name": "Zeros"}, "momentum": 0.99, "gamma_initializer": {"config": {}, "class_name": "Ones"}, "beta_constraint": null, "center": true, "gamma_regularizer": null, "moving_mean_initializer": {"config": {}, "class_name": "Zeros"}, "trainable": true, "beta_regularizer": null, "moving_variance_initializer": {"config": {}, "class_name": "Ones"}, "axis": 3}, "class_name": "BatchNormalization", "inbound_nodes": [[["conv2d_68", 0, 0, {}]]]}, {"name": "activation_63", "config": {"name": "activation_63", "trainable": true, "activation": "relu"}, "class_name": "Activation", "inbound_nodes": [[["batch_normalization_63", 0, 0, {}]]]}, {"name": "activation_68", "config": {"name": "activation_68", "trainable": true, "activation": "relu"}, "class_name": "Activation", "inbound_nodes": [[["batch_normalization_68", 0, 0, {}]]]}, {"name": "average_pooling2d_7", "config": {"data_format": "channels_last", "strides": [1, 1], "padding": "same", "pool_size": [3, 3], "name": "average_pooling2d_7", "trainable": true}, "class_name": "AveragePooling2D", "inbound_nodes": [[["mixed6", 0, 0, {}]]]}, {"name": "conv2d_61", "config": {"dilation_rate": [1, 1], "padding": "same", "kernel_regularizer": null, "name": "conv2d_61", "bias_regularizer": null, "activation": "linear", "bias_constraint": null, "bias_initializer": {"config": {}, "class_name": "Zeros"}, "data_format": "channels_last", "filters": 192, "strides": [1, 1], "trainable": true, "use_bias": false, "kernel_constraint": null, "activity_regularizer": null, "kernel_initializer": {"config": {"scale": 1.0, "distribution": "uniform", "seed": null, "mode": "fan_avg"}, "class_name": "VarianceScaling"}, "kernel_size": [1, 1]}, "class_name": "Conv2D", "inbound_nodes": [[["mixed6", 0, 0, {}]]]}, {"name": "conv2d_64", "config": {"dilation_rate": [1, 1], "padding": "same", "kernel_regularizer": null, "name": "conv2d_64", "bias_regularizer": null, "activation": "linear", "bias_constraint": null, "bias_initializer": {"config": {}, "class_name": "Zeros"}, "data_format": "channels_last", "filters": 192, "strides": [1, 1], "trainable": true, "use_bias": false, "kernel_constraint": null, "activity_regularizer": null, "kernel_initializer": {"config": {"scale": 1.0, "distribution": "uniform", "seed": null, "mode": "fan_avg"}, "class_name": "VarianceScaling"}, "kernel_size": [7, 1]}, "class_name": "Conv2D", "inbound_nodes": [[["activation_63", 0, 0, {}]]]}, {"name": "conv2d_69", "config": {"dilation_rate": [1, 1], "padding": "same", "kernel_regularizer": null, "name": "conv2d_69", "bias_regularizer": null, "activation": "linear", "bias_constraint": null, "bias_initializer": {"config": {}, "class_name": "Zeros"}, "data_format": "channels_last", "filters": 192, "strides": [1, 1], "trainable": true, "use_bias": false, "kernel_constraint": null, "activity_regularizer": null, "kernel_initializer": {"config": {"scale": 1.0, "distribution": "uniform", "seed": null, "mode": "fan_avg"}, "class_name": "VarianceScaling"}, "kernel_size": [1, 7]}, "class_name": "Conv2D", "inbound_nodes": [[["activation_68", 0, 0, {}]]]}, {"name": "conv2d_70", "config": {"dilation_rate": [1, 1], "padding": "same", "kernel_regularizer": null, "name": "conv2d_70", "bias_regularizer": null, "activation": "linear", "bias_constraint": null, "bias_initializer": {"config": {}, "class_name": "Zeros"}, "data_format": "channels_last", "filters": 192, "strides": [1, 1], "trainable": true, "use_bias": false, "kernel_constraint": null, "activity_regularizer": null, "kernel_initializer": {"config": {"scale": 1.0, "distribution": "uniform", "seed": null, "mode": "fan_avg"}, "class_name": "VarianceScaling"}, "kernel_size": [1, 1]}, "class_name": "Conv2D", "inbound_nodes": [[["average_pooling2d_7", 0, 0, {}]]]}, {"name": "batch_normalization_61", "config": {"gamma_constraint": null, "scale": false, "epsilon": 0.001, "name": "batch_normalization_61", "beta_initializer": {"config": {}, "class_name": "Zeros"}, "momentum": 0.99, "gamma_initializer": {"config": {}, "class_name": "Ones"}, "beta_constraint": null, "center": true, "gamma_regularizer": null, "moving_mean_initializer": {"config": {}, "class_name": "Zeros"}, "trainable": true, "beta_regularizer": null, "moving_variance_initializer": {"config": {}, "class_name": "Ones"}, "axis": 3}, "class_name": "BatchNormalization", "inbound_nodes": [[["conv2d_61", 0, 0, {}]]]}, {"name": "batch_normalization_64", "config": {"gamma_constraint": null, "scale": false, "epsilon": 0.001, "name": "batch_normalization_64", "beta_initializer": {"config": {}, "class_name": "Zeros"}, "momentum": 0.99, "gamma_initializer": {"config": {}, "class_name": "Ones"}, "beta_constraint": null, "center": true, "gamma_regularizer": null, "moving_mean_initializer": {"config": {}, "class_name": "Zeros"}, "trainable": true, "beta_regularizer": null, "moving_variance_initializer": {"config": {}, "class_name": "Ones"}, "axis": 3}, "class_name": "BatchNormalization", "inbound_nodes": [[["conv2d_64", 0, 0, {}]]]}, {"name": "batch_normalization_69", "config": {"gamma_constraint": null, "scale": false, "epsilon": 0.001, "name": "batch_normalization_69", "beta_initializer": {"config": {}, "class_name": "Zeros"}, "momentum": 0.99, "gamma_initializer": {"config": {}, "class_name": "Ones"}, "beta_constraint": null, "center": true, "gamma_regularizer": null, "moving_mean_initializer": {"config": {}, "class_name": "Zeros"}, "trainable": true, "beta_regularizer": null, "moving_variance_initializer": {"config": {}, "class_name": "Ones"}, "axis": 3}, "class_name": "BatchNormalization", "inbound_nodes": [[["conv2d_69", 0, 0, {}]]]}, {"name": "batch_normalization_70", "config": {"gamma_constraint": null, "scale": false, "epsilon": 0.001, "name": "batch_normalization_70", "beta_initializer": {"config": {}, "class_name": "Zeros"}, "momentum": 0.99, "gamma_initializer": {"config": {}, "class_name": "Ones"}, "beta_constraint": null, "center": true, "gamma_regularizer": null, "moving_mean_initializer": {"config": {}, "class_name": "Zeros"}, "trainable": true, "beta_regularizer": null, "moving_variance_initializer": {"config": {}, "class_name": "Ones"}, "axis": 3}, "class_name": "BatchNormalization", "inbound_nodes": [[["conv2d_70", 0, 0, {}]]]}, {"name": "activation_61", "config": {"name": "activation_61", "trainable": true, "activation": "relu"}, "class_name": "Activation", "inbound_nodes": [[["batch_normalization_61", 0, 0, {}]]]}, {"name": "activation_64", "config": {"name": "activation_64", "trainable": true, "activation": "relu"}, "class_name": "Activation", "inbound_nodes": [[["batch_normalization_64", 0, 0, {}]]]}, {"name": "activation_69", "config": {"name": "activation_69", "trainable": true, "activation": "relu"}, "class_name": "Activation", "inbound_nodes": [[["batch_normalization_69", 0, 0, {}]]]}, {"name": "activation_70", "config": {"name": "activation_70", "trainable": true, "activation": "relu"}, "class_name": "Activation", "inbound_nodes": [[["batch_normalization_70", 0, 0, {}]]]}, {"name": "mixed7", "config": {"name": "mixed7", "trainable": true, "axis": 3}, "class_name": "Concatenate", "inbound_nodes": [[["activation_61", 0, 0, {}], ["activation_64", 0, 0, {}], ["activation_69", 0, 0, {}], ["activation_70", 0, 0, {}]]]}, {"name": "conv2d_73", "config": {"dilation_rate": [1, 1], "padding": "same", "kernel_regularizer": null, "name": "conv2d_73", "bias_regularizer": null, "activation": "linear", "bias_constraint": null, "bias_initializer": {"config": {}, "class_name": "Zeros"}, "data_format": "channels_last", "filters": 192, "strides": [1, 1], "trainable": true, "use_bias": false, "kernel_constraint": null, "activity_regularizer": null, "kernel_initializer": {"config": {"scale": 1.0, "distribution": "uniform", "seed": null, "mode": "fan_avg"}, "class_name": "VarianceScaling"}, "kernel_size": [1, 1]}, "class_name": "Conv2D", "inbound_nodes": [[["mixed7", 0, 0, {}]]]}, {"name": "batch_normalization_73", "config": {"gamma_constraint": null, "scale": false, "epsilon": 0.001, "name": "batch_normalization_73", "beta_initializer": {"config": {}, "class_name": "Zeros"}, "momentum": 0.99, "gamma_initializer": {"config": {}, "class_name": "Ones"}, "beta_constraint": null, "center": true, "gamma_regularizer": null, "moving_mean_initializer": {"config": {}, "class_name": "Zeros"}, "trainable": true, "beta_regularizer": null, "moving_variance_initializer": {"config": {}, "class_name": "Ones"}, "axis": 3}, "class_name": "BatchNormalization", "inbound_nodes": [[["conv2d_73", 0, 0, {}]]]}, {"name": "activation_73", "config": {"name": "activation_73", "trainable": true, "activation": "relu"}, "class_name": "Activation", "inbound_nodes": [[["batch_normalization_73", 0, 0, {}]]]}, {"name": "conv2d_74", "config": {"dilation_rate": [1, 1], "padding": "same", "kernel_regularizer": null, "name": "conv2d_74", "bias_regularizer": null, "activation": "linear", "bias_constraint": null, "bias_initializer": {"config": {}, "class_name": "Zeros"}, "data_format": "channels_last", "filters": 192, "strides": [1, 1], "trainable": true, "use_bias": false, "kernel_constraint": null, "activity_regularizer": null, "kernel_initializer": {"config": {"scale": 1.0, "distribution": "uniform", "seed": null, "mode": "fan_avg"}, "class_name": "VarianceScaling"}, "kernel_size": [1, 7]}, "class_name": "Conv2D", "inbound_nodes": [[["activation_73", 0, 0, {}]]]}, {"name": "batch_normalization_74", "config": {"gamma_constraint": null, "scale": false, "epsilon": 0.001, "name": "batch_normalization_74", "beta_initializer": {"config": {}, "class_name": "Zeros"}, "momentum": 0.99, "gamma_initializer": {"config": {}, "class_name": "Ones"}, "beta_constraint": null, "center": true, "gamma_regularizer": null, "moving_mean_initializer": {"config": {}, "class_name": "Zeros"}, "trainable": true, "beta_regularizer": null, "moving_variance_initializer": {"config": {}, "class_name": "Ones"}, "axis": 3}, "class_name": "BatchNormalization", "inbound_nodes": [[["conv2d_74", 0, 0, {}]]]}, {"name": "activation_74", "config": {"name": "activation_74", "trainable": true, "activation": "relu"}, "class_name": "Activation", "inbound_nodes": [[["batch_normalization_74", 0, 0, {}]]]}, {"name": "conv2d_71", "config": {"dilation_rate": [1, 1], "padding": "same", "kernel_regularizer": null, "name": "conv2d_71", "bias_regularizer": null, "activation": "linear", "bias_constraint": null, "bias_initializer": {"config": {}, "class_name": "Zeros"}, "data_format": "channels_last", "filters": 192, "strides": [1, 1], "trainable": true, "use_bias": false, "kernel_constraint": null, "activity_regularizer": null, "kernel_initializer": {"config": {"scale": 1.0, "distribution": "uniform", "seed": null, "mode": "fan_avg"}, "class_name": "VarianceScaling"}, "kernel_size": [1, 1]}, "class_name": "Conv2D", "inbound_nodes": [[["mixed7", 0, 0, {}]]]}, {"name": "conv2d_75", "config": {"dilation_rate": [1, 1], "padding": "same", "kernel_regularizer": null, "name": "conv2d_75", "bias_regularizer": null, "activation": "linear", "bias_constraint": null, "bias_initializer": {"config": {}, "class_name": "Zeros"}, "data_format": "channels_last", "filters": 192, "strides": [1, 1], "trainable": true, "use_bias": false, "kernel_constraint": null, "activity_regularizer": null, "kernel_initializer": {"config": {"scale": 1.0, "distribution": "uniform", "seed": null, "mode": "fan_avg"}, "class_name": "VarianceScaling"}, "kernel_size": [7, 1]}, "class_name": "Conv2D", "inbound_nodes": [[["activation_74", 0, 0, {}]]]}, {"name": "batch_normalization_71", "config": {"gamma_constraint": null, "scale": false, "epsilon": 0.001, "name": "batch_normalization_71", "beta_initializer": {"config": {}, "class_name": "Zeros"}, "momentum": 0.99, "gamma_initializer": {"config": {}, "class_name": "Ones"}, "beta_constraint": null, "center": true, "gamma_regularizer": null, "moving_mean_initializer": {"config": {}, "class_name": "Zeros"}, "trainable": true, "beta_regularizer": null, "moving_variance_initializer": {"config": {}, "class_name": "Ones"}, "axis": 3}, "class_name": "BatchNormalization", "inbound_nodes": [[["conv2d_71", 0, 0, {}]]]}, {"name": "batch_normalization_75", "config": {"gamma_constraint": null, "scale": false, "epsilon": 0.001, "name": "batch_normalization_75", "beta_initializer": {"config": {}, "class_name": "Zeros"}, "momentum": 0.99, "gamma_initializer": {"config": {}, "class_name": "Ones"}, "beta_constraint": null, "center": true, "gamma_regularizer": null, "moving_mean_initializer": {"config": {}, "class_name": "Zeros"}, "trainable": true, "beta_regularizer": null, "moving_variance_initializer": {"config": {}, "class_name": "Ones"}, "axis": 3}, "class_name": "BatchNormalization", "inbound_nodes": [[["conv2d_75", 0, 0, {}]]]}, {"name": "activation_71", "config": {"name": "activation_71", "trainable": true, "activation": "relu"}, "class_name": "Activation", "inbound_nodes": [[["batch_normalization_71", 0, 0, {}]]]}, {"name": "activation_75", "config": {"name": "activation_75", "trainable": true, "activation": "relu"}, "class_name": "Activation", "inbound_nodes": [[["batch_normalization_75", 0, 0, {}]]]}, {"name": "conv2d_72", "config": {"dilation_rate": [1, 1], "padding": "valid", "kernel_regularizer": null, "name": "conv2d_72", "bias_regularizer": null, "activation": "linear", "bias_constraint": null, "bias_initializer": {"config": {}, "class_name": "Zeros"}, "data_format": "channels_last", "filters": 320, "strides": [2, 2], "trainable": true, "use_bias": false, "kernel_constraint": null, "activity_regularizer": null, "kernel_initializer": {"config": {"scale": 1.0, "distribution": "uniform", "seed": null, "mode": "fan_avg"}, "class_name": "VarianceScaling"}, "kernel_size": [3, 3]}, "class_name": "Conv2D", "inbound_nodes": [[["activation_71", 0, 0, {}]]]}, {"name": "conv2d_76", "config": {"dilation_rate": [1, 1], "padding": "valid", "kernel_regularizer": null, "name": "conv2d_76", "bias_regularizer": null, "activation": "linear", "bias_constraint": null, "bias_initializer": {"config": {}, "class_name": "Zeros"}, "data_format": "channels_last", "filters": 192, "strides": [2, 2], "trainable": true, "use_bias": false, "kernel_constraint": null, "activity_regularizer": null, "kernel_initializer": {"config": {"scale": 1.0, "distribution": "uniform", "seed": null, "mode": "fan_avg"}, "class_name": "VarianceScaling"}, "kernel_size": [3, 3]}, "class_name": "Conv2D", "inbound_nodes": [[["activation_75", 0, 0, {}]]]}, {"name": "batch_normalization_72", "config": {"gamma_constraint": null, "scale": false, "epsilon": 0.001, "name": "batch_normalization_72", "beta_initializer": {"config": {}, "class_name": "Zeros"}, "momentum": 0.99, "gamma_initializer": {"config": {}, "class_name": "Ones"}, "beta_constraint": null, "center": true, "gamma_regularizer": null, "moving_mean_initializer": {"config": {}, "class_name": "Zeros"}, "trainable": true, "beta_regularizer": null, "moving_variance_initializer": {"config": {}, "class_name": "Ones"}, "axis": 3}, "class_name": "BatchNormalization", "inbound_nodes": [[["conv2d_72", 0, 0, {}]]]}, {"name": "batch_normalization_76", "config": {"gamma_constraint": null, "scale": false, "epsilon": 0.001, "name": "batch_normalization_76", "beta_initializer": {"config": {}, "class_name": "Zeros"}, "momentum": 0.99, "gamma_initializer": {"config": {}, "class_name": "Ones"}, "beta_constraint": null, "center": true, "gamma_regularizer": null, "moving_mean_initializer": {"config": {}, "class_name": "Zeros"}, "trainable": true, "beta_regularizer": null, "moving_variance_initializer": {"config": {}, "class_name": "Ones"}, "axis": 3}, "class_name": "BatchNormalization", "inbound_nodes": [[["conv2d_76", 0, 0, {}]]]}, {"name": "activation_72", "config": {"name": "activation_72", "trainable": true, "activation": "relu"}, "class_name": "Activation", "inbound_nodes": [[["batch_normalization_72", 0, 0, {}]]]}, {"name": "activation_76", "config": {"name": "activation_76", "trainable": true, "activation": "relu"}, "class_name": "Activation", "inbound_nodes": [[["batch_normalization_76", 0, 0, {}]]]}, {"name": "max_pooling2d_4", "config": {"data_format": "channels_last", "strides": [2, 2], "padding": "valid", "pool_size": [3, 3], "name": "max_pooling2d_4", "trainable": true}, "class_name": "MaxPooling2D", "inbound_nodes": [[["mixed7", 0, 0, {}]]]}, {"name": "mixed8", "config": {"name": "mixed8", "trainable": true, "axis": 3}, "class_name": "Concatenate", "inbound_nodes": [[["activation_72", 0, 0, {}], ["activation_76", 0, 0, {}], ["max_pooling2d_4", 0, 0, {}]]]}, {"name": "conv2d_81", "config": {"dilation_rate": [1, 1], "padding": "same", "kernel_regularizer": null, "name": "conv2d_81", "bias_regularizer": null, "activation": "linear", "bias_constraint": null, "bias_initializer": {"config": {}, "class_name": "Zeros"}, "data_format": "channels_last", "filters": 448, "strides": [1, 1], "trainable": true, "use_bias": false, "kernel_constraint": null, "activity_regularizer": null, "kernel_initializer": {"config": {"scale": 1.0, "distribution": "uniform", "seed": null, "mode": "fan_avg"}, "class_name": "VarianceScaling"}, "kernel_size": [1, 1]}, "class_name": "Conv2D", "inbound_nodes": [[["mixed8", 0, 0, {}]]]}, {"name": "batch_normalization_81", "config": {"gamma_constraint": null, "scale": false, "epsilon": 0.001, "name": "batch_normalization_81", "beta_initializer": {"config": {}, "class_name": "Zeros"}, "momentum": 0.99, "gamma_initializer": {"config": {}, "class_name": "Ones"}, "beta_constraint": null, "center": true, "gamma_regularizer": null, "moving_mean_initializer": {"config": {}, "class_name": "Zeros"}, "trainable": true, "beta_regularizer": null, "moving_variance_initializer": {"config": {}, "class_name": "Ones"}, "axis": 3}, "class_name": "BatchNormalization", "inbound_nodes": [[["conv2d_81", 0, 0, {}]]]}, {"name": "activation_81", "config": {"name": "activation_81", "trainable": true, "activation": "relu"}, "class_name": "Activation", "inbound_nodes": [[["batch_normalization_81", 0, 0, {}]]]}, {"name": "conv2d_78", "config": {"dilation_rate": [1, 1], "padding": "same", "kernel_regularizer": null, "name": "conv2d_78", "bias_regularizer": null, "activation": "linear", "bias_constraint": null, "bias_initializer": {"config": {}, "class_name": "Zeros"}, "data_format": "channels_last", "filters": 384, "strides": [1, 1], "trainable": true, "use_bias": false, "kernel_constraint": null, "activity_regularizer": null, "kernel_initializer": {"config": {"scale": 1.0, "distribution": "uniform", "seed": null, "mode": "fan_avg"}, "class_name": "VarianceScaling"}, "kernel_size": [1, 1]}, "class_name": "Conv2D", "inbound_nodes": [[["mixed8", 0, 0, {}]]]}, {"name": "conv2d_82", "config": {"dilation_rate": [1, 1], "padding": "same", "kernel_regularizer": null, "name": "conv2d_82", "bias_regularizer": null, "activation": "linear", "bias_constraint": null, "bias_initializer": {"config": {}, "class_name": "Zeros"}, "data_format": "channels_last", "filters": 384, "strides": [1, 1], "trainable": true, "use_bias": false, "kernel_constraint": null, "activity_regularizer": null, "kernel_initializer": {"config": {"scale": 1.0, "distribution": "uniform", "seed": null, "mode": "fan_avg"}, "class_name": "VarianceScaling"}, "kernel_size": [3, 3]}, "class_name": "Conv2D", "inbound_nodes": [[["activation_81", 0, 0, {}]]]}, {"name": "batch_normalization_78", "config": {"gamma_constraint": null, "scale": false, "epsilon": 0.001, "name": "batch_normalization_78", "beta_initializer": {"config": {}, "class_name": "Zeros"}, "momentum": 0.99, "gamma_initializer": {"config": {}, "class_name": "Ones"}, "beta_constraint": null, "center": true, "gamma_regularizer": null, "moving_mean_initializer": {"config": {}, "class_name": "Zeros"}, "trainable": true, "beta_regularizer": null, "moving_variance_initializer": {"config": {}, "class_name": "Ones"}, "axis": 3}, "class_name": "BatchNormalization", "inbound_nodes": [[["conv2d_78", 0, 0, {}]]]}, {"name": "batch_normalization_82", "config": {"gamma_constraint": null, "scale": false, "epsilon": 0.001, "name": "batch_normalization_82", "beta_initializer": {"config": {}, "class_name": "Zeros"}, "momentum": 0.99, "gamma_initializer": {"config": {}, "class_name": "Ones"}, "beta_constraint": null, "center": true, "gamma_regularizer": null, "moving_mean_initializer": {"config": {}, "class_name": "Zeros"}, "trainable": true, "beta_regularizer": null, "moving_variance_initializer": {"config": {}, "class_name": "Ones"}, "axis": 3}, "class_name": "BatchNormalization", "inbound_nodes": [[["conv2d_82", 0, 0, {}]]]}, {"name": "activation_78", "config": {"name": "activation_78", "trainable": true, "activation": "relu"}, "class_name": "Activation", "inbound_nodes": [[["batch_normalization_78", 0, 0, {}]]]}, {"name": "activation_82", "config": {"name": "activation_82", "trainable": true, "activation": "relu"}, "class_name": "Activation", "inbound_nodes": [[["batch_normalization_82", 0, 0, {}]]]}, {"name": "conv2d_79", "config": {"dilation_rate": [1, 1], "padding": "same", "kernel_regularizer": null, "name": "conv2d_79", "bias_regularizer": null, "activation": "linear", "bias_constraint": null, "bias_initializer": {"config": {}, "class_name": "Zeros"}, "data_format": "channels_last", "filters": 384, "strides": [1, 1], "trainable": true, "use_bias": false, "kernel_constraint": null, "activity_regularizer": null, "kernel_initializer": {"config": {"scale": 1.0, "distribution": "uniform", "seed": null, "mode": "fan_avg"}, "class_name": "VarianceScaling"}, "kernel_size": [1, 3]}, "class_name": "Conv2D", "inbound_nodes": [[["activation_78", 0, 0, {}]]]}, {"name": "conv2d_80", "config": {"dilation_rate": [1, 1], "padding": "same", "kernel_regularizer": null, "name": "conv2d_80", "bias_regularizer": null, "activation": "linear", "bias_constraint": null, "bias_initializer": {"config": {}, "class_name": "Zeros"}, "data_format": "channels_last", "filters": 384, "strides": [1, 1], "trainable": true, "use_bias": false, "kernel_constraint": null, "activity_regularizer": null, "kernel_initializer": {"config": {"scale": 1.0, "distribution": "uniform", "seed": null, "mode": "fan_avg"}, "class_name": "VarianceScaling"}, "kernel_size": [3, 1]}, "class_name": "Conv2D", "inbound_nodes": [[["activation_78", 0, 0, {}]]]}, {"name": "conv2d_83", "config": {"dilation_rate": [1, 1], "padding": "same", "kernel_regularizer": null, "name": "conv2d_83", "bias_regularizer": null, "activation": "linear", "bias_constraint": null, "bias_initializer": {"config": {}, "class_name": "Zeros"}, "data_format": "channels_last", "filters": 384, "strides": [1, 1], "trainable": true, "use_bias": false, "kernel_constraint": null, "activity_regularizer": null, "kernel_initializer": {"config": {"scale": 1.0, "distribution": "uniform", "seed": null, "mode": "fan_avg"}, "class_name": "VarianceScaling"}, "kernel_size": [1, 3]}, "class_name": "Conv2D", "inbound_nodes": [[["activation_82", 0, 0, {}]]]}, {"name": "conv2d_84", "config": {"dilation_rate": [1, 1], "padding": "same", "kernel_regularizer": null, "name": "conv2d_84", "bias_regularizer": null, "activation": "linear", "bias_constraint": null, "bias_initializer": {"config": {}, "class_name": "Zeros"}, "data_format": "channels_last", "filters": 384, "strides": [1, 1], "trainable": true, "use_bias": false, "kernel_constraint": null, "activity_regularizer": null, "kernel_initializer": {"config": {"scale": 1.0, "distribution": "uniform", "seed": null, "mode": "fan_avg"}, "class_name": "VarianceScaling"}, "kernel_size": [3, 1]}, "class_name": "Conv2D", "inbound_nodes": [[["activation_82", 0, 0, {}]]]}, {"name": "average_pooling2d_8", "config": {"data_format": "channels_last", "strides": [1, 1], "padding": "same", "pool_size": [3, 3], "name": "average_pooling2d_8", "trainable": true}, "class_name": "AveragePooling2D", "inbound_nodes": [[["mixed8", 0, 0, {}]]]}, {"name": "conv2d_77", "config": {"dilation_rate": [1, 1], "padding": "same", "kernel_regularizer": null, "name": "conv2d_77", "bias_regularizer": null, "activation": "linear", "bias_constraint": null, "bias_initializer": {"config": {}, "class_name": "Zeros"}, "data_format": "channels_last", "filters": 320, "strides": [1, 1], "trainable": true, "use_bias": false, "kernel_constraint": null, "activity_regularizer": null, "kernel_initializer": {"config": {"scale": 1.0, "distribution": "uniform", "seed": null, "mode": "fan_avg"}, "class_name": "VarianceScaling"}, "kernel_size": [1, 1]}, "class_name": "Conv2D", "inbound_nodes": [[["mixed8", 0, 0, {}]]]}, {"name": "batch_normalization_79", "config": {"gamma_constraint": null, "scale": false, "epsilon": 0.001, "name": "batch_normalization_79", "beta_initializer": {"config": {}, "class_name": "Zeros"}, "momentum": 0.99, "gamma_initializer": {"config": {}, "class_name": "Ones"}, "beta_constraint": null, "center": true, "gamma_regularizer": null, "moving_mean_initializer": {"config": {}, "class_name": "Zeros"}, "trainable": true, "beta_regularizer": null, "moving_variance_initializer": {"config": {}, "class_name": "Ones"}, "axis": 3}, "class_name": "BatchNormalization", "inbound_nodes": [[["conv2d_79", 0, 0, {}]]]}, {"name": "batch_normalization_80", "config": {"gamma_constraint": null, "scale": false, "epsilon": 0.001, "name": "batch_normalization_80", "beta_initializer": {"config": {}, "class_name": "Zeros"}, "momentum": 0.99, "gamma_initializer": {"config": {}, "class_name": "Ones"}, "beta_constraint": null, "center": true, "gamma_regularizer": null, "moving_mean_initializer": {"config": {}, "class_name": "Zeros"}, "trainable": true, "beta_regularizer": null, "moving_variance_initializer": {"config": {}, "class_name": "Ones"}, "axis": 3}, "class_name": "BatchNormalization", "inbound_nodes": [[["conv2d_80", 0, 0, {}]]]}, {"name": "batch_normalization_83", "config": {"gamma_constraint": null, "scale": false, "epsilon": 0.001, "name": "batch_normalization_83", "beta_initializer": {"config": {}, "class_name": "Zeros"}, "momentum": 0.99, "gamma_initializer": {"config": {}, "class_name": "Ones"}, "beta_constraint": null, "center": true, "gamma_regularizer": null, "moving_mean_initializer": {"config": {}, "class_name": "Zeros"}, "trainable": true, "beta_regularizer": null, "moving_variance_initializer": {"config": {}, "class_name": "Ones"}, "axis": 3}, "class_name": "BatchNormalization", "inbound_nodes": [[["conv2d_83", 0, 0, {}]]]}, {"name": "batch_normalization_84", "config": {"gamma_constraint": null, "scale": false, "epsilon": 0.001, "name": "batch_normalization_84", "beta_initializer": {"config": {}, "class_name": "Zeros"}, "momentum": 0.99, "gamma_initializer": {"config": {}, "class_name": "Ones"}, "beta_constraint": null, "center": true, "gamma_regularizer": null, "moving_mean_initializer": {"config": {}, "class_name": "Zeros"}, "trainable": true, "beta_regularizer": null, "moving_variance_initializer": {"config": {}, "class_name": "Ones"}, "axis": 3}, "class_name": "BatchNormalization", "inbound_nodes": [[["conv2d_84", 0, 0, {}]]]}, {"name": "conv2d_85", "config": {"dilation_rate": [1, 1], "padding": "same", "kernel_regularizer": null, "name": "conv2d_85", "bias_regularizer": null, "activation": "linear", "bias_constraint": null, "bias_initializer": {"config": {}, "class_name": "Zeros"}, "data_format": "channels_last", "filters": 192, "strides": [1, 1], "trainable": true, "use_bias": false, "kernel_constraint": null, "activity_regularizer": null, "kernel_initializer": {"config": {"scale": 1.0, "distribution": "uniform", "seed": null, "mode": "fan_avg"}, "class_name": "VarianceScaling"}, "kernel_size": [1, 1]}, "class_name": "Conv2D", "inbound_nodes": [[["average_pooling2d_8", 0, 0, {}]]]}, {"name": "batch_normalization_77", "config": {"gamma_constraint": null, "scale": false, "epsilon": 0.001, "name": "batch_normalization_77", "beta_initializer": {"config": {}, "class_name": "Zeros"}, "momentum": 0.99, "gamma_initializer": {"config": {}, "class_name": "Ones"}, "beta_constraint": null, "center": true, "gamma_regularizer": null, "moving_mean_initializer": {"config": {}, "class_name": "Zeros"}, "trainable": true, "beta_regularizer": null, "moving_variance_initializer": {"config": {}, "class_name": "Ones"}, "axis": 3}, "class_name": "BatchNormalization", "inbound_nodes": [[["conv2d_77", 0, 0, {}]]]}, {"name": "activation_79", "config": {"name": "activation_79", "trainable": true, "activation": "relu"}, "class_name": "Activation", "inbound_nodes": [[["batch_normalization_79", 0, 0, {}]]]}, {"name": "activation_80", "config": {"name": "activation_80", "trainable": true, "activation": "relu"}, "class_name": "Activation", "inbound_nodes": [[["batch_normalization_80", 0, 0, {}]]]}, {"name": "activation_83", "config": {"name": "activation_83", "trainable": true, "activation": "relu"}, "class_name": "Activation", "inbound_nodes": [[["batch_normalization_83", 0, 0, {}]]]}, {"name": "activation_84", "config": {"name": "activation_84", "trainable": true, "activation": "relu"}, "class_name": "Activation", "inbound_nodes": [[["batch_normalization_84", 0, 0, {}]]]}, {"name": "batch_normalization_85", "config": {"gamma_constraint": null, "scale": false, "epsilon": 0.001, "name": "batch_normalization_85", "beta_initializer": {"config": {}, "class_name": "Zeros"}, "momentum": 0.99, "gamma_initializer": {"config": {}, "class_name": "Ones"}, "beta_constraint": null, "center": true, "gamma_regularizer": null, "moving_mean_initializer": {"config": {}, "class_name": "Zeros"}, "trainable": true, "beta_regularizer": null, "moving_variance_initializer": {"config": {}, "class_name": "Ones"}, "axis": 3}, "class_name": "BatchNormalization", "inbound_nodes": [[["conv2d_85", 0, 0, {}]]]}, {"name": "activation_77", "config": {"name": "activation_77", "trainable": true, "activation": "relu"}, "class_name": "Activation", "inbound_nodes": [[["batch_normalization_77", 0, 0, {}]]]}, {"name": "mixed9_0", "config": {"name": "mixed9_0", "trainable": true, "axis": 3}, "class_name": "Concatenate", "inbound_nodes": [[["activation_79", 0, 0, {}], ["activation_80", 0, 0, {}]]]}, {"name": "concatenate_1", "config": {"name": "concatenate_1", "trainable": true, "axis": 3}, "class_name": "Concatenate", "inbound_nodes": [[["activation_83", 0, 0, {}], ["activation_84", 0, 0, {}]]]}, {"name": "activation_85", "config": {"name": "activation_85", "trainable": true, "activation": "relu"}, "class_name": "Activation", "inbound_nodes": [[["batch_normalization_85", 0, 0, {}]]]}, {"name": "mixed9", "config": {"name": "mixed9", "trainable": true, "axis": 3}, "class_name": "Concatenate", "inbound_nodes": [[["activation_77", 0, 0, {}], ["mixed9_0", 0, 0, {}], ["concatenate_1", 0, 0, {}], ["activation_85", 0, 0, {}]]]}, {"name": "conv2d_90", "config": {"dilation_rate": [1, 1], "padding": "same", "kernel_regularizer": null, "name": "conv2d_90", "bias_regularizer": null, "activation": "linear", "bias_constraint": null, "bias_initializer": {"config": {}, "class_name": "Zeros"}, "data_format": "channels_last", "filters": 448, "strides": [1, 1], "trainable": true, "use_bias": false, "kernel_constraint": null, "activity_regularizer": null, "kernel_initializer": {"config": {"scale": 1.0, "distribution": "uniform", "seed": null, "mode": "fan_avg"}, "class_name": "VarianceScaling"}, "kernel_size": [1, 1]}, "class_name": "Conv2D", "inbound_nodes": [[["mixed9", 0, 0, {}]]]}, {"name": "batch_normalization_90", "config": {"gamma_constraint": null, "scale": false, "epsilon": 0.001, "name": "batch_normalization_90", "beta_initializer": {"config": {}, "class_name": "Zeros"}, "momentum": 0.99, "gamma_initializer": {"config": {}, "class_name": "Ones"}, "beta_constraint": null, "center": true, "gamma_regularizer": null, "moving_mean_initializer": {"config": {}, "class_name": "Zeros"}, "trainable": true, "beta_regularizer": null, "moving_variance_initializer": {"config": {}, "class_name": "Ones"}, "axis": 3}, "class_name": "BatchNormalization", "inbound_nodes": [[["conv2d_90", 0, 0, {}]]]}, {"name": "activation_90", "config": {"name": "activation_90", "trainable": true, "activation": "relu"}, "class_name": "Activation", "inbound_nodes": [[["batch_normalization_90", 0, 0, {}]]]}, {"name": "conv2d_87", "config": {"dilation_rate": [1, 1], "padding": "same", "kernel_regularizer": null, "name": "conv2d_87", "bias_regularizer": null, "activation": "linear", "bias_constraint": null, "bias_initializer": {"config": {}, "class_name": "Zeros"}, "data_format": "channels_last", "filters": 384, "strides": [1, 1], "trainable": true, "use_bias": false, "kernel_constraint": null, "activity_regularizer": null, "kernel_initializer": {"config": {"scale": 1.0, "distribution": "uniform", "seed": null, "mode": "fan_avg"}, "class_name": "VarianceScaling"}, "kernel_size": [1, 1]}, "class_name": "Conv2D", "inbound_nodes": [[["mixed9", 0, 0, {}]]]}, {"name": "conv2d_91", "config": {"dilation_rate": [1, 1], "padding": "same", "kernel_regularizer": null, "name": "conv2d_91", "bias_regularizer": null, "activation": "linear", "bias_constraint": null, "bias_initializer": {"config": {}, "class_name": "Zeros"}, "data_format": "channels_last", "filters": 384, "strides": [1, 1], "trainable": true, "use_bias": false, "kernel_constraint": null, "activity_regularizer": null, "kernel_initializer": {"config": {"scale": 1.0, "distribution": "uniform", "seed": null, "mode": "fan_avg"}, "class_name": "VarianceScaling"}, "kernel_size": [3, 3]}, "class_name": "Conv2D", "inbound_nodes": [[["activation_90", 0, 0, {}]]]}, {"name": "batch_normalization_87", "config": {"gamma_constraint": null, "scale": false, "epsilon": 0.001, "name": "batch_normalization_87", "beta_initializer": {"config": {}, "class_name": "Zeros"}, "momentum": 0.99, "gamma_initializer": {"config": {}, "class_name": "Ones"}, "beta_constraint": null, "center": true, "gamma_regularizer": null, "moving_mean_initializer": {"config": {}, "class_name": "Zeros"}, "trainable": true, "beta_regularizer": null, "moving_variance_initializer": {"config": {}, "class_name": "Ones"}, "axis": 3}, "class_name": "BatchNormalization", "inbound_nodes": [[["conv2d_87", 0, 0, {}]]]}, {"name": "batch_normalization_91", "config": {"gamma_constraint": null, "scale": false, "epsilon": 0.001, "name": "batch_normalization_91", "beta_initializer": {"config": {}, "class_name": "Zeros"}, "momentum": 0.99, "gamma_initializer": {"config": {}, "class_name": "Ones"}, "beta_constraint": null, "center": true, "gamma_regularizer": null, "moving_mean_initializer": {"config": {}, "class_name": "Zeros"}, "trainable": true, "beta_regularizer": null, "moving_variance_initializer": {"config": {}, "class_name": "Ones"}, "axis": 3}, "class_name": "BatchNormalization", "inbound_nodes": [[["conv2d_91", 0, 0, {}]]]}, {"name": "activation_87", "config": {"name": "activation_87", "trainable": true, "activation": "relu"}, "class_name": "Activation", "inbound_nodes": [[["batch_normalization_87", 0, 0, {}]]]}, {"name": "activation_91", "config": {"name": "activation_91", "trainable": true, "activation": "relu"}, "class_name": "Activation", "inbound_nodes": [[["batch_normalization_91", 0, 0, {}]]]}, {"name": "conv2d_88", "config": {"dilation_rate": [1, 1], "padding": "same", "kernel_regularizer": null, "name": "conv2d_88", "bias_regularizer": null, "activation": "linear", "bias_constraint": null, "bias_initializer": {"config": {}, "class_name": "Zeros"}, "data_format": "channels_last", "filters": 384, "strides": [1, 1], "trainable": true, "use_bias": false, "kernel_constraint": null, "activity_regularizer": null, "kernel_initializer": {"config": {"scale": 1.0, "distribution": "uniform", "seed": null, "mode": "fan_avg"}, "class_name": "VarianceScaling"}, "kernel_size": [1, 3]}, "class_name": "Conv2D", "inbound_nodes": [[["activation_87", 0, 0, {}]]]}, {"name": "conv2d_89", "config": {"dilation_rate": [1, 1], "padding": "same", "kernel_regularizer": null, "name": "conv2d_89", "bias_regularizer": null, "activation": "linear", "bias_constraint": null, "bias_initializer": {"config": {}, "class_name": "Zeros"}, "data_format": "channels_last", "filters": 384, "strides": [1, 1], "trainable": true, "use_bias": false, "kernel_constraint": null, "activity_regularizer": null, "kernel_initializer": {"config": {"scale": 1.0, "distribution": "uniform", "seed": null, "mode": "fan_avg"}, "class_name": "VarianceScaling"}, "kernel_size": [3, 1]}, "class_name": "Conv2D", "inbound_nodes": [[["activation_87", 0, 0, {}]]]}, {"name": "conv2d_92", "config": {"dilation_rate": [1, 1], "padding": "same", "kernel_regularizer": null, "name": "conv2d_92", "bias_regularizer": null, "activation": "linear", "bias_constraint": null, "bias_initializer": {"config": {}, "class_name": "Zeros"}, "data_format": "channels_last", "filters": 384, "strides": [1, 1], "trainable": true, "use_bias": false, "kernel_constraint": null, "activity_regularizer": null, "kernel_initializer": {"config": {"scale": 1.0, "distribution": "uniform", "seed": null, "mode": "fan_avg"}, "class_name": "VarianceScaling"}, "kernel_size": [1, 3]}, "class_name": "Conv2D", "inbound_nodes": [[["activation_91", 0, 0, {}]]]}, {"name": "conv2d_93", "config": {"dilation_rate": [1, 1], "padding": "same", "kernel_regularizer": null, "name": "conv2d_93", "bias_regularizer": null, "activation": "linear", "bias_constraint": null, "bias_initializer": {"config": {}, "class_name": "Zeros"}, "data_format": "channels_last", "filters": 384, "strides": [1, 1], "trainable": true, "use_bias": false, "kernel_constraint": null, "activity_regularizer": null, "kernel_initializer": {"config": {"scale": 1.0, "distribution": "uniform", "seed": null, "mode": "fan_avg"}, "class_name": "VarianceScaling"}, "kernel_size": [3, 1]}, "class_name": "Conv2D", "inbound_nodes": [[["activation_91", 0, 0, {}]]]}, {"name": "average_pooling2d_9", "config": {"data_format": "channels_last", "strides": [1, 1], "padding": "same", "pool_size": [3, 3], "name": "average_pooling2d_9", "trainable": true}, "class_name": "AveragePooling2D", "inbound_nodes": [[["mixed9", 0, 0, {}]]]}, {"name": "conv2d_86", "config": {"dilation_rate": [1, 1], "padding": "same", "kernel_regularizer": null, "name": "conv2d_86", "bias_regularizer": null, "activation": "linear", "bias_constraint": null, "bias_initializer": {"config": {}, "class_name": "Zeros"}, "data_format": "channels_last", "filters": 320, "strides": [1, 1], "trainable": true, "use_bias": false, "kernel_constraint": null, "activity_regularizer": null, "kernel_initializer": {"config": {"scale": 1.0, "distribution": "uniform", "seed": null, "mode": "fan_avg"}, "class_name": "VarianceScaling"}, "kernel_size": [1, 1]}, "class_name": "Conv2D", "inbound_nodes": [[["mixed9", 0, 0, {}]]]}, {"name": "batch_normalization_88", "config": {"gamma_constraint": null, "scale": false, "epsilon": 0.001, "name": "batch_normalization_88", "beta_initializer": {"config": {}, "class_name": "Zeros"}, "momentum": 0.99, "gamma_initializer": {"config": {}, "class_name": "Ones"}, "beta_constraint": null, "center": true, "gamma_regularizer": null, "moving_mean_initializer": {"config": {}, "class_name": "Zeros"}, "trainable": true, "beta_regularizer": null, "moving_variance_initializer": {"config": {}, "class_name": "Ones"}, "axis": 3}, "class_name": "BatchNormalization", "inbound_nodes": [[["conv2d_88", 0, 0, {}]]]}, {"name": "batch_normalization_89", "config": {"gamma_constraint": null, "scale": false, "epsilon": 0.001, "name": "batch_normalization_89", "beta_initializer": {"config": {}, "class_name": "Zeros"}, "momentum": 0.99, "gamma_initializer": {"config": {}, "class_name": "Ones"}, "beta_constraint": null, "center": true, "gamma_regularizer": null, "moving_mean_initializer": {"config": {}, "class_name": "Zeros"}, "trainable": true, "beta_regularizer": null, "moving_variance_initializer": {"config": {}, "class_name": "Ones"}, "axis": 3}, "class_name": "BatchNormalization", "inbound_nodes": [[["conv2d_89", 0, 0, {}]]]}, {"name": "batch_normalization_92", "config": {"gamma_constraint": null, "scale": false, "epsilon": 0.001, "name": "batch_normalization_92", "beta_initializer": {"config": {}, "class_name": "Zeros"}, "momentum": 0.99, "gamma_initializer": {"config": {}, "class_name": "Ones"}, "beta_constraint": null, "center": true, "gamma_regularizer": null, "moving_mean_initializer": {"config": {}, "class_name": "Zeros"}, "trainable": true, "beta_regularizer": null, "moving_variance_initializer": {"config": {}, "class_name": "Ones"}, "axis": 3}, "class_name": "BatchNormalization", "inbound_nodes": [[["conv2d_92", 0, 0, {}]]]}, {"name": "batch_normalization_93", "config": {"gamma_constraint": null, "scale": false, "epsilon": 0.001, "name": "batch_normalization_93", "beta_initializer": {"config": {}, "class_name": "Zeros"}, "momentum": 0.99, "gamma_initializer": {"config": {}, "class_name": "Ones"}, "beta_constraint": null, "center": true, "gamma_regularizer": null, "moving_mean_initializer": {"config": {}, "class_name": "Zeros"}, "trainable": true, "beta_regularizer": null, "moving_variance_initializer": {"config": {}, "class_name": "Ones"}, "axis": 3}, "class_name": "BatchNormalization", "inbound_nodes": [[["conv2d_93", 0, 0, {}]]]}, {"name": "conv2d_94", "config": {"dilation_rate": [1, 1], "padding": "same", "kernel_regularizer": null, "name": "conv2d_94", "bias_regularizer": null, "activation": "linear", "bias_constraint": null, "bias_initializer": {"config": {}, "class_name": "Zeros"}, "data_format": "channels_last", "filters": 192, "strides": [1, 1], "trainable": true, "use_bias": false, "kernel_constraint": null, "activity_regularizer": null, "kernel_initializer": {"config": {"scale": 1.0, "distribution": "uniform", "seed": null, "mode": "fan_avg"}, "class_name": "VarianceScaling"}, "kernel_size": [1, 1]}, "class_name": "Conv2D", "inbound_nodes": [[["average_pooling2d_9", 0, 0, {}]]]}, {"name": "batch_normalization_86", "config": {"gamma_constraint": null, "scale": false, "epsilon": 0.001, "name": "batch_normalization_86", "beta_initializer": {"config": {}, "class_name": "Zeros"}, "momentum": 0.99, "gamma_initializer": {"config": {}, "class_name": "Ones"}, "beta_constraint": null, "center": true, "gamma_regularizer": null, "moving_mean_initializer": {"config": {}, "class_name": "Zeros"}, "trainable": true, "beta_regularizer": null, "moving_variance_initializer": {"config": {}, "class_name": "Ones"}, "axis": 3}, "class_name": "BatchNormalization", "inbound_nodes": [[["conv2d_86", 0, 0, {}]]]}, {"name": "activation_88", "config": {"name": "activation_88", "trainable": true, "activation": "relu"}, "class_name": "Activation", "inbound_nodes": [[["batch_normalization_88", 0, 0, {}]]]}, {"name": "activation_89", "config": {"name": "activation_89", "trainable": true, "activation": "relu"}, "class_name": "Activation", "inbound_nodes": [[["batch_normalization_89", 0, 0, {}]]]}, {"name": "activation_92", "config": {"name": "activation_92", "trainable": true, "activation": "relu"}, "class_name": "Activation", "inbound_nodes": [[["batch_normalization_92", 0, 0, {}]]]}, {"name": "activation_93", "config": {"name": "activation_93", "trainable": true, "activation": "relu"}, "class_name": "Activation", "inbound_nodes": [[["batch_normalization_93", 0, 0, {}]]]}, {"name": "batch_normalization_94", "config": {"gamma_constraint": null, "scale": false, "epsilon": 0.001, "name": "batch_normalization_94", "beta_initializer": {"config": {}, "class_name": "Zeros"}, "momentum": 0.99, "gamma_initializer": {"config": {}, "class_name": "Ones"}, "beta_constraint": null, "center": true, "gamma_regularizer": null, "moving_mean_initializer": {"config": {}, "class_name": "Zeros"}, "trainable": true, "beta_regularizer": null, "moving_variance_initializer": {"config": {}, "class_name": "Ones"}, "axis": 3}, "class_name": "BatchNormalization", "inbound_nodes": [[["conv2d_94", 0, 0, {}]]]}, {"name": "activation_86", "config": {"name": "activation_86", "trainable": true, "activation": "relu"}, "class_name": "Activation", "inbound_nodes": [[["batch_normalization_86", 0, 0, {}]]]}, {"name": "mixed9_1", "config": {"name": "mixed9_1", "trainable": true, "axis": 3}, "class_name": "Concatenate", "inbound_nodes": [[["activation_88", 0, 0, {}], ["activation_89", 0, 0, {}]]]}, {"name": "concatenate_2", "config": {"name": "concatenate_2", "trainable": true, "axis": 3}, "class_name": "Concatenate", "inbound_nodes": [[["activation_92", 0, 0, {}], ["activation_93", 0, 0, {}]]]}, {"name": "activation_94", "config": {"name": "activation_94", "trainable": true, "activation": "relu"}, "class_name": "Activation", "inbound_nodes": [[["batch_normalization_94", 0, 0, {}]]]}, {"name": "mixed10", "config": {"name": "mixed10", "trainable": true, "axis": 3}, "class_name": "Concatenate", "inbound_nodes": [[["activation_86", 0, 0, {}], ["mixed9_1", 0, 0, {}], ["concatenate_2", 0, 0, {}], ["activation_94", 0, 0, {}]]]}, {"name": "global_average_pooling2d_1", "config": {"name": "global_average_pooling2d_1", "trainable": true, "data_format": "channels_last"}, "class_name": "GlobalAveragePooling2D", "inbound_nodes": [[["mixed10", 0, 0, {}]]]}, {"name": "dense_1", "config": {"kernel_regularizer": null, "name": "dense_1", "activation": "relu", "bias_regularizer": null, "bias_initializer": {"config": {}, "class_name": "Zeros"}, "use_bias": true, "units": 256, "trainable": true, "kernel_constraint": null, "activity_regularizer": null, "kernel_initializer": {"config": {"scale": 1.0, "distribution": "uniform", "seed": null, "mode": "fan_avg"}, "class_name": "VarianceScaling"}, "bias_constraint": null}, "class_name": "Dense", "inbound_nodes": [[["global_average_pooling2d_1", 0, 0, {}]]]}, {"name": "dropout_1", "config": {"name": "dropout_1", "trainable": true, "noise_shape": null, "rate": 0.5, "seed": null}, "class_name": "Dropout", "inbound_nodes": [[["dense_1", 0, 0, {}]]]}, {"name": "dense_2", "config": {"kernel_regularizer": null, "name": "dense_2", "activation": "sigmoid", "bias_regularizer": null, "bias_initializer": {"config": {}, "class_name": "Zeros"}, "use_bias": true, "units": 1, "trainable": true, "kernel_constraint": null, "activity_regularizer": null, "kernel_initializer": {"config": {"scale": 1.0, "distribution": "uniform", "seed": null, "mode": "fan_avg"}, "class_name": "VarianceScaling"}, "bias_constraint": null}, "class_name": "Dense", "inbound_nodes": [[["dropout_1", 0, 0, {}]]]}], "output_layers": [["dense_2", 0, 0]], "input_layers": [["input_1", 0, 0]]}, "class_name": "Model"}