{"keras_version": "2.0.9", "class_name": "Model", "config": {"input_layers": [["input_1", 0, 0]], "name": "model_1", "output_layers": [["dense_2", 0, 0]], "layers": [{"class_name": "InputLayer", "name": "input_1", "inbound_nodes": [], "config": {"batch_input_shape": [null, null, null, 3], "dtype": "float32", "name": "input_1", "sparse": false}}, {"class_name": "Conv2D", "name": "conv2d_1", "inbound_nodes": [[["input_1", 0, 0, {}]]], "config": {"kernel_constraint": null, "kernel_initializer": {"class_name": "VarianceScaling", "config": {"scale": 1.0, "mode": "fan_avg", "distribution": "uniform", "seed": null}}, "dilation_rate": [1, 1], "activity_regularizer": null, "filters": 32, "name": "conv2d_1", "bias_initializer": {"class_name": "Zeros", "config": {}}, "bias_regularizer": null, "padding": "valid", "data_format": "channels_last", "trainable": false, "kernel_regularizer": null, "strides": [2, 2], "use_bias": false, "bias_constraint": null, "kernel_size": [3, 3], "activation": "linear"}}, {"class_name": "BatchNormalization", "name": "batch_normalization_1", "inbound_nodes": [[["conv2d_1", 0, 0, {}]]], "config": {"moving_mean_initializer": {"class_name": "Zeros", "config": {}}, "scale": false, "gamma_initializer": {"class_name": "Ones", "config": {}}, "beta_constraint": null, "beta_regularizer": null, "epsilon": 0.001, "axis": 3, "momentum": 0.99, "gamma_constraint": null, "trainable": false, "beta_initializer": {"class_name": "Zeros", "config": {}}, "center": true, "name": "batch_normalization_1", "gamma_regularizer": null, "moving_variance_initializer": {"class_name": "Ones", "config": {}}}}, {"class_name": "Activation", "name": "activation_1", "inbound_nodes": [[["batch_normalization_1", 0, 0, {}]]], "config": {"trainable": false, "name": "activation_1", "activation": "relu"}}, {"class_name": "Conv2D", "name": "conv2d_2", "inbound_nodes": [[["activation_1", 0, 0, {}]]], "config": {"kernel_constraint": null, "kernel_initializer": {"class_name": "VarianceScaling", "config": {"scale": 1.0, "mode": "fan_avg", "distribution": "uniform", "seed": null}}, "dilation_rate": [1, 1], "activity_regularizer": null, "filters": 32, "name": "conv2d_2", "bias_initializer": {"class_name": "Zeros", "config": {}}, "bias_regularizer": null, "padding": "valid", "data_format": "channels_last", "trainable": false, "kernel_regularizer": null, "strides": [1, 1], "use_bias": false, "bias_constraint": null, "kernel_size": [3, 3], "activation": "linear"}}, {"class_name": "BatchNormalization", "name": "batch_normalization_2", "inbound_nodes": [[["conv2d_2", 0, 0, {}]]], "config": {"moving_mean_initializer": {"class_name": "Zeros", "config": {}}, "scale": false, "gamma_initializer": {"class_name": "Ones", "config": {}}, "beta_constraint": null, "beta_regularizer": null, "epsilon": 0.001, "axis": 3, "momentum": 0.99, "gamma_constraint": null, "trainable": false, "beta_initializer": {"class_name": "Zeros", "config": {}}, "center": true, "name": "batch_normalization_2", "gamma_regularizer": null, "moving_variance_initializer": {"class_name": "Ones", "config": {}}}}, {"class_name": "Activation", "name": "activation_2", "inbound_nodes": [[["batch_normalization_2", 0, 0, {}]]], "config": {"trainable": false, "name": "activation_2", "activation": "relu"}}, {"class_name": "Conv2D", "name": "conv2d_3", "inbound_nodes": [[["activation_2", 0, 0, {}]]], "config": {"kernel_constraint": null, "kernel_initializer": {"class_name": "VarianceScaling", "config": {"scale": 1.0, "mode": "fan_avg", "distribution": "uniform", "seed": null}}, "dilation_rate": [1, 1], "activity_regularizer": null, "filters": 64, "name": "conv2d_3", "bias_initializer": {"class_name": "Zeros", "config": {}}, "bias_regularizer": null, "padding": "same", "data_format": "channels_last", "trainable": false, "kernel_regularizer": null, "strides": [1, 1], "use_bias": false, "bias_constraint": null, "kernel_size": [3, 3], "activation": "linear"}}, {"class_name": "BatchNormalization", "name": "batch_normalization_3", "inbound_nodes": [[["conv2d_3", 0, 0, {}]]], "config": {"moving_mean_initializer": {"class_name": "Zeros", "config": {}}, "scale": false, "gamma_initializer": {"class_name": "Ones", "config": {}}, "beta_constraint": null, "beta_regularizer": null, "epsilon": 0.001, "axis": 3, "momentum": 0.99, "gamma_constraint": null, "trainable": false, "beta_initializer": {"class_name": "Zeros", "config": {}}, "center": true, "name": "batch_normalization_3", "gamma_regularizer": null, "moving_variance_initializer": {"class_name": "Ones", "config": {}}}}, {"class_name": "Activation", "name": "activation_3", "inbound_nodes": [[["batch_normalization_3", 0, 0, {}]]], "config": {"trainable": false, "name": "activation_3", "activation": "relu"}}, {"class_name": "MaxPooling2D", "name": "max_pooling2d_1", "inbound_nodes": [[["activation_3", 0, 0, {}]]], "config": {"padding": "valid", "data_format": "channels_last", "trainable": false, "pool_size": [3, 3], "name": "max_pooling2d_1", "strides": [2, 2]}}, {"class_name": "Conv2D", "name": "conv2d_4", "inbound_nodes": [[["max_pooling2d_1", 0, 0, {}]]], "config": {"kernel_constraint": null, "kernel_initializer": {"class_name": "VarianceScaling", "config": {"scale": 1.0, "mode": "fan_avg", "distribution": "uniform", "seed": null}}, "dilation_rate": [1, 1], "activity_regularizer": null, "filters": 80, "name": "conv2d_4", "bias_initializer": {"class_name": "Zeros", "config": {}}, "bias_regularizer": null, "padding": "valid", "data_format": "channels_last", "trainable": false, "kernel_regularizer": null, "strides": [1, 1], "use_bias": false, "bias_constraint": null, "kernel_size": [1, 1], "activation": "linear"}}, {"class_name": "BatchNormalization", "name": "batch_normalization_4", "inbound_nodes": [[["conv2d_4", 0, 0, {}]]], "config": {"moving_mean_initializer": {"class_name": "Zeros", "config": {}}, "scale": false, "gamma_initializer": {"class_name": "Ones", "config": {}}, "beta_constraint": null, "beta_regularizer": null, "epsilon": 0.001, "axis": 3, "momentum": 0.99, "gamma_constraint": null, "trainable": false, "beta_initializer": {"class_name": "Zeros", "config": {}}, "center": true, "name": "batch_normalization_4", "gamma_regularizer": null, "moving_variance_initializer": {"class_name": "Ones", "config": {}}}}, {"class_name": "Activation", "name": "activation_4", "inbound_nodes": [[["batch_normalization_4", 0, 0, {}]]], "config": {"trainable": false, "name": "activation_4", "activation": "relu"}}, {"class_name": "Conv2D", "name": "conv2d_5", "inbound_nodes": [[["activation_4", 0, 0, {}]]], "config": {"kernel_constraint": null, "kernel_initializer": {"class_name": "VarianceScaling", "config": {"scale": 1.0, "mode": "fan_avg", "distribution": "uniform", "seed": null}}, "dilation_rate": [1, 1], "activity_regularizer": null, "filters": 192, "name": "conv2d_5", "bias_initializer": {"class_name": "Zeros", "config": {}}, "bias_regularizer": null, "padding": "valid", "data_format": "channels_last", "trainable": false, "kernel_regularizer": null, "strides": [1, 1], "use_bias": false, "bias_constraint": null, "kernel_size": [3, 3], "activation": "linear"}}, {"class_name": "BatchNormalization", "name": "batch_normalization_5", "inbound_nodes": [[["conv2d_5", 0, 0, {}]]], "config": {"moving_mean_initializer": {"class_name": "Zeros", "config": {}}, "scale": false, "gamma_initializer": {"class_name": "Ones", "config": {}}, "beta_constraint": null, "beta_regularizer": null, "epsilon": 0.001, "axis": 3, "momentum": 0.99, "gamma_constraint": null, "trainable": false, "beta_initializer": {"class_name": "Zeros", "config": {}}, "center": true, "name": "batch_normalization_5", "gamma_regularizer": null, "moving_variance_initializer": {"class_name": "Ones", "config": {}}}}, {"class_name": "Activation", "name": "activation_5", "inbound_nodes": [[["batch_normalization_5", 0, 0, {}]]], "config": {"trainable": false, "name": "activation_5", "activation": "relu"}}, {"class_name": "MaxPooling2D", "name": "max_pooling2d_2", "inbound_nodes": [[["activation_5", 0, 0, {}]]], "config": {"padding": "valid", "data_format": "channels_last", "trainable": false, "pool_size": [3, 3], "name": "max_pooling2d_2", "strides": [2, 2]}}, {"class_name": "Conv2D", "name": "conv2d_9", "inbound_nodes": [[["max_pooling2d_2", 0, 0, {}]]], "config": {"kernel_constraint": null, "kernel_initializer": {"class_name": "VarianceScaling", "config": {"scale": 1.0, "mode": "fan_avg", "distribution": "uniform", "seed": null}}, "dilation_rate": [1, 1], "activity_regularizer": null, "filters": 64, "name": "conv2d_9", "bias_initializer": {"class_name": "Zeros", "config": {}}, "bias_regularizer": null, "padding": "same", "data_format": "channels_last", "trainable": false, "kernel_regularizer": null, "strides": [1, 1], "use_bias": false, "bias_constraint": null, "kernel_size": [1, 1], "activation": "linear"}}, {"class_name": "BatchNormalization", "name": "batch_normalization_9", "inbound_nodes": [[["conv2d_9", 0, 0, {}]]], "config": {"moving_mean_initializer": {"class_name": "Zeros", "config": {}}, "scale": false, "gamma_initializer": {"class_name": "Ones", "config": {}}, "beta_constraint": null, "beta_regularizer": null, "epsilon": 0.001, "axis": 3, "momentum": 0.99, "gamma_constraint": null, "trainable": false, "beta_initializer": {"class_name": "Zeros", "config": {}}, "center": true, "name": "batch_normalization_9", "gamma_regularizer": null, "moving_variance_initializer": {"class_name": "Ones", "config": {}}}}, {"class_name": "Activation", "name": "activation_9", "inbound_nodes": [[["batch_normalization_9", 0, 0, {}]]], "config": {"trainable": false, "name": "activation_9", "activation": "relu"}}, {"class_name": "Conv2D", "name": "conv2d_7", "inbound_nodes": [[["max_pooling2d_2", 0, 0, {}]]], "config": {"kernel_constraint": null, "kernel_initializer": {"class_name": "VarianceScaling", "config": {"scale": 1.0, "mode": "fan_avg", "distribution": "uniform", "seed": null}}, "dilation_rate": [1, 1], "activity_regularizer": null, "filters": 48, "name": "conv2d_7", "bias_initializer": {"class_name": "Zeros", "config": {}}, "bias_regularizer": null, "padding": "same", "data_format": "channels_last", "trainable": false, "kernel_regularizer": null, "strides": [1, 1], "use_bias": false, "bias_constraint": null, "kernel_size": [1, 1], "activation": "linear"}}, {"class_name": "Conv2D", "name": "conv2d_10", "inbound_nodes": [[["activation_9", 0, 0, {}]]], "config": {"kernel_constraint": null, "kernel_initializer": {"class_name": "VarianceScaling", "config": {"scale": 1.0, "mode": "fan_avg", "distribution": "uniform", "seed": null}}, "dilation_rate": [1, 1], "activity_regularizer": null, "filters": 96, "name": "conv2d_10", "bias_initializer": {"class_name": "Zeros", "config": {}}, "bias_regularizer": null, "padding": "same", "data_format": "channels_last", "trainable": false, "kernel_regularizer": null, "strides": [1, 1], "use_bias": false, "bias_constraint": null, "kernel_size": [3, 3], "activation": "linear"}}, {"class_name": "BatchNormalization", "name": "batch_normalization_7", "inbound_nodes": [[["conv2d_7", 0, 0, {}]]], "config": {"moving_mean_initializer": {"class_name": "Zeros", "config": {}}, "scale": false, "gamma_initializer": {"class_name": "Ones", "config": {}}, "beta_constraint": null, "beta_regularizer": null, "epsilon": 0.001, "axis": 3, "momentum": 0.99, "gamma_constraint": null, "trainable": false, "beta_initializer": {"class_name": "Zeros", "config": {}}, "center": true, "name": "batch_normalization_7", "gamma_regularizer": null, "moving_variance_initializer": {"class_name": "Ones", "config": {}}}}, {"class_name": "BatchNormalization", "name": "batch_normalization_10", "inbound_nodes": [[["conv2d_10", 0, 0, {}]]], "config": {"moving_mean_initializer": {"class_name": "Zeros", "config": {}}, "scale": false, "gamma_initializer": {"class_name": "Ones", "config": {}}, "beta_constraint": null, "beta_regularizer": null, "epsilon": 0.001, "axis": 3, "momentum": 0.99, "gamma_constraint": null, "trainable": false, "beta_initializer": {"class_name": "Zeros", "config": {}}, "center": true, "name": "batch_normalization_10", "gamma_regularizer": null, "moving_variance_initializer": {"class_name": "Ones", "config": {}}}}, {"class_name": "Activation", "name": "activation_7", "inbound_nodes": [[["batch_normalization_7", 0, 0, {}]]], "config": {"trainable": false, "name": "activation_7", "activation": "relu"}}, {"class_name": "Activation", "name": "activation_10", "inbound_nodes": [[["batch_normalization_10", 0, 0, {}]]], "config": {"trainable": false, "name": "activation_10", "activation": "relu"}}, {"class_name": "AveragePooling2D", "name": "average_pooling2d_1", "inbound_nodes": [[["max_pooling2d_2", 0, 0, {}]]], "config": {"padding": "same", "data_format": "channels_last", "trainable": false, "pool_size": [3, 3], "name": "average_pooling2d_1", "strides": [1, 1]}}, {"class_name": "Conv2D", "name": "conv2d_6", "inbound_nodes": [[["max_pooling2d_2", 0, 0, {}]]], "config": {"kernel_constraint": null, "kernel_initializer": {"class_name": "VarianceScaling", "config": {"scale": 1.0, "mode": "fan_avg", "distribution": "uniform", "seed": null}}, "dilation_rate": [1, 1], "activity_regularizer": null, "filters": 64, "name": "conv2d_6", "bias_initializer": {"class_name": "Zeros", "config": {}}, "bias_regularizer": null, "padding": "same", "data_format": "channels_last", "trainable": false, "kernel_regularizer": null, "strides": [1, 1], "use_bias": false, "bias_constraint": null, "kernel_size": [1, 1], "activation": "linear"}}, {"class_name": "Conv2D", "name": "conv2d_8", "inbound_nodes": [[["activation_7", 0, 0, {}]]], "config": {"kernel_constraint": null, "kernel_initializer": {"class_name": "VarianceScaling", "config": {"scale": 1.0, "mode": "fan_avg", "distribution": "uniform", "seed": null}}, "dilation_rate": [1, 1], "activity_regularizer": null, "filters": 64, "name": "conv2d_8", "bias_initializer": {"class_name": "Zeros", "config": {}}, "bias_regularizer": null, "padding": "same", "data_format": "channels_last", "trainable": false, "kernel_regularizer": null, "strides": [1, 1], "use_bias": false, "bias_constraint": null, "kernel_size": [5, 5], "activation": "linear"}}, {"class_name": "Conv2D", "name": "conv2d_11", "inbound_nodes": [[["activation_10", 0, 0, {}]]], "config": {"kernel_constraint": null, "kernel_initializer": {"class_name": "VarianceScaling", "config": {"scale": 1.0, "mode": "fan_avg", "distribution": "uniform", "seed": null}}, "dilation_rate": [1, 1], "activity_regularizer": null, "filters": 96, "name": "conv2d_11", "bias_initializer": {"class_name": "Zeros", "config": {}}, "bias_regularizer": null, "padding": "same", "data_format": "channels_last", "trainable": false, "kernel_regularizer": null, "strides": [1, 1], "use_bias": false, "bias_constraint": null, "kernel_size": [3, 3], "activation": "linear"}}, {"class_name": "Conv2D", "name": "conv2d_12", "inbound_nodes": [[["average_pooling2d_1", 0, 0, {}]]], "config": {"kernel_constraint": null, "kernel_initializer": {"class_name": "VarianceScaling", "config": {"scale": 1.0, "mode": "fan_avg", "distribution": "uniform", "seed": null}}, "dilation_rate": [1, 1], "activity_regularizer": null, "filters": 32, "name": "conv2d_12", "bias_initializer": {"class_name": "Zeros", "config": {}}, "bias_regularizer": null, "padding": "same", "data_format": "channels_last", "trainable": false, "kernel_regularizer": null, "strides": [1, 1], "use_bias": false, "bias_constraint": null, "kernel_size": [1, 1], "activation": "linear"}}, {"class_name": "BatchNormalization", "name": "batch_normalization_6", "inbound_nodes": [[["conv2d_6", 0, 0, {}]]], "config": {"moving_mean_initializer": {"class_name": "Zeros", "config": {}}, "scale": false, "gamma_initializer": {"class_name": "Ones", "config": {}}, "beta_constraint": null, "beta_regularizer": null, "epsilon": 0.001, "axis": 3, "momentum": 0.99, "gamma_constraint": null, "trainable": false, "beta_initializer": {"class_name": "Zeros", "config": {}}, "center": true, "name": "batch_normalization_6", "gamma_regularizer": null, "moving_variance_initializer": {"class_name": "Ones", "config": {}}}}, {"class_name": "BatchNormalization", "name": "batch_normalization_8", "inbound_nodes": [[["conv2d_8", 0, 0, {}]]], "config": {"moving_mean_initializer": {"class_name": "Zeros", "config": {}}, "scale": false, "gamma_initializer": {"class_name": "Ones", "config": {}}, "beta_constraint": null, "beta_regularizer": null, "epsilon": 0.001, "axis": 3, "momentum": 0.99, "gamma_constraint": null, "trainable": false, "beta_initializer": {"class_name": "Zeros", "config": {}}, "center": true, "name": "batch_normalization_8", "gamma_regularizer": null, "moving_variance_initializer": {"class_name": "Ones", "config": {}}}}, {"class_name": "BatchNormalization", "name": "batch_normalization_11", "inbound_nodes": [[["conv2d_11", 0, 0, {}]]], "config": {"moving_mean_initializer": {"class_name": "Zeros", "config": {}}, "scale": false, "gamma_initializer": {"class_name": "Ones", "config": {}}, "beta_constraint": null, "beta_regularizer": null, "epsilon": 0.001, "axis": 3, "momentum": 0.99, "gamma_constraint": null, "trainable": false, "beta_initializer": {"class_name": "Zeros", "config": {}}, "center": true, "name": "batch_normalization_11", "gamma_regularizer": null, "moving_variance_initializer": {"class_name": "Ones", "config": {}}}}, {"class_name": "BatchNormalization", "name": "batch_normalization_12", "inbound_nodes": [[["conv2d_12", 0, 0, {}]]], "config": {"moving_mean_initializer": {"class_name": "Zeros", "config": {}}, "scale": false, "gamma_initializer": {"class_name": "Ones", "config": {}}, "beta_constraint": null, "beta_regularizer": null, "epsilon": 0.001, "axis": 3, "momentum": 0.99, "gamma_constraint": null, "trainable": false, "beta_initializer": {"class_name": "Zeros", "config": {}}, "center": true, "name": "batch_normalization_12", "gamma_regularizer": null, "moving_variance_initializer": {"class_name": "Ones", "config": {}}}}, {"class_name": "Activation", "name": "activation_6", "inbound_nodes": [[["batch_normalization_6", 0, 0, {}]]], "config": {"trainable": false, "name": "activation_6", "activation": "relu"}}, {"class_name": "Activation", "name": "activation_8", "inbound_nodes": [[["batch_normalization_8", 0, 0, {}]]], "config": {"trainable": false, "name": "activation_8", "activation": "relu"}}, {"class_name": "Activation", "name": "activation_11", "inbound_nodes": [[["batch_normalization_11", 0, 0, {}]]], "config": {"trainable": false, "name": "activation_11", "activation": "relu"}}, {"class_name": "Activation", "name": "activation_12", "inbound_nodes": [[["batch_normalization_12", 0, 0, {}]]], "config": {"trainable": false, "name": "activation_12", "activation": "relu"}}, {"class_name": "Concatenate", "name": "mixed0", "inbound_nodes": [[["activation_6", 0, 0, {}], ["activation_8", 0, 0, {}], ["activation_11", 0, 0, {}], ["activation_12", 0, 0, {}]]], "config": {"trainable": false, "name": "mixed0", "axis": 3}}, {"class_name": "Conv2D", "name": "conv2d_16", "inbound_nodes": [[["mixed0", 0, 0, {}]]], "config": {"kernel_constraint": null, "kernel_initializer": {"class_name": "VarianceScaling", "config": {"scale": 1.0, "mode": "fan_avg", "distribution": "uniform", "seed": null}}, "dilation_rate": [1, 1], "activity_regularizer": null, "filters": 64, "name": "conv2d_16", "bias_initializer": {"class_name": "Zeros", "config": {}}, "bias_regularizer": null, "padding": "same", "data_format": "channels_last", "trainable": false, "kernel_regularizer": null, "strides": [1, 1], "use_bias": false, "bias_constraint": null, "kernel_size": [1, 1], "activation": "linear"}}, {"class_name": "BatchNormalization", "name": "batch_normalization_16", "inbound_nodes": [[["conv2d_16", 0, 0, {}]]], "config": {"moving_mean_initializer": {"class_name": "Zeros", "config": {}}, "scale": false, "gamma_initializer": {"class_name": "Ones", "config": {}}, "beta_constraint": null, "beta_regularizer": null, "epsilon": 0.001, "axis": 3, "momentum": 0.99, "gamma_constraint": null, "trainable": false, "beta_initializer": {"class_name": "Zeros", "config": {}}, "center": true, "name": "batch_normalization_16", "gamma_regularizer": null, "moving_variance_initializer": {"class_name": "Ones", "config": {}}}}, {"class_name": "Activation", "name": "activation_16", "inbound_nodes": [[["batch_normalization_16", 0, 0, {}]]], "config": {"trainable": false, "name": "activation_16", "activation": "relu"}}, {"class_name": "Conv2D", "name": "conv2d_14", "inbound_nodes": [[["mixed0", 0, 0, {}]]], "config": {"kernel_constraint": null, "kernel_initializer": {"class_name": "VarianceScaling", "config": {"scale": 1.0, "mode": "fan_avg", "distribution": "uniform", "seed": null}}, "dilation_rate": [1, 1], "activity_regularizer": null, "filters": 48, "name": "conv2d_14", "bias_initializer": {"class_name": "Zeros", "config": {}}, "bias_regularizer": null, "padding": "same", "data_format": "channels_last", "trainable": false, "kernel_regularizer": null, "strides": [1, 1], "use_bias": false, "bias_constraint": null, "kernel_size": [1, 1], "activation": "linear"}}, {"class_name": "Conv2D", "name": "conv2d_17", "inbound_nodes": [[["activation_16", 0, 0, {}]]], "config": {"kernel_constraint": null, "kernel_initializer": {"class_name": "VarianceScaling", "config": {"scale": 1.0, "mode": "fan_avg", "distribution": "uniform", "seed": null}}, "dilation_rate": [1, 1], "activity_regularizer": null, "filters": 96, "name": "conv2d_17", "bias_initializer": {"class_name": "Zeros", "config": {}}, "bias_regularizer": null, "padding": "same", "data_format": "channels_last", "trainable": false, "kernel_regularizer": null, "strides": [1, 1], "use_bias": false, "bias_constraint": null, "kernel_size": [3, 3], "activation": "linear"}}, {"class_name": "BatchNormalization", "name": "batch_normalization_14", "inbound_nodes": [[["conv2d_14", 0, 0, {}]]], "config": {"moving_mean_initializer": {"class_name": "Zeros", "config": {}}, "scale": false, "gamma_initializer": {"class_name": "Ones", "config": {}}, "beta_constraint": null, "beta_regularizer": null, "epsilon": 0.001, "axis": 3, "momentum": 0.99, "gamma_constraint": null, "trainable": false, "beta_initializer": {"class_name": "Zeros", "config": {}}, "center": true, "name": "batch_normalization_14", "gamma_regularizer": null, "moving_variance_initializer": {"class_name": "Ones", "config": {}}}}, {"class_name": "BatchNormalization", "name": "batch_normalization_17", "inbound_nodes": [[["conv2d_17", 0, 0, {}]]], "config": {"moving_mean_initializer": {"class_name": "Zeros", "config": {}}, "scale": false, "gamma_initializer": {"class_name": "Ones", "config": {}}, "beta_constraint": null, "beta_regularizer": null, "epsilon": 0.001, "axis": 3, "momentum": 0.99, "gamma_constraint": null, "trainable": false, "beta_initializer": {"class_name": "Zeros", "config": {}}, "center": true, "name": "batch_normalization_17", "gamma_regularizer": null, "moving_variance_initializer": {"class_name": "Ones", "config": {}}}}, {"class_name": "Activation", "name": "activation_14", "inbound_nodes": [[["batch_normalization_14", 0, 0, {}]]], "config": {"trainable": false, "name": "activation_14", "activation": "relu"}}, {"class_name": "Activation", "name": "activation_17", "inbound_nodes": [[["batch_normalization_17", 0, 0, {}]]], "config": {"trainable": false, "name": "activation_17", "activation": "relu"}}, {"class_name": "AveragePooling2D", "name": "average_pooling2d_2", "inbound_nodes": [[["mixed0", 0, 0, {}]]], "config": {"padding": "same", "data_format": "channels_last", "trainable": false, "pool_size": [3, 3], "name": "average_pooling2d_2", "strides": [1, 1]}}, {"class_name": "Conv2D", "name": "conv2d_13", "inbound_nodes": [[["mixed0", 0, 0, {}]]], "config": {"kernel_constraint": null, "kernel_initializer": {"class_name": "VarianceScaling", "config": {"scale": 1.0, "mode": "fan_avg", "distribution": "uniform", "seed": null}}, "dilation_rate": [1, 1], "activity_regularizer": null, "filters": 64, "name": "conv2d_13", "bias_initializer": {"class_name": "Zeros", "config": {}}, "bias_regularizer": null, "padding": "same", "data_format": "channels_last", "trainable": false, "kernel_regularizer": null, "strides": [1, 1], "use_bias": false, "bias_constraint": null, "kernel_size": [1, 1], "activation": "linear"}}, {"class_name": "Conv2D", "name": "conv2d_15", "inbound_nodes": [[["activation_14", 0, 0, {}]]], "config": {"kernel_constraint": null, "kernel_initializer": {"class_name": "VarianceScaling", "config": {"scale": 1.0, "mode": "fan_avg", "distribution": "uniform", "seed": null}}, "dilation_rate": [1, 1], "activity_regularizer": null, "filters": 64, "name": "conv2d_15", "bias_initializer": {"class_name": "Zeros", "config": {}}, "bias_regularizer": null, "padding": "same", "data_format": "channels_last", "trainable": false, "kernel_regularizer": null, "strides": [1, 1], "use_bias": false, "bias_constraint": null, "kernel_size": [5, 5], "activation": "linear"}}, {"class_name": "Conv2D", "name": "conv2d_18", "inbound_nodes": [[["activation_17", 0, 0, {}]]], "config": {"kernel_constraint": null, "kernel_initializer": {"class_name": "VarianceScaling", "config": {"scale": 1.0, "mode": "fan_avg", "distribution": "uniform", "seed": null}}, "dilation_rate": [1, 1], "activity_regularizer": null, "filters": 96, "name": "conv2d_18", "bias_initializer": {"class_name": "Zeros", "config": {}}, "bias_regularizer": null, "padding": "same", "data_format": "channels_last", "trainable": false, "kernel_regularizer": null, "strides": [1, 1], "use_bias": false, "bias_constraint": null, "kernel_size": [3, 3], "activation": "linear"}}, {"class_name": "Conv2D", "name": "conv2d_19", "inbound_nodes": [[["average_pooling2d_2", 0, 0, {}]]], "config": {"kernel_constraint": null, "kernel_initializer": {"class_name": "VarianceScaling", "config": {"scale": 1.0, "mode": "fan_avg", "distribution": "uniform", "seed": null}}, "dilation_rate": [1, 1], "activity_regularizer": null, "filters": 64, "name": "conv2d_19", "bias_initializer": {"class_name": "Zeros", "config": {}}, "bias_regularizer": null, "padding": "same", "data_format": "channels_last", "trainable": false, "kernel_regularizer": null, "strides": [1, 1], "use_bias": false, "bias_constraint": null, "kernel_size": [1, 1], "activation": "linear"}}, {"class_name": "BatchNormalization", "name": "batch_normalization_13", "inbound_nodes": [[["conv2d_13", 0, 0, {}]]], "config": {"moving_mean_initializer": {"class_name": "Zeros", "config": {}}, "scale": false, "gamma_initializer": {"class_name": "Ones", "config": {}}, "beta_constraint": null, "beta_regularizer": null, "epsilon": 0.001, "axis": 3, "momentum": 0.99, "gamma_constraint": null, "trainable": false, "beta_initializer": {"class_name": "Zeros", "config": {}}, "center": true, "name": "batch_normalization_13", "gamma_regularizer": null, "moving_variance_initializer": {"class_name": "Ones", "config": {}}}}, {"class_name": "BatchNormalization", "name": "batch_normalization_15", "inbound_nodes": [[["conv2d_15", 0, 0, {}]]], "config": {"moving_mean_initializer": {"class_name": "Zeros", "config": {}}, "scale": false, "gamma_initializer": {"class_name": "Ones", "config": {}}, "beta_constraint": null, "beta_regularizer": null, "epsilon": 0.001, "axis": 3, "momentum": 0.99, "gamma_constraint": null, "trainable": false, "beta_initializer": {"class_name": "Zeros", "config": {}}, "center": true, "name": "batch_normalization_15", "gamma_regularizer": null, "moving_variance_initializer": {"class_name": "Ones", "config": {}}}}, {"class_name": "BatchNormalization", "name": "batch_normalization_18", "inbound_nodes": [[["conv2d_18", 0, 0, {}]]], "config": {"moving_mean_initializer": {"class_name": "Zeros", "config": {}}, "scale": false, "gamma_initializer": {"class_name": "Ones", "config": {}}, "beta_constraint": null, "beta_regularizer": null, "epsilon": 0.001, "axis": 3, "momentum": 0.99, "gamma_constraint": null, "trainable": false, "beta_initializer": {"class_name": "Zeros", "config": {}}, "center": true, "name": "batch_normalization_18", "gamma_regularizer": null, "moving_variance_initializer": {"class_name": "Ones", "config": {}}}}, {"class_name": "BatchNormalization", "name": "batch_normalization_19", "inbound_nodes": [[["conv2d_19", 0, 0, {}]]], "config": {"moving_mean_initializer": {"class_name": "Zeros", "config": {}}, "scale": false, "gamma_initializer": {"class_name": "Ones", "config": {}}, "beta_constraint": null, "beta_regularizer": null, "epsilon": 0.001, "axis": 3, "momentum": 0.99, "gamma_constraint": null, "trainable": false, "beta_initializer": {"class_name": "Zeros", "config": {}}, "center": true, "name": "batch_normalization_19", "gamma_regularizer": null, "moving_variance_initializer": {"class_name": "Ones", "config": {}}}}, {"class_name": "Activation", "name": "activation_13", "inbound_nodes": [[["batch_normalization_13", 0, 0, {}]]], "config": {"trainable": false, "name": "activation_13", "activation": "relu"}}, {"class_name": "Activation", "name": "activation_15", "inbound_nodes": [[["batch_normalization_15", 0, 0, {}]]], "config": {"trainable": false, "name": "activation_15", "activation": "relu"}}, {"class_name": "Activation", "name": "activation_18", "inbound_nodes": [[["batch_normalization_18", 0, 0, {}]]], "config": {"trainable": false, "name": "activation_18", "activation": "relu"}}, {"class_name": "Activation", "name": "activation_19", "inbound_nodes": [[["batch_normalization_19", 0, 0, {}]]], "config": {"trainable": false, "name": "activation_19", "activation": "relu"}}, {"class_name": "Concatenate", "name": "mixed1", "inbound_nodes": [[["activation_13", 0, 0, {}], ["activation_15", 0, 0, {}], ["activation_18", 0, 0, {}], ["activation_19", 0, 0, {}]]], "config": {"trainable": false, "name": "mixed1", "axis": 3}}, {"class_name": "Conv2D", "name": "conv2d_23", "inbound_nodes": [[["mixed1", 0, 0, {}]]], "config": {"kernel_constraint": null, "kernel_initializer": {"class_name": "VarianceScaling", "config": {"scale": 1.0, "mode": "fan_avg", "distribution": "uniform", "seed": null}}, "dilation_rate": [1, 1], "activity_regularizer": null, "filters": 64, "name": "conv2d_23", "bias_initializer": {"class_name": "Zeros", "config": {}}, "bias_regularizer": null, "padding": "same", "data_format": "channels_last", "trainable": false, "kernel_regularizer": null, "strides": [1, 1], "use_bias": false, "bias_constraint": null, "kernel_size": [1, 1], "activation": "linear"}}, {"class_name": "BatchNormalization", "name": "batch_normalization_23", "inbound_nodes": [[["conv2d_23", 0, 0, {}]]], "config": {"moving_mean_initializer": {"class_name": "Zeros", "config": {}}, "scale": false, "gamma_initializer": {"class_name": "Ones", "config": {}}, "beta_constraint": null, "beta_regularizer": null, "epsilon": 0.001, "axis": 3, "momentum": 0.99, "gamma_constraint": null, "trainable": false, "beta_initializer": {"class_name": "Zeros", "config": {}}, "center": true, "name": "batch_normalization_23", "gamma_regularizer": null, "moving_variance_initializer": {"class_name": "Ones", "config": {}}}}, {"class_name": "Activation", "name": "activation_23", "inbound_nodes": [[["batch_normalization_23", 0, 0, {}]]], "config": {"trainable": false, "name": "activation_23", "activation": "relu"}}, {"class_name": "Conv2D", "name": "conv2d_21", "inbound_nodes": [[["mixed1", 0, 0, {}]]], "config": {"kernel_constraint": null, "kernel_initializer": {"class_name": "VarianceScaling", "config": {"scale": 1.0, "mode": "fan_avg", "distribution": "uniform", "seed": null}}, "dilation_rate": [1, 1], "activity_regularizer": null, "filters": 48, "name": "conv2d_21", "bias_initializer": {"class_name": "Zeros", "config": {}}, "bias_regularizer": null, "padding": "same", "data_format": "channels_last", "trainable": false, "kernel_regularizer": null, "strides": [1, 1], "use_bias": false, "bias_constraint": null, "kernel_size": [1, 1], "activation": "linear"}}, {"class_name": "Conv2D", "name": "conv2d_24", "inbound_nodes": [[["activation_23", 0, 0, {}]]], "config": {"kernel_constraint": null, "kernel_initializer": {"class_name": "VarianceScaling", "config": {"scale": 1.0, "mode": "fan_avg", "distribution": "uniform", "seed": null}}, "dilation_rate": [1, 1], "activity_regularizer": null, "filters": 96, "name": "conv2d_24", "bias_initializer": {"class_name": "Zeros", "config": {}}, "bias_regularizer": null, "padding": "same", "data_format": "channels_last", "trainable": false, "kernel_regularizer": null, "strides": [1, 1], "use_bias": false, "bias_constraint": null, "kernel_size": [3, 3], "activation": "linear"}}, {"class_name": "BatchNormalization", "name": "batch_normalization_21", "inbound_nodes": [[["conv2d_21", 0, 0, {}]]], "config": {"moving_mean_initializer": {"class_name": "Zeros", "config": {}}, "scale": false, "gamma_initializer": {"class_name": "Ones", "config": {}}, "beta_constraint": null, "beta_regularizer": null, "epsilon": 0.001, "axis": 3, "momentum": 0.99, "gamma_constraint": null, "trainable": false, "beta_initializer": {"class_name": "Zeros", "config": {}}, "center": true, "name": "batch_normalization_21", "gamma_regularizer": null, "moving_variance_initializer": {"class_name": "Ones", "config": {}}}}, {"class_name": "BatchNormalization", "name": "batch_normalization_24", "inbound_nodes": [[["conv2d_24", 0, 0, {}]]], "config": {"moving_mean_initializer": {"class_name": "Zeros", "config": {}}, "scale": false, "gamma_initializer": {"class_name": "Ones", "config": {}}, "beta_constraint": null, "beta_regularizer": null, "epsilon": 0.001, "axis": 3, "momentum": 0.99, "gamma_constraint": null, "trainable": false, "beta_initializer": {"class_name": "Zeros", "config": {}}, "center": true, "name": "batch_normalization_24", "gamma_regularizer": null, "moving_variance_initializer": {"class_name": "Ones", "config": {}}}}, {"class_name": "Activation", "name": "activation_21", "inbound_nodes": [[["batch_normalization_21", 0, 0, {}]]], "config": {"trainable": false, "name": "activation_21", "activation": "relu"}}, {"class_name": "Activation", "name": "activation_24", "inbound_nodes": [[["batch_normalization_24", 0, 0, {}]]], "config": {"trainable": false, "name": "activation_24", "activation": "relu"}}, {"class_name": "AveragePooling2D", "name": "average_pooling2d_3", "inbound_nodes": [[["mixed1", 0, 0, {}]]], "config": {"padding": "same", "data_format": "channels_last", "trainable": false, "pool_size": [3, 3], "name": "average_pooling2d_3", "strides": [1, 1]}}, {"class_name": "Conv2D", "name": "conv2d_20", "inbound_nodes": [[["mixed1", 0, 0, {}]]], "config": {"kernel_constraint": null, "kernel_initializer": {"class_name": "VarianceScaling", "config": {"scale": 1.0, "mode": "fan_avg", "distribution": "uniform", "seed": null}}, "dilation_rate": [1, 1], "activity_regularizer": null, "filters": 64, "name": "conv2d_20", "bias_initializer": {"class_name": "Zeros", "config": {}}, "bias_regularizer": null, "padding": "same", "data_format": "channels_last", "trainable": false, "kernel_regularizer": null, "strides": [1, 1], "use_bias": false, "bias_constraint": null, "kernel_size": [1, 1], "activation": "linear"}}, {"class_name": "Conv2D", "name": "conv2d_22", "inbound_nodes": [[["activation_21", 0, 0, {}]]], "config": {"kernel_constraint": null, "kernel_initializer": {"class_name": "VarianceScaling", "config": {"scale": 1.0, "mode": "fan_avg", "distribution": "uniform", "seed": null}}, "dilation_rate": [1, 1], "activity_regularizer": null, "filters": 64, "name": "conv2d_22", "bias_initializer": {"class_name": "Zeros", "config": {}}, "bias_regularizer": null, "padding": "same", "data_format": "channels_last", "trainable": false, "kernel_regularizer": null, "strides": [1, 1], "use_bias": false, "bias_constraint": null, "kernel_size": [5, 5], "activation": "linear"}}, {"class_name": "Conv2D", "name": "conv2d_25", "inbound_nodes": [[["activation_24", 0, 0, {}]]], "config": {"kernel_constraint": null, "kernel_initializer": {"class_name": "VarianceScaling", "config": {"scale": 1.0, "mode": "fan_avg", "distribution": "uniform", "seed": null}}, "dilation_rate": [1, 1], "activity_regularizer": null, "filters": 96, "name": "conv2d_25", "bias_initializer": {"class_name": "Zeros", "config": {}}, "bias_regularizer": null, "padding": "same", "data_format": "channels_last", "trainable": false, "kernel_regularizer": null, "strides": [1, 1], "use_bias": false, "bias_constraint": null, "kernel_size": [3, 3], "activation": "linear"}}, {"class_name": "Conv2D", "name": "conv2d_26", "inbound_nodes": [[["average_pooling2d_3", 0, 0, {}]]], "config": {"kernel_constraint": null, "kernel_initializer": {"class_name": "VarianceScaling", "config": {"scale": 1.0, "mode": "fan_avg", "distribution": "uniform", "seed": null}}, "dilation_rate": [1, 1], "activity_regularizer": null, "filters": 64, "name": "conv2d_26", "bias_initializer": {"class_name": "Zeros", "config": {}}, "bias_regularizer": null, "padding": "same", "data_format": "channels_last", "trainable": false, "kernel_regularizer": null, "strides": [1, 1], "use_bias": false, "bias_constraint": null, "kernel_size": [1, 1], "activation": "linear"}}, {"class_name": "BatchNormalization", "name": "batch_normalization_20", "inbound_nodes": [[["conv2d_20", 0, 0, {}]]], "config": {"moving_mean_initializer": {"class_name": "Zeros", "config": {}}, "scale": false, "gamma_initializer": {"class_name": "Ones", "config": {}}, "beta_constraint": null, "beta_regularizer": null, "epsilon": 0.001, "axis": 3, "momentum": 0.99, "gamma_constraint": null, "trainable": false, "beta_initializer": {"class_name": "Zeros", "config": {}}, "center": true, "name": "batch_normalization_20", "gamma_regularizer": null, "moving_variance_initializer": {"class_name": "Ones", "config": {}}}}, {"class_name": "BatchNormalization", "name": "batch_normalization_22", "inbound_nodes": [[["conv2d_22", 0, 0, {}]]], "config": {"moving_mean_initializer": {"class_name": "Zeros", "config": {}}, "scale": false, "gamma_initializer": {"class_name": "Ones", "config": {}}, "beta_constraint": null, "beta_regularizer": null, "epsilon": 0.001, "axis": 3, "momentum": 0.99, "gamma_constraint": null, "trainable": false, "beta_initializer": {"class_name": "Zeros", "config": {}}, "center": true, "name": "batch_normalization_22", "gamma_regularizer": null, "moving_variance_initializer": {"class_name": "Ones", "config": {}}}}, {"class_name": "BatchNormalization", "name": "batch_normalization_25", "inbound_nodes": [[["conv2d_25", 0, 0, {}]]], "config": {"moving_mean_initializer": {"class_name": "Zeros", "config": {}}, "scale": false, "gamma_initializer": {"class_name": "Ones", "config": {}}, "beta_constraint": null, "beta_regularizer": null, "epsilon": 0.001, "axis": 3, "momentum": 0.99, "gamma_constraint": null, "trainable": false, "beta_initializer": {"class_name": "Zeros", "config": {}}, "center": true, "name": "batch_normalization_25", "gamma_regularizer": null, "moving_variance_initializer": {"class_name": "Ones", "config": {}}}}, {"class_name": "BatchNormalization", "name": "batch_normalization_26", "inbound_nodes": [[["conv2d_26", 0, 0, {}]]], "config": {"moving_mean_initializer": {"class_name": "Zeros", "config": {}}, "scale": false, "gamma_initializer": {"class_name": "Ones", "config": {}}, "beta_constraint": null, "beta_regularizer": null, "epsilon": 0.001, "axis": 3, "momentum": 0.99, "gamma_constraint": null, "trainable": false, "beta_initializer": {"class_name": "Zeros", "config": {}}, "center": true, "name": "batch_normalization_26", "gamma_regularizer": null, "moving_variance_initializer": {"class_name": "Ones", "config": {}}}}, {"class_name": "Activation", "name": "activation_20", "inbound_nodes": [[["batch_normalization_20", 0, 0, {}]]], "config": {"trainable": false, "name": "activation_20", "activation": "relu"}}, {"class_name": "Activation", "name": "activation_22", "inbound_nodes": [[["batch_normalization_22", 0, 0, {}]]], "config": {"trainable": false, "name": "activation_22", "activation": "relu"}}, {"class_name": "Activation", "name": "activation_25", "inbound_nodes": [[["batch_normalization_25", 0, 0, {}]]], "config": {"trainable": false, "name": "activation_25", "activation": "relu"}}, {"class_name": "Activation", "name": "activation_26", "inbound_nodes": [[["batch_normalization_26", 0, 0, {}]]], "config": {"trainable": false, "name": "activation_26", "activation": "relu"}}, {"class_name": "Concatenate", "name": "mixed2", "inbound_nodes": [[["activation_20", 0, 0, {}], ["activation_22", 0, 0, {}], ["activation_25", 0, 0, {}], ["activation_26", 0, 0, {}]]], "config": {"trainable": false, "name": "mixed2", "axis": 3}}, {"class_name": "Conv2D", "name": "conv2d_28", "inbound_nodes": [[["mixed2", 0, 0, {}]]], "config": {"kernel_constraint": null, "kernel_initializer": {"class_name": "VarianceScaling", "config": {"scale": 1.0, "mode": "fan_avg", "distribution": "uniform", "seed": null}}, "dilation_rate": [1, 1], "activity_regularizer": null, "filters": 64, "name": "conv2d_28", "bias_initializer": {"class_name": "Zeros", "config": {}}, "bias_regularizer": null, "padding": "same", "data_format": "channels_last", "trainable": false, "kernel_regularizer": null, "strides": [1, 1], "use_bias": false, "bias_constraint": null, "kernel_size": [1, 1], "activation": "linear"}}, {"class_name": "BatchNormalization", "name": "batch_normalization_28", "inbound_nodes": [[["conv2d_28", 0, 0, {}]]], "config": {"moving_mean_initializer": {"class_name": "Zeros", "config": {}}, "scale": false, "gamma_initializer": {"class_name": "Ones", "config": {}}, "beta_constraint": null, "beta_regularizer": null, "epsilon": 0.001, "axis": 3, "momentum": 0.99, "gamma_constraint": null, "trainable": false, "beta_initializer": {"class_name": "Zeros", "config": {}}, "center": true, "name": "batch_normalization_28", "gamma_regularizer": null, "moving_variance_initializer": {"class_name": "Ones", "config": {}}}}, {"class_name": "Activation", "name": "activation_28", "inbound_nodes": [[["batch_normalization_28", 0, 0, {}]]], "config": {"trainable": false, "name": "activation_28", "activation": "relu"}}, {"class_name": "Conv2D", "name": "conv2d_29", "inbound_nodes": [[["activation_28", 0, 0, {}]]], "config": {"kernel_constraint": null, "kernel_initializer": {"class_name": "VarianceScaling", "config": {"scale": 1.0, "mode": "fan_avg", "distribution": "uniform", "seed": null}}, "dilation_rate": [1, 1], "activity_regularizer": null, "filters": 96, "name": "conv2d_29", "bias_initializer": {"class_name": "Zeros", "config": {}}, "bias_regularizer": null, "padding": "same", "data_format": "channels_last", "trainable": false, "kernel_regularizer": null, "strides": [1, 1], "use_bias": false, "bias_constraint": null, "kernel_size": [3, 3], "activation": "linear"}}, {"class_name": "BatchNormalization", "name": "batch_normalization_29", "inbound_nodes": [[["conv2d_29", 0, 0, {}]]], "config": {"moving_mean_initializer": {"class_name": "Zeros", "config": {}}, "scale": false, "gamma_initializer": {"class_name": "Ones", "config": {}}, "beta_constraint": null, "beta_regularizer": null, "epsilon": 0.001, "axis": 3, "momentum": 0.99, "gamma_constraint": null, "trainable": false, "beta_initializer": {"class_name": "Zeros", "config": {}}, "center": true, "name": "batch_normalization_29", "gamma_regularizer": null, "moving_variance_initializer": {"class_name": "Ones", "config": {}}}}, {"class_name": "Activation", "name": "activation_29", "inbound_nodes": [[["batch_normalization_29", 0, 0, {}]]], "config": {"trainable": false, "name": "activation_29", "activation": "relu"}}, {"class_name": "Conv2D", "name": "conv2d_27", "inbound_nodes": [[["mixed2", 0, 0, {}]]], "config": {"kernel_constraint": null, "kernel_initializer": {"class_name": "VarianceScaling", "config": {"scale": 1.0, "mode": "fan_avg", "distribution": "uniform", "seed": null}}, "dilation_rate": [1, 1], "activity_regularizer": null, "filters": 384, "name": "conv2d_27", "bias_initializer": {"class_name": "Zeros", "config": {}}, "bias_regularizer": null, "padding": "valid", "data_format": "channels_last", "trainable": false, "kernel_regularizer": null, "strides": [2, 2], "use_bias": false, "bias_constraint": null, "kernel_size": [3, 3], "activation": "linear"}}, {"class_name": "Conv2D", "name": "conv2d_30", "inbound_nodes": [[["activation_29", 0, 0, {}]]], "config": {"kernel_constraint": null, "kernel_initializer": {"class_name": "VarianceScaling", "config": {"scale": 1.0, "mode": "fan_avg", "distribution": "uniform", "seed": null}}, "dilation_rate": [1, 1], "activity_regularizer": null, "filters": 96, "name": "conv2d_30", "bias_initializer": {"class_name": "Zeros", "config": {}}, "bias_regularizer": null, "padding": "valid", "data_format": "channels_last", "trainable": false, "kernel_regularizer": null, "strides": [2, 2], "use_bias": false, "bias_constraint": null, "kernel_size": [3, 3], "activation": "linear"}}, {"class_name": "BatchNormalization", "name": "batch_normalization_27", "inbound_nodes": [[["conv2d_27", 0, 0, {}]]], "config": {"moving_mean_initializer": {"class_name": "Zeros", "config": {}}, "scale": false, "gamma_initializer": {"class_name": "Ones", "config": {}}, "beta_constraint": null, "beta_regularizer": null, "epsilon": 0.001, "axis": 3, "momentum": 0.99, "gamma_constraint": null, "trainable": false, "beta_initializer": {"class_name": "Zeros", "config": {}}, "center": true, "name": "batch_normalization_27", "gamma_regularizer": null, "moving_variance_initializer": {"class_name": "Ones", "config": {}}}}, {"class_name": "BatchNormalization", "name": "batch_normalization_30", "inbound_nodes": [[["conv2d_30", 0, 0, {}]]], "config": {"moving_mean_initializer": {"class_name": "Zeros", "config": {}}, "scale": false, "gamma_initializer": {"class_name": "Ones", "config": {}}, "beta_constraint": null, "beta_regularizer": null, "epsilon": 0.001, "axis": 3, "momentum": 0.99, "gamma_constraint": null, "trainable": false, "beta_initializer": {"class_name": "Zeros", "config": {}}, "center": true, "name": "batch_normalization_30", "gamma_regularizer": null, "moving_variance_initializer": {"class_name": "Ones", "config": {}}}}, {"class_name": "Activation", "name": "activation_27", "inbound_nodes": [[["batch_normalization_27", 0, 0, {}]]], "config": {"trainable": false, "name": "activation_27", "activation": "relu"}}, {"class_name": "Activation", "name": "activation_30", "inbound_nodes": [[["batch_normalization_30", 0, 0, {}]]], "config": {"trainable": false, "name": "activation_30", "activation": "relu"}}, {"class_name": "MaxPooling2D", "name": "max_pooling2d_3", "inbound_nodes": [[["mixed2", 0, 0, {}]]], "config": {"padding": "valid", "data_format": "channels_last", "trainable": false, "pool_size": [3, 3], "name": "max_pooling2d_3", "strides": [2, 2]}}, {"class_name": "Concatenate", "name": "mixed3", "inbound_nodes": [[["activation_27", 0, 0, {}], ["activation_30", 0, 0, {}], ["max_pooling2d_3", 0, 0, {}]]], "config": {"trainable": false, "name": "mixed3", "axis": 3}}, {"class_name": "Conv2D", "name": "conv2d_35", "inbound_nodes": [[["mixed3", 0, 0, {}]]], "config": {"kernel_constraint": null, "kernel_initializer": {"class_name": "VarianceScaling", "config": {"scale": 1.0, "mode": "fan_avg", "distribution": "uniform", "seed": null}}, "dilation_rate": [1, 1], "activity_regularizer": null, "filters": 128, "name": "conv2d_35", "bias_initializer": {"class_name": "Zeros", "config": {}}, "bias_regularizer": null, "padding": "same", "data_format": "channels_last", "trainable": false, "kernel_regularizer": null, "strides": [1, 1], "use_bias": false, "bias_constraint": null, "kernel_size": [1, 1], "activation": "linear"}}, {"class_name": "BatchNormalization", "name": "batch_normalization_35", "inbound_nodes": [[["conv2d_35", 0, 0, {}]]], "config": {"moving_mean_initializer": {"class_name": "Zeros", "config": {}}, "scale": false, "gamma_initializer": {"class_name": "Ones", "config": {}}, "beta_constraint": null, "beta_regularizer": null, "epsilon": 0.001, "axis": 3, "momentum": 0.99, "gamma_constraint": null, "trainable": false, "beta_initializer": {"class_name": "Zeros", "config": {}}, "center": true, "name": "batch_normalization_35", "gamma_regularizer": null, "moving_variance_initializer": {"class_name": "Ones", "config": {}}}}, {"class_name": "Activation", "name": "activation_35", "inbound_nodes": [[["batch_normalization_35", 0, 0, {}]]], "config": {"trainable": false, "name": "activation_35", "activation": "relu"}}, {"class_name": "Conv2D", "name": "conv2d_36", "inbound_nodes": [[["activation_35", 0, 0, {}]]], "config": {"kernel_constraint": null, "kernel_initializer": {"class_name": "VarianceScaling", "config": {"scale": 1.0, "mode": "fan_avg", "distribution": "uniform", "seed": null}}, "dilation_rate": [1, 1], "activity_regularizer": null, "filters": 128, "name": "conv2d_36", "bias_initializer": {"class_name": "Zeros", "config": {}}, "bias_regularizer": null, "padding": "same", "data_format": "channels_last", "trainable": false, "kernel_regularizer": null, "strides": [1, 1], "use_bias": false, "bias_constraint": null, "kernel_size": [7, 1], "activation": "linear"}}, {"class_name": "BatchNormalization", "name": "batch_normalization_36", "inbound_nodes": [[["conv2d_36", 0, 0, {}]]], "config": {"moving_mean_initializer": {"class_name": "Zeros", "config": {}}, "scale": false, "gamma_initializer": {"class_name": "Ones", "config": {}}, "beta_constraint": null, "beta_regularizer": null, "epsilon": 0.001, "axis": 3, "momentum": 0.99, "gamma_constraint": null, "trainable": false, "beta_initializer": {"class_name": "Zeros", "config": {}}, "center": true, "name": "batch_normalization_36", "gamma_regularizer": null, "moving_variance_initializer": {"class_name": "Ones", "config": {}}}}, {"class_name": "Activation", "name": "activation_36", "inbound_nodes": [[["batch_normalization_36", 0, 0, {}]]], "config": {"trainable": false, "name": "activation_36", "activation": "relu"}}, {"class_name": "Conv2D", "name": "conv2d_32", "inbound_nodes": [[["mixed3", 0, 0, {}]]], "config": {"kernel_constraint": null, "kernel_initializer": {"class_name": "VarianceScaling", "config": {"scale": 1.0, "mode": "fan_avg", "distribution": "uniform", "seed": null}}, "dilation_rate": [1, 1], "activity_regularizer": null, "filters": 128, "name": "conv2d_32", "bias_initializer": {"class_name": "Zeros", "config": {}}, "bias_regularizer": null, "padding": "same", "data_format": "channels_last", "trainable": false, "kernel_regularizer": null, "strides": [1, 1], "use_bias": false, "bias_constraint": null, "kernel_size": [1, 1], "activation": "linear"}}, {"class_name": "Conv2D", "name": "conv2d_37", "inbound_nodes": [[["activation_36", 0, 0, {}]]], "config": {"kernel_constraint": null, "kernel_initializer": {"class_name": "VarianceScaling", "config": {"scale": 1.0, "mode": "fan_avg", "distribution": "uniform", "seed": null}}, "dilation_rate": [1, 1], "activity_regularizer": null, "filters": 128, "name": "conv2d_37", "bias_initializer": {"class_name": "Zeros", "config": {}}, "bias_regularizer": null, "padding": "same", "data_format": "channels_last", "trainable": false, "kernel_regularizer": null, "strides": [1, 1], "use_bias": false, "bias_constraint": null, "kernel_size": [1, 7], "activation": "linear"}}, {"class_name": "BatchNormalization", "name": "batch_normalization_32", "inbound_nodes": [[["conv2d_32", 0, 0, {}]]], "config": {"moving_mean_initializer": {"class_name": "Zeros", "config": {}}, "scale": false, "gamma_initializer": {"class_name": "Ones", "config": {}}, "beta_constraint": null, "beta_regularizer": null, "epsilon": 0.001, "axis": 3, "momentum": 0.99, "gamma_constraint": null, "trainable": false, "beta_initializer": {"class_name": "Zeros", "config": {}}, "center": true, "name": "batch_normalization_32", "gamma_regularizer": null, "moving_variance_initializer": {"class_name": "Ones", "config": {}}}}, {"class_name": "BatchNormalization", "name": "batch_normalization_37", "inbound_nodes": [[["conv2d_37", 0, 0, {}]]], "config": {"moving_mean_initializer": {"class_name": "Zeros", "config": {}}, "scale": false, "gamma_initializer": {"class_name": "Ones", "config": {}}, "beta_constraint": null, "beta_regularizer": null, "epsilon": 0.001, "axis": 3, "momentum": 0.99, "gamma_constraint": null, "trainable": false, "beta_initializer": {"class_name": "Zeros", "config": {}}, "center": true, "name": "batch_normalization_37", "gamma_regularizer": null, "moving_variance_initializer": {"class_name": "Ones", "config": {}}}}, {"class_name": "Activation", "name": "activation_32", "inbound_nodes": [[["batch_normalization_32", 0, 0, {}]]], "config": {"trainable": false, "name": "activation_32", "activation": "relu"}}, {"class_name": "Activation", "name": "activation_37", "inbound_nodes": [[["batch_normalization_37", 0, 0, {}]]], "config": {"trainable": false, "name": "activation_37", "activation": "relu"}}, {"class_name": "Conv2D", "name": "conv2d_33", "inbound_nodes": [[["activation_32", 0, 0, {}]]], "config": {"kernel_constraint": null, "kernel_initializer": {"class_name": "VarianceScaling", "config": {"scale": 1.0, "mode": "fan_avg", "distribution": "uniform", "seed": null}}, "dilation_rate": [1, 1], "activity_regularizer": null, "filters": 128, "name": "conv2d_33", "bias_initializer": {"class_name": "Zeros", "config": {}}, "bias_regularizer": null, "padding": "same", "data_format": "channels_last", "trainable": false, "kernel_regularizer": null, "strides": [1, 1], "use_bias": false, "bias_constraint": null, "kernel_size": [1, 7], "activation": "linear"}}, {"class_name": "Conv2D", "name": "conv2d_38", "inbound_nodes": [[["activation_37", 0, 0, {}]]], "config": {"kernel_constraint": null, "kernel_initializer": {"class_name": "VarianceScaling", "config": {"scale": 1.0, "mode": "fan_avg", "distribution": "uniform", "seed": null}}, "dilation_rate": [1, 1], "activity_regularizer": null, "filters": 128, "name": "conv2d_38", "bias_initializer": {"class_name": "Zeros", "config": {}}, "bias_regularizer": null, "padding": "same", "data_format": "channels_last", "trainable": false, "kernel_regularizer": null, "strides": [1, 1], "use_bias": false, "bias_constraint": null, "kernel_size": [7, 1], "activation": "linear"}}, {"class_name": "BatchNormalization", "name": "batch_normalization_33", "inbound_nodes": [[["conv2d_33", 0, 0, {}]]], "config": {"moving_mean_initializer": {"class_name": "Zeros", "config": {}}, "scale": false, "gamma_initializer": {"class_name": "Ones", "config": {}}, "beta_constraint": null, "beta_regularizer": null, "epsilon": 0.001, "axis": 3, "momentum": 0.99, "gamma_constraint": null, "trainable": false, "beta_initializer": {"class_name": "Zeros", "config": {}}, "center": true, "name": "batch_normalization_33", "gamma_regularizer": null, "moving_variance_initializer": {"class_name": "Ones", "config": {}}}}, {"class_name": "BatchNormalization", "name": "batch_normalization_38", "inbound_nodes": [[["conv2d_38", 0, 0, {}]]], "config": {"moving_mean_initializer": {"class_name": "Zeros", "config": {}}, "scale": false, "gamma_initializer": {"class_name": "Ones", "config": {}}, "beta_constraint": null, "beta_regularizer": null, "epsilon": 0.001, "axis": 3, "momentum": 0.99, "gamma_constraint": null, "trainable": false, "beta_initializer": {"class_name": "Zeros", "config": {}}, "center": true, "name": "batch_normalization_38", "gamma_regularizer": null, "moving_variance_initializer": {"class_name": "Ones", "config": {}}}}, {"class_name": "Activation", "name": "activation_33", "inbound_nodes": [[["batch_normalization_33", 0, 0, {}]]], "config": {"trainable": false, "name": "activation_33", "activation": "relu"}}, {"class_name": "Activation", "name": "activation_38", "inbound_nodes": [[["batch_normalization_38", 0, 0, {}]]], "config": {"trainable": false, "name": "activation_38", "activation": "relu"}}, {"class_name": "AveragePooling2D", "name": "average_pooling2d_4", "inbound_nodes": [[["mixed3", 0, 0, {}]]], "config": {"padding": "same", "data_format": "channels_last", "trainable": false, "pool_size": [3, 3], "name": "average_pooling2d_4", "strides": [1, 1]}}, {"class_name": "Conv2D", "name": "conv2d_31", "inbound_nodes": [[["mixed3", 0, 0, {}]]], "config": {"kernel_constraint": null, "kernel_initializer": {"class_name": "VarianceScaling", "config": {"scale": 1.0, "mode": "fan_avg", "distribution": "uniform", "seed": null}}, "dilation_rate": [1, 1], "activity_regularizer": null, "filters": 192, "name": "conv2d_31", "bias_initializer": {"class_name": "Zeros", "config": {}}, "bias_regularizer": null, "padding": "same", "data_format": "channels_last", "trainable": false, "kernel_regularizer": null, "strides": [1, 1], "use_bias": false, "bias_constraint": null, "kernel_size": [1, 1], "activation": "linear"}}, {"class_name": "Conv2D", "name": "conv2d_34", "inbound_nodes": [[["activation_33", 0, 0, {}]]], "config": {"kernel_constraint": null, "kernel_initializer": {"class_name": "VarianceScaling", "config": {"scale": 1.0, "mode": "fan_avg", "distribution": "uniform", "seed": null}}, "dilation_rate": [1, 1], "activity_regularizer": null, "filters": 192, "name": "conv2d_34", "bias_initializer": {"class_name": "Zeros", "config": {}}, "bias_regularizer": null, "padding": "same", "data_format": "channels_last", "trainable": false, "kernel_regularizer": null, "strides": [1, 1], "use_bias": false, "bias_constraint": null, "kernel_size": [7, 1], "activation": "linear"}}, {"class_name": "Conv2D", "name": "conv2d_39", "inbound_nodes": [[["activation_38", 0, 0, {}]]], "config": {"kernel_constraint": null, "kernel_initializer": {"class_name": "VarianceScaling", "config": {"scale": 1.0, "mode": "fan_avg", "distribution": "uniform", "seed": null}}, "dilation_rate": [1, 1], "activity_regularizer": null, "filters": 192, "name": "conv2d_39", "bias_initializer": {"class_name": "Zeros", "config": {}}, "bias_regularizer": null, "padding": "same", "data_format": "channels_last", "trainable": false, "kernel_regularizer": null, "strides": [1, 1], "use_bias": false, "bias_constraint": null, "kernel_size": [1, 7], "activation": "linear"}}, {"class_name": "Conv2D", "name": "conv2d_40", "inbound_nodes": [[["average_pooling2d_4", 0, 0, {}]]], "config": {"kernel_constraint": null, "kernel_initializer": {"class_name": "VarianceScaling", "config": {"scale": 1.0, "mode": "fan_avg", "distribution": "uniform", "seed": null}}, "dilation_rate": [1, 1], "activity_regularizer": null, "filters": 192, "name": "conv2d_40", "bias_initializer": {"class_name": "Zeros", "config": {}}, "bias_regularizer": null, "padding": "same", "data_format": "channels_last", "trainable": false, "kernel_regularizer": null, "strides": [1, 1], "use_bias": false, "bias_constraint": null, "kernel_size": [1, 1], "activation": "linear"}}, {"class_name": "BatchNormalization", "name": "batch_normalization_31", "inbound_nodes": [[["conv2d_31", 0, 0, {}]]], "config": {"moving_mean_initializer": {"class_name": "Zeros", "config": {}}, "scale": false, "gamma_initializer": {"class_name": "Ones", "config": {}}, "beta_constraint": null, "beta_regularizer": null, "epsilon": 0.001, "axis": 3, "momentum": 0.99, "gamma_constraint": null, "trainable": false, "beta_initializer": {"class_name": "Zeros", "config": {}}, "center": true, "name": "batch_normalization_31", "gamma_regularizer": null, "moving_variance_initializer": {"class_name": "Ones", "config": {}}}}, {"class_name": "BatchNormalization", "name": "batch_normalization_34", "inbound_nodes": [[["conv2d_34", 0, 0, {}]]], "config": {"moving_mean_initializer": {"class_name": "Zeros", "config": {}}, "scale": false, "gamma_initializer": {"class_name": "Ones", "config": {}}, "beta_constraint": null, "beta_regularizer": null, "epsilon": 0.001, "axis": 3, "momentum": 0.99, "gamma_constraint": null, "trainable": false, "beta_initializer": {"class_name": "Zeros", "config": {}}, "center": true, "name": "batch_normalization_34", "gamma_regularizer": null, "moving_variance_initializer": {"class_name": "Ones", "config": {}}}}, {"class_name": "BatchNormalization", "name": "batch_normalization_39", "inbound_nodes": [[["conv2d_39", 0, 0, {}]]], "config": {"moving_mean_initializer": {"class_name": "Zeros", "config": {}}, "scale": false, "gamma_initializer": {"class_name": "Ones", "config": {}}, "beta_constraint": null, "beta_regularizer": null, "epsilon": 0.001, "axis": 3, "momentum": 0.99, "gamma_constraint": null, "trainable": false, "beta_initializer": {"class_name": "Zeros", "config": {}}, "center": true, "name": "batch_normalization_39", "gamma_regularizer": null, "moving_variance_initializer": {"class_name": "Ones", "config": {}}}}, {"class_name": "BatchNormalization", "name": "batch_normalization_40", "inbound_nodes": [[["conv2d_40", 0, 0, {}]]], "config": {"moving_mean_initializer": {"class_name": "Zeros", "config": {}}, "scale": false, "gamma_initializer": {"class_name": "Ones", "config": {}}, "beta_constraint": null, "beta_regularizer": null, "epsilon": 0.001, "axis": 3, "momentum": 0.99, "gamma_constraint": null, "trainable": false, "beta_initializer": {"class_name": "Zeros", "config": {}}, "center": true, "name": "batch_normalization_40", "gamma_regularizer": null, "moving_variance_initializer": {"class_name": "Ones", "config": {}}}}, {"class_name": "Activation", "name": "activation_31", "inbound_nodes": [[["batch_normalization_31", 0, 0, {}]]], "config": {"trainable": false, "name": "activation_31", "activation": "relu"}}, {"class_name": "Activation", "name": "activation_34", "inbound_nodes": [[["batch_normalization_34", 0, 0, {}]]], "config": {"trainable": false, "name": "activation_34", "activation": "relu"}}, {"class_name": "Activation", "name": "activation_39", "inbound_nodes": [[["batch_normalization_39", 0, 0, {}]]], "config": {"trainable": false, "name": "activation_39", "activation": "relu"}}, {"class_name": "Activation", "name": "activation_40", "inbound_nodes": [[["batch_normalization_40", 0, 0, {}]]], "config": {"trainable": false, "name": "activation_40", "activation": "relu"}}, {"class_name": "Concatenate", "name": "mixed4", "inbound_nodes": [[["activation_31", 0, 0, {}], ["activation_34", 0, 0, {}], ["activation_39", 0, 0, {}], ["activation_40", 0, 0, {}]]], "config": {"trainable": false, "name": "mixed4", "axis": 3}}, {"class_name": "Conv2D", "name": "conv2d_45", "inbound_nodes": [[["mixed4", 0, 0, {}]]], "config": {"kernel_constraint": null, "kernel_initializer": {"class_name": "VarianceScaling", "config": {"scale": 1.0, "mode": "fan_avg", "distribution": "uniform", "seed": null}}, "dilation_rate": [1, 1], "activity_regularizer": null, "filters": 160, "name": "conv2d_45", "bias_initializer": {"class_name": "Zeros", "config": {}}, "bias_regularizer": null, "padding": "same", "data_format": "channels_last", "trainable": false, "kernel_regularizer": null, "strides": [1, 1], "use_bias": false, "bias_constraint": null, "kernel_size": [1, 1], "activation": "linear"}}, {"class_name": "BatchNormalization", "name": "batch_normalization_45", "inbound_nodes": [[["conv2d_45", 0, 0, {}]]], "config": {"moving_mean_initializer": {"class_name": "Zeros", "config": {}}, "scale": false, "gamma_initializer": {"class_name": "Ones", "config": {}}, "beta_constraint": null, "beta_regularizer": null, "epsilon": 0.001, "axis": 3, "momentum": 0.99, "gamma_constraint": null, "trainable": false, "beta_initializer": {"class_name": "Zeros", "config": {}}, "center": true, "name": "batch_normalization_45", "gamma_regularizer": null, "moving_variance_initializer": {"class_name": "Ones", "config": {}}}}, {"class_name": "Activation", "name": "activation_45", "inbound_nodes": [[["batch_normalization_45", 0, 0, {}]]], "config": {"trainable": false, "name": "activation_45", "activation": "relu"}}, {"class_name": "Conv2D", "name": "conv2d_46", "inbound_nodes": [[["activation_45", 0, 0, {}]]], "config": {"kernel_constraint": null, "kernel_initializer": {"class_name": "VarianceScaling", "config": {"scale": 1.0, "mode": "fan_avg", "distribution": "uniform", "seed": null}}, "dilation_rate": [1, 1], "activity_regularizer": null, "filters": 160, "name": "conv2d_46", "bias_initializer": {"class_name": "Zeros", "config": {}}, "bias_regularizer": null, "padding": "same", "data_format": "channels_last", "trainable": false, "kernel_regularizer": null, "strides": [1, 1], "use_bias": false, "bias_constraint": null, "kernel_size": [7, 1], "activation": "linear"}}, {"class_name": "BatchNormalization", "name": "batch_normalization_46", "inbound_nodes": [[["conv2d_46", 0, 0, {}]]], "config": {"moving_mean_initializer": {"class_name": "Zeros", "config": {}}, "scale": false, "gamma_initializer": {"class_name": "Ones", "config": {}}, "beta_constraint": null, "beta_regularizer": null, "epsilon": 0.001, "axis": 3, "momentum": 0.99, "gamma_constraint": null, "trainable": false, "beta_initializer": {"class_name": "Zeros", "config": {}}, "center": true, "name": "batch_normalization_46", "gamma_regularizer": null, "moving_variance_initializer": {"class_name": "Ones", "config": {}}}}, {"class_name": "Activation", "name": "activation_46", "inbound_nodes": [[["batch_normalization_46", 0, 0, {}]]], "config": {"trainable": false, "name": "activation_46", "activation": "relu"}}, {"class_name": "Conv2D", "name": "conv2d_42", "inbound_nodes": [[["mixed4", 0, 0, {}]]], "config": {"kernel_constraint": null, "kernel_initializer": {"class_name": "VarianceScaling", "config": {"scale": 1.0, "mode": "fan_avg", "distribution": "uniform", "seed": null}}, "dilation_rate": [1, 1], "activity_regularizer": null, "filters": 160, "name": "conv2d_42", "bias_initializer": {"class_name": "Zeros", "config": {}}, "bias_regularizer": null, "padding": "same", "data_format": "channels_last", "trainable": false, "kernel_regularizer": null, "strides": [1, 1], "use_bias": false, "bias_constraint": null, "kernel_size": [1, 1], "activation": "linear"}}, {"class_name": "Conv2D", "name": "conv2d_47", "inbound_nodes": [[["activation_46", 0, 0, {}]]], "config": {"kernel_constraint": null, "kernel_initializer": {"class_name": "VarianceScaling", "config": {"scale": 1.0, "mode": "fan_avg", "distribution": "uniform", "seed": null}}, "dilation_rate": [1, 1], "activity_regularizer": null, "filters": 160, "name": "conv2d_47", "bias_initializer": {"class_name": "Zeros", "config": {}}, "bias_regularizer": null, "padding": "same", "data_format": "channels_last", "trainable": false, "kernel_regularizer": null, "strides": [1, 1], "use_bias": false, "bias_constraint": null, "kernel_size": [1, 7], "activation": "linear"}}, {"class_name": "BatchNormalization", "name": "batch_normalization_42", "inbound_nodes": [[["conv2d_42", 0, 0, {}]]], "config": {"moving_mean_initializer": {"class_name": "Zeros", "config": {}}, "scale": false, "gamma_initializer": {"class_name": "Ones", "config": {}}, "beta_constraint": null, "beta_regularizer": null, "epsilon": 0.001, "axis": 3, "momentum": 0.99, "gamma_constraint": null, "trainable": false, "beta_initializer": {"class_name": "Zeros", "config": {}}, "center": true, "name": "batch_normalization_42", "gamma_regularizer": null, "moving_variance_initializer": {"class_name": "Ones", "config": {}}}}, {"class_name": "BatchNormalization", "name": "batch_normalization_47", "inbound_nodes": [[["conv2d_47", 0, 0, {}]]], "config": {"moving_mean_initializer": {"class_name": "Zeros", "config": {}}, "scale": false, "gamma_initializer": {"class_name": "Ones", "config": {}}, "beta_constraint": null, "beta_regularizer": null, "epsilon": 0.001, "axis": 3, "momentum": 0.99, "gamma_constraint": null, "trainable": false, "beta_initializer": {"class_name": "Zeros", "config": {}}, "center": true, "name": "batch_normalization_47", "gamma_regularizer": null, "moving_variance_initializer": {"class_name": "Ones", "config": {}}}}, {"class_name": "Activation", "name": "activation_42", "inbound_nodes": [[["batch_normalization_42", 0, 0, {}]]], "config": {"trainable": false, "name": "activation_42", "activation": "relu"}}, {"class_name": "Activation", "name": "activation_47", "inbound_nodes": [[["batch_normalization_47", 0, 0, {}]]], "config": {"trainable": false, "name": "activation_47", "activation": "relu"}}, {"class_name": "Conv2D", "name": "conv2d_43", "inbound_nodes": [[["activation_42", 0, 0, {}]]], "config": {"kernel_constraint": null, "kernel_initializer": {"class_name": "VarianceScaling", "config": {"scale": 1.0, "mode": "fan_avg", "distribution": "uniform", "seed": null}}, "dilation_rate": [1, 1], "activity_regularizer": null, "filters": 160, "name": "conv2d_43", "bias_initializer": {"class_name": "Zeros", "config": {}}, "bias_regularizer": null, "padding": "same", "data_format": "channels_last", "trainable": false, "kernel_regularizer": null, "strides": [1, 1], "use_bias": false, "bias_constraint": null, "kernel_size": [1, 7], "activation": "linear"}}, {"class_name": "Conv2D", "name": "conv2d_48", "inbound_nodes": [[["activation_47", 0, 0, {}]]], "config": {"kernel_constraint": null, "kernel_initializer": {"class_name": "VarianceScaling", "config": {"scale": 1.0, "mode": "fan_avg", "distribution": "uniform", "seed": null}}, "dilation_rate": [1, 1], "activity_regularizer": null, "filters": 160, "name": "conv2d_48", "bias_initializer": {"class_name": "Zeros", "config": {}}, "bias_regularizer": null, "padding": "same", "data_format": "channels_last", "trainable": false, "kernel_regularizer": null, "strides": [1, 1], "use_bias": false, "bias_constraint": null, "kernel_size": [7, 1], "activation": "linear"}}, {"class_name": "BatchNormalization", "name": "batch_normalization_43", "inbound_nodes": [[["conv2d_43", 0, 0, {}]]], "config": {"moving_mean_initializer": {"class_name": "Zeros", "config": {}}, "scale": false, "gamma_initializer": {"class_name": "Ones", "config": {}}, "beta_constraint": null, "beta_regularizer": null, "epsilon": 0.001, "axis": 3, "momentum": 0.99, "gamma_constraint": null, "trainable": false, "beta_initializer": {"class_name": "Zeros", "config": {}}, "center": true, "name": "batch_normalization_43", "gamma_regularizer": null, "moving_variance_initializer": {"class_name": "Ones", "config": {}}}}, {"class_name": "BatchNormalization", "name": "batch_normalization_48", "inbound_nodes": [[["conv2d_48", 0, 0, {}]]], "config": {"moving_mean_initializer": {"class_name": "Zeros", "config": {}}, "scale": false, "gamma_initializer": {"class_name": "Ones", "config": {}}, "beta_constraint": null, "beta_regularizer": null, "epsilon": 0.001, "axis": 3, "momentum": 0.99, "gamma_constraint": null, "trainable": false, "beta_initializer": {"class_name": "Zeros", "config": {}}, "center": true, "name": "batch_normalization_48", "gamma_regularizer": null, "moving_variance_initializer": {"class_name": "Ones", "config": {}}}}, {"class_name": "Activation", "name": "activation_43", "inbound_nodes": [[["batch_normalization_43", 0, 0, {}]]], "config": {"trainable": false, "name": "activation_43", "activation": "relu"}}, {"class_name": "Activation", "name": "activation_48", "inbound_nodes": [[["batch_normalization_48", 0, 0, {}]]], "config": {"trainable": false, "name": "activation_48", "activation": "relu"}}, {"class_name": "AveragePooling2D", "name": "average_pooling2d_5", "inbound_nodes": [[["mixed4", 0, 0, {}]]], "config": {"padding": "same", "data_format": "channels_last", "trainable": false, "pool_size": [3, 3], "name": "average_pooling2d_5", "strides": [1, 1]}}, {"class_name": "Conv2D", "name": "conv2d_41", "inbound_nodes": [[["mixed4", 0, 0, {}]]], "config": {"kernel_constraint": null, "kernel_initializer": {"class_name": "VarianceScaling", "config": {"scale": 1.0, "mode": "fan_avg", "distribution": "uniform", "seed": null}}, "dilation_rate": [1, 1], "activity_regularizer": null, "filters": 192, "name": "conv2d_41", "bias_initializer": {"class_name": "Zeros", "config": {}}, "bias_regularizer": null, "padding": "same", "data_format": "channels_last", "trainable": false, "kernel_regularizer": null, "strides": [1, 1], "use_bias": false, "bias_constraint": null, "kernel_size": [1, 1], "activation": "linear"}}, {"class_name": "Conv2D", "name": "conv2d_44", "inbound_nodes": [[["activation_43", 0, 0, {}]]], "config": {"kernel_constraint": null, "kernel_initializer": {"class_name": "VarianceScaling", "config": {"scale": 1.0, "mode": "fan_avg", "distribution": "uniform", "seed": null}}, "dilation_rate": [1, 1], "activity_regularizer": null, "filters": 192, "name": "conv2d_44", "bias_initializer": {"class_name": "Zeros", "config": {}}, "bias_regularizer": null, "padding": "same", "data_format": "channels_last", "trainable": false, "kernel_regularizer": null, "strides": [1, 1], "use_bias": false, "bias_constraint": null, "kernel_size": [7, 1], "activation": "linear"}}, {"class_name": "Conv2D", "name": "conv2d_49", "inbound_nodes": [[["activation_48", 0, 0, {}]]], "config": {"kernel_constraint": null, "kernel_initializer": {"class_name": "VarianceScaling", "config": {"scale": 1.0, "mode": "fan_avg", "distribution": "uniform", "seed": null}}, "dilation_rate": [1, 1], "activity_regularizer": null, "filters": 192, "name": "conv2d_49", "bias_initializer": {"class_name": "Zeros", "config": {}}, "bias_regularizer": null, "padding": "same", "data_format": "channels_last", "trainable": false, "kernel_regularizer": null, "strides": [1, 1], "use_bias": false, "bias_constraint": null, "kernel_size": [1, 7], "activation": "linear"}}, {"class_name": "Conv2D", "name": "conv2d_50", "inbound_nodes": [[["average_pooling2d_5", 0, 0, {}]]], "config": {"kernel_constraint": null, "kernel_initializer": {"class_name": "VarianceScaling", "config": {"scale": 1.0, "mode": "fan_avg", "distribution": "uniform", "seed": null}}, "dilation_rate": [1, 1], "activity_regularizer": null, "filters": 192, "name": "conv2d_50", "bias_initializer": {"class_name": "Zeros", "config": {}}, "bias_regularizer": null, "padding": "same", "data_format": "channels_last", "trainable": false, "kernel_regularizer": null, "strides": [1, 1], "use_bias": false, "bias_constraint": null, "kernel_size": [1, 1], "activation": "linear"}}, {"class_name": "BatchNormalization", "name": "batch_normalization_41", "inbound_nodes": [[["conv2d_41", 0, 0, {}]]], "config": {"moving_mean_initializer": {"class_name": "Zeros", "config": {}}, "scale": false, "gamma_initializer": {"class_name": "Ones", "config": {}}, "beta_constraint": null, "beta_regularizer": null, "epsilon": 0.001, "axis": 3, "momentum": 0.99, "gamma_constraint": null, "trainable": false, "beta_initializer": {"class_name": "Zeros", "config": {}}, "center": true, "name": "batch_normalization_41", "gamma_regularizer": null, "moving_variance_initializer": {"class_name": "Ones", "config": {}}}}, {"class_name": "BatchNormalization", "name": "batch_normalization_44", "inbound_nodes": [[["conv2d_44", 0, 0, {}]]], "config": {"moving_mean_initializer": {"class_name": "Zeros", "config": {}}, "scale": false, "gamma_initializer": {"class_name": "Ones", "config": {}}, "beta_constraint": null, "beta_regularizer": null, "epsilon": 0.001, "axis": 3, "momentum": 0.99, "gamma_constraint": null, "trainable": false, "beta_initializer": {"class_name": "Zeros", "config": {}}, "center": true, "name": "batch_normalization_44", "gamma_regularizer": null, "moving_variance_initializer": {"class_name": "Ones", "config": {}}}}, {"class_name": "BatchNormalization", "name": "batch_normalization_49", "inbound_nodes": [[["conv2d_49", 0, 0, {}]]], "config": {"moving_mean_initializer": {"class_name": "Zeros", "config": {}}, "scale": false, "gamma_initializer": {"class_name": "Ones", "config": {}}, "beta_constraint": null, "beta_regularizer": null, "epsilon": 0.001, "axis": 3, "momentum": 0.99, "gamma_constraint": null, "trainable": false, "beta_initializer": {"class_name": "Zeros", "config": {}}, "center": true, "name": "batch_normalization_49", "gamma_regularizer": null, "moving_variance_initializer": {"class_name": "Ones", "config": {}}}}, {"class_name": "BatchNormalization", "name": "batch_normalization_50", "inbound_nodes": [[["conv2d_50", 0, 0, {}]]], "config": {"moving_mean_initializer": {"class_name": "Zeros", "config": {}}, "scale": false, "gamma_initializer": {"class_name": "Ones", "config": {}}, "beta_constraint": null, "beta_regularizer": null, "epsilon": 0.001, "axis": 3, "momentum": 0.99, "gamma_constraint": null, "trainable": false, "beta_initializer": {"class_name": "Zeros", "config": {}}, "center": true, "name": "batch_normalization_50", "gamma_regularizer": null, "moving_variance_initializer": {"class_name": "Ones", "config": {}}}}, {"class_name": "Activation", "name": "activation_41", "inbound_nodes": [[["batch_normalization_41", 0, 0, {}]]], "config": {"trainable": false, "name": "activation_41", "activation": "relu"}}, {"class_name": "Activation", "name": "activation_44", "inbound_nodes": [[["batch_normalization_44", 0, 0, {}]]], "config": {"trainable": false, "name": "activation_44", "activation": "relu"}}, {"class_name": "Activation", "name": "activation_49", "inbound_nodes": [[["batch_normalization_49", 0, 0, {}]]], "config": {"trainable": false, "name": "activation_49", "activation": "relu"}}, {"class_name": "Activation", "name": "activation_50", "inbound_nodes": [[["batch_normalization_50", 0, 0, {}]]], "config": {"trainable": false, "name": "activation_50", "activation": "relu"}}, {"class_name": "Concatenate", "name": "mixed5", "inbound_nodes": [[["activation_41", 0, 0, {}], ["activation_44", 0, 0, {}], ["activation_49", 0, 0, {}], ["activation_50", 0, 0, {}]]], "config": {"trainable": false, "name": "mixed5", "axis": 3}}, {"class_name": "Conv2D", "name": "conv2d_55", "inbound_nodes": [[["mixed5", 0, 0, {}]]], "config": {"kernel_constraint": null, "kernel_initializer": {"class_name": "VarianceScaling", "config": {"scale": 1.0, "mode": "fan_avg", "distribution": "uniform", "seed": null}}, "dilation_rate": [1, 1], "activity_regularizer": null, "filters": 160, "name": "conv2d_55", "bias_initializer": {"class_name": "Zeros", "config": {}}, "bias_regularizer": null, "padding": "same", "data_format": "channels_last", "trainable": false, "kernel_regularizer": null, "strides": [1, 1], "use_bias": false, "bias_constraint": null, "kernel_size": [1, 1], "activation": "linear"}}, {"class_name": "BatchNormalization", "name": "batch_normalization_55", "inbound_nodes": [[["conv2d_55", 0, 0, {}]]], "config": {"moving_mean_initializer": {"class_name": "Zeros", "config": {}}, "scale": false, "gamma_initializer": {"class_name": "Ones", "config": {}}, "beta_constraint": null, "beta_regularizer": null, "epsilon": 0.001, "axis": 3, "momentum": 0.99, "gamma_constraint": null, "trainable": false, "beta_initializer": {"class_name": "Zeros", "config": {}}, "center": true, "name": "batch_normalization_55", "gamma_regularizer": null, "moving_variance_initializer": {"class_name": "Ones", "config": {}}}}, {"class_name": "Activation", "name": "activation_55", "inbound_nodes": [[["batch_normalization_55", 0, 0, {}]]], "config": {"trainable": false, "name": "activation_55", "activation": "relu"}}, {"class_name": "Conv2D", "name": "conv2d_56", "inbound_nodes": [[["activation_55", 0, 0, {}]]], "config": {"kernel_constraint": null, "kernel_initializer": {"class_name": "VarianceScaling", "config": {"scale": 1.0, "mode": "fan_avg", "distribution": "uniform", "seed": null}}, "dilation_rate": [1, 1], "activity_regularizer": null, "filters": 160, "name": "conv2d_56", "bias_initializer": {"class_name": "Zeros", "config": {}}, "bias_regularizer": null, "padding": "same", "data_format": "channels_last", "trainable": false, "kernel_regularizer": null, "strides": [1, 1], "use_bias": false, "bias_constraint": null, "kernel_size": [7, 1], "activation": "linear"}}, {"class_name": "BatchNormalization", "name": "batch_normalization_56", "inbound_nodes": [[["conv2d_56", 0, 0, {}]]], "config": {"moving_mean_initializer": {"class_name": "Zeros", "config": {}}, "scale": false, "gamma_initializer": {"class_name": "Ones", "config": {}}, "beta_constraint": null, "beta_regularizer": null, "epsilon": 0.001, "axis": 3, "momentum": 0.99, "gamma_constraint": null, "trainable": false, "beta_initializer": {"class_name": "Zeros", "config": {}}, "center": true, "name": "batch_normalization_56", "gamma_regularizer": null, "moving_variance_initializer": {"class_name": "Ones", "config": {}}}}, {"class_name": "Activation", "name": "activation_56", "inbound_nodes": [[["batch_normalization_56", 0, 0, {}]]], "config": {"trainable": false, "name": "activation_56", "activation": "relu"}}, {"class_name": "Conv2D", "name": "conv2d_52", "inbound_nodes": [[["mixed5", 0, 0, {}]]], "config": {"kernel_constraint": null, "kernel_initializer": {"class_name": "VarianceScaling", "config": {"scale": 1.0, "mode": "fan_avg", "distribution": "uniform", "seed": null}}, "dilation_rate": [1, 1], "activity_regularizer": null, "filters": 160, "name": "conv2d_52", "bias_initializer": {"class_name": "Zeros", "config": {}}, "bias_regularizer": null, "padding": "same", "data_format": "channels_last", "trainable": false, "kernel_regularizer": null, "strides": [1, 1], "use_bias": false, "bias_constraint": null, "kernel_size": [1, 1], "activation": "linear"}}, {"class_name": "Conv2D", "name": "conv2d_57", "inbound_nodes": [[["activation_56", 0, 0, {}]]], "config": {"kernel_constraint": null, "kernel_initializer": {"class_name": "VarianceScaling", "config": {"scale": 1.0, "mode": "fan_avg", "distribution": "uniform", "seed": null}}, "dilation_rate": [1, 1], "activity_regularizer": null, "filters": 160, "name": "conv2d_57", "bias_initializer": {"class_name": "Zeros", "config": {}}, "bias_regularizer": null, "padding": "same", "data_format": "channels_last", "trainable": true, "kernel_regularizer": null, "strides": [1, 1], "use_bias": false, "bias_constraint": null, "kernel_size": [1, 7], "activation": "linear"}}, {"class_name": "BatchNormalization", "name": "batch_normalization_52", "inbound_nodes": [[["conv2d_52", 0, 0, {}]]], "config": {"moving_mean_initializer": {"class_name": "Zeros", "config": {}}, "scale": false, "gamma_initializer": {"class_name": "Ones", "config": {}}, "beta_constraint": null, "beta_regularizer": null, "epsilon": 0.001, "axis": 3, "momentum": 0.99, "gamma_constraint": null, "trainable": true, "beta_initializer": {"class_name": "Zeros", "config": {}}, "center": true, "name": "batch_normalization_52", "gamma_regularizer": null, "moving_variance_initializer": {"class_name": "Ones", "config": {}}}}, {"class_name": "BatchNormalization", "name": "batch_normalization_57", "inbound_nodes": [[["conv2d_57", 0, 0, {}]]], "config": {"moving_mean_initializer": {"class_name": "Zeros", "config": {}}, "scale": false, "gamma_initializer": {"class_name": "Ones", "config": {}}, "beta_constraint": null, "beta_regularizer": null, "epsilon": 0.001, "axis": 3, "momentum": 0.99, "gamma_constraint": null, "trainable": true, "beta_initializer": {"class_name": "Zeros", "config": {}}, "center": true, "name": "batch_normalization_57", "gamma_regularizer": null, "moving_variance_initializer": {"class_name": "Ones", "config": {}}}}, {"class_name": "Activation", "name": "activation_52", "inbound_nodes": [[["batch_normalization_52", 0, 0, {}]]], "config": {"trainable": true, "name": "activation_52", "activation": "relu"}}, {"class_name": "Activation", "name": "activation_57", "inbound_nodes": [[["batch_normalization_57", 0, 0, {}]]], "config": {"trainable": true, "name": "activation_57", "activation": "relu"}}, {"class_name": "Conv2D", "name": "conv2d_53", "inbound_nodes": [[["activation_52", 0, 0, {}]]], "config": {"kernel_constraint": null, "kernel_initializer": {"class_name": "VarianceScaling", "config": {"scale": 1.0, "mode": "fan_avg", "distribution": "uniform", "seed": null}}, "dilation_rate": [1, 1], "activity_regularizer": null, "filters": 160, "name": "conv2d_53", "bias_initializer": {"class_name": "Zeros", "config": {}}, "bias_regularizer": null, "padding": "same", "data_format": "channels_last", "trainable": true, "kernel_regularizer": null, "strides": [1, 1], "use_bias": false, "bias_constraint": null, "kernel_size": [1, 7], "activation": "linear"}}, {"class_name": "Conv2D", "name": "conv2d_58", "inbound_nodes": [[["activation_57", 0, 0, {}]]], "config": {"kernel_constraint": null, "kernel_initializer": {"class_name": "VarianceScaling", "config": {"scale": 1.0, "mode": "fan_avg", "distribution": "uniform", "seed": null}}, "dilation_rate": [1, 1], "activity_regularizer": null, "filters": 160, "name": "conv2d_58", "bias_initializer": {"class_name": "Zeros", "config": {}}, "bias_regularizer": null, "padding": "same", "data_format": "channels_last", "trainable": true, "kernel_regularizer": null, "strides": [1, 1], "use_bias": false, "bias_constraint": null, "kernel_size": [7, 1], "activation": "linear"}}, {"class_name": "BatchNormalization", "name": "batch_normalization_53", "inbound_nodes": [[["conv2d_53", 0, 0, {}]]], "config": {"moving_mean_initializer": {"class_name": "Zeros", "config": {}}, "scale": false, "gamma_initializer": {"class_name": "Ones", "config": {}}, "beta_constraint": null, "beta_regularizer": null, "epsilon": 0.001, "axis": 3, "momentum": 0.99, "gamma_constraint": null, "trainable": true, "beta_initializer": {"class_name": "Zeros", "config": {}}, "center": true, "name": "batch_normalization_53", "gamma_regularizer": null, "moving_variance_initializer": {"class_name": "Ones", "config": {}}}}, {"class_name": "BatchNormalization", "name": "batch_normalization_58", "inbound_nodes": [[["conv2d_58", 0, 0, {}]]], "config": {"moving_mean_initializer": {"class_name": "Zeros", "config": {}}, "scale": false, "gamma_initializer": {"class_name": "Ones", "config": {}}, "beta_constraint": null, "beta_regularizer": null, "epsilon": 0.001, "axis": 3, "momentum": 0.99, "gamma_constraint": null, "trainable": true, "beta_initializer": {"class_name": "Zeros", "config": {}}, "center": true, "name": "batch_normalization_58", "gamma_regularizer": null, "moving_variance_initializer": {"class_name": "Ones", "config": {}}}}, {"class_name": "Activation", "name": "activation_53", "inbound_nodes": [[["batch_normalization_53", 0, 0, {}]]], "config": {"trainable": true, "name": "activation_53", "activation": "relu"}}, {"class_name": "Activation", "name": "activation_58", "inbound_nodes": [[["batch_normalization_58", 0, 0, {}]]], "config": {"trainable": true, "name": "activation_58", "activation": "relu"}}, {"class_name": "AveragePooling2D", "name": "average_pooling2d_6", "inbound_nodes": [[["mixed5", 0, 0, {}]]], "config": {"padding": "same", "data_format": "channels_last", "trainable": true, "pool_size": [3, 3], "name": "average_pooling2d_6", "strides": [1, 1]}}, {"class_name": "Conv2D", "name": "conv2d_51", "inbound_nodes": [[["mixed5", 0, 0, {}]]], "config": {"kernel_constraint": null, "kernel_initializer": {"class_name": "VarianceScaling", "config": {"scale": 1.0, "mode": "fan_avg", "distribution": "uniform", "seed": null}}, "dilation_rate": [1, 1], "activity_regularizer": null, "filters": 192, "name": "conv2d_51", "bias_initializer": {"class_name": "Zeros", "config": {}}, "bias_regularizer": null, "padding": "same", "data_format": "channels_last", "trainable": true, "kernel_regularizer": null, "strides": [1, 1], "use_bias": false, "bias_constraint": null, "kernel_size": [1, 1], "activation": "linear"}}, {"class_name": "Conv2D", "name": "conv2d_54", "inbound_nodes": [[["activation_53", 0, 0, {}]]], "config": {"kernel_constraint": null, "kernel_initializer": {"class_name": "VarianceScaling", "config": {"scale": 1.0, "mode": "fan_avg", "distribution": "uniform", "seed": null}}, "dilation_rate": [1, 1], "activity_regularizer": null, "filters": 192, "name": "conv2d_54", "bias_initializer": {"class_name": "Zeros", "config": {}}, "bias_regularizer": null, "padding": "same", "data_format": "channels_last", "trainable": true, "kernel_regularizer": null, "strides": [1, 1], "use_bias": false, "bias_constraint": null, "kernel_size": [7, 1], "activation": "linear"}}, {"class_name": "Conv2D", "name": "conv2d_59", "inbound_nodes": [[["activation_58", 0, 0, {}]]], "config": {"kernel_constraint": null, "kernel_initializer": {"class_name": "VarianceScaling", "config": {"scale": 1.0, "mode": "fan_avg", "distribution": "uniform", "seed": null}}, "dilation_rate": [1, 1], "activity_regularizer": null, "filters": 192, "name": "conv2d_59", "bias_initializer": {"class_name": "Zeros", "config": {}}, "bias_regularizer": null, "padding": "same", "data_format": "channels_last", "trainable": true, "kernel_regularizer": null, "strides": [1, 1], "use_bias": false, "bias_constraint": null, "kernel_size": [1, 7], "activation": "linear"}}, {"class_name": "Conv2D", "name": "conv2d_60", "inbound_nodes": [[["average_pooling2d_6", 0, 0, {}]]], "config": {"kernel_constraint": null, "kernel_initializer": {"class_name": "VarianceScaling", "config": {"scale": 1.0, "mode": "fan_avg", "distribution": "uniform", "seed": null}}, "dilation_rate": [1, 1], "activity_regularizer": null, "filters": 192, "name": "conv2d_60", "bias_initializer": {"class_name": "Zeros", "config": {}}, "bias_regularizer": null, "padding": "same", "data_format": "channels_last", "trainable": true, "kernel_regularizer": null, "strides": [1, 1], "use_bias": false, "bias_constraint": null, "kernel_size": [1, 1], "activation": "linear"}}, {"class_name": "BatchNormalization", "name": "batch_normalization_51", "inbound_nodes": [[["conv2d_51", 0, 0, {}]]], "config": {"moving_mean_initializer": {"class_name": "Zeros", "config": {}}, "scale": false, "gamma_initializer": {"class_name": "Ones", "config": {}}, "beta_constraint": null, "beta_regularizer": null, "epsilon": 0.001, "axis": 3, "momentum": 0.99, "gamma_constraint": null, "trainable": true, "beta_initializer": {"class_name": "Zeros", "config": {}}, "center": true, "name": "batch_normalization_51", "gamma_regularizer": null, "moving_variance_initializer": {"class_name": "Ones", "config": {}}}}, {"class_name": "BatchNormalization", "name": "batch_normalization_54", "inbound_nodes": [[["conv2d_54", 0, 0, {}]]], "config": {"moving_mean_initializer": {"class_name": "Zeros", "config": {}}, "scale": false, "gamma_initializer": {"class_name": "Ones", "config": {}}, "beta_constraint": null, "beta_regularizer": null, "epsilon": 0.001, "axis": 3, "momentum": 0.99, "gamma_constraint": null, "trainable": true, "beta_initializer": {"class_name": "Zeros", "config": {}}, "center": true, "name": "batch_normalization_54", "gamma_regularizer": null, "moving_variance_initializer": {"class_name": "Ones", "config": {}}}}, {"class_name": "BatchNormalization", "name": "batch_normalization_59", "inbound_nodes": [[["conv2d_59", 0, 0, {}]]], "config": {"moving_mean_initializer": {"class_name": "Zeros", "config": {}}, "scale": false, "gamma_initializer": {"class_name": "Ones", "config": {}}, "beta_constraint": null, "beta_regularizer": null, "epsilon": 0.001, "axis": 3, "momentum": 0.99, "gamma_constraint": null, "trainable": true, "beta_initializer": {"class_name": "Zeros", "config": {}}, "center": true, "name": "batch_normalization_59", "gamma_regularizer": null, "moving_variance_initializer": {"class_name": "Ones", "config": {}}}}, {"class_name": "BatchNormalization", "name": "batch_normalization_60", "inbound_nodes": [[["conv2d_60", 0, 0, {}]]], "config": {"moving_mean_initializer": {"class_name": "Zeros", "config": {}}, "scale": false, "gamma_initializer": {"class_name": "Ones", "config": {}}, "beta_constraint": null, "beta_regularizer": null, "epsilon": 0.001, "axis": 3, "momentum": 0.99, "gamma_constraint": null, "trainable": true, "beta_initializer": {"class_name": "Zeros", "config": {}}, "center": true, "name": "batch_normalization_60", "gamma_regularizer": null, "moving_variance_initializer": {"class_name": "Ones", "config": {}}}}, {"class_name": "Activation", "name": "activation_51", "inbound_nodes": [[["batch_normalization_51", 0, 0, {}]]], "config": {"trainable": true, "name": "activation_51", "activation": "relu"}}, {"class_name": "Activation", "name": "activation_54", "inbound_nodes": [[["batch_normalization_54", 0, 0, {}]]], "config": {"trainable": true, "name": "activation_54", "activation": "relu"}}, {"class_name": "Activation", "name": "activation_59", "inbound_nodes": [[["batch_normalization_59", 0, 0, {}]]], "config": {"trainable": true, "name": "activation_59", "activation": "relu"}}, {"class_name": "Activation", "name": "activation_60", "inbound_nodes": [[["batch_normalization_60", 0, 0, {}]]], "config": {"trainable": true, "name": "activation_60", "activation": "relu"}}, {"class_name": "Concatenate", "name": "mixed6", "inbound_nodes": [[["activation_51", 0, 0, {}], ["activation_54", 0, 0, {}], ["activation_59", 0, 0, {}], ["activation_60", 0, 0, {}]]], "config": {"trainable": true, "name": "mixed6", "axis": 3}}, {"class_name": "Conv2D", "name": "conv2d_65", "inbound_nodes": [[["mixed6", 0, 0, {}]]], "config": {"kernel_constraint": null, "kernel_initializer": {"class_name": "VarianceScaling", "config": {"scale": 1.0, "mode": "fan_avg", "distribution": "uniform", "seed": null}}, "dilation_rate": [1, 1], "activity_regularizer": null, "filters": 192, "name": "conv2d_65", "bias_initializer": {"class_name": "Zeros", "config": {}}, "bias_regularizer": null, "padding": "same", "data_format": "channels_last", "trainable": true, "kernel_regularizer": null, "strides": [1, 1], "use_bias": false, "bias_constraint": null, "kernel_size": [1, 1], "activation": "linear"}}, {"class_name": "BatchNormalization", "name": "batch_normalization_65", "inbound_nodes": [[["conv2d_65", 0, 0, {}]]], "config": {"moving_mean_initializer": {"class_name": "Zeros", "config": {}}, "scale": false, "gamma_initializer": {"class_name": "Ones", "config": {}}, "beta_constraint": null, "beta_regularizer": null, "epsilon": 0.001, "axis": 3, "momentum": 0.99, "gamma_constraint": null, "trainable": true, "beta_initializer": {"class_name": "Zeros", "config": {}}, "center": true, "name": "batch_normalization_65", "gamma_regularizer": null, "moving_variance_initializer": {"class_name": "Ones", "config": {}}}}, {"class_name": "Activation", "name": "activation_65", "inbound_nodes": [[["batch_normalization_65", 0, 0, {}]]], "config": {"trainable": true, "name": "activation_65", "activation": "relu"}}, {"class_name": "Conv2D", "name": "conv2d_66", "inbound_nodes": [[["activation_65", 0, 0, {}]]], "config": {"kernel_constraint": null, "kernel_initializer": {"class_name": "VarianceScaling", "config": {"scale": 1.0, "mode": "fan_avg", "distribution": "uniform", "seed": null}}, "dilation_rate": [1, 1], "activity_regularizer": null, "filters": 192, "name": "conv2d_66", "bias_initializer": {"class_name": "Zeros", "config": {}}, "bias_regularizer": null, "padding": "same", "data_format": "channels_last", "trainable": true, "kernel_regularizer": null, "strides": [1, 1], "use_bias": false, "bias_constraint": null, "kernel_size": [7, 1], "activation": "linear"}}, {"class_name": "BatchNormalization", "name": "batch_normalization_66", "inbound_nodes": [[["conv2d_66", 0, 0, {}]]], "config": {"moving_mean_initializer": {"class_name": "Zeros", "config": {}}, "scale": false, "gamma_initializer": {"class_name": "Ones", "config": {}}, "beta_constraint": null, "beta_regularizer": null, "epsilon": 0.001, "axis": 3, "momentum": 0.99, "gamma_constraint": null, "trainable": true, "beta_initializer": {"class_name": "Zeros", "config": {}}, "center": true, "name": "batch_normalization_66", "gamma_regularizer": null, "moving_variance_initializer": {"class_name": "Ones", "config": {}}}}, {"class_name": "Activation", "name": "activation_66", "inbound_nodes": [[["batch_normalization_66", 0, 0, {}]]], "config": {"trainable": true, "name": "activation_66", "activation": "relu"}}, {"class_name": "Conv2D", "name": "conv2d_62", "inbound_nodes": [[["mixed6", 0, 0, {}]]], "config": {"kernel_constraint": null, "kernel_initializer": {"class_name": "VarianceScaling", "config": {"scale": 1.0, "mode": "fan_avg", "distribution": "uniform", "seed": null}}, "dilation_rate": [1, 1], "activity_regularizer": null, "filters": 192, "name": "conv2d_62", "bias_initializer": {"class_name": "Zeros", "config": {}}, "bias_regularizer": null, "padding": "same", "data_format": "channels_last", "trainable": true, "kernel_regularizer": null, "strides": [1, 1], "use_bias": false, "bias_constraint": null, "kernel_size": [1, 1], "activation": "linear"}}, {"class_name": "Conv2D", "name": "conv2d_67", "inbound_nodes": [[["activation_66", 0, 0, {}]]], "config": {"kernel_constraint": null, "kernel_initializer": {"class_name": "VarianceScaling", "config": {"scale": 1.0, "mode": "fan_avg", "distribution": "uniform", "seed": null}}, "dilation_rate": [1, 1], "activity_regularizer": null, "filters": 192, "name": "conv2d_67", "bias_initializer": {"class_name": "Zeros", "config": {}}, "bias_regularizer": null, "padding": "same", "data_format": "channels_last", "trainable": true, "kernel_regularizer": null, "strides": [1, 1], "use_bias": false, "bias_constraint": null, "kernel_size": [1, 7], "activation": "linear"}}, {"class_name": "BatchNormalization", "name": "batch_normalization_62", "inbound_nodes": [[["conv2d_62", 0, 0, {}]]], "config": {"moving_mean_initializer": {"class_name": "Zeros", "config": {}}, "scale": false, "gamma_initializer": {"class_name": "Ones", "config": {}}, "beta_constraint": null, "beta_regularizer": null, "epsilon": 0.001, "axis": 3, "momentum": 0.99, "gamma_constraint": null, "trainable": true, "beta_initializer": {"class_name": "Zeros", "config": {}}, "center": true, "name": "batch_normalization_62", "gamma_regularizer": null, "moving_variance_initializer": {"class_name": "Ones", "config": {}}}}, {"class_name": "BatchNormalization", "name": "batch_normalization_67", "inbound_nodes": [[["conv2d_67", 0, 0, {}]]], "config": {"moving_mean_initializer": {"class_name": "Zeros", "config": {}}, "scale": false, "gamma_initializer": {"class_name": "Ones", "config": {}}, "beta_constraint": null, "beta_regularizer": null, "epsilon": 0.001, "axis": 3, "momentum": 0.99, "gamma_constraint": null, "trainable": true, "beta_initializer": {"class_name": "Zeros", "config": {}}, "center": true, "name": "batch_normalization_67", "gamma_regularizer": null, "moving_variance_initializer": {"class_name": "Ones", "config": {}}}}, {"class_name": "Activation", "name": "activation_62", "inbound_nodes": [[["batch_normalization_62", 0, 0, {}]]], "config": {"trainable": true, "name": "activation_62", "activation": "relu"}}, {"class_name": "Activation", "name": "activation_67", "inbound_nodes": [[["batch_normalization_67", 0, 0, {}]]], "config": {"trainable": true, "name": "activation_67", "activation": "relu"}}, {"class_name": "Conv2D", "name": "conv2d_63", "inbound_nodes": [[["activation_62", 0, 0, {}]]], "config": {"kernel_constraint": null, "kernel_initializer": {"class_name": "VarianceScaling", "config": {"scale": 1.0, "mode": "fan_avg", "distribution": "uniform", "seed": null}}, "dilation_rate": [1, 1], "activity_regularizer": null, "filters": 192, "name": "conv2d_63", "bias_initializer": {"class_name": "Zeros", "config": {}}, "bias_regularizer": null, "padding": "same", "data_format": "channels_last", "trainable": true, "kernel_regularizer": null, "strides": [1, 1], "use_bias": false, "bias_constraint": null, "kernel_size": [1, 7], "activation": "linear"}}, {"class_name": "Conv2D", "name": "conv2d_68", "inbound_nodes": [[["activation_67", 0, 0, {}]]], "config": {"kernel_constraint": null, "kernel_initializer": {"class_name": "VarianceScaling", "config": {"scale": 1.0, "mode": "fan_avg", "distribution": "uniform", "seed": null}}, "dilation_rate": [1, 1], "activity_regularizer": null, "filters": 192, "name": "conv2d_68", "bias_initializer": {"class_name": "Zeros", "config": {}}, "bias_regularizer": null, "padding": "same", "data_format": "channels_last", "trainable": true, "kernel_regularizer": null, "strides": [1, 1], "use_bias": false, "bias_constraint": null, "kernel_size": [7, 1], "activation": "linear"}}, {"class_name": "BatchNormalization", "name": "batch_normalization_63", "inbound_nodes": [[["conv2d_63", 0, 0, {}]]], "config": {"moving_mean_initializer": {"class_name": "Zeros", "config": {}}, "scale": false, "gamma_initializer": {"class_name": "Ones", "config": {}}, "beta_constraint": null, "beta_regularizer": null, "epsilon": 0.001, "axis": 3, "momentum": 0.99, "gamma_constraint": null, "trainable": true, "beta_initializer": {"class_name": "Zeros", "config": {}}, "center": true, "name": "batch_normalization_63", "gamma_regularizer": null, "moving_variance_initializer": {"class_name": "Ones", "config": {}}}}, {"class_name": "BatchNormalization", "name": "batch_normalization_68", "inbound_nodes": [[["conv2d_68", 0, 0, {}]]], "config": {"moving_mean_initializer": {"class_name": "Zeros", "config": {}}, "scale": false, "gamma_initializer": {"class_name": "Ones", "config": {}}, "beta_constraint": null, "beta_regularizer": null, "epsilon": 0.001, "axis": 3, "momentum": 0.99, "gamma_constraint": null, "trainable": true, "beta_initializer": {"class_name": "Zeros", "config": {}}, "center": true, "name": "batch_normalization_68", "gamma_regularizer": null, "moving_variance_initializer": {"class_name": "Ones", "config": {}}}}, {"class_name": "Activation", "name": "activation_63", "inbound_nodes": [[["batch_normalization_63", 0, 0, {}]]], "config": {"trainable": true, "name": "activation_63", "activation": "relu"}}, {"class_name": "Activation", "name": "activation_68", "inbound_nodes": [[["batch_normalization_68", 0, 0, {}]]], "config": {"trainable": true, "name": "activation_68", "activation": "relu"}}, {"class_name": "AveragePooling2D", "name": "average_pooling2d_7", "inbound_nodes": [[["mixed6", 0, 0, {}]]], "config": {"padding": "same", "data_format": "channels_last", "trainable": true, "pool_size": [3, 3], "name": "average_pooling2d_7", "strides": [1, 1]}}, {"class_name": "Conv2D", "name": "conv2d_61", "inbound_nodes": [[["mixed6", 0, 0, {}]]], "config": {"kernel_constraint": null, "kernel_initializer": {"class_name": "VarianceScaling", "config": {"scale": 1.0, "mode": "fan_avg", "distribution": "uniform", "seed": null}}, "dilation_rate": [1, 1], "activity_regularizer": null, "filters": 192, "name": "conv2d_61", "bias_initializer": {"class_name": "Zeros", "config": {}}, "bias_regularizer": null, "padding": "same", "data_format": "channels_last", "trainable": true, "kernel_regularizer": null, "strides": [1, 1], "use_bias": false, "bias_constraint": null, "kernel_size": [1, 1], "activation": "linear"}}, {"class_name": "Conv2D", "name": "conv2d_64", "inbound_nodes": [[["activation_63", 0, 0, {}]]], "config": {"kernel_constraint": null, "kernel_initializer": {"class_name": "VarianceScaling", "config": {"scale": 1.0, "mode": "fan_avg", "distribution": "uniform", "seed": null}}, "dilation_rate": [1, 1], "activity_regularizer": null, "filters": 192, "name": "conv2d_64", "bias_initializer": {"class_name": "Zeros", "config": {}}, "bias_regularizer": null, "padding": "same", "data_format": "channels_last", "trainable": true, "kernel_regularizer": null, "strides": [1, 1], "use_bias": false, "bias_constraint": null, "kernel_size": [7, 1], "activation": "linear"}}, {"class_name": "Conv2D", "name": "conv2d_69", "inbound_nodes": [[["activation_68", 0, 0, {}]]], "config": {"kernel_constraint": null, "kernel_initializer": {"class_name": "VarianceScaling", "config": {"scale": 1.0, "mode": "fan_avg", "distribution": "uniform", "seed": null}}, "dilation_rate": [1, 1], "activity_regularizer": null, "filters": 192, "name": "conv2d_69", "bias_initializer": {"class_name": "Zeros", "config": {}}, "bias_regularizer": null, "padding": "same", "data_format": "channels_last", "trainable": true, "kernel_regularizer": null, "strides": [1, 1], "use_bias": false, "bias_constraint": null, "kernel_size": [1, 7], "activation": "linear"}}, {"class_name": "Conv2D", "name": "conv2d_70", "inbound_nodes": [[["average_pooling2d_7", 0, 0, {}]]], "config": {"kernel_constraint": null, "kernel_initializer": {"class_name": "VarianceScaling", "config": {"scale": 1.0, "mode": "fan_avg", "distribution": "uniform", "seed": null}}, "dilation_rate": [1, 1], "activity_regularizer": null, "filters": 192, "name": "conv2d_70", "bias_initializer": {"class_name": "Zeros", "config": {}}, "bias_regularizer": null, "padding": "same", "data_format": "channels_last", "trainable": true, "kernel_regularizer": null, "strides": [1, 1], "use_bias": false, "bias_constraint": null, "kernel_size": [1, 1], "activation": "linear"}}, {"class_name": "BatchNormalization", "name": "batch_normalization_61", "inbound_nodes": [[["conv2d_61", 0, 0, {}]]], "config": {"moving_mean_initializer": {"class_name": "Zeros", "config": {}}, "scale": false, "gamma_initializer": {"class_name": "Ones", "config": {}}, "beta_constraint": null, "beta_regularizer": null, "epsilon": 0.001, "axis": 3, "momentum": 0.99, "gamma_constraint": null, "trainable": true, "beta_initializer": {"class_name": "Zeros", "config": {}}, "center": true, "name": "batch_normalization_61", "gamma_regularizer": null, "moving_variance_initializer": {"class_name": "Ones", "config": {}}}}, {"class_name": "BatchNormalization", "name": "batch_normalization_64", "inbound_nodes": [[["conv2d_64", 0, 0, {}]]], "config": {"moving_mean_initializer": {"class_name": "Zeros", "config": {}}, "scale": false, "gamma_initializer": {"class_name": "Ones", "config": {}}, "beta_constraint": null, "beta_regularizer": null, "epsilon": 0.001, "axis": 3, "momentum": 0.99, "gamma_constraint": null, "trainable": true, "beta_initializer": {"class_name": "Zeros", "config": {}}, "center": true, "name": "batch_normalization_64", "gamma_regularizer": null, "moving_variance_initializer": {"class_name": "Ones", "config": {}}}}, {"class_name": "BatchNormalization", "name": "batch_normalization_69", "inbound_nodes": [[["conv2d_69", 0, 0, {}]]], "config": {"moving_mean_initializer": {"class_name": "Zeros", "config": {}}, "scale": false, "gamma_initializer": {"class_name": "Ones", "config": {}}, "beta_constraint": null, "beta_regularizer": null, "epsilon": 0.001, "axis": 3, "momentum": 0.99, "gamma_constraint": null, "trainable": true, "beta_initializer": {"class_name": "Zeros", "config": {}}, "center": true, "name": "batch_normalization_69", "gamma_regularizer": null, "moving_variance_initializer": {"class_name": "Ones", "config": {}}}}, {"class_name": "BatchNormalization", "name": "batch_normalization_70", "inbound_nodes": [[["conv2d_70", 0, 0, {}]]], "config": {"moving_mean_initializer": {"class_name": "Zeros", "config": {}}, "scale": false, "gamma_initializer": {"class_name": "Ones", "config": {}}, "beta_constraint": null, "beta_regularizer": null, "epsilon": 0.001, "axis": 3, "momentum": 0.99, "gamma_constraint": null, "trainable": true, "beta_initializer": {"class_name": "Zeros", "config": {}}, "center": true, "name": "batch_normalization_70", "gamma_regularizer": null, "moving_variance_initializer": {"class_name": "Ones", "config": {}}}}, {"class_name": "Activation", "name": "activation_61", "inbound_nodes": [[["batch_normalization_61", 0, 0, {}]]], "config": {"trainable": true, "name": "activation_61", "activation": "relu"}}, {"class_name": "Activation", "name": "activation_64", "inbound_nodes": [[["batch_normalization_64", 0, 0, {}]]], "config": {"trainable": true, "name": "activation_64", "activation": "relu"}}, {"class_name": "Activation", "name": "activation_69", "inbound_nodes": [[["batch_normalization_69", 0, 0, {}]]], "config": {"trainable": true, "name": "activation_69", "activation": "relu"}}, {"class_name": "Activation", "name": "activation_70", "inbound_nodes": [[["batch_normalization_70", 0, 0, {}]]], "config": {"trainable": true, "name": "activation_70", "activation": "relu"}}, {"class_name": "Concatenate", "name": "mixed7", "inbound_nodes": [[["activation_61", 0, 0, {}], ["activation_64", 0, 0, {}], ["activation_69", 0, 0, {}], ["activation_70", 0, 0, {}]]], "config": {"trainable": true, "name": "mixed7", "axis": 3}}, {"class_name": "Conv2D", "name": "conv2d_73", "inbound_nodes": [[["mixed7", 0, 0, {}]]], "config": {"kernel_constraint": null, "kernel_initializer": {"class_name": "VarianceScaling", "config": {"scale": 1.0, "mode": "fan_avg", "distribution": "uniform", "seed": null}}, "dilation_rate": [1, 1], "activity_regularizer": null, "filters": 192, "name": "conv2d_73", "bias_initializer": {"class_name": "Zeros", "config": {}}, "bias_regularizer": null, "padding": "same", "data_format": "channels_last", "trainable": true, "kernel_regularizer": null, "strides": [1, 1], "use_bias": false, "bias_constraint": null, "kernel_size": [1, 1], "activation": "linear"}}, {"class_name": "BatchNormalization", "name": "batch_normalization_73", "inbound_nodes": [[["conv2d_73", 0, 0, {}]]], "config": {"moving_mean_initializer": {"class_name": "Zeros", "config": {}}, "scale": false, "gamma_initializer": {"class_name": "Ones", "config": {}}, "beta_constraint": null, "beta_regularizer": null, "epsilon": 0.001, "axis": 3, "momentum": 0.99, "gamma_constraint": null, "trainable": true, "beta_initializer": {"class_name": "Zeros", "config": {}}, "center": true, "name": "batch_normalization_73", "gamma_regularizer": null, "moving_variance_initializer": {"class_name": "Ones", "config": {}}}}, {"class_name": "Activation", "name": "activation_73", "inbound_nodes": [[["batch_normalization_73", 0, 0, {}]]], "config": {"trainable": true, "name": "activation_73", "activation": "relu"}}, {"class_name": "Conv2D", "name": "conv2d_74", "inbound_nodes": [[["activation_73", 0, 0, {}]]], "config": {"kernel_constraint": null, "kernel_initializer": {"class_name": "VarianceScaling", "config": {"scale": 1.0, "mode": "fan_avg", "distribution": "uniform", "seed": null}}, "dilation_rate": [1, 1], "activity_regularizer": null, "filters": 192, "name": "conv2d_74", "bias_initializer": {"class_name": "Zeros", "config": {}}, "bias_regularizer": null, "padding": "same", "data_format": "channels_last", "trainable": true, "kernel_regularizer": null, "strides": [1, 1], "use_bias": false, "bias_constraint": null, "kernel_size": [1, 7], "activation": "linear"}}, {"class_name": "BatchNormalization", "name": "batch_normalization_74", "inbound_nodes": [[["conv2d_74", 0, 0, {}]]], "config": {"moving_mean_initializer": {"class_name": "Zeros", "config": {}}, "scale": false, "gamma_initializer": {"class_name": "Ones", "config": {}}, "beta_constraint": null, "beta_regularizer": null, "epsilon": 0.001, "axis": 3, "momentum": 0.99, "gamma_constraint": null, "trainable": true, "beta_initializer": {"class_name": "Zeros", "config": {}}, "center": true, "name": "batch_normalization_74", "gamma_regularizer": null, "moving_variance_initializer": {"class_name": "Ones", "config": {}}}}, {"class_name": "Activation", "name": "activation_74", "inbound_nodes": [[["batch_normalization_74", 0, 0, {}]]], "config": {"trainable": true, "name": "activation_74", "activation": "relu"}}, {"class_name": "Conv2D", "name": "conv2d_71", "inbound_nodes": [[["mixed7", 0, 0, {}]]], "config": {"kernel_constraint": null, "kernel_initializer": {"class_name": "VarianceScaling", "config": {"scale": 1.0, "mode": "fan_avg", "distribution": "uniform", "seed": null}}, "dilation_rate": [1, 1], "activity_regularizer": null, "filters": 192, "name": "conv2d_71", "bias_initializer": {"class_name": "Zeros", "config": {}}, "bias_regularizer": null, "padding": "same", "data_format": "channels_last", "trainable": true, "kernel_regularizer": null, "strides": [1, 1], "use_bias": false, "bias_constraint": null, "kernel_size": [1, 1], "activation": "linear"}}, {"class_name": "Conv2D", "name": "conv2d_75", "inbound_nodes": [[["activation_74", 0, 0, {}]]], "config": {"kernel_constraint": null, "kernel_initializer": {"class_name": "VarianceScaling", "config": {"scale": 1.0, "mode": "fan_avg", "distribution": "uniform", "seed": null}}, "dilation_rate": [1, 1], "activity_regularizer": null, "filters": 192, "name": "conv2d_75", "bias_initializer": {"class_name": "Zeros", "config": {}}, "bias_regularizer": null, "padding": "same", "data_format": "channels_last", "trainable": true, "kernel_regularizer": null, "strides": [1, 1], "use_bias": false, "bias_constraint": null, "kernel_size": [7, 1], "activation": "linear"}}, {"class_name": "BatchNormalization", "name": "batch_normalization_71", "inbound_nodes": [[["conv2d_71", 0, 0, {}]]], "config": {"moving_mean_initializer": {"class_name": "Zeros", "config": {}}, "scale": false, "gamma_initializer": {"class_name": "Ones", "config": {}}, "beta_constraint": null, "beta_regularizer": null, "epsilon": 0.001, "axis": 3, "momentum": 0.99, "gamma_constraint": null, "trainable": true, "beta_initializer": {"class_name": "Zeros", "config": {}}, "center": true, "name": "batch_normalization_71", "gamma_regularizer": null, "moving_variance_initializer": {"class_name": "Ones", "config": {}}}}, {"class_name": "BatchNormalization", "name": "batch_normalization_75", "inbound_nodes": [[["conv2d_75", 0, 0, {}]]], "config": {"moving_mean_initializer": {"class_name": "Zeros", "config": {}}, "scale": false, "gamma_initializer": {"class_name": "Ones", "config": {}}, "beta_constraint": null, "beta_regularizer": null, "epsilon": 0.001, "axis": 3, "momentum": 0.99, "gamma_constraint": null, "trainable": true, "beta_initializer": {"class_name": "Zeros", "config": {}}, "center": true, "name": "batch_normalization_75", "gamma_regularizer": null, "moving_variance_initializer": {"class_name": "Ones", "config": {}}}}, {"class_name": "Activation", "name": "activation_71", "inbound_nodes": [[["batch_normalization_71", 0, 0, {}]]], "config": {"trainable": true, "name": "activation_71", "activation": "relu"}}, {"class_name": "Activation", "name": "activation_75", "inbound_nodes": [[["batch_normalization_75", 0, 0, {}]]], "config": {"trainable": true, "name": "activation_75", "activation": "relu"}}, {"class_name": "Conv2D", "name": "conv2d_72", "inbound_nodes": [[["activation_71", 0, 0, {}]]], "config": {"kernel_constraint": null, "kernel_initializer": {"class_name": "VarianceScaling", "config": {"scale": 1.0, "mode": "fan_avg", "distribution": "uniform", "seed": null}}, "dilation_rate": [1, 1], "activity_regularizer": null, "filters": 320, "name": "conv2d_72", "bias_initializer": {"class_name": "Zeros", "config": {}}, "bias_regularizer": null, "padding": "valid", "data_format": "channels_last", "trainable": true, "kernel_regularizer": null, "strides": [2, 2], "use_bias": false, "bias_constraint": null, "kernel_size": [3, 3], "activation": "linear"}}, {"class_name": "Conv2D", "name": "conv2d_76", "inbound_nodes": [[["activation_75", 0, 0, {}]]], "config": {"kernel_constraint": null, "kernel_initializer": {"class_name": "VarianceScaling", "config": {"scale": 1.0, "mode": "fan_avg", "distribution": "uniform", "seed": null}}, "dilation_rate": [1, 1], "activity_regularizer": null, "filters": 192, "name": "conv2d_76", "bias_initializer": {"class_name": "Zeros", "config": {}}, "bias_regularizer": null, "padding": "valid", "data_format": "channels_last", "trainable": true, "kernel_regularizer": null, "strides": [2, 2], "use_bias": false, "bias_constraint": null, "kernel_size": [3, 3], "activation": "linear"}}, {"class_name": "BatchNormalization", "name": "batch_normalization_72", "inbound_nodes": [[["conv2d_72", 0, 0, {}]]], "config": {"moving_mean_initializer": {"class_name": "Zeros", "config": {}}, "scale": false, "gamma_initializer": {"class_name": "Ones", "config": {}}, "beta_constraint": null, "beta_regularizer": null, "epsilon": 0.001, "axis": 3, "momentum": 0.99, "gamma_constraint": null, "trainable": true, "beta_initializer": {"class_name": "Zeros", "config": {}}, "center": true, "name": "batch_normalization_72", "gamma_regularizer": null, "moving_variance_initializer": {"class_name": "Ones", "config": {}}}}, {"class_name": "BatchNormalization", "name": "batch_normalization_76", "inbound_nodes": [[["conv2d_76", 0, 0, {}]]], "config": {"moving_mean_initializer": {"class_name": "Zeros", "config": {}}, "scale": false, "gamma_initializer": {"class_name": "Ones", "config": {}}, "beta_constraint": null, "beta_regularizer": null, "epsilon": 0.001, "axis": 3, "momentum": 0.99, "gamma_constraint": null, "trainable": true, "beta_initializer": {"class_name": "Zeros", "config": {}}, "center": true, "name": "batch_normalization_76", "gamma_regularizer": null, "moving_variance_initializer": {"class_name": "Ones", "config": {}}}}, {"class_name": "Activation", "name": "activation_72", "inbound_nodes": [[["batch_normalization_72", 0, 0, {}]]], "config": {"trainable": true, "name": "activation_72", "activation": "relu"}}, {"class_name": "Activation", "name": "activation_76", "inbound_nodes": [[["batch_normalization_76", 0, 0, {}]]], "config": {"trainable": true, "name": "activation_76", "activation": "relu"}}, {"class_name": "MaxPooling2D", "name": "max_pooling2d_4", "inbound_nodes": [[["mixed7", 0, 0, {}]]], "config": {"padding": "valid", "data_format": "channels_last", "trainable": true, "pool_size": [3, 3], "name": "max_pooling2d_4", "strides": [2, 2]}}, {"class_name": "Concatenate", "name": "mixed8", "inbound_nodes": [[["activation_72", 0, 0, {}], ["activation_76", 0, 0, {}], ["max_pooling2d_4", 0, 0, {}]]], "config": {"trainable": true, "name": "mixed8", "axis": 3}}, {"class_name": "Conv2D", "name": "conv2d_81", "inbound_nodes": [[["mixed8", 0, 0, {}]]], "config": {"kernel_constraint": null, "kernel_initializer": {"class_name": "VarianceScaling", "config": {"scale": 1.0, "mode": "fan_avg", "distribution": "uniform", "seed": null}}, "dilation_rate": [1, 1], "activity_regularizer": null, "filters": 448, "name": "conv2d_81", "bias_initializer": {"class_name": "Zeros", "config": {}}, "bias_regularizer": null, "padding": "same", "data_format": "channels_last", "trainable": true, "kernel_regularizer": null, "strides": [1, 1], "use_bias": false, "bias_constraint": null, "kernel_size": [1, 1], "activation": "linear"}}, {"class_name": "BatchNormalization", "name": "batch_normalization_81", "inbound_nodes": [[["conv2d_81", 0, 0, {}]]], "config": {"moving_mean_initializer": {"class_name": "Zeros", "config": {}}, "scale": false, "gamma_initializer": {"class_name": "Ones", "config": {}}, "beta_constraint": null, "beta_regularizer": null, "epsilon": 0.001, "axis": 3, "momentum": 0.99, "gamma_constraint": null, "trainable": true, "beta_initializer": {"class_name": "Zeros", "config": {}}, "center": true, "name": "batch_normalization_81", "gamma_regularizer": null, "moving_variance_initializer": {"class_name": "Ones", "config": {}}}}, {"class_name": "Activation", "name": "activation_81", "inbound_nodes": [[["batch_normalization_81", 0, 0, {}]]], "config": {"trainable": true, "name": "activation_81", "activation": "relu"}}, {"class_name": "Conv2D", "name": "conv2d_78", "inbound_nodes": [[["mixed8", 0, 0, {}]]], "config": {"kernel_constraint": null, "kernel_initializer": {"class_name": "VarianceScaling", "config": {"scale": 1.0, "mode": "fan_avg", "distribution": "uniform", "seed": null}}, "dilation_rate": [1, 1], "activity_regularizer": null, "filters": 384, "name": "conv2d_78", "bias_initializer": {"class_name": "Zeros", "config": {}}, "bias_regularizer": null, "padding": "same", "data_format": "channels_last", "trainable": true, "kernel_regularizer": null, "strides": [1, 1], "use_bias": false, "bias_constraint": null, "kernel_size": [1, 1], "activation": "linear"}}, {"class_name": "Conv2D", "name": "conv2d_82", "inbound_nodes": [[["activation_81", 0, 0, {}]]], "config": {"kernel_constraint": null, "kernel_initializer": {"class_name": "VarianceScaling", "config": {"scale": 1.0, "mode": "fan_avg", "distribution": "uniform", "seed": null}}, "dilation_rate": [1, 1], "activity_regularizer": null, "filters": 384, "name": "conv2d_82", "bias_initializer": {"class_name": "Zeros", "config": {}}, "bias_regularizer": null, "padding": "same", "data_format": "channels_last", "trainable": true, "kernel_regularizer": null, "strides": [1, 1], "use_bias": false, "bias_constraint": null, "kernel_size": [3, 3], "activation": "linear"}}, {"class_name": "BatchNormalization", "name": "batch_normalization_78", "inbound_nodes": [[["conv2d_78", 0, 0, {}]]], "config": {"moving_mean_initializer": {"class_name": "Zeros", "config": {}}, "scale": false, "gamma_initializer": {"class_name": "Ones", "config": {}}, "beta_constraint": null, "beta_regularizer": null, "epsilon": 0.001, "axis": 3, "momentum": 0.99, "gamma_constraint": null, "trainable": true, "beta_initializer": {"class_name": "Zeros", "config": {}}, "center": true, "name": "batch_normalization_78", "gamma_regularizer": null, "moving_variance_initializer": {"class_name": "Ones", "config": {}}}}, {"class_name": "BatchNormalization", "name": "batch_normalization_82", "inbound_nodes": [[["conv2d_82", 0, 0, {}]]], "config": {"moving_mean_initializer": {"class_name": "Zeros", "config": {}}, "scale": false, "gamma_initializer": {"class_name": "Ones", "config": {}}, "beta_constraint": null, "beta_regularizer": null, "epsilon": 0.001, "axis": 3, "momentum": 0.99, "gamma_constraint": null, "trainable": true, "beta_initializer": {"class_name": "Zeros", "config": {}}, "center": true, "name": "batch_normalization_82", "gamma_regularizer": null, "moving_variance_initializer": {"class_name": "Ones", "config": {}}}}, {"class_name": "Activation", "name": "activation_78", "inbound_nodes": [[["batch_normalization_78", 0, 0, {}]]], "config": {"trainable": true, "name": "activation_78", "activation": "relu"}}, {"class_name": "Activation", "name": "activation_82", "inbound_nodes": [[["batch_normalization_82", 0, 0, {}]]], "config": {"trainable": true, "name": "activation_82", "activation": "relu"}}, {"class_name": "Conv2D", "name": "conv2d_79", "inbound_nodes": [[["activation_78", 0, 0, {}]]], "config": {"kernel_constraint": null, "kernel_initializer": {"class_name": "VarianceScaling", "config": {"scale": 1.0, "mode": "fan_avg", "distribution": "uniform", "seed": null}}, "dilation_rate": [1, 1], "activity_regularizer": null, "filters": 384, "name": "conv2d_79", "bias_initializer": {"class_name": "Zeros", "config": {}}, "bias_regularizer": null, "padding": "same", "data_format": "channels_last", "trainable": true, "kernel_regularizer": null, "strides": [1, 1], "use_bias": false, "bias_constraint": null, "kernel_size": [1, 3], "activation": "linear"}}, {"class_name": "Conv2D", "name": "conv2d_80", "inbound_nodes": [[["activation_78", 0, 0, {}]]], "config": {"kernel_constraint": null, "kernel_initializer": {"class_name": "VarianceScaling", "config": {"scale": 1.0, "mode": "fan_avg", "distribution": "uniform", "seed": null}}, "dilation_rate": [1, 1], "activity_regularizer": null, "filters": 384, "name": "conv2d_80", "bias_initializer": {"class_name": "Zeros", "config": {}}, "bias_regularizer": null, "padding": "same", "data_format": "channels_last", "trainable": true, "kernel_regularizer": null, "strides": [1, 1], "use_bias": false, "bias_constraint": null, "kernel_size": [3, 1], "activation": "linear"}}, {"class_name": "Conv2D", "name": "conv2d_83", "inbound_nodes": [[["activation_82", 0, 0, {}]]], "config": {"kernel_constraint": null, "kernel_initializer": {"class_name": "VarianceScaling", "config": {"scale": 1.0, "mode": "fan_avg", "distribution": "uniform", "seed": null}}, "dilation_rate": [1, 1], "activity_regularizer": null, "filters": 384, "name": "conv2d_83", "bias_initializer": {"class_name": "Zeros", "config": {}}, "bias_regularizer": null, "padding": "same", "data_format": "channels_last", "trainable": true, "kernel_regularizer": null, "strides": [1, 1], "use_bias": false, "bias_constraint": null, "kernel_size": [1, 3], "activation": "linear"}}, {"class_name": "Conv2D", "name": "conv2d_84", "inbound_nodes": [[["activation_82", 0, 0, {}]]], "config": {"kernel_constraint": null, "kernel_initializer": {"class_name": "VarianceScaling", "config": {"scale": 1.0, "mode": "fan_avg", "distribution": "uniform", "seed": null}}, "dilation_rate": [1, 1], "activity_regularizer": null, "filters": 384, "name": "conv2d_84", "bias_initializer": {"class_name": "Zeros", "config": {}}, "bias_regularizer": null, "padding": "same", "data_format": "channels_last", "trainable": true, "kernel_regularizer": null, "strides": [1, 1], "use_bias": false, "bias_constraint": null, "kernel_size": [3, 1], "activation": "linear"}}, {"class_name": "AveragePooling2D", "name": "average_pooling2d_8", "inbound_nodes": [[["mixed8", 0, 0, {}]]], "config": {"padding": "same", "data_format": "channels_last", "trainable": true, "pool_size": [3, 3], "name": "average_pooling2d_8", "strides": [1, 1]}}, {"class_name": "Conv2D", "name": "conv2d_77", "inbound_nodes": [[["mixed8", 0, 0, {}]]], "config": {"kernel_constraint": null, "kernel_initializer": {"class_name": "VarianceScaling", "config": {"scale": 1.0, "mode": "fan_avg", "distribution": "uniform", "seed": null}}, "dilation_rate": [1, 1], "activity_regularizer": null, "filters": 320, "name": "conv2d_77", "bias_initializer": {"class_name": "Zeros", "config": {}}, "bias_regularizer": null, "padding": "same", "data_format": "channels_last", "trainable": true, "kernel_regularizer": null, "strides": [1, 1], "use_bias": false, "bias_constraint": null, "kernel_size": [1, 1], "activation": "linear"}}, {"class_name": "BatchNormalization", "name": "batch_normalization_79", "inbound_nodes": [[["conv2d_79", 0, 0, {}]]], "config": {"moving_mean_initializer": {"class_name": "Zeros", "config": {}}, "scale": false, "gamma_initializer": {"class_name": "Ones", "config": {}}, "beta_constraint": null, "beta_regularizer": null, "epsilon": 0.001, "axis": 3, "momentum": 0.99, "gamma_constraint": null, "trainable": true, "beta_initializer": {"class_name": "Zeros", "config": {}}, "center": true, "name": "batch_normalization_79", "gamma_regularizer": null, "moving_variance_initializer": {"class_name": "Ones", "config": {}}}}, {"class_name": "BatchNormalization", "name": "batch_normalization_80", "inbound_nodes": [[["conv2d_80", 0, 0, {}]]], "config": {"moving_mean_initializer": {"class_name": "Zeros", "config": {}}, "scale": false, "gamma_initializer": {"class_name": "Ones", "config": {}}, "beta_constraint": null, "beta_regularizer": null, "epsilon": 0.001, "axis": 3, "momentum": 0.99, "gamma_constraint": null, "trainable": true, "beta_initializer": {"class_name": "Zeros", "config": {}}, "center": true, "name": "batch_normalization_80", "gamma_regularizer": null, "moving_variance_initializer": {"class_name": "Ones", "config": {}}}}, {"class_name": "BatchNormalization", "name": "batch_normalization_83", "inbound_nodes": [[["conv2d_83", 0, 0, {}]]], "config": {"moving_mean_initializer": {"class_name": "Zeros", "config": {}}, "scale": false, "gamma_initializer": {"class_name": "Ones", "config": {}}, "beta_constraint": null, "beta_regularizer": null, "epsilon": 0.001, "axis": 3, "momentum": 0.99, "gamma_constraint": null, "trainable": true, "beta_initializer": {"class_name": "Zeros", "config": {}}, "center": true, "name": "batch_normalization_83", "gamma_regularizer": null, "moving_variance_initializer": {"class_name": "Ones", "config": {}}}}, {"class_name": "BatchNormalization", "name": "batch_normalization_84", "inbound_nodes": [[["conv2d_84", 0, 0, {}]]], "config": {"moving_mean_initializer": {"class_name": "Zeros", "config": {}}, "scale": false, "gamma_initializer": {"class_name": "Ones", "config": {}}, "beta_constraint": null, "beta_regularizer": null, "epsilon": 0.001, "axis": 3, "momentum": 0.99, "gamma_constraint": null, "trainable": true, "beta_initializer": {"class_name": "Zeros", "config": {}}, "center": true, "name": "batch_normalization_84", "gamma_regularizer": null, "moving_variance_initializer": {"class_name": "Ones", "config": {}}}}, {"class_name": "Conv2D", "name": "conv2d_85", "inbound_nodes": [[["average_pooling2d_8", 0, 0, {}]]], "config": {"kernel_constraint": null, "kernel_initializer": {"class_name": "VarianceScaling", "config": {"scale": 1.0, "mode": "fan_avg", "distribution": "uniform", "seed": null}}, "dilation_rate": [1, 1], "activity_regularizer": null, "filters": 192, "name": "conv2d_85", "bias_initializer": {"class_name": "Zeros", "config": {}}, "bias_regularizer": null, "padding": "same", "data_format": "channels_last", "trainable": true, "kernel_regularizer": null, "strides": [1, 1], "use_bias": false, "bias_constraint": null, "kernel_size": [1, 1], "activation": "linear"}}, {"class_name": "BatchNormalization", "name": "batch_normalization_77", "inbound_nodes": [[["conv2d_77", 0, 0, {}]]], "config": {"moving_mean_initializer": {"class_name": "Zeros", "config": {}}, "scale": false, "gamma_initializer": {"class_name": "Ones", "config": {}}, "beta_constraint": null, "beta_regularizer": null, "epsilon": 0.001, "axis": 3, "momentum": 0.99, "gamma_constraint": null, "trainable": true, "beta_initializer": {"class_name": "Zeros", "config": {}}, "center": true, "name": "batch_normalization_77", "gamma_regularizer": null, "moving_variance_initializer": {"class_name": "Ones", "config": {}}}}, {"class_name": "Activation", "name": "activation_79", "inbound_nodes": [[["batch_normalization_79", 0, 0, {}]]], "config": {"trainable": true, "name": "activation_79", "activation": "relu"}}, {"class_name": "Activation", "name": "activation_80", "inbound_nodes": [[["batch_normalization_80", 0, 0, {}]]], "config": {"trainable": true, "name": "activation_80", "activation": "relu"}}, {"class_name": "Activation", "name": "activation_83", "inbound_nodes": [[["batch_normalization_83", 0, 0, {}]]], "config": {"trainable": true, "name": "activation_83", "activation": "relu"}}, {"class_name": "Activation", "name": "activation_84", "inbound_nodes": [[["batch_normalization_84", 0, 0, {}]]], "config": {"trainable": true, "name": "activation_84", "activation": "relu"}}, {"class_name": "BatchNormalization", "name": "batch_normalization_85", "inbound_nodes": [[["conv2d_85", 0, 0, {}]]], "config": {"moving_mean_initializer": {"class_name": "Zeros", "config": {}}, "scale": false, "gamma_initializer": {"class_name": "Ones", "config": {}}, "beta_constraint": null, "beta_regularizer": null, "epsilon": 0.001, "axis": 3, "momentum": 0.99, "gamma_constraint": null, "trainable": true, "beta_initializer": {"class_name": "Zeros", "config": {}}, "center": true, "name": "batch_normalization_85", "gamma_regularizer": null, "moving_variance_initializer": {"class_name": "Ones", "config": {}}}}, {"class_name": "Activation", "name": "activation_77", "inbound_nodes": [[["batch_normalization_77", 0, 0, {}]]], "config": {"trainable": true, "name": "activation_77", "activation": "relu"}}, {"class_name": "Concatenate", "name": "mixed9_0", "inbound_nodes": [[["activation_79", 0, 0, {}], ["activation_80", 0, 0, {}]]], "config": {"trainable": true, "name": "mixed9_0", "axis": 3}}, {"class_name": "Concatenate", "name": "concatenate_1", "inbound_nodes": [[["activation_83", 0, 0, {}], ["activation_84", 0, 0, {}]]], "config": {"trainable": true, "name": "concatenate_1", "axis": 3}}, {"class_name": "Activation", "name": "activation_85", "inbound_nodes": [[["batch_normalization_85", 0, 0, {}]]], "config": {"trainable": true, "name": "activation_85", "activation": "relu"}}, {"class_name": "Concatenate", "name": "mixed9", "inbound_nodes": [[["activation_77", 0, 0, {}], ["mixed9_0", 0, 0, {}], ["concatenate_1", 0, 0, {}], ["activation_85", 0, 0, {}]]], "config": {"trainable": true, "name": "mixed9", "axis": 3}}, {"class_name": "Conv2D", "name": "conv2d_90", "inbound_nodes": [[["mixed9", 0, 0, {}]]], "config": {"kernel_constraint": null, "kernel_initializer": {"class_name": "VarianceScaling", "config": {"scale": 1.0, "mode": "fan_avg", "distribution": "uniform", "seed": null}}, "dilation_rate": [1, 1], "activity_regularizer": null, "filters": 448, "name": "conv2d_90", "bias_initializer": {"class_name": "Zeros", "config": {}}, "bias_regularizer": null, "padding": "same", "data_format": "channels_last", "trainable": true, "kernel_regularizer": null, "strides": [1, 1], "use_bias": false, "bias_constraint": null, "kernel_size": [1, 1], "activation": "linear"}}, {"class_name": "BatchNormalization", "name": "batch_normalization_90", "inbound_nodes": [[["conv2d_90", 0, 0, {}]]], "config": {"moving_mean_initializer": {"class_name": "Zeros", "config": {}}, "scale": false, "gamma_initializer": {"class_name": "Ones", "config": {}}, "beta_constraint": null, "beta_regularizer": null, "epsilon": 0.001, "axis": 3, "momentum": 0.99, "gamma_constraint": null, "trainable": true, "beta_initializer": {"class_name": "Zeros", "config": {}}, "center": true, "name": "batch_normalization_90", "gamma_regularizer": null, "moving_variance_initializer": {"class_name": "Ones", "config": {}}}}, {"class_name": "Activation", "name": "activation_90", "inbound_nodes": [[["batch_normalization_90", 0, 0, {}]]], "config": {"trainable": true, "name": "activation_90", "activation": "relu"}}, {"class_name": "Conv2D", "name": "conv2d_87", "inbound_nodes": [[["mixed9", 0, 0, {}]]], "config": {"kernel_constraint": null, "kernel_initializer": {"class_name": "VarianceScaling", "config": {"scale": 1.0, "mode": "fan_avg", "distribution": "uniform", "seed": null}}, "dilation_rate": [1, 1], "activity_regularizer": null, "filters": 384, "name": "conv2d_87", "bias_initializer": {"class_name": "Zeros", "config": {}}, "bias_regularizer": null, "padding": "same", "data_format": "channels_last", "trainable": true, "kernel_regularizer": null, "strides": [1, 1], "use_bias": false, "bias_constraint": null, "kernel_size": [1, 1], "activation": "linear"}}, {"class_name": "Conv2D", "name": "conv2d_91", "inbound_nodes": [[["activation_90", 0, 0, {}]]], "config": {"kernel_constraint": null, "kernel_initializer": {"class_name": "VarianceScaling", "config": {"scale": 1.0, "mode": "fan_avg", "distribution": "uniform", "seed": null}}, "dilation_rate": [1, 1], "activity_regularizer": null, "filters": 384, "name": "conv2d_91", "bias_initializer": {"class_name": "Zeros", "config": {}}, "bias_regularizer": null, "padding": "same", "data_format": "channels_last", "trainable": true, "kernel_regularizer": null, "strides": [1, 1], "use_bias": false, "bias_constraint": null, "kernel_size": [3, 3], "activation": "linear"}}, {"class_name": "BatchNormalization", "name": "batch_normalization_87", "inbound_nodes": [[["conv2d_87", 0, 0, {}]]], "config": {"moving_mean_initializer": {"class_name": "Zeros", "config": {}}, "scale": false, "gamma_initializer": {"class_name": "Ones", "config": {}}, "beta_constraint": null, "beta_regularizer": null, "epsilon": 0.001, "axis": 3, "momentum": 0.99, "gamma_constraint": null, "trainable": true, "beta_initializer": {"class_name": "Zeros", "config": {}}, "center": true, "name": "batch_normalization_87", "gamma_regularizer": null, "moving_variance_initializer": {"class_name": "Ones", "config": {}}}}, {"class_name": "BatchNormalization", "name": "batch_normalization_91", "inbound_nodes": [[["conv2d_91", 0, 0, {}]]], "config": {"moving_mean_initializer": {"class_name": "Zeros", "config": {}}, "scale": false, "gamma_initializer": {"class_name": "Ones", "config": {}}, "beta_constraint": null, "beta_regularizer": null, "epsilon": 0.001, "axis": 3, "momentum": 0.99, "gamma_constraint": null, "trainable": true, "beta_initializer": {"class_name": "Zeros", "config": {}}, "center": true, "name": "batch_normalization_91", "gamma_regularizer": null, "moving_variance_initializer": {"class_name": "Ones", "config": {}}}}, {"class_name": "Activation", "name": "activation_87", "inbound_nodes": [[["batch_normalization_87", 0, 0, {}]]], "config": {"trainable": true, "name": "activation_87", "activation": "relu"}}, {"class_name": "Activation", "name": "activation_91", "inbound_nodes": [[["batch_normalization_91", 0, 0, {}]]], "config": {"trainable": true, "name": "activation_91", "activation": "relu"}}, {"class_name": "Conv2D", "name": "conv2d_88", "inbound_nodes": [[["activation_87", 0, 0, {}]]], "config": {"kernel_constraint": null, "kernel_initializer": {"class_name": "VarianceScaling", "config": {"scale": 1.0, "mode": "fan_avg", "distribution": "uniform", "seed": null}}, "dilation_rate": [1, 1], "activity_regularizer": null, "filters": 384, "name": "conv2d_88", "bias_initializer": {"class_name": "Zeros", "config": {}}, "bias_regularizer": null, "padding": "same", "data_format": "channels_last", "trainable": true, "kernel_regularizer": null, "strides": [1, 1], "use_bias": false, "bias_constraint": null, "kernel_size": [1, 3], "activation": "linear"}}, {"class_name": "Conv2D", "name": "conv2d_89", "inbound_nodes": [[["activation_87", 0, 0, {}]]], "config": {"kernel_constraint": null, "kernel_initializer": {"class_name": "VarianceScaling", "config": {"scale": 1.0, "mode": "fan_avg", "distribution": "uniform", "seed": null}}, "dilation_rate": [1, 1], "activity_regularizer": null, "filters": 384, "name": "conv2d_89", "bias_initializer": {"class_name": "Zeros", "config": {}}, "bias_regularizer": null, "padding": "same", "data_format": "channels_last", "trainable": true, "kernel_regularizer": null, "strides": [1, 1], "use_bias": false, "bias_constraint": null, "kernel_size": [3, 1], "activation": "linear"}}, {"class_name": "Conv2D", "name": "conv2d_92", "inbound_nodes": [[["activation_91", 0, 0, {}]]], "config": {"kernel_constraint": null, "kernel_initializer": {"class_name": "VarianceScaling", "config": {"scale": 1.0, "mode": "fan_avg", "distribution": "uniform", "seed": null}}, "dilation_rate": [1, 1], "activity_regularizer": null, "filters": 384, "name": "conv2d_92", "bias_initializer": {"class_name": "Zeros", "config": {}}, "bias_regularizer": null, "padding": "same", "data_format": "channels_last", "trainable": true, "kernel_regularizer": null, "strides": [1, 1], "use_bias": false, "bias_constraint": null, "kernel_size": [1, 3], "activation": "linear"}}, {"class_name": "Conv2D", "name": "conv2d_93", "inbound_nodes": [[["activation_91", 0, 0, {}]]], "config": {"kernel_constraint": null, "kernel_initializer": {"class_name": "VarianceScaling", "config": {"scale": 1.0, "mode": "fan_avg", "distribution": "uniform", "seed": null}}, "dilation_rate": [1, 1], "activity_regularizer": null, "filters": 384, "name": "conv2d_93", "bias_initializer": {"class_name": "Zeros", "config": {}}, "bias_regularizer": null, "padding": "same", "data_format": "channels_last", "trainable": true, "kernel_regularizer": null, "strides": [1, 1], "use_bias": false, "bias_constraint": null, "kernel_size": [3, 1], "activation": "linear"}}, {"class_name": "AveragePooling2D", "name": "average_pooling2d_9", "inbound_nodes": [[["mixed9", 0, 0, {}]]], "config": {"padding": "same", "data_format": "channels_last", "trainable": true, "pool_size": [3, 3], "name": "average_pooling2d_9", "strides": [1, 1]}}, {"class_name": "Conv2D", "name": "conv2d_86", "inbound_nodes": [[["mixed9", 0, 0, {}]]], "config": {"kernel_constraint": null, "kernel_initializer": {"class_name": "VarianceScaling", "config": {"scale": 1.0, "mode": "fan_avg", "distribution": "uniform", "seed": null}}, "dilation_rate": [1, 1], "activity_regularizer": null, "filters": 320, "name": "conv2d_86", "bias_initializer": {"class_name": "Zeros", "config": {}}, "bias_regularizer": null, "padding": "same", "data_format": "channels_last", "trainable": true, "kernel_regularizer": null, "strides": [1, 1], "use_bias": false, "bias_constraint": null, "kernel_size": [1, 1], "activation": "linear"}}, {"class_name": "BatchNormalization", "name": "batch_normalization_88", "inbound_nodes": [[["conv2d_88", 0, 0, {}]]], "config": {"moving_mean_initializer": {"class_name": "Zeros", "config": {}}, "scale": false, "gamma_initializer": {"class_name": "Ones", "config": {}}, "beta_constraint": null, "beta_regularizer": null, "epsilon": 0.001, "axis": 3, "momentum": 0.99, "gamma_constraint": null, "trainable": true, "beta_initializer": {"class_name": "Zeros", "config": {}}, "center": true, "name": "batch_normalization_88", "gamma_regularizer": null, "moving_variance_initializer": {"class_name": "Ones", "config": {}}}}, {"class_name": "BatchNormalization", "name": "batch_normalization_89", "inbound_nodes": [[["conv2d_89", 0, 0, {}]]], "config": {"moving_mean_initializer": {"class_name": "Zeros", "config": {}}, "scale": false, "gamma_initializer": {"class_name": "Ones", "config": {}}, "beta_constraint": null, "beta_regularizer": null, "epsilon": 0.001, "axis": 3, "momentum": 0.99, "gamma_constraint": null, "trainable": true, "beta_initializer": {"class_name": "Zeros", "config": {}}, "center": true, "name": "batch_normalization_89", "gamma_regularizer": null, "moving_variance_initializer": {"class_name": "Ones", "config": {}}}}, {"class_name": "BatchNormalization", "name": "batch_normalization_92", "inbound_nodes": [[["conv2d_92", 0, 0, {}]]], "config": {"moving_mean_initializer": {"class_name": "Zeros", "config": {}}, "scale": false, "gamma_initializer": {"class_name": "Ones", "config": {}}, "beta_constraint": null, "beta_regularizer": null, "epsilon": 0.001, "axis": 3, "momentum": 0.99, "gamma_constraint": null, "trainable": true, "beta_initializer": {"class_name": "Zeros", "config": {}}, "center": true, "name": "batch_normalization_92", "gamma_regularizer": null, "moving_variance_initializer": {"class_name": "Ones", "config": {}}}}, {"class_name": "BatchNormalization", "name": "batch_normalization_93", "inbound_nodes": [[["conv2d_93", 0, 0, {}]]], "config": {"moving_mean_initializer": {"class_name": "Zeros", "config": {}}, "scale": false, "gamma_initializer": {"class_name": "Ones", "config": {}}, "beta_constraint": null, "beta_regularizer": null, "epsilon": 0.001, "axis": 3, "momentum": 0.99, "gamma_constraint": null, "trainable": true, "beta_initializer": {"class_name": "Zeros", "config": {}}, "center": true, "name": "batch_normalization_93", "gamma_regularizer": null, "moving_variance_initializer": {"class_name": "Ones", "config": {}}}}, {"class_name": "Conv2D", "name": "conv2d_94", "inbound_nodes": [[["average_pooling2d_9", 0, 0, {}]]], "config": {"kernel_constraint": null, "kernel_initializer": {"class_name": "VarianceScaling", "config": {"scale": 1.0, "mode": "fan_avg", "distribution": "uniform", "seed": null}}, "dilation_rate": [1, 1], "activity_regularizer": null, "filters": 192, "name": "conv2d_94", "bias_initializer": {"class_name": "Zeros", "config": {}}, "bias_regularizer": null, "padding": "same", "data_format": "channels_last", "trainable": true, "kernel_regularizer": null, "strides": [1, 1], "use_bias": false, "bias_constraint": null, "kernel_size": [1, 1], "activation": "linear"}}, {"class_name": "BatchNormalization", "name": "batch_normalization_86", "inbound_nodes": [[["conv2d_86", 0, 0, {}]]], "config": {"moving_mean_initializer": {"class_name": "Zeros", "config": {}}, "scale": false, "gamma_initializer": {"class_name": "Ones", "config": {}}, "beta_constraint": null, "beta_regularizer": null, "epsilon": 0.001, "axis": 3, "momentum": 0.99, "gamma_constraint": null, "trainable": true, "beta_initializer": {"class_name": "Zeros", "config": {}}, "center": true, "name": "batch_normalization_86", "gamma_regularizer": null, "moving_variance_initializer": {"class_name": "Ones", "config": {}}}}, {"class_name": "Activation", "name": "activation_88", "inbound_nodes": [[["batch_normalization_88", 0, 0, {}]]], "config": {"trainable": true, "name": "activation_88", "activation": "relu"}}, {"class_name": "Activation", "name": "activation_89", "inbound_nodes": [[["batch_normalization_89", 0, 0, {}]]], "config": {"trainable": true, "name": "activation_89", "activation": "relu"}}, {"class_name": "Activation", "name": "activation_92", "inbound_nodes": [[["batch_normalization_92", 0, 0, {}]]], "config": {"trainable": true, "name": "activation_92", "activation": "relu"}}, {"class_name": "Activation", "name": "activation_93", "inbound_nodes": [[["batch_normalization_93", 0, 0, {}]]], "config": {"trainable": true, "name": "activation_93", "activation": "relu"}}, {"class_name": "BatchNormalization", "name": "batch_normalization_94", "inbound_nodes": [[["conv2d_94", 0, 0, {}]]], "config": {"moving_mean_initializer": {"class_name": "Zeros", "config": {}}, "scale": false, "gamma_initializer": {"class_name": "Ones", "config": {}}, "beta_constraint": null, "beta_regularizer": null, "epsilon": 0.001, "axis": 3, "momentum": 0.99, "gamma_constraint": null, "trainable": true, "beta_initializer": {"class_name": "Zeros", "config": {}}, "center": true, "name": "batch_normalization_94", "gamma_regularizer": null, "moving_variance_initializer": {"class_name": "Ones", "config": {}}}}, {"class_name": "Activation", "name": "activation_86", "inbound_nodes": [[["batch_normalization_86", 0, 0, {}]]], "config": {"trainable": true, "name": "activation_86", "activation": "relu"}}, {"class_name": "Concatenate", "name": "mixed9_1", "inbound_nodes": [[["activation_88", 0, 0, {}], ["activation_89", 0, 0, {}]]], "config": {"trainable": true, "name": "mixed9_1", "axis": 3}}, {"class_name": "Concatenate", "name": "concatenate_2", "inbound_nodes": [[["activation_92", 0, 0, {}], ["activation_93", 0, 0, {}]]], "config": {"trainable": true, "name": "concatenate_2", "axis": 3}}, {"class_name": "Activation", "name": "activation_94", "inbound_nodes": [[["batch_normalization_94", 0, 0, {}]]], "config": {"trainable": true, "name": "activation_94", "activation": "relu"}}, {"class_name": "Concatenate", "name": "mixed10", "inbound_nodes": [[["activation_86", 0, 0, {}], ["mixed9_1", 0, 0, {}], ["concatenate_2", 0, 0, {}], ["activation_94", 0, 0, {}]]], "config": {"trainable": true, "name": "mixed10", "axis": 3}}, {"class_name": "GlobalAveragePooling2D", "name": "global_average_pooling2d_1", "inbound_nodes": [[["mixed10", 0, 0, {}]]], "config": {"trainable": true, "data_format": "channels_last", "name": "global_average_pooling2d_1"}}, {"class_name": "Dense", "name": "dense_1", "inbound_nodes": [[["global_average_pooling2d_1", 0, 0, {}]]], "config": {"kernel_constraint": null, "kernel_initializer": {"class_name": "VarianceScaling", "config": {"scale": 1.0, "mode": "fan_avg", "distribution": "uniform", "seed": null}}, "activity_regularizer": null, "bias_initializer": {"class_name": "Zeros", "config": {}}, "bias_regularizer": null, "units": 256, "trainable": true, "kernel_regularizer": null, "use_bias": true, "bias_constraint": null, "name": "dense_1", "activation": "relu"}}, {"class_name": "Dropout", "name": "dropout_1", "inbound_nodes": [[["dense_1", 0, 0, {}]]], "config": {"noise_shape": null, "trainable": true, "seed": null, "rate": 0.5, "name": "dropout_1"}}, {"class_name": "Dense", "name": "dense_2", "inbound_nodes": [[["dropout_1", 0, 0, {}]]], "config": {"kernel_constraint": null, "kernel_initializer": {"class_name": "VarianceScaling", "config": {"scale": 1.0, "mode": "fan_avg", "distribution": "uniform", "seed": null}}, "activity_regularizer": null, "bias_initializer": {"class_name": "Zeros", "config": {}}, "bias_regularizer": null, "units": 1, "trainable": true, "kernel_regularizer": null, "use_bias": true, "bias_constraint": null, "name": "dense_2", "activation": "sigmoid"}}]}, "backend": "tensorflow"}