{"class_name": "Model", "config": {"input_layers": [["input_1", 0, 0]], "name": "model_1", "layers": [{"class_name": "InputLayer", "config": {"batch_input_shape": [null, null, null, 3], "name": "input_1", "dtype": "float32", "sparse": false}, "name": "input_1", "inbound_nodes": []}, {"class_name": "Conv2D", "config": {"kernel_regularizer": null, "bias_constraint": null, "strides": [2, 2], "bias_initializer": {"class_name": "Zeros", "config": {}}, "trainable": false, "activation": "linear", "data_format": "channels_last", "filters": 32, "dilation_rate": [1, 1], "bias_regularizer": null, "activity_regularizer": null, "name": "conv2d_1", "kernel_initializer": {"class_name": "VarianceScaling", "config": {"distribution": "uniform", "scale": 1.0, "mode": "fan_avg", "seed": null}}, "kernel_constraint": null, "kernel_size": [3, 3], "padding": "valid", "use_bias": false}, "name": "conv2d_1", "inbound_nodes": [[["input_1", 0, 0, {}]]]}, {"class_name": "BatchNormalization", "config": {"gamma_constraint": null, "beta_initializer": {"class_name": "Zeros", "config": {}}, "trainable": false, "moving_variance_initializer": {"class_name": "Ones", "config": {}}, "scale": false, "beta_constraint": null, "moving_mean_initializer": {"class_name": "Zeros", "config": {}}, "momentum": 0.99, "name": "batch_normalization_1", "epsilon": 0.001, "axis": 3, "gamma_initializer": {"class_name": "Ones", "config": {}}, "center": true, "beta_regularizer": null, "gamma_regularizer": null}, "name": "batch_normalization_1", "inbound_nodes": [[["conv2d_1", 0, 0, {}]]]}, {"class_name": "Activation", "config": {"activation": "relu", "name": "activation_1", "trainable": false}, "name": "activation_1", "inbound_nodes": [[["batch_normalization_1", 0, 0, {}]]]}, {"class_name": "Conv2D", "config": {"kernel_regularizer": null, "bias_constraint": null, "strides": [1, 1], "bias_initializer": {"class_name": "Zeros", "config": {}}, "trainable": false, "activation": "linear", "data_format": "channels_last", "filters": 32, "dilation_rate": [1, 1], "bias_regularizer": null, "activity_regularizer": null, "name": "conv2d_2", "kernel_initializer": {"class_name": "VarianceScaling", "config": {"distribution": "uniform", "scale": 1.0, "mode": "fan_avg", "seed": null}}, "kernel_constraint": null, "kernel_size": [3, 3], "padding": "valid", "use_bias": false}, "name": "conv2d_2", "inbound_nodes": [[["activation_1", 0, 0, {}]]]}, {"class_name": "BatchNormalization", "config": {"gamma_constraint": null, "beta_initializer": {"class_name": "Zeros", "config": {}}, "trainable": false, "moving_variance_initializer": {"class_name": "Ones", "config": {}}, "scale": false, "beta_constraint": null, "moving_mean_initializer": {"class_name": "Zeros", "config": {}}, "momentum": 0.99, "name": "batch_normalization_2", "epsilon": 0.001, "axis": 3, "gamma_initializer": {"class_name": "Ones", "config": {}}, "center": true, "beta_regularizer": null, "gamma_regularizer": null}, "name": "batch_normalization_2", "inbound_nodes": [[["conv2d_2", 0, 0, {}]]]}, {"class_name": "Activation", "config": {"activation": "relu", "name": "activation_2", "trainable": false}, "name": "activation_2", "inbound_nodes": [[["batch_normalization_2", 0, 0, {}]]]}, {"class_name": "Conv2D", "config": {"kernel_regularizer": null, "bias_constraint": null, "strides": [1, 1], "bias_initializer": {"class_name": "Zeros", "config": {}}, "trainable": false, "activation": "linear", "data_format": "channels_last", "filters": 64, "dilation_rate": [1, 1], "bias_regularizer": null, "activity_regularizer": null, "name": "conv2d_3", "kernel_initializer": {"class_name": "VarianceScaling", "config": {"distribution": "uniform", "scale": 1.0, "mode": "fan_avg", "seed": null}}, "kernel_constraint": null, "kernel_size": [3, 3], "padding": "same", "use_bias": false}, "name": "conv2d_3", "inbound_nodes": [[["activation_2", 0, 0, {}]]]}, {"class_name": "BatchNormalization", "config": {"gamma_constraint": null, "beta_initializer": {"class_name": "Zeros", "config": {}}, "trainable": false, "moving_variance_initializer": {"class_name": "Ones", "config": {}}, "scale": false, "beta_constraint": null, "moving_mean_initializer": {"class_name": "Zeros", "config": {}}, "momentum": 0.99, "name": "batch_normalization_3", "epsilon": 0.001, "axis": 3, "gamma_initializer": {"class_name": "Ones", "config": {}}, "center": true, "beta_regularizer": null, "gamma_regularizer": null}, "name": "batch_normalization_3", "inbound_nodes": [[["conv2d_3", 0, 0, {}]]]}, {"class_name": "Activation", "config": {"activation": "relu", "name": "activation_3", "trainable": false}, "name": "activation_3", "inbound_nodes": [[["batch_normalization_3", 0, 0, {}]]]}, {"class_name": "MaxPooling2D", "config": {"pool_size": [3, 3], "strides": [2, 2], "name": "max_pooling2d_1", "trainable": false, "padding": "valid", "data_format": "channels_last"}, "name": "max_pooling2d_1", "inbound_nodes": [[["activation_3", 0, 0, {}]]]}, {"class_name": "Conv2D", "config": {"kernel_regularizer": null, "bias_constraint": null, "strides": [1, 1], "bias_initializer": {"class_name": "Zeros", "config": {}}, "trainable": false, "activation": "linear", "data_format": "channels_last", "filters": 80, "dilation_rate": [1, 1], "bias_regularizer": null, "activity_regularizer": null, "name": "conv2d_4", "kernel_initializer": {"class_name": "VarianceScaling", "config": {"distribution": "uniform", "scale": 1.0, "mode": "fan_avg", "seed": null}}, "kernel_constraint": null, "kernel_size": [1, 1], "padding": "valid", "use_bias": false}, "name": "conv2d_4", "inbound_nodes": [[["max_pooling2d_1", 0, 0, {}]]]}, {"class_name": "BatchNormalization", "config": {"gamma_constraint": null, "beta_initializer": {"class_name": "Zeros", "config": {}}, "trainable": false, "moving_variance_initializer": {"class_name": "Ones", "config": {}}, "scale": false, "beta_constraint": null, "moving_mean_initializer": {"class_name": "Zeros", "config": {}}, "momentum": 0.99, "name": "batch_normalization_4", "epsilon": 0.001, "axis": 3, "gamma_initializer": {"class_name": "Ones", "config": {}}, "center": true, "beta_regularizer": null, "gamma_regularizer": null}, "name": "batch_normalization_4", "inbound_nodes": [[["conv2d_4", 0, 0, {}]]]}, {"class_name": "Activation", "config": {"activation": "relu", "name": "activation_4", "trainable": false}, "name": "activation_4", "inbound_nodes": [[["batch_normalization_4", 0, 0, {}]]]}, {"class_name": "Conv2D", "config": {"kernel_regularizer": null, "bias_constraint": null, "strides": [1, 1], "bias_initializer": {"class_name": "Zeros", "config": {}}, "trainable": false, "activation": "linear", "data_format": "channels_last", "filters": 192, "dilation_rate": [1, 1], "bias_regularizer": null, "activity_regularizer": null, "name": "conv2d_5", "kernel_initializer": {"class_name": "VarianceScaling", "config": {"distribution": "uniform", "scale": 1.0, "mode": "fan_avg", "seed": null}}, "kernel_constraint": null, "kernel_size": [3, 3], "padding": "valid", "use_bias": false}, "name": "conv2d_5", "inbound_nodes": [[["activation_4", 0, 0, {}]]]}, {"class_name": "BatchNormalization", "config": {"gamma_constraint": null, "beta_initializer": {"class_name": "Zeros", "config": {}}, "trainable": false, "moving_variance_initializer": {"class_name": "Ones", "config": {}}, "scale": false, "beta_constraint": null, "moving_mean_initializer": {"class_name": "Zeros", "config": {}}, "momentum": 0.99, "name": "batch_normalization_5", "epsilon": 0.001, "axis": 3, "gamma_initializer": {"class_name": "Ones", "config": {}}, "center": true, "beta_regularizer": null, "gamma_regularizer": null}, "name": "batch_normalization_5", "inbound_nodes": [[["conv2d_5", 0, 0, {}]]]}, {"class_name": "Activation", "config": {"activation": "relu", "name": "activation_5", "trainable": false}, "name": "activation_5", "inbound_nodes": [[["batch_normalization_5", 0, 0, {}]]]}, {"class_name": "MaxPooling2D", "config": {"pool_size": [3, 3], "strides": [2, 2], "name": "max_pooling2d_2", "trainable": false, "padding": "valid", "data_format": "channels_last"}, "name": "max_pooling2d_2", "inbound_nodes": [[["activation_5", 0, 0, {}]]]}, {"class_name": "Conv2D", "config": {"kernel_regularizer": null, "bias_constraint": null, "strides": [1, 1], "bias_initializer": {"class_name": "Zeros", "config": {}}, "trainable": false, "activation": "linear", "data_format": "channels_last", "filters": 64, "dilation_rate": [1, 1], "bias_regularizer": null, "activity_regularizer": null, "name": "conv2d_9", "kernel_initializer": {"class_name": "VarianceScaling", "config": {"distribution": "uniform", "scale": 1.0, "mode": "fan_avg", "seed": null}}, "kernel_constraint": null, "kernel_size": [1, 1], "padding": "same", "use_bias": false}, "name": "conv2d_9", "inbound_nodes": [[["max_pooling2d_2", 0, 0, {}]]]}, {"class_name": "BatchNormalization", "config": {"gamma_constraint": null, "beta_initializer": {"class_name": "Zeros", "config": {}}, "trainable": false, "moving_variance_initializer": {"class_name": "Ones", "config": {}}, "scale": false, "beta_constraint": null, "moving_mean_initializer": {"class_name": "Zeros", "config": {}}, "momentum": 0.99, "name": "batch_normalization_9", "epsilon": 0.001, "axis": 3, "gamma_initializer": {"class_name": "Ones", "config": {}}, "center": true, "beta_regularizer": null, "gamma_regularizer": null}, "name": "batch_normalization_9", "inbound_nodes": [[["conv2d_9", 0, 0, {}]]]}, {"class_name": "Activation", "config": {"activation": "relu", "name": "activation_9", "trainable": false}, "name": "activation_9", "inbound_nodes": [[["batch_normalization_9", 0, 0, {}]]]}, {"class_name": "Conv2D", "config": {"kernel_regularizer": null, "bias_constraint": null, "strides": [1, 1], "bias_initializer": {"class_name": "Zeros", "config": {}}, "trainable": false, "activation": "linear", "data_format": "channels_last", "filters": 48, "dilation_rate": [1, 1], "bias_regularizer": null, "activity_regularizer": null, "name": "conv2d_7", "kernel_initializer": {"class_name": "VarianceScaling", "config": {"distribution": "uniform", "scale": 1.0, "mode": "fan_avg", "seed": null}}, "kernel_constraint": null, "kernel_size": [1, 1], "padding": "same", "use_bias": false}, "name": "conv2d_7", "inbound_nodes": [[["max_pooling2d_2", 0, 0, {}]]]}, {"class_name": "Conv2D", "config": {"kernel_regularizer": null, "bias_constraint": null, "strides": [1, 1], "bias_initializer": {"class_name": "Zeros", "config": {}}, "trainable": false, "activation": "linear", "data_format": "channels_last", "filters": 96, "dilation_rate": [1, 1], "bias_regularizer": null, "activity_regularizer": null, "name": "conv2d_10", "kernel_initializer": {"class_name": "VarianceScaling", "config": {"distribution": "uniform", "scale": 1.0, "mode": "fan_avg", "seed": null}}, "kernel_constraint": null, "kernel_size": [3, 3], "padding": "same", "use_bias": false}, "name": "conv2d_10", "inbound_nodes": [[["activation_9", 0, 0, {}]]]}, {"class_name": "BatchNormalization", "config": {"gamma_constraint": null, "beta_initializer": {"class_name": "Zeros", "config": {}}, "trainable": false, "moving_variance_initializer": {"class_name": "Ones", "config": {}}, "scale": false, "beta_constraint": null, "moving_mean_initializer": {"class_name": "Zeros", "config": {}}, "momentum": 0.99, "name": "batch_normalization_7", "epsilon": 0.001, "axis": 3, "gamma_initializer": {"class_name": "Ones", "config": {}}, "center": true, "beta_regularizer": null, "gamma_regularizer": null}, "name": "batch_normalization_7", "inbound_nodes": [[["conv2d_7", 0, 0, {}]]]}, {"class_name": "BatchNormalization", "config": {"gamma_constraint": null, "beta_initializer": {"class_name": "Zeros", "config": {}}, "trainable": false, "moving_variance_initializer": {"class_name": "Ones", "config": {}}, "scale": false, "beta_constraint": null, "moving_mean_initializer": {"class_name": "Zeros", "config": {}}, "momentum": 0.99, "name": "batch_normalization_10", "epsilon": 0.001, "axis": 3, "gamma_initializer": {"class_name": "Ones", "config": {}}, "center": true, "beta_regularizer": null, "gamma_regularizer": null}, "name": "batch_normalization_10", "inbound_nodes": [[["conv2d_10", 0, 0, {}]]]}, {"class_name": "Activation", "config": {"activation": "relu", "name": "activation_7", "trainable": false}, "name": "activation_7", "inbound_nodes": [[["batch_normalization_7", 0, 0, {}]]]}, {"class_name": "Activation", "config": {"activation": "relu", "name": "activation_10", "trainable": false}, "name": "activation_10", "inbound_nodes": [[["batch_normalization_10", 0, 0, {}]]]}, {"class_name": "AveragePooling2D", "config": {"pool_size": [3, 3], "strides": [1, 1], "name": "average_pooling2d_1", "trainable": false, "padding": "same", "data_format": "channels_last"}, "name": "average_pooling2d_1", "inbound_nodes": [[["max_pooling2d_2", 0, 0, {}]]]}, {"class_name": "Conv2D", "config": {"kernel_regularizer": null, "bias_constraint": null, "strides": [1, 1], "bias_initializer": {"class_name": "Zeros", "config": {}}, "trainable": false, "activation": "linear", "data_format": "channels_last", "filters": 64, "dilation_rate": [1, 1], "bias_regularizer": null, "activity_regularizer": null, "name": "conv2d_6", "kernel_initializer": {"class_name": "VarianceScaling", "config": {"distribution": "uniform", "scale": 1.0, "mode": "fan_avg", "seed": null}}, "kernel_constraint": null, "kernel_size": [1, 1], "padding": "same", "use_bias": false}, "name": "conv2d_6", "inbound_nodes": [[["max_pooling2d_2", 0, 0, {}]]]}, {"class_name": "Conv2D", "config": {"kernel_regularizer": null, "bias_constraint": null, "strides": [1, 1], "bias_initializer": {"class_name": "Zeros", "config": {}}, "trainable": false, "activation": "linear", "data_format": "channels_last", "filters": 64, "dilation_rate": [1, 1], "bias_regularizer": null, "activity_regularizer": null, "name": "conv2d_8", "kernel_initializer": {"class_name": "VarianceScaling", "config": {"distribution": "uniform", "scale": 1.0, "mode": "fan_avg", "seed": null}}, "kernel_constraint": null, "kernel_size": [5, 5], "padding": "same", "use_bias": false}, "name": "conv2d_8", "inbound_nodes": [[["activation_7", 0, 0, {}]]]}, {"class_name": "Conv2D", "config": {"kernel_regularizer": null, "bias_constraint": null, "strides": [1, 1], "bias_initializer": {"class_name": "Zeros", "config": {}}, "trainable": false, "activation": "linear", "data_format": "channels_last", "filters": 96, "dilation_rate": [1, 1], "bias_regularizer": null, "activity_regularizer": null, "name": "conv2d_11", "kernel_initializer": {"class_name": "VarianceScaling", "config": {"distribution": "uniform", "scale": 1.0, "mode": "fan_avg", "seed": null}}, "kernel_constraint": null, "kernel_size": [3, 3], "padding": "same", "use_bias": false}, "name": "conv2d_11", "inbound_nodes": [[["activation_10", 0, 0, {}]]]}, {"class_name": "Conv2D", "config": {"kernel_regularizer": null, "bias_constraint": null, "strides": [1, 1], "bias_initializer": {"class_name": "Zeros", "config": {}}, "trainable": false, "activation": "linear", "data_format": "channels_last", "filters": 32, "dilation_rate": [1, 1], "bias_regularizer": null, "activity_regularizer": null, "name": "conv2d_12", "kernel_initializer": {"class_name": "VarianceScaling", "config": {"distribution": "uniform", "scale": 1.0, "mode": "fan_avg", "seed": null}}, "kernel_constraint": null, "kernel_size": [1, 1], "padding": "same", "use_bias": false}, "name": "conv2d_12", "inbound_nodes": [[["average_pooling2d_1", 0, 0, {}]]]}, {"class_name": "BatchNormalization", "config": {"gamma_constraint": null, "beta_initializer": {"class_name": "Zeros", "config": {}}, "trainable": false, "moving_variance_initializer": {"class_name": "Ones", "config": {}}, "scale": false, "beta_constraint": null, "moving_mean_initializer": {"class_name": "Zeros", "config": {}}, "momentum": 0.99, "name": "batch_normalization_6", "epsilon": 0.001, "axis": 3, "gamma_initializer": {"class_name": "Ones", "config": {}}, "center": true, "beta_regularizer": null, "gamma_regularizer": null}, "name": "batch_normalization_6", "inbound_nodes": [[["conv2d_6", 0, 0, {}]]]}, {"class_name": "BatchNormalization", "config": {"gamma_constraint": null, "beta_initializer": {"class_name": "Zeros", "config": {}}, "trainable": false, "moving_variance_initializer": {"class_name": "Ones", "config": {}}, "scale": false, "beta_constraint": null, "moving_mean_initializer": {"class_name": "Zeros", "config": {}}, "momentum": 0.99, "name": "batch_normalization_8", "epsilon": 0.001, "axis": 3, "gamma_initializer": {"class_name": "Ones", "config": {}}, "center": true, "beta_regularizer": null, "gamma_regularizer": null}, "name": "batch_normalization_8", "inbound_nodes": [[["conv2d_8", 0, 0, {}]]]}, {"class_name": "BatchNormalization", "config": {"gamma_constraint": null, "beta_initializer": {"class_name": "Zeros", "config": {}}, "trainable": false, "moving_variance_initializer": {"class_name": "Ones", "config": {}}, "scale": false, "beta_constraint": null, "moving_mean_initializer": {"class_name": "Zeros", "config": {}}, "momentum": 0.99, "name": "batch_normalization_11", "epsilon": 0.001, "axis": 3, "gamma_initializer": {"class_name": "Ones", "config": {}}, "center": true, "beta_regularizer": null, "gamma_regularizer": null}, "name": "batch_normalization_11", "inbound_nodes": [[["conv2d_11", 0, 0, {}]]]}, {"class_name": "BatchNormalization", "config": {"gamma_constraint": null, "beta_initializer": {"class_name": "Zeros", "config": {}}, "trainable": false, "moving_variance_initializer": {"class_name": "Ones", "config": {}}, "scale": false, "beta_constraint": null, "moving_mean_initializer": {"class_name": "Zeros", "config": {}}, "momentum": 0.99, "name": "batch_normalization_12", "epsilon": 0.001, "axis": 3, "gamma_initializer": {"class_name": "Ones", "config": {}}, "center": true, "beta_regularizer": null, "gamma_regularizer": null}, "name": "batch_normalization_12", "inbound_nodes": [[["conv2d_12", 0, 0, {}]]]}, {"class_name": "Activation", "config": {"activation": "relu", "name": "activation_6", "trainable": false}, "name": "activation_6", "inbound_nodes": [[["batch_normalization_6", 0, 0, {}]]]}, {"class_name": "Activation", "config": {"activation": "relu", "name": "activation_8", "trainable": false}, "name": "activation_8", "inbound_nodes": [[["batch_normalization_8", 0, 0, {}]]]}, {"class_name": "Activation", "config": {"activation": "relu", "name": "activation_11", "trainable": false}, "name": "activation_11", "inbound_nodes": [[["batch_normalization_11", 0, 0, {}]]]}, {"class_name": "Activation", "config": {"activation": "relu", "name": "activation_12", "trainable": false}, "name": "activation_12", "inbound_nodes": [[["batch_normalization_12", 0, 0, {}]]]}, {"class_name": "Concatenate", "config": {"name": "mixed0", "trainable": false, "axis": 3}, "name": "mixed0", "inbound_nodes": [[["activation_6", 0, 0, {}], ["activation_8", 0, 0, {}], ["activation_11", 0, 0, {}], ["activation_12", 0, 0, {}]]]}, {"class_name": "Conv2D", "config": {"kernel_regularizer": null, "bias_constraint": null, "strides": [1, 1], "bias_initializer": {"class_name": "Zeros", "config": {}}, "trainable": false, "activation": "linear", "data_format": "channels_last", "filters": 64, "dilation_rate": [1, 1], "bias_regularizer": null, "activity_regularizer": null, "name": "conv2d_16", "kernel_initializer": {"class_name": "VarianceScaling", "config": {"distribution": "uniform", "scale": 1.0, "mode": "fan_avg", "seed": null}}, "kernel_constraint": null, "kernel_size": [1, 1], "padding": "same", "use_bias": false}, "name": "conv2d_16", "inbound_nodes": [[["mixed0", 0, 0, {}]]]}, {"class_name": "BatchNormalization", "config": {"gamma_constraint": null, "beta_initializer": {"class_name": "Zeros", "config": {}}, "trainable": false, "moving_variance_initializer": {"class_name": "Ones", "config": {}}, "scale": false, "beta_constraint": null, "moving_mean_initializer": {"class_name": "Zeros", "config": {}}, "momentum": 0.99, "name": "batch_normalization_16", "epsilon": 0.001, "axis": 3, "gamma_initializer": {"class_name": "Ones", "config": {}}, "center": true, "beta_regularizer": null, "gamma_regularizer": null}, "name": "batch_normalization_16", "inbound_nodes": [[["conv2d_16", 0, 0, {}]]]}, {"class_name": "Activation", "config": {"activation": "relu", "name": "activation_16", "trainable": false}, "name": "activation_16", "inbound_nodes": [[["batch_normalization_16", 0, 0, {}]]]}, {"class_name": "Conv2D", "config": {"kernel_regularizer": null, "bias_constraint": null, "strides": [1, 1], "bias_initializer": {"class_name": "Zeros", "config": {}}, "trainable": false, "activation": "linear", "data_format": "channels_last", "filters": 48, "dilation_rate": [1, 1], "bias_regularizer": null, "activity_regularizer": null, "name": "conv2d_14", "kernel_initializer": {"class_name": "VarianceScaling", "config": {"distribution": "uniform", "scale": 1.0, "mode": "fan_avg", "seed": null}}, "kernel_constraint": null, "kernel_size": [1, 1], "padding": "same", "use_bias": false}, "name": "conv2d_14", "inbound_nodes": [[["mixed0", 0, 0, {}]]]}, {"class_name": "Conv2D", "config": {"kernel_regularizer": null, "bias_constraint": null, "strides": [1, 1], "bias_initializer": {"class_name": "Zeros", "config": {}}, "trainable": false, "activation": "linear", "data_format": "channels_last", "filters": 96, "dilation_rate": [1, 1], "bias_regularizer": null, "activity_regularizer": null, "name": "conv2d_17", "kernel_initializer": {"class_name": "VarianceScaling", "config": {"distribution": "uniform", "scale": 1.0, "mode": "fan_avg", "seed": null}}, "kernel_constraint": null, "kernel_size": [3, 3], "padding": "same", "use_bias": false}, "name": "conv2d_17", "inbound_nodes": [[["activation_16", 0, 0, {}]]]}, {"class_name": "BatchNormalization", "config": {"gamma_constraint": null, "beta_initializer": {"class_name": "Zeros", "config": {}}, "trainable": false, "moving_variance_initializer": {"class_name": "Ones", "config": {}}, "scale": false, "beta_constraint": null, "moving_mean_initializer": {"class_name": "Zeros", "config": {}}, "momentum": 0.99, "name": "batch_normalization_14", "epsilon": 0.001, "axis": 3, "gamma_initializer": {"class_name": "Ones", "config": {}}, "center": true, "beta_regularizer": null, "gamma_regularizer": null}, "name": "batch_normalization_14", "inbound_nodes": [[["conv2d_14", 0, 0, {}]]]}, {"class_name": "BatchNormalization", "config": {"gamma_constraint": null, "beta_initializer": {"class_name": "Zeros", "config": {}}, "trainable": false, "moving_variance_initializer": {"class_name": "Ones", "config": {}}, "scale": false, "beta_constraint": null, "moving_mean_initializer": {"class_name": "Zeros", "config": {}}, "momentum": 0.99, "name": "batch_normalization_17", "epsilon": 0.001, "axis": 3, "gamma_initializer": {"class_name": "Ones", "config": {}}, "center": true, "beta_regularizer": null, "gamma_regularizer": null}, "name": "batch_normalization_17", "inbound_nodes": [[["conv2d_17", 0, 0, {}]]]}, {"class_name": "Activation", "config": {"activation": "relu", "name": "activation_14", "trainable": false}, "name": "activation_14", "inbound_nodes": [[["batch_normalization_14", 0, 0, {}]]]}, {"class_name": "Activation", "config": {"activation": "relu", "name": "activation_17", "trainable": false}, "name": "activation_17", "inbound_nodes": [[["batch_normalization_17", 0, 0, {}]]]}, {"class_name": "AveragePooling2D", "config": {"pool_size": [3, 3], "strides": [1, 1], "name": "average_pooling2d_2", "trainable": false, "padding": "same", "data_format": "channels_last"}, "name": "average_pooling2d_2", "inbound_nodes": [[["mixed0", 0, 0, {}]]]}, {"class_name": "Conv2D", "config": {"kernel_regularizer": null, "bias_constraint": null, "strides": [1, 1], "bias_initializer": {"class_name": "Zeros", "config": {}}, "trainable": false, "activation": "linear", "data_format": "channels_last", "filters": 64, "dilation_rate": [1, 1], "bias_regularizer": null, "activity_regularizer": null, "name": "conv2d_13", "kernel_initializer": {"class_name": "VarianceScaling", "config": {"distribution": "uniform", "scale": 1.0, "mode": "fan_avg", "seed": null}}, "kernel_constraint": null, "kernel_size": [1, 1], "padding": "same", "use_bias": false}, "name": "conv2d_13", "inbound_nodes": [[["mixed0", 0, 0, {}]]]}, {"class_name": "Conv2D", "config": {"kernel_regularizer": null, "bias_constraint": null, "strides": [1, 1], "bias_initializer": {"class_name": "Zeros", "config": {}}, "trainable": false, "activation": "linear", "data_format": "channels_last", "filters": 64, "dilation_rate": [1, 1], "bias_regularizer": null, "activity_regularizer": null, "name": "conv2d_15", "kernel_initializer": {"class_name": "VarianceScaling", "config": {"distribution": "uniform", "scale": 1.0, "mode": "fan_avg", "seed": null}}, "kernel_constraint": null, "kernel_size": [5, 5], "padding": "same", "use_bias": false}, "name": "conv2d_15", "inbound_nodes": [[["activation_14", 0, 0, {}]]]}, {"class_name": "Conv2D", "config": {"kernel_regularizer": null, "bias_constraint": null, "strides": [1, 1], "bias_initializer": {"class_name": "Zeros", "config": {}}, "trainable": false, "activation": "linear", "data_format": "channels_last", "filters": 96, "dilation_rate": [1, 1], "bias_regularizer": null, "activity_regularizer": null, "name": "conv2d_18", "kernel_initializer": {"class_name": "VarianceScaling", "config": {"distribution": "uniform", "scale": 1.0, "mode": "fan_avg", "seed": null}}, "kernel_constraint": null, "kernel_size": [3, 3], "padding": "same", "use_bias": false}, "name": "conv2d_18", "inbound_nodes": [[["activation_17", 0, 0, {}]]]}, {"class_name": "Conv2D", "config": {"kernel_regularizer": null, "bias_constraint": null, "strides": [1, 1], "bias_initializer": {"class_name": "Zeros", "config": {}}, "trainable": false, "activation": "linear", "data_format": "channels_last", "filters": 64, "dilation_rate": [1, 1], "bias_regularizer": null, "activity_regularizer": null, "name": "conv2d_19", "kernel_initializer": {"class_name": "VarianceScaling", "config": {"distribution": "uniform", "scale": 1.0, "mode": "fan_avg", "seed": null}}, "kernel_constraint": null, "kernel_size": [1, 1], "padding": "same", "use_bias": false}, "name": "conv2d_19", "inbound_nodes": [[["average_pooling2d_2", 0, 0, {}]]]}, {"class_name": "BatchNormalization", "config": {"gamma_constraint": null, "beta_initializer": {"class_name": "Zeros", "config": {}}, "trainable": false, "moving_variance_initializer": {"class_name": "Ones", "config": {}}, "scale": false, "beta_constraint": null, "moving_mean_initializer": {"class_name": "Zeros", "config": {}}, "momentum": 0.99, "name": "batch_normalization_13", "epsilon": 0.001, "axis": 3, "gamma_initializer": {"class_name": "Ones", "config": {}}, "center": true, "beta_regularizer": null, "gamma_regularizer": null}, "name": "batch_normalization_13", "inbound_nodes": [[["conv2d_13", 0, 0, {}]]]}, {"class_name": "BatchNormalization", "config": {"gamma_constraint": null, "beta_initializer": {"class_name": "Zeros", "config": {}}, "trainable": false, "moving_variance_initializer": {"class_name": "Ones", "config": {}}, "scale": false, "beta_constraint": null, "moving_mean_initializer": {"class_name": "Zeros", "config": {}}, "momentum": 0.99, "name": "batch_normalization_15", "epsilon": 0.001, "axis": 3, "gamma_initializer": {"class_name": "Ones", "config": {}}, "center": true, "beta_regularizer": null, "gamma_regularizer": null}, "name": "batch_normalization_15", "inbound_nodes": [[["conv2d_15", 0, 0, {}]]]}, {"class_name": "BatchNormalization", "config": {"gamma_constraint": null, "beta_initializer": {"class_name": "Zeros", "config": {}}, "trainable": false, "moving_variance_initializer": {"class_name": "Ones", "config": {}}, "scale": false, "beta_constraint": null, "moving_mean_initializer": {"class_name": "Zeros", "config": {}}, "momentum": 0.99, "name": "batch_normalization_18", "epsilon": 0.001, "axis": 3, "gamma_initializer": {"class_name": "Ones", "config": {}}, "center": true, "beta_regularizer": null, "gamma_regularizer": null}, "name": "batch_normalization_18", "inbound_nodes": [[["conv2d_18", 0, 0, {}]]]}, {"class_name": "BatchNormalization", "config": {"gamma_constraint": null, "beta_initializer": {"class_name": "Zeros", "config": {}}, "trainable": false, "moving_variance_initializer": {"class_name": "Ones", "config": {}}, "scale": false, "beta_constraint": null, "moving_mean_initializer": {"class_name": "Zeros", "config": {}}, "momentum": 0.99, "name": "batch_normalization_19", "epsilon": 0.001, "axis": 3, "gamma_initializer": {"class_name": "Ones", "config": {}}, "center": true, "beta_regularizer": null, "gamma_regularizer": null}, "name": "batch_normalization_19", "inbound_nodes": [[["conv2d_19", 0, 0, {}]]]}, {"class_name": "Activation", "config": {"activation": "relu", "name": "activation_13", "trainable": false}, "name": "activation_13", "inbound_nodes": [[["batch_normalization_13", 0, 0, {}]]]}, {"class_name": "Activation", "config": {"activation": "relu", "name": "activation_15", "trainable": false}, "name": "activation_15", "inbound_nodes": [[["batch_normalization_15", 0, 0, {}]]]}, {"class_name": "Activation", "config": {"activation": "relu", "name": "activation_18", "trainable": false}, "name": "activation_18", "inbound_nodes": [[["batch_normalization_18", 0, 0, {}]]]}, {"class_name": "Activation", "config": {"activation": "relu", "name": "activation_19", "trainable": false}, "name": "activation_19", "inbound_nodes": [[["batch_normalization_19", 0, 0, {}]]]}, {"class_name": "Concatenate", "config": {"name": "mixed1", "trainable": false, "axis": 3}, "name": "mixed1", "inbound_nodes": [[["activation_13", 0, 0, {}], ["activation_15", 0, 0, {}], ["activation_18", 0, 0, {}], ["activation_19", 0, 0, {}]]]}, {"class_name": "Conv2D", "config": {"kernel_regularizer": null, "bias_constraint": null, "strides": [1, 1], "bias_initializer": {"class_name": "Zeros", "config": {}}, "trainable": false, "activation": "linear", "data_format": "channels_last", "filters": 64, "dilation_rate": [1, 1], "bias_regularizer": null, "activity_regularizer": null, "name": "conv2d_23", "kernel_initializer": {"class_name": "VarianceScaling", "config": {"distribution": "uniform", "scale": 1.0, "mode": "fan_avg", "seed": null}}, "kernel_constraint": null, "kernel_size": [1, 1], "padding": "same", "use_bias": false}, "name": "conv2d_23", "inbound_nodes": [[["mixed1", 0, 0, {}]]]}, {"class_name": "BatchNormalization", "config": {"gamma_constraint": null, "beta_initializer": {"class_name": "Zeros", "config": {}}, "trainable": false, "moving_variance_initializer": {"class_name": "Ones", "config": {}}, "scale": false, "beta_constraint": null, "moving_mean_initializer": {"class_name": "Zeros", "config": {}}, "momentum": 0.99, "name": "batch_normalization_23", "epsilon": 0.001, "axis": 3, "gamma_initializer": {"class_name": "Ones", "config": {}}, "center": true, "beta_regularizer": null, "gamma_regularizer": null}, "name": "batch_normalization_23", "inbound_nodes": [[["conv2d_23", 0, 0, {}]]]}, {"class_name": "Activation", "config": {"activation": "relu", "name": "activation_23", "trainable": false}, "name": "activation_23", "inbound_nodes": [[["batch_normalization_23", 0, 0, {}]]]}, {"class_name": "Conv2D", "config": {"kernel_regularizer": null, "bias_constraint": null, "strides": [1, 1], "bias_initializer": {"class_name": "Zeros", "config": {}}, "trainable": false, "activation": "linear", "data_format": "channels_last", "filters": 48, "dilation_rate": [1, 1], "bias_regularizer": null, "activity_regularizer": null, "name": "conv2d_21", "kernel_initializer": {"class_name": "VarianceScaling", "config": {"distribution": "uniform", "scale": 1.0, "mode": "fan_avg", "seed": null}}, "kernel_constraint": null, "kernel_size": [1, 1], "padding": "same", "use_bias": false}, "name": "conv2d_21", "inbound_nodes": [[["mixed1", 0, 0, {}]]]}, {"class_name": "Conv2D", "config": {"kernel_regularizer": null, "bias_constraint": null, "strides": [1, 1], "bias_initializer": {"class_name": "Zeros", "config": {}}, "trainable": false, "activation": "linear", "data_format": "channels_last", "filters": 96, "dilation_rate": [1, 1], "bias_regularizer": null, "activity_regularizer": null, "name": "conv2d_24", "kernel_initializer": {"class_name": "VarianceScaling", "config": {"distribution": "uniform", "scale": 1.0, "mode": "fan_avg", "seed": null}}, "kernel_constraint": null, "kernel_size": [3, 3], "padding": "same", "use_bias": false}, "name": "conv2d_24", "inbound_nodes": [[["activation_23", 0, 0, {}]]]}, {"class_name": "BatchNormalization", "config": {"gamma_constraint": null, "beta_initializer": {"class_name": "Zeros", "config": {}}, "trainable": false, "moving_variance_initializer": {"class_name": "Ones", "config": {}}, "scale": false, "beta_constraint": null, "moving_mean_initializer": {"class_name": "Zeros", "config": {}}, "momentum": 0.99, "name": "batch_normalization_21", "epsilon": 0.001, "axis": 3, "gamma_initializer": {"class_name": "Ones", "config": {}}, "center": true, "beta_regularizer": null, "gamma_regularizer": null}, "name": "batch_normalization_21", "inbound_nodes": [[["conv2d_21", 0, 0, {}]]]}, {"class_name": "BatchNormalization", "config": {"gamma_constraint": null, "beta_initializer": {"class_name": "Zeros", "config": {}}, "trainable": false, "moving_variance_initializer": {"class_name": "Ones", "config": {}}, "scale": false, "beta_constraint": null, "moving_mean_initializer": {"class_name": "Zeros", "config": {}}, "momentum": 0.99, "name": "batch_normalization_24", "epsilon": 0.001, "axis": 3, "gamma_initializer": {"class_name": "Ones", "config": {}}, "center": true, "beta_regularizer": null, "gamma_regularizer": null}, "name": "batch_normalization_24", "inbound_nodes": [[["conv2d_24", 0, 0, {}]]]}, {"class_name": "Activation", "config": {"activation": "relu", "name": "activation_21", "trainable": false}, "name": "activation_21", "inbound_nodes": [[["batch_normalization_21", 0, 0, {}]]]}, {"class_name": "Activation", "config": {"activation": "relu", "name": "activation_24", "trainable": false}, "name": "activation_24", "inbound_nodes": [[["batch_normalization_24", 0, 0, {}]]]}, {"class_name": "AveragePooling2D", "config": {"pool_size": [3, 3], "strides": [1, 1], "name": "average_pooling2d_3", "trainable": false, "padding": "same", "data_format": "channels_last"}, "name": "average_pooling2d_3", "inbound_nodes": [[["mixed1", 0, 0, {}]]]}, {"class_name": "Conv2D", "config": {"kernel_regularizer": null, "bias_constraint": null, "strides": [1, 1], "bias_initializer": {"class_name": "Zeros", "config": {}}, "trainable": false, "activation": "linear", "data_format": "channels_last", "filters": 64, "dilation_rate": [1, 1], "bias_regularizer": null, "activity_regularizer": null, "name": "conv2d_20", "kernel_initializer": {"class_name": "VarianceScaling", "config": {"distribution": "uniform", "scale": 1.0, "mode": "fan_avg", "seed": null}}, "kernel_constraint": null, "kernel_size": [1, 1], "padding": "same", "use_bias": false}, "name": "conv2d_20", "inbound_nodes": [[["mixed1", 0, 0, {}]]]}, {"class_name": "Conv2D", "config": {"kernel_regularizer": null, "bias_constraint": null, "strides": [1, 1], "bias_initializer": {"class_name": "Zeros", "config": {}}, "trainable": false, "activation": "linear", "data_format": "channels_last", "filters": 64, "dilation_rate": [1, 1], "bias_regularizer": null, "activity_regularizer": null, "name": "conv2d_22", "kernel_initializer": {"class_name": "VarianceScaling", "config": {"distribution": "uniform", "scale": 1.0, "mode": "fan_avg", "seed": null}}, "kernel_constraint": null, "kernel_size": [5, 5], "padding": "same", "use_bias": false}, "name": "conv2d_22", "inbound_nodes": [[["activation_21", 0, 0, {}]]]}, {"class_name": "Conv2D", "config": {"kernel_regularizer": null, "bias_constraint": null, "strides": [1, 1], "bias_initializer": {"class_name": "Zeros", "config": {}}, "trainable": false, "activation": "linear", "data_format": "channels_last", "filters": 96, "dilation_rate": [1, 1], "bias_regularizer": null, "activity_regularizer": null, "name": "conv2d_25", "kernel_initializer": {"class_name": "VarianceScaling", "config": {"distribution": "uniform", "scale": 1.0, "mode": "fan_avg", "seed": null}}, "kernel_constraint": null, "kernel_size": [3, 3], "padding": "same", "use_bias": false}, "name": "conv2d_25", "inbound_nodes": [[["activation_24", 0, 0, {}]]]}, {"class_name": "Conv2D", "config": {"kernel_regularizer": null, "bias_constraint": null, "strides": [1, 1], "bias_initializer": {"class_name": "Zeros", "config": {}}, "trainable": false, "activation": "linear", "data_format": "channels_last", "filters": 64, "dilation_rate": [1, 1], "bias_regularizer": null, "activity_regularizer": null, "name": "conv2d_26", "kernel_initializer": {"class_name": "VarianceScaling", "config": {"distribution": "uniform", "scale": 1.0, "mode": "fan_avg", "seed": null}}, "kernel_constraint": null, "kernel_size": [1, 1], "padding": "same", "use_bias": false}, "name": "conv2d_26", "inbound_nodes": [[["average_pooling2d_3", 0, 0, {}]]]}, {"class_name": "BatchNormalization", "config": {"gamma_constraint": null, "beta_initializer": {"class_name": "Zeros", "config": {}}, "trainable": false, "moving_variance_initializer": {"class_name": "Ones", "config": {}}, "scale": false, "beta_constraint": null, "moving_mean_initializer": {"class_name": "Zeros", "config": {}}, "momentum": 0.99, "name": "batch_normalization_20", "epsilon": 0.001, "axis": 3, "gamma_initializer": {"class_name": "Ones", "config": {}}, "center": true, "beta_regularizer": null, "gamma_regularizer": null}, "name": "batch_normalization_20", "inbound_nodes": [[["conv2d_20", 0, 0, {}]]]}, {"class_name": "BatchNormalization", "config": {"gamma_constraint": null, "beta_initializer": {"class_name": "Zeros", "config": {}}, "trainable": false, "moving_variance_initializer": {"class_name": "Ones", "config": {}}, "scale": false, "beta_constraint": null, "moving_mean_initializer": {"class_name": "Zeros", "config": {}}, "momentum": 0.99, "name": "batch_normalization_22", "epsilon": 0.001, "axis": 3, "gamma_initializer": {"class_name": "Ones", "config": {}}, "center": true, "beta_regularizer": null, "gamma_regularizer": null}, "name": "batch_normalization_22", "inbound_nodes": [[["conv2d_22", 0, 0, {}]]]}, {"class_name": "BatchNormalization", "config": {"gamma_constraint": null, "beta_initializer": {"class_name": "Zeros", "config": {}}, "trainable": false, "moving_variance_initializer": {"class_name": "Ones", "config": {}}, "scale": false, "beta_constraint": null, "moving_mean_initializer": {"class_name": "Zeros", "config": {}}, "momentum": 0.99, "name": "batch_normalization_25", "epsilon": 0.001, "axis": 3, "gamma_initializer": {"class_name": "Ones", "config": {}}, "center": true, "beta_regularizer": null, "gamma_regularizer": null}, "name": "batch_normalization_25", "inbound_nodes": [[["conv2d_25", 0, 0, {}]]]}, {"class_name": "BatchNormalization", "config": {"gamma_constraint": null, "beta_initializer": {"class_name": "Zeros", "config": {}}, "trainable": false, "moving_variance_initializer": {"class_name": "Ones", "config": {}}, "scale": false, "beta_constraint": null, "moving_mean_initializer": {"class_name": "Zeros", "config": {}}, "momentum": 0.99, "name": "batch_normalization_26", "epsilon": 0.001, "axis": 3, "gamma_initializer": {"class_name": "Ones", "config": {}}, "center": true, "beta_regularizer": null, "gamma_regularizer": null}, "name": "batch_normalization_26", "inbound_nodes": [[["conv2d_26", 0, 0, {}]]]}, {"class_name": "Activation", "config": {"activation": "relu", "name": "activation_20", "trainable": false}, "name": "activation_20", "inbound_nodes": [[["batch_normalization_20", 0, 0, {}]]]}, {"class_name": "Activation", "config": {"activation": "relu", "name": "activation_22", "trainable": false}, "name": "activation_22", "inbound_nodes": [[["batch_normalization_22", 0, 0, {}]]]}, {"class_name": "Activation", "config": {"activation": "relu", "name": "activation_25", "trainable": false}, "name": "activation_25", "inbound_nodes": [[["batch_normalization_25", 0, 0, {}]]]}, {"class_name": "Activation", "config": {"activation": "relu", "name": "activation_26", "trainable": false}, "name": "activation_26", "inbound_nodes": [[["batch_normalization_26", 0, 0, {}]]]}, {"class_name": "Concatenate", "config": {"name": "mixed2", "trainable": false, "axis": 3}, "name": "mixed2", "inbound_nodes": [[["activation_20", 0, 0, {}], ["activation_22", 0, 0, {}], ["activation_25", 0, 0, {}], ["activation_26", 0, 0, {}]]]}, {"class_name": "Conv2D", "config": {"kernel_regularizer": null, "bias_constraint": null, "strides": [1, 1], "bias_initializer": {"class_name": "Zeros", "config": {}}, "trainable": false, "activation": "linear", "data_format": "channels_last", "filters": 64, "dilation_rate": [1, 1], "bias_regularizer": null, "activity_regularizer": null, "name": "conv2d_28", "kernel_initializer": {"class_name": "VarianceScaling", "config": {"distribution": "uniform", "scale": 1.0, "mode": "fan_avg", "seed": null}}, "kernel_constraint": null, "kernel_size": [1, 1], "padding": "same", "use_bias": false}, "name": "conv2d_28", "inbound_nodes": [[["mixed2", 0, 0, {}]]]}, {"class_name": "BatchNormalization", "config": {"gamma_constraint": null, "beta_initializer": {"class_name": "Zeros", "config": {}}, "trainable": false, "moving_variance_initializer": {"class_name": "Ones", "config": {}}, "scale": false, "beta_constraint": null, "moving_mean_initializer": {"class_name": "Zeros", "config": {}}, "momentum": 0.99, "name": "batch_normalization_28", "epsilon": 0.001, "axis": 3, "gamma_initializer": {"class_name": "Ones", "config": {}}, "center": true, "beta_regularizer": null, "gamma_regularizer": null}, "name": "batch_normalization_28", "inbound_nodes": [[["conv2d_28", 0, 0, {}]]]}, {"class_name": "Activation", "config": {"activation": "relu", "name": "activation_28", "trainable": false}, "name": "activation_28", "inbound_nodes": [[["batch_normalization_28", 0, 0, {}]]]}, {"class_name": "Conv2D", "config": {"kernel_regularizer": null, "bias_constraint": null, "strides": [1, 1], "bias_initializer": {"class_name": "Zeros", "config": {}}, "trainable": false, "activation": "linear", "data_format": "channels_last", "filters": 96, "dilation_rate": [1, 1], "bias_regularizer": null, "activity_regularizer": null, "name": "conv2d_29", "kernel_initializer": {"class_name": "VarianceScaling", "config": {"distribution": "uniform", "scale": 1.0, "mode": "fan_avg", "seed": null}}, "kernel_constraint": null, "kernel_size": [3, 3], "padding": "same", "use_bias": false}, "name": "conv2d_29", "inbound_nodes": [[["activation_28", 0, 0, {}]]]}, {"class_name": "BatchNormalization", "config": {"gamma_constraint": null, "beta_initializer": {"class_name": "Zeros", "config": {}}, "trainable": false, "moving_variance_initializer": {"class_name": "Ones", "config": {}}, "scale": false, "beta_constraint": null, "moving_mean_initializer": {"class_name": "Zeros", "config": {}}, "momentum": 0.99, "name": "batch_normalization_29", "epsilon": 0.001, "axis": 3, "gamma_initializer": {"class_name": "Ones", "config": {}}, "center": true, "beta_regularizer": null, "gamma_regularizer": null}, "name": "batch_normalization_29", "inbound_nodes": [[["conv2d_29", 0, 0, {}]]]}, {"class_name": "Activation", "config": {"activation": "relu", "name": "activation_29", "trainable": false}, "name": "activation_29", "inbound_nodes": [[["batch_normalization_29", 0, 0, {}]]]}, {"class_name": "Conv2D", "config": {"kernel_regularizer": null, "bias_constraint": null, "strides": [2, 2], "bias_initializer": {"class_name": "Zeros", "config": {}}, "trainable": false, "activation": "linear", "data_format": "channels_last", "filters": 384, "dilation_rate": [1, 1], "bias_regularizer": null, "activity_regularizer": null, "name": "conv2d_27", "kernel_initializer": {"class_name": "VarianceScaling", "config": {"distribution": "uniform", "scale": 1.0, "mode": "fan_avg", "seed": null}}, "kernel_constraint": null, "kernel_size": [3, 3], "padding": "valid", "use_bias": false}, "name": "conv2d_27", "inbound_nodes": [[["mixed2", 0, 0, {}]]]}, {"class_name": "Conv2D", "config": {"kernel_regularizer": null, "bias_constraint": null, "strides": [2, 2], "bias_initializer": {"class_name": "Zeros", "config": {}}, "trainable": false, "activation": "linear", "data_format": "channels_last", "filters": 96, "dilation_rate": [1, 1], "bias_regularizer": null, "activity_regularizer": null, "name": "conv2d_30", "kernel_initializer": {"class_name": "VarianceScaling", "config": {"distribution": "uniform", "scale": 1.0, "mode": "fan_avg", "seed": null}}, "kernel_constraint": null, "kernel_size": [3, 3], "padding": "valid", "use_bias": false}, "name": "conv2d_30", "inbound_nodes": [[["activation_29", 0, 0, {}]]]}, {"class_name": "BatchNormalization", "config": {"gamma_constraint": null, "beta_initializer": {"class_name": "Zeros", "config": {}}, "trainable": false, "moving_variance_initializer": {"class_name": "Ones", "config": {}}, "scale": false, "beta_constraint": null, "moving_mean_initializer": {"class_name": "Zeros", "config": {}}, "momentum": 0.99, "name": "batch_normalization_27", "epsilon": 0.001, "axis": 3, "gamma_initializer": {"class_name": "Ones", "config": {}}, "center": true, "beta_regularizer": null, "gamma_regularizer": null}, "name": "batch_normalization_27", "inbound_nodes": [[["conv2d_27", 0, 0, {}]]]}, {"class_name": "BatchNormalization", "config": {"gamma_constraint": null, "beta_initializer": {"class_name": "Zeros", "config": {}}, "trainable": false, "moving_variance_initializer": {"class_name": "Ones", "config": {}}, "scale": false, "beta_constraint": null, "moving_mean_initializer": {"class_name": "Zeros", "config": {}}, "momentum": 0.99, "name": "batch_normalization_30", "epsilon": 0.001, "axis": 3, "gamma_initializer": {"class_name": "Ones", "config": {}}, "center": true, "beta_regularizer": null, "gamma_regularizer": null}, "name": "batch_normalization_30", "inbound_nodes": [[["conv2d_30", 0, 0, {}]]]}, {"class_name": "Activation", "config": {"activation": "relu", "name": "activation_27", "trainable": false}, "name": "activation_27", "inbound_nodes": [[["batch_normalization_27", 0, 0, {}]]]}, {"class_name": "Activation", "config": {"activation": "relu", "name": "activation_30", "trainable": false}, "name": "activation_30", "inbound_nodes": [[["batch_normalization_30", 0, 0, {}]]]}, {"class_name": "MaxPooling2D", "config": {"pool_size": [3, 3], "strides": [2, 2], "name": "max_pooling2d_3", "trainable": false, "padding": "valid", "data_format": "channels_last"}, "name": "max_pooling2d_3", "inbound_nodes": [[["mixed2", 0, 0, {}]]]}, {"class_name": "Concatenate", "config": {"name": "mixed3", "trainable": false, "axis": 3}, "name": "mixed3", "inbound_nodes": [[["activation_27", 0, 0, {}], ["activation_30", 0, 0, {}], ["max_pooling2d_3", 0, 0, {}]]]}, {"class_name": "Conv2D", "config": {"kernel_regularizer": null, "bias_constraint": null, "strides": [1, 1], "bias_initializer": {"class_name": "Zeros", "config": {}}, "trainable": false, "activation": "linear", "data_format": "channels_last", "filters": 128, "dilation_rate": [1, 1], "bias_regularizer": null, "activity_regularizer": null, "name": "conv2d_35", "kernel_initializer": {"class_name": "VarianceScaling", "config": {"distribution": "uniform", "scale": 1.0, "mode": "fan_avg", "seed": null}}, "kernel_constraint": null, "kernel_size": [1, 1], "padding": "same", "use_bias": false}, "name": "conv2d_35", "inbound_nodes": [[["mixed3", 0, 0, {}]]]}, {"class_name": "BatchNormalization", "config": {"gamma_constraint": null, "beta_initializer": {"class_name": "Zeros", "config": {}}, "trainable": false, "moving_variance_initializer": {"class_name": "Ones", "config": {}}, "scale": false, "beta_constraint": null, "moving_mean_initializer": {"class_name": "Zeros", "config": {}}, "momentum": 0.99, "name": "batch_normalization_35", "epsilon": 0.001, "axis": 3, "gamma_initializer": {"class_name": "Ones", "config": {}}, "center": true, "beta_regularizer": null, "gamma_regularizer": null}, "name": "batch_normalization_35", "inbound_nodes": [[["conv2d_35", 0, 0, {}]]]}, {"class_name": "Activation", "config": {"activation": "relu", "name": "activation_35", "trainable": false}, "name": "activation_35", "inbound_nodes": [[["batch_normalization_35", 0, 0, {}]]]}, {"class_name": "Conv2D", "config": {"kernel_regularizer": null, "bias_constraint": null, "strides": [1, 1], "bias_initializer": {"class_name": "Zeros", "config": {}}, "trainable": false, "activation": "linear", "data_format": "channels_last", "filters": 128, "dilation_rate": [1, 1], "bias_regularizer": null, "activity_regularizer": null, "name": "conv2d_36", "kernel_initializer": {"class_name": "VarianceScaling", "config": {"distribution": "uniform", "scale": 1.0, "mode": "fan_avg", "seed": null}}, "kernel_constraint": null, "kernel_size": [7, 1], "padding": "same", "use_bias": false}, "name": "conv2d_36", "inbound_nodes": [[["activation_35", 0, 0, {}]]]}, {"class_name": "BatchNormalization", "config": {"gamma_constraint": null, "beta_initializer": {"class_name": "Zeros", "config": {}}, "trainable": false, "moving_variance_initializer": {"class_name": "Ones", "config": {}}, "scale": false, "beta_constraint": null, "moving_mean_initializer": {"class_name": "Zeros", "config": {}}, "momentum": 0.99, "name": "batch_normalization_36", "epsilon": 0.001, "axis": 3, "gamma_initializer": {"class_name": "Ones", "config": {}}, "center": true, "beta_regularizer": null, "gamma_regularizer": null}, "name": "batch_normalization_36", "inbound_nodes": [[["conv2d_36", 0, 0, {}]]]}, {"class_name": "Activation", "config": {"activation": "relu", "name": "activation_36", "trainable": false}, "name": "activation_36", "inbound_nodes": [[["batch_normalization_36", 0, 0, {}]]]}, {"class_name": "Conv2D", "config": {"kernel_regularizer": null, "bias_constraint": null, "strides": [1, 1], "bias_initializer": {"class_name": "Zeros", "config": {}}, "trainable": false, "activation": "linear", "data_format": "channels_last", "filters": 128, "dilation_rate": [1, 1], "bias_regularizer": null, "activity_regularizer": null, "name": "conv2d_32", "kernel_initializer": {"class_name": "VarianceScaling", "config": {"distribution": "uniform", "scale": 1.0, "mode": "fan_avg", "seed": null}}, "kernel_constraint": null, "kernel_size": [1, 1], "padding": "same", "use_bias": false}, "name": "conv2d_32", "inbound_nodes": [[["mixed3", 0, 0, {}]]]}, {"class_name": "Conv2D", "config": {"kernel_regularizer": null, "bias_constraint": null, "strides": [1, 1], "bias_initializer": {"class_name": "Zeros", "config": {}}, "trainable": false, "activation": "linear", "data_format": "channels_last", "filters": 128, "dilation_rate": [1, 1], "bias_regularizer": null, "activity_regularizer": null, "name": "conv2d_37", "kernel_initializer": {"class_name": "VarianceScaling", "config": {"distribution": "uniform", "scale": 1.0, "mode": "fan_avg", "seed": null}}, "kernel_constraint": null, "kernel_size": [1, 7], "padding": "same", "use_bias": false}, "name": "conv2d_37", "inbound_nodes": [[["activation_36", 0, 0, {}]]]}, {"class_name": "BatchNormalization", "config": {"gamma_constraint": null, "beta_initializer": {"class_name": "Zeros", "config": {}}, "trainable": false, "moving_variance_initializer": {"class_name": "Ones", "config": {}}, "scale": false, "beta_constraint": null, "moving_mean_initializer": {"class_name": "Zeros", "config": {}}, "momentum": 0.99, "name": "batch_normalization_32", "epsilon": 0.001, "axis": 3, "gamma_initializer": {"class_name": "Ones", "config": {}}, "center": true, "beta_regularizer": null, "gamma_regularizer": null}, "name": "batch_normalization_32", "inbound_nodes": [[["conv2d_32", 0, 0, {}]]]}, {"class_name": "BatchNormalization", "config": {"gamma_constraint": null, "beta_initializer": {"class_name": "Zeros", "config": {}}, "trainable": false, "moving_variance_initializer": {"class_name": "Ones", "config": {}}, "scale": false, "beta_constraint": null, "moving_mean_initializer": {"class_name": "Zeros", "config": {}}, "momentum": 0.99, "name": "batch_normalization_37", "epsilon": 0.001, "axis": 3, "gamma_initializer": {"class_name": "Ones", "config": {}}, "center": true, "beta_regularizer": null, "gamma_regularizer": null}, "name": "batch_normalization_37", "inbound_nodes": [[["conv2d_37", 0, 0, {}]]]}, {"class_name": "Activation", "config": {"activation": "relu", "name": "activation_32", "trainable": false}, "name": "activation_32", "inbound_nodes": [[["batch_normalization_32", 0, 0, {}]]]}, {"class_name": "Activation", "config": {"activation": "relu", "name": "activation_37", "trainable": false}, "name": "activation_37", "inbound_nodes": [[["batch_normalization_37", 0, 0, {}]]]}, {"class_name": "Conv2D", "config": {"kernel_regularizer": null, "bias_constraint": null, "strides": [1, 1], "bias_initializer": {"class_name": "Zeros", "config": {}}, "trainable": false, "activation": "linear", "data_format": "channels_last", "filters": 128, "dilation_rate": [1, 1], "bias_regularizer": null, "activity_regularizer": null, "name": "conv2d_33", "kernel_initializer": {"class_name": "VarianceScaling", "config": {"distribution": "uniform", "scale": 1.0, "mode": "fan_avg", "seed": null}}, "kernel_constraint": null, "kernel_size": [1, 7], "padding": "same", "use_bias": false}, "name": "conv2d_33", "inbound_nodes": [[["activation_32", 0, 0, {}]]]}, {"class_name": "Conv2D", "config": {"kernel_regularizer": null, "bias_constraint": null, "strides": [1, 1], "bias_initializer": {"class_name": "Zeros", "config": {}}, "trainable": false, "activation": "linear", "data_format": "channels_last", "filters": 128, "dilation_rate": [1, 1], "bias_regularizer": null, "activity_regularizer": null, "name": "conv2d_38", "kernel_initializer": {"class_name": "VarianceScaling", "config": {"distribution": "uniform", "scale": 1.0, "mode": "fan_avg", "seed": null}}, "kernel_constraint": null, "kernel_size": [7, 1], "padding": "same", "use_bias": false}, "name": "conv2d_38", "inbound_nodes": [[["activation_37", 0, 0, {}]]]}, {"class_name": "BatchNormalization", "config": {"gamma_constraint": null, "beta_initializer": {"class_name": "Zeros", "config": {}}, "trainable": false, "moving_variance_initializer": {"class_name": "Ones", "config": {}}, "scale": false, "beta_constraint": null, "moving_mean_initializer": {"class_name": "Zeros", "config": {}}, "momentum": 0.99, "name": "batch_normalization_33", "epsilon": 0.001, "axis": 3, "gamma_initializer": {"class_name": "Ones", "config": {}}, "center": true, "beta_regularizer": null, "gamma_regularizer": null}, "name": "batch_normalization_33", "inbound_nodes": [[["conv2d_33", 0, 0, {}]]]}, {"class_name": "BatchNormalization", "config": {"gamma_constraint": null, "beta_initializer": {"class_name": "Zeros", "config": {}}, "trainable": false, "moving_variance_initializer": {"class_name": "Ones", "config": {}}, "scale": false, "beta_constraint": null, "moving_mean_initializer": {"class_name": "Zeros", "config": {}}, "momentum": 0.99, "name": "batch_normalization_38", "epsilon": 0.001, "axis": 3, "gamma_initializer": {"class_name": "Ones", "config": {}}, "center": true, "beta_regularizer": null, "gamma_regularizer": null}, "name": "batch_normalization_38", "inbound_nodes": [[["conv2d_38", 0, 0, {}]]]}, {"class_name": "Activation", "config": {"activation": "relu", "name": "activation_33", "trainable": false}, "name": "activation_33", "inbound_nodes": [[["batch_normalization_33", 0, 0, {}]]]}, {"class_name": "Activation", "config": {"activation": "relu", "name": "activation_38", "trainable": false}, "name": "activation_38", "inbound_nodes": [[["batch_normalization_38", 0, 0, {}]]]}, {"class_name": "AveragePooling2D", "config": {"pool_size": [3, 3], "strides": [1, 1], "name": "average_pooling2d_4", "trainable": false, "padding": "same", "data_format": "channels_last"}, "name": "average_pooling2d_4", "inbound_nodes": [[["mixed3", 0, 0, {}]]]}, {"class_name": "Conv2D", "config": {"kernel_regularizer": null, "bias_constraint": null, "strides": [1, 1], "bias_initializer": {"class_name": "Zeros", "config": {}}, "trainable": false, "activation": "linear", "data_format": "channels_last", "filters": 192, "dilation_rate": [1, 1], "bias_regularizer": null, "activity_regularizer": null, "name": "conv2d_31", "kernel_initializer": {"class_name": "VarianceScaling", "config": {"distribution": "uniform", "scale": 1.0, "mode": "fan_avg", "seed": null}}, "kernel_constraint": null, "kernel_size": [1, 1], "padding": "same", "use_bias": false}, "name": "conv2d_31", "inbound_nodes": [[["mixed3", 0, 0, {}]]]}, {"class_name": "Conv2D", "config": {"kernel_regularizer": null, "bias_constraint": null, "strides": [1, 1], "bias_initializer": {"class_name": "Zeros", "config": {}}, "trainable": false, "activation": "linear", "data_format": "channels_last", "filters": 192, "dilation_rate": [1, 1], "bias_regularizer": null, "activity_regularizer": null, "name": "conv2d_34", "kernel_initializer": {"class_name": "VarianceScaling", "config": {"distribution": "uniform", "scale": 1.0, "mode": "fan_avg", "seed": null}}, "kernel_constraint": null, "kernel_size": [7, 1], "padding": "same", "use_bias": false}, "name": "conv2d_34", "inbound_nodes": [[["activation_33", 0, 0, {}]]]}, {"class_name": "Conv2D", "config": {"kernel_regularizer": null, "bias_constraint": null, "strides": [1, 1], "bias_initializer": {"class_name": "Zeros", "config": {}}, "trainable": false, "activation": "linear", "data_format": "channels_last", "filters": 192, "dilation_rate": [1, 1], "bias_regularizer": null, "activity_regularizer": null, "name": "conv2d_39", "kernel_initializer": {"class_name": "VarianceScaling", "config": {"distribution": "uniform", "scale": 1.0, "mode": "fan_avg", "seed": null}}, "kernel_constraint": null, "kernel_size": [1, 7], "padding": "same", "use_bias": false}, "name": "conv2d_39", "inbound_nodes": [[["activation_38", 0, 0, {}]]]}, {"class_name": "Conv2D", "config": {"kernel_regularizer": null, "bias_constraint": null, "strides": [1, 1], "bias_initializer": {"class_name": "Zeros", "config": {}}, "trainable": false, "activation": "linear", "data_format": "channels_last", "filters": 192, "dilation_rate": [1, 1], "bias_regularizer": null, "activity_regularizer": null, "name": "conv2d_40", "kernel_initializer": {"class_name": "VarianceScaling", "config": {"distribution": "uniform", "scale": 1.0, "mode": "fan_avg", "seed": null}}, "kernel_constraint": null, "kernel_size": [1, 1], "padding": "same", "use_bias": false}, "name": "conv2d_40", "inbound_nodes": [[["average_pooling2d_4", 0, 0, {}]]]}, {"class_name": "BatchNormalization", "config": {"gamma_constraint": null, "beta_initializer": {"class_name": "Zeros", "config": {}}, "trainable": false, "moving_variance_initializer": {"class_name": "Ones", "config": {}}, "scale": false, "beta_constraint": null, "moving_mean_initializer": {"class_name": "Zeros", "config": {}}, "momentum": 0.99, "name": "batch_normalization_31", "epsilon": 0.001, "axis": 3, "gamma_initializer": {"class_name": "Ones", "config": {}}, "center": true, "beta_regularizer": null, "gamma_regularizer": null}, "name": "batch_normalization_31", "inbound_nodes": [[["conv2d_31", 0, 0, {}]]]}, {"class_name": "BatchNormalization", "config": {"gamma_constraint": null, "beta_initializer": {"class_name": "Zeros", "config": {}}, "trainable": false, "moving_variance_initializer": {"class_name": "Ones", "config": {}}, "scale": false, "beta_constraint": null, "moving_mean_initializer": {"class_name": "Zeros", "config": {}}, "momentum": 0.99, "name": "batch_normalization_34", "epsilon": 0.001, "axis": 3, "gamma_initializer": {"class_name": "Ones", "config": {}}, "center": true, "beta_regularizer": null, "gamma_regularizer": null}, "name": "batch_normalization_34", "inbound_nodes": [[["conv2d_34", 0, 0, {}]]]}, {"class_name": "BatchNormalization", "config": {"gamma_constraint": null, "beta_initializer": {"class_name": "Zeros", "config": {}}, "trainable": false, "moving_variance_initializer": {"class_name": "Ones", "config": {}}, "scale": false, "beta_constraint": null, "moving_mean_initializer": {"class_name": "Zeros", "config": {}}, "momentum": 0.99, "name": "batch_normalization_39", "epsilon": 0.001, "axis": 3, "gamma_initializer": {"class_name": "Ones", "config": {}}, "center": true, "beta_regularizer": null, "gamma_regularizer": null}, "name": "batch_normalization_39", "inbound_nodes": [[["conv2d_39", 0, 0, {}]]]}, {"class_name": "BatchNormalization", "config": {"gamma_constraint": null, "beta_initializer": {"class_name": "Zeros", "config": {}}, "trainable": false, "moving_variance_initializer": {"class_name": "Ones", "config": {}}, "scale": false, "beta_constraint": null, "moving_mean_initializer": {"class_name": "Zeros", "config": {}}, "momentum": 0.99, "name": "batch_normalization_40", "epsilon": 0.001, "axis": 3, "gamma_initializer": {"class_name": "Ones", "config": {}}, "center": true, "beta_regularizer": null, "gamma_regularizer": null}, "name": "batch_normalization_40", "inbound_nodes": [[["conv2d_40", 0, 0, {}]]]}, {"class_name": "Activation", "config": {"activation": "relu", "name": "activation_31", "trainable": false}, "name": "activation_31", "inbound_nodes": [[["batch_normalization_31", 0, 0, {}]]]}, {"class_name": "Activation", "config": {"activation": "relu", "name": "activation_34", "trainable": false}, "name": "activation_34", "inbound_nodes": [[["batch_normalization_34", 0, 0, {}]]]}, {"class_name": "Activation", "config": {"activation": "relu", "name": "activation_39", "trainable": false}, "name": "activation_39", "inbound_nodes": [[["batch_normalization_39", 0, 0, {}]]]}, {"class_name": "Activation", "config": {"activation": "relu", "name": "activation_40", "trainable": false}, "name": "activation_40", "inbound_nodes": [[["batch_normalization_40", 0, 0, {}]]]}, {"class_name": "Concatenate", "config": {"name": "mixed4", "trainable": false, "axis": 3}, "name": "mixed4", "inbound_nodes": [[["activation_31", 0, 0, {}], ["activation_34", 0, 0, {}], ["activation_39", 0, 0, {}], ["activation_40", 0, 0, {}]]]}, {"class_name": "Conv2D", "config": {"kernel_regularizer": null, "bias_constraint": null, "strides": [1, 1], "bias_initializer": {"class_name": "Zeros", "config": {}}, "trainable": false, "activation": "linear", "data_format": "channels_last", "filters": 160, "dilation_rate": [1, 1], "bias_regularizer": null, "activity_regularizer": null, "name": "conv2d_45", "kernel_initializer": {"class_name": "VarianceScaling", "config": {"distribution": "uniform", "scale": 1.0, "mode": "fan_avg", "seed": null}}, "kernel_constraint": null, "kernel_size": [1, 1], "padding": "same", "use_bias": false}, "name": "conv2d_45", "inbound_nodes": [[["mixed4", 0, 0, {}]]]}, {"class_name": "BatchNormalization", "config": {"gamma_constraint": null, "beta_initializer": {"class_name": "Zeros", "config": {}}, "trainable": false, "moving_variance_initializer": {"class_name": "Ones", "config": {}}, "scale": false, "beta_constraint": null, "moving_mean_initializer": {"class_name": "Zeros", "config": {}}, "momentum": 0.99, "name": "batch_normalization_45", "epsilon": 0.001, "axis": 3, "gamma_initializer": {"class_name": "Ones", "config": {}}, "center": true, "beta_regularizer": null, "gamma_regularizer": null}, "name": "batch_normalization_45", "inbound_nodes": [[["conv2d_45", 0, 0, {}]]]}, {"class_name": "Activation", "config": {"activation": "relu", "name": "activation_45", "trainable": false}, "name": "activation_45", "inbound_nodes": [[["batch_normalization_45", 0, 0, {}]]]}, {"class_name": "Conv2D", "config": {"kernel_regularizer": null, "bias_constraint": null, "strides": [1, 1], "bias_initializer": {"class_name": "Zeros", "config": {}}, "trainable": false, "activation": "linear", "data_format": "channels_last", "filters": 160, "dilation_rate": [1, 1], "bias_regularizer": null, "activity_regularizer": null, "name": "conv2d_46", "kernel_initializer": {"class_name": "VarianceScaling", "config": {"distribution": "uniform", "scale": 1.0, "mode": "fan_avg", "seed": null}}, "kernel_constraint": null, "kernel_size": [7, 1], "padding": "same", "use_bias": false}, "name": "conv2d_46", "inbound_nodes": [[["activation_45", 0, 0, {}]]]}, {"class_name": "BatchNormalization", "config": {"gamma_constraint": null, "beta_initializer": {"class_name": "Zeros", "config": {}}, "trainable": false, "moving_variance_initializer": {"class_name": "Ones", "config": {}}, "scale": false, "beta_constraint": null, "moving_mean_initializer": {"class_name": "Zeros", "config": {}}, "momentum": 0.99, "name": "batch_normalization_46", "epsilon": 0.001, "axis": 3, "gamma_initializer": {"class_name": "Ones", "config": {}}, "center": true, "beta_regularizer": null, "gamma_regularizer": null}, "name": "batch_normalization_46", "inbound_nodes": [[["conv2d_46", 0, 0, {}]]]}, {"class_name": "Activation", "config": {"activation": "relu", "name": "activation_46", "trainable": false}, "name": "activation_46", "inbound_nodes": [[["batch_normalization_46", 0, 0, {}]]]}, {"class_name": "Conv2D", "config": {"kernel_regularizer": null, "bias_constraint": null, "strides": [1, 1], "bias_initializer": {"class_name": "Zeros", "config": {}}, "trainable": false, "activation": "linear", "data_format": "channels_last", "filters": 160, "dilation_rate": [1, 1], "bias_regularizer": null, "activity_regularizer": null, "name": "conv2d_42", "kernel_initializer": {"class_name": "VarianceScaling", "config": {"distribution": "uniform", "scale": 1.0, "mode": "fan_avg", "seed": null}}, "kernel_constraint": null, "kernel_size": [1, 1], "padding": "same", "use_bias": false}, "name": "conv2d_42", "inbound_nodes": [[["mixed4", 0, 0, {}]]]}, {"class_name": "Conv2D", "config": {"kernel_regularizer": null, "bias_constraint": null, "strides": [1, 1], "bias_initializer": {"class_name": "Zeros", "config": {}}, "trainable": false, "activation": "linear", "data_format": "channels_last", "filters": 160, "dilation_rate": [1, 1], "bias_regularizer": null, "activity_regularizer": null, "name": "conv2d_47", "kernel_initializer": {"class_name": "VarianceScaling", "config": {"distribution": "uniform", "scale": 1.0, "mode": "fan_avg", "seed": null}}, "kernel_constraint": null, "kernel_size": [1, 7], "padding": "same", "use_bias": false}, "name": "conv2d_47", "inbound_nodes": [[["activation_46", 0, 0, {}]]]}, {"class_name": "BatchNormalization", "config": {"gamma_constraint": null, "beta_initializer": {"class_name": "Zeros", "config": {}}, "trainable": false, "moving_variance_initializer": {"class_name": "Ones", "config": {}}, "scale": false, "beta_constraint": null, "moving_mean_initializer": {"class_name": "Zeros", "config": {}}, "momentum": 0.99, "name": "batch_normalization_42", "epsilon": 0.001, "axis": 3, "gamma_initializer": {"class_name": "Ones", "config": {}}, "center": true, "beta_regularizer": null, "gamma_regularizer": null}, "name": "batch_normalization_42", "inbound_nodes": [[["conv2d_42", 0, 0, {}]]]}, {"class_name": "BatchNormalization", "config": {"gamma_constraint": null, "beta_initializer": {"class_name": "Zeros", "config": {}}, "trainable": false, "moving_variance_initializer": {"class_name": "Ones", "config": {}}, "scale": false, "beta_constraint": null, "moving_mean_initializer": {"class_name": "Zeros", "config": {}}, "momentum": 0.99, "name": "batch_normalization_47", "epsilon": 0.001, "axis": 3, "gamma_initializer": {"class_name": "Ones", "config": {}}, "center": true, "beta_regularizer": null, "gamma_regularizer": null}, "name": "batch_normalization_47", "inbound_nodes": [[["conv2d_47", 0, 0, {}]]]}, {"class_name": "Activation", "config": {"activation": "relu", "name": "activation_42", "trainable": false}, "name": "activation_42", "inbound_nodes": [[["batch_normalization_42", 0, 0, {}]]]}, {"class_name": "Activation", "config": {"activation": "relu", "name": "activation_47", "trainable": false}, "name": "activation_47", "inbound_nodes": [[["batch_normalization_47", 0, 0, {}]]]}, {"class_name": "Conv2D", "config": {"kernel_regularizer": null, "bias_constraint": null, "strides": [1, 1], "bias_initializer": {"class_name": "Zeros", "config": {}}, "trainable": false, "activation": "linear", "data_format": "channels_last", "filters": 160, "dilation_rate": [1, 1], "bias_regularizer": null, "activity_regularizer": null, "name": "conv2d_43", "kernel_initializer": {"class_name": "VarianceScaling", "config": {"distribution": "uniform", "scale": 1.0, "mode": "fan_avg", "seed": null}}, "kernel_constraint": null, "kernel_size": [1, 7], "padding": "same", "use_bias": false}, "name": "conv2d_43", "inbound_nodes": [[["activation_42", 0, 0, {}]]]}, {"class_name": "Conv2D", "config": {"kernel_regularizer": null, "bias_constraint": null, "strides": [1, 1], "bias_initializer": {"class_name": "Zeros", "config": {}}, "trainable": false, "activation": "linear", "data_format": "channels_last", "filters": 160, "dilation_rate": [1, 1], "bias_regularizer": null, "activity_regularizer": null, "name": "conv2d_48", "kernel_initializer": {"class_name": "VarianceScaling", "config": {"distribution": "uniform", "scale": 1.0, "mode": "fan_avg", "seed": null}}, "kernel_constraint": null, "kernel_size": [7, 1], "padding": "same", "use_bias": false}, "name": "conv2d_48", "inbound_nodes": [[["activation_47", 0, 0, {}]]]}, {"class_name": "BatchNormalization", "config": {"gamma_constraint": null, "beta_initializer": {"class_name": "Zeros", "config": {}}, "trainable": false, "moving_variance_initializer": {"class_name": "Ones", "config": {}}, "scale": false, "beta_constraint": null, "moving_mean_initializer": {"class_name": "Zeros", "config": {}}, "momentum": 0.99, "name": "batch_normalization_43", "epsilon": 0.001, "axis": 3, "gamma_initializer": {"class_name": "Ones", "config": {}}, "center": true, "beta_regularizer": null, "gamma_regularizer": null}, "name": "batch_normalization_43", "inbound_nodes": [[["conv2d_43", 0, 0, {}]]]}, {"class_name": "BatchNormalization", "config": {"gamma_constraint": null, "beta_initializer": {"class_name": "Zeros", "config": {}}, "trainable": false, "moving_variance_initializer": {"class_name": "Ones", "config": {}}, "scale": false, "beta_constraint": null, "moving_mean_initializer": {"class_name": "Zeros", "config": {}}, "momentum": 0.99, "name": "batch_normalization_48", "epsilon": 0.001, "axis": 3, "gamma_initializer": {"class_name": "Ones", "config": {}}, "center": true, "beta_regularizer": null, "gamma_regularizer": null}, "name": "batch_normalization_48", "inbound_nodes": [[["conv2d_48", 0, 0, {}]]]}, {"class_name": "Activation", "config": {"activation": "relu", "name": "activation_43", "trainable": false}, "name": "activation_43", "inbound_nodes": [[["batch_normalization_43", 0, 0, {}]]]}, {"class_name": "Activation", "config": {"activation": "relu", "name": "activation_48", "trainable": false}, "name": "activation_48", "inbound_nodes": [[["batch_normalization_48", 0, 0, {}]]]}, {"class_name": "AveragePooling2D", "config": {"pool_size": [3, 3], "strides": [1, 1], "name": "average_pooling2d_5", "trainable": false, "padding": "same", "data_format": "channels_last"}, "name": "average_pooling2d_5", "inbound_nodes": [[["mixed4", 0, 0, {}]]]}, {"class_name": "Conv2D", "config": {"kernel_regularizer": null, "bias_constraint": null, "strides": [1, 1], "bias_initializer": {"class_name": "Zeros", "config": {}}, "trainable": false, "activation": "linear", "data_format": "channels_last", "filters": 192, "dilation_rate": [1, 1], "bias_regularizer": null, "activity_regularizer": null, "name": "conv2d_41", "kernel_initializer": {"class_name": "VarianceScaling", "config": {"distribution": "uniform", "scale": 1.0, "mode": "fan_avg", "seed": null}}, "kernel_constraint": null, "kernel_size": [1, 1], "padding": "same", "use_bias": false}, "name": "conv2d_41", "inbound_nodes": [[["mixed4", 0, 0, {}]]]}, {"class_name": "Conv2D", "config": {"kernel_regularizer": null, "bias_constraint": null, "strides": [1, 1], "bias_initializer": {"class_name": "Zeros", "config": {}}, "trainable": false, "activation": "linear", "data_format": "channels_last", "filters": 192, "dilation_rate": [1, 1], "bias_regularizer": null, "activity_regularizer": null, "name": "conv2d_44", "kernel_initializer": {"class_name": "VarianceScaling", "config": {"distribution": "uniform", "scale": 1.0, "mode": "fan_avg", "seed": null}}, "kernel_constraint": null, "kernel_size": [7, 1], "padding": "same", "use_bias": false}, "name": "conv2d_44", "inbound_nodes": [[["activation_43", 0, 0, {}]]]}, {"class_name": "Conv2D", "config": {"kernel_regularizer": null, "bias_constraint": null, "strides": [1, 1], "bias_initializer": {"class_name": "Zeros", "config": {}}, "trainable": false, "activation": "linear", "data_format": "channels_last", "filters": 192, "dilation_rate": [1, 1], "bias_regularizer": null, "activity_regularizer": null, "name": "conv2d_49", "kernel_initializer": {"class_name": "VarianceScaling", "config": {"distribution": "uniform", "scale": 1.0, "mode": "fan_avg", "seed": null}}, "kernel_constraint": null, "kernel_size": [1, 7], "padding": "same", "use_bias": false}, "name": "conv2d_49", "inbound_nodes": [[["activation_48", 0, 0, {}]]]}, {"class_name": "Conv2D", "config": {"kernel_regularizer": null, "bias_constraint": null, "strides": [1, 1], "bias_initializer": {"class_name": "Zeros", "config": {}}, "trainable": false, "activation": "linear", "data_format": "channels_last", "filters": 192, "dilation_rate": [1, 1], "bias_regularizer": null, "activity_regularizer": null, "name": "conv2d_50", "kernel_initializer": {"class_name": "VarianceScaling", "config": {"distribution": "uniform", "scale": 1.0, "mode": "fan_avg", "seed": null}}, "kernel_constraint": null, "kernel_size": [1, 1], "padding": "same", "use_bias": false}, "name": "conv2d_50", "inbound_nodes": [[["average_pooling2d_5", 0, 0, {}]]]}, {"class_name": "BatchNormalization", "config": {"gamma_constraint": null, "beta_initializer": {"class_name": "Zeros", "config": {}}, "trainable": false, "moving_variance_initializer": {"class_name": "Ones", "config": {}}, "scale": false, "beta_constraint": null, "moving_mean_initializer": {"class_name": "Zeros", "config": {}}, "momentum": 0.99, "name": "batch_normalization_41", "epsilon": 0.001, "axis": 3, "gamma_initializer": {"class_name": "Ones", "config": {}}, "center": true, "beta_regularizer": null, "gamma_regularizer": null}, "name": "batch_normalization_41", "inbound_nodes": [[["conv2d_41", 0, 0, {}]]]}, {"class_name": "BatchNormalization", "config": {"gamma_constraint": null, "beta_initializer": {"class_name": "Zeros", "config": {}}, "trainable": false, "moving_variance_initializer": {"class_name": "Ones", "config": {}}, "scale": false, "beta_constraint": null, "moving_mean_initializer": {"class_name": "Zeros", "config": {}}, "momentum": 0.99, "name": "batch_normalization_44", "epsilon": 0.001, "axis": 3, "gamma_initializer": {"class_name": "Ones", "config": {}}, "center": true, "beta_regularizer": null, "gamma_regularizer": null}, "name": "batch_normalization_44", "inbound_nodes": [[["conv2d_44", 0, 0, {}]]]}, {"class_name": "BatchNormalization", "config": {"gamma_constraint": null, "beta_initializer": {"class_name": "Zeros", "config": {}}, "trainable": false, "moving_variance_initializer": {"class_name": "Ones", "config": {}}, "scale": false, "beta_constraint": null, "moving_mean_initializer": {"class_name": "Zeros", "config": {}}, "momentum": 0.99, "name": "batch_normalization_49", "epsilon": 0.001, "axis": 3, "gamma_initializer": {"class_name": "Ones", "config": {}}, "center": true, "beta_regularizer": null, "gamma_regularizer": null}, "name": "batch_normalization_49", "inbound_nodes": [[["conv2d_49", 0, 0, {}]]]}, {"class_name": "BatchNormalization", "config": {"gamma_constraint": null, "beta_initializer": {"class_name": "Zeros", "config": {}}, "trainable": false, "moving_variance_initializer": {"class_name": "Ones", "config": {}}, "scale": false, "beta_constraint": null, "moving_mean_initializer": {"class_name": "Zeros", "config": {}}, "momentum": 0.99, "name": "batch_normalization_50", "epsilon": 0.001, "axis": 3, "gamma_initializer": {"class_name": "Ones", "config": {}}, "center": true, "beta_regularizer": null, "gamma_regularizer": null}, "name": "batch_normalization_50", "inbound_nodes": [[["conv2d_50", 0, 0, {}]]]}, {"class_name": "Activation", "config": {"activation": "relu", "name": "activation_41", "trainable": false}, "name": "activation_41", "inbound_nodes": [[["batch_normalization_41", 0, 0, {}]]]}, {"class_name": "Activation", "config": {"activation": "relu", "name": "activation_44", "trainable": false}, "name": "activation_44", "inbound_nodes": [[["batch_normalization_44", 0, 0, {}]]]}, {"class_name": "Activation", "config": {"activation": "relu", "name": "activation_49", "trainable": false}, "name": "activation_49", "inbound_nodes": [[["batch_normalization_49", 0, 0, {}]]]}, {"class_name": "Activation", "config": {"activation": "relu", "name": "activation_50", "trainable": false}, "name": "activation_50", "inbound_nodes": [[["batch_normalization_50", 0, 0, {}]]]}, {"class_name": "Concatenate", "config": {"name": "mixed5", "trainable": false, "axis": 3}, "name": "mixed5", "inbound_nodes": [[["activation_41", 0, 0, {}], ["activation_44", 0, 0, {}], ["activation_49", 0, 0, {}], ["activation_50", 0, 0, {}]]]}, {"class_name": "Conv2D", "config": {"kernel_regularizer": null, "bias_constraint": null, "strides": [1, 1], "bias_initializer": {"class_name": "Zeros", "config": {}}, "trainable": false, "activation": "linear", "data_format": "channels_last", "filters": 160, "dilation_rate": [1, 1], "bias_regularizer": null, "activity_regularizer": null, "name": "conv2d_55", "kernel_initializer": {"class_name": "VarianceScaling", "config": {"distribution": "uniform", "scale": 1.0, "mode": "fan_avg", "seed": null}}, "kernel_constraint": null, "kernel_size": [1, 1], "padding": "same", "use_bias": false}, "name": "conv2d_55", "inbound_nodes": [[["mixed5", 0, 0, {}]]]}, {"class_name": "BatchNormalization", "config": {"gamma_constraint": null, "beta_initializer": {"class_name": "Zeros", "config": {}}, "trainable": false, "moving_variance_initializer": {"class_name": "Ones", "config": {}}, "scale": false, "beta_constraint": null, "moving_mean_initializer": {"class_name": "Zeros", "config": {}}, "momentum": 0.99, "name": "batch_normalization_55", "epsilon": 0.001, "axis": 3, "gamma_initializer": {"class_name": "Ones", "config": {}}, "center": true, "beta_regularizer": null, "gamma_regularizer": null}, "name": "batch_normalization_55", "inbound_nodes": [[["conv2d_55", 0, 0, {}]]]}, {"class_name": "Activation", "config": {"activation": "relu", "name": "activation_55", "trainable": false}, "name": "activation_55", "inbound_nodes": [[["batch_normalization_55", 0, 0, {}]]]}, {"class_name": "Conv2D", "config": {"kernel_regularizer": null, "bias_constraint": null, "strides": [1, 1], "bias_initializer": {"class_name": "Zeros", "config": {}}, "trainable": false, "activation": "linear", "data_format": "channels_last", "filters": 160, "dilation_rate": [1, 1], "bias_regularizer": null, "activity_regularizer": null, "name": "conv2d_56", "kernel_initializer": {"class_name": "VarianceScaling", "config": {"distribution": "uniform", "scale": 1.0, "mode": "fan_avg", "seed": null}}, "kernel_constraint": null, "kernel_size": [7, 1], "padding": "same", "use_bias": false}, "name": "conv2d_56", "inbound_nodes": [[["activation_55", 0, 0, {}]]]}, {"class_name": "BatchNormalization", "config": {"gamma_constraint": null, "beta_initializer": {"class_name": "Zeros", "config": {}}, "trainable": false, "moving_variance_initializer": {"class_name": "Ones", "config": {}}, "scale": false, "beta_constraint": null, "moving_mean_initializer": {"class_name": "Zeros", "config": {}}, "momentum": 0.99, "name": "batch_normalization_56", "epsilon": 0.001, "axis": 3, "gamma_initializer": {"class_name": "Ones", "config": {}}, "center": true, "beta_regularizer": null, "gamma_regularizer": null}, "name": "batch_normalization_56", "inbound_nodes": [[["conv2d_56", 0, 0, {}]]]}, {"class_name": "Activation", "config": {"activation": "relu", "name": "activation_56", "trainable": false}, "name": "activation_56", "inbound_nodes": [[["batch_normalization_56", 0, 0, {}]]]}, {"class_name": "Conv2D", "config": {"kernel_regularizer": null, "bias_constraint": null, "strides": [1, 1], "bias_initializer": {"class_name": "Zeros", "config": {}}, "trainable": false, "activation": "linear", "data_format": "channels_last", "filters": 160, "dilation_rate": [1, 1], "bias_regularizer": null, "activity_regularizer": null, "name": "conv2d_52", "kernel_initializer": {"class_name": "VarianceScaling", "config": {"distribution": "uniform", "scale": 1.0, "mode": "fan_avg", "seed": null}}, "kernel_constraint": null, "kernel_size": [1, 1], "padding": "same", "use_bias": false}, "name": "conv2d_52", "inbound_nodes": [[["mixed5", 0, 0, {}]]]}, {"class_name": "Conv2D", "config": {"kernel_regularizer": null, "bias_constraint": null, "strides": [1, 1], "bias_initializer": {"class_name": "Zeros", "config": {}}, "trainable": true, "activation": "linear", "data_format": "channels_last", "filters": 160, "dilation_rate": [1, 1], "bias_regularizer": null, "activity_regularizer": null, "name": "conv2d_57", "kernel_initializer": {"class_name": "VarianceScaling", "config": {"distribution": "uniform", "scale": 1.0, "mode": "fan_avg", "seed": null}}, "kernel_constraint": null, "kernel_size": [1, 7], "padding": "same", "use_bias": false}, "name": "conv2d_57", "inbound_nodes": [[["activation_56", 0, 0, {}]]]}, {"class_name": "BatchNormalization", "config": {"gamma_constraint": null, "beta_initializer": {"class_name": "Zeros", "config": {}}, "trainable": true, "moving_variance_initializer": {"class_name": "Ones", "config": {}}, "scale": false, "beta_constraint": null, "moving_mean_initializer": {"class_name": "Zeros", "config": {}}, "momentum": 0.99, "name": "batch_normalization_52", "epsilon": 0.001, "axis": 3, "gamma_initializer": {"class_name": "Ones", "config": {}}, "center": true, "beta_regularizer": null, "gamma_regularizer": null}, "name": "batch_normalization_52", "inbound_nodes": [[["conv2d_52", 0, 0, {}]]]}, {"class_name": "BatchNormalization", "config": {"gamma_constraint": null, "beta_initializer": {"class_name": "Zeros", "config": {}}, "trainable": true, "moving_variance_initializer": {"class_name": "Ones", "config": {}}, "scale": false, "beta_constraint": null, "moving_mean_initializer": {"class_name": "Zeros", "config": {}}, "momentum": 0.99, "name": "batch_normalization_57", "epsilon": 0.001, "axis": 3, "gamma_initializer": {"class_name": "Ones", "config": {}}, "center": true, "beta_regularizer": null, "gamma_regularizer": null}, "name": "batch_normalization_57", "inbound_nodes": [[["conv2d_57", 0, 0, {}]]]}, {"class_name": "Activation", "config": {"activation": "relu", "name": "activation_52", "trainable": true}, "name": "activation_52", "inbound_nodes": [[["batch_normalization_52", 0, 0, {}]]]}, {"class_name": "Activation", "config": {"activation": "relu", "name": "activation_57", "trainable": true}, "name": "activation_57", "inbound_nodes": [[["batch_normalization_57", 0, 0, {}]]]}, {"class_name": "Conv2D", "config": {"kernel_regularizer": null, "bias_constraint": null, "strides": [1, 1], "bias_initializer": {"class_name": "Zeros", "config": {}}, "trainable": true, "activation": "linear", "data_format": "channels_last", "filters": 160, "dilation_rate": [1, 1], "bias_regularizer": null, "activity_regularizer": null, "name": "conv2d_53", "kernel_initializer": {"class_name": "VarianceScaling", "config": {"distribution": "uniform", "scale": 1.0, "mode": "fan_avg", "seed": null}}, "kernel_constraint": null, "kernel_size": [1, 7], "padding": "same", "use_bias": false}, "name": "conv2d_53", "inbound_nodes": [[["activation_52", 0, 0, {}]]]}, {"class_name": "Conv2D", "config": {"kernel_regularizer": null, "bias_constraint": null, "strides": [1, 1], "bias_initializer": {"class_name": "Zeros", "config": {}}, "trainable": true, "activation": "linear", "data_format": "channels_last", "filters": 160, "dilation_rate": [1, 1], "bias_regularizer": null, "activity_regularizer": null, "name": "conv2d_58", "kernel_initializer": {"class_name": "VarianceScaling", "config": {"distribution": "uniform", "scale": 1.0, "mode": "fan_avg", "seed": null}}, "kernel_constraint": null, "kernel_size": [7, 1], "padding": "same", "use_bias": false}, "name": "conv2d_58", "inbound_nodes": [[["activation_57", 0, 0, {}]]]}, {"class_name": "BatchNormalization", "config": {"gamma_constraint": null, "beta_initializer": {"class_name": "Zeros", "config": {}}, "trainable": true, "moving_variance_initializer": {"class_name": "Ones", "config": {}}, "scale": false, "beta_constraint": null, "moving_mean_initializer": {"class_name": "Zeros", "config": {}}, "momentum": 0.99, "name": "batch_normalization_53", "epsilon": 0.001, "axis": 3, "gamma_initializer": {"class_name": "Ones", "config": {}}, "center": true, "beta_regularizer": null, "gamma_regularizer": null}, "name": "batch_normalization_53", "inbound_nodes": [[["conv2d_53", 0, 0, {}]]]}, {"class_name": "BatchNormalization", "config": {"gamma_constraint": null, "beta_initializer": {"class_name": "Zeros", "config": {}}, "trainable": true, "moving_variance_initializer": {"class_name": "Ones", "config": {}}, "scale": false, "beta_constraint": null, "moving_mean_initializer": {"class_name": "Zeros", "config": {}}, "momentum": 0.99, "name": "batch_normalization_58", "epsilon": 0.001, "axis": 3, "gamma_initializer": {"class_name": "Ones", "config": {}}, "center": true, "beta_regularizer": null, "gamma_regularizer": null}, "name": "batch_normalization_58", "inbound_nodes": [[["conv2d_58", 0, 0, {}]]]}, {"class_name": "Activation", "config": {"activation": "relu", "name": "activation_53", "trainable": true}, "name": "activation_53", "inbound_nodes": [[["batch_normalization_53", 0, 0, {}]]]}, {"class_name": "Activation", "config": {"activation": "relu", "name": "activation_58", "trainable": true}, "name": "activation_58", "inbound_nodes": [[["batch_normalization_58", 0, 0, {}]]]}, {"class_name": "AveragePooling2D", "config": {"pool_size": [3, 3], "strides": [1, 1], "name": "average_pooling2d_6", "trainable": true, "padding": "same", "data_format": "channels_last"}, "name": "average_pooling2d_6", "inbound_nodes": [[["mixed5", 0, 0, {}]]]}, {"class_name": "Conv2D", "config": {"kernel_regularizer": null, "bias_constraint": null, "strides": [1, 1], "bias_initializer": {"class_name": "Zeros", "config": {}}, "trainable": true, "activation": "linear", "data_format": "channels_last", "filters": 192, "dilation_rate": [1, 1], "bias_regularizer": null, "activity_regularizer": null, "name": "conv2d_51", "kernel_initializer": {"class_name": "VarianceScaling", "config": {"distribution": "uniform", "scale": 1.0, "mode": "fan_avg", "seed": null}}, "kernel_constraint": null, "kernel_size": [1, 1], "padding": "same", "use_bias": false}, "name": "conv2d_51", "inbound_nodes": [[["mixed5", 0, 0, {}]]]}, {"class_name": "Conv2D", "config": {"kernel_regularizer": null, "bias_constraint": null, "strides": [1, 1], "bias_initializer": {"class_name": "Zeros", "config": {}}, "trainable": true, "activation": "linear", "data_format": "channels_last", "filters": 192, "dilation_rate": [1, 1], "bias_regularizer": null, "activity_regularizer": null, "name": "conv2d_54", "kernel_initializer": {"class_name": "VarianceScaling", "config": {"distribution": "uniform", "scale": 1.0, "mode": "fan_avg", "seed": null}}, "kernel_constraint": null, "kernel_size": [7, 1], "padding": "same", "use_bias": false}, "name": "conv2d_54", "inbound_nodes": [[["activation_53", 0, 0, {}]]]}, {"class_name": "Conv2D", "config": {"kernel_regularizer": null, "bias_constraint": null, "strides": [1, 1], "bias_initializer": {"class_name": "Zeros", "config": {}}, "trainable": true, "activation": "linear", "data_format": "channels_last", "filters": 192, "dilation_rate": [1, 1], "bias_regularizer": null, "activity_regularizer": null, "name": "conv2d_59", "kernel_initializer": {"class_name": "VarianceScaling", "config": {"distribution": "uniform", "scale": 1.0, "mode": "fan_avg", "seed": null}}, "kernel_constraint": null, "kernel_size": [1, 7], "padding": "same", "use_bias": false}, "name": "conv2d_59", "inbound_nodes": [[["activation_58", 0, 0, {}]]]}, {"class_name": "Conv2D", "config": {"kernel_regularizer": null, "bias_constraint": null, "strides": [1, 1], "bias_initializer": {"class_name": "Zeros", "config": {}}, "trainable": true, "activation": "linear", "data_format": "channels_last", "filters": 192, "dilation_rate": [1, 1], "bias_regularizer": null, "activity_regularizer": null, "name": "conv2d_60", "kernel_initializer": {"class_name": "VarianceScaling", "config": {"distribution": "uniform", "scale": 1.0, "mode": "fan_avg", "seed": null}}, "kernel_constraint": null, "kernel_size": [1, 1], "padding": "same", "use_bias": false}, "name": "conv2d_60", "inbound_nodes": [[["average_pooling2d_6", 0, 0, {}]]]}, {"class_name": "BatchNormalization", "config": {"gamma_constraint": null, "beta_initializer": {"class_name": "Zeros", "config": {}}, "trainable": true, "moving_variance_initializer": {"class_name": "Ones", "config": {}}, "scale": false, "beta_constraint": null, "moving_mean_initializer": {"class_name": "Zeros", "config": {}}, "momentum": 0.99, "name": "batch_normalization_51", "epsilon": 0.001, "axis": 3, "gamma_initializer": {"class_name": "Ones", "config": {}}, "center": true, "beta_regularizer": null, "gamma_regularizer": null}, "name": "batch_normalization_51", "inbound_nodes": [[["conv2d_51", 0, 0, {}]]]}, {"class_name": "BatchNormalization", "config": {"gamma_constraint": null, "beta_initializer": {"class_name": "Zeros", "config": {}}, "trainable": true, "moving_variance_initializer": {"class_name": "Ones", "config": {}}, "scale": false, "beta_constraint": null, "moving_mean_initializer": {"class_name": "Zeros", "config": {}}, "momentum": 0.99, "name": "batch_normalization_54", "epsilon": 0.001, "axis": 3, "gamma_initializer": {"class_name": "Ones", "config": {}}, "center": true, "beta_regularizer": null, "gamma_regularizer": null}, "name": "batch_normalization_54", "inbound_nodes": [[["conv2d_54", 0, 0, {}]]]}, {"class_name": "BatchNormalization", "config": {"gamma_constraint": null, "beta_initializer": {"class_name": "Zeros", "config": {}}, "trainable": true, "moving_variance_initializer": {"class_name": "Ones", "config": {}}, "scale": false, "beta_constraint": null, "moving_mean_initializer": {"class_name": "Zeros", "config": {}}, "momentum": 0.99, "name": "batch_normalization_59", "epsilon": 0.001, "axis": 3, "gamma_initializer": {"class_name": "Ones", "config": {}}, "center": true, "beta_regularizer": null, "gamma_regularizer": null}, "name": "batch_normalization_59", "inbound_nodes": [[["conv2d_59", 0, 0, {}]]]}, {"class_name": "BatchNormalization", "config": {"gamma_constraint": null, "beta_initializer": {"class_name": "Zeros", "config": {}}, "trainable": true, "moving_variance_initializer": {"class_name": "Ones", "config": {}}, "scale": false, "beta_constraint": null, "moving_mean_initializer": {"class_name": "Zeros", "config": {}}, "momentum": 0.99, "name": "batch_normalization_60", "epsilon": 0.001, "axis": 3, "gamma_initializer": {"class_name": "Ones", "config": {}}, "center": true, "beta_regularizer": null, "gamma_regularizer": null}, "name": "batch_normalization_60", "inbound_nodes": [[["conv2d_60", 0, 0, {}]]]}, {"class_name": "Activation", "config": {"activation": "relu", "name": "activation_51", "trainable": true}, "name": "activation_51", "inbound_nodes": [[["batch_normalization_51", 0, 0, {}]]]}, {"class_name": "Activation", "config": {"activation": "relu", "name": "activation_54", "trainable": true}, "name": "activation_54", "inbound_nodes": [[["batch_normalization_54", 0, 0, {}]]]}, {"class_name": "Activation", "config": {"activation": "relu", "name": "activation_59", "trainable": true}, "name": "activation_59", "inbound_nodes": [[["batch_normalization_59", 0, 0, {}]]]}, {"class_name": "Activation", "config": {"activation": "relu", "name": "activation_60", "trainable": true}, "name": "activation_60", "inbound_nodes": [[["batch_normalization_60", 0, 0, {}]]]}, {"class_name": "Concatenate", "config": {"name": "mixed6", "trainable": true, "axis": 3}, "name": "mixed6", "inbound_nodes": [[["activation_51", 0, 0, {}], ["activation_54", 0, 0, {}], ["activation_59", 0, 0, {}], ["activation_60", 0, 0, {}]]]}, {"class_name": "Conv2D", "config": {"kernel_regularizer": null, "bias_constraint": null, "strides": [1, 1], "bias_initializer": {"class_name": "Zeros", "config": {}}, "trainable": true, "activation": "linear", "data_format": "channels_last", "filters": 192, "dilation_rate": [1, 1], "bias_regularizer": null, "activity_regularizer": null, "name": "conv2d_65", "kernel_initializer": {"class_name": "VarianceScaling", "config": {"distribution": "uniform", "scale": 1.0, "mode": "fan_avg", "seed": null}}, "kernel_constraint": null, "kernel_size": [1, 1], "padding": "same", "use_bias": false}, "name": "conv2d_65", "inbound_nodes": [[["mixed6", 0, 0, {}]]]}, {"class_name": "BatchNormalization", "config": {"gamma_constraint": null, "beta_initializer": {"class_name": "Zeros", "config": {}}, "trainable": true, "moving_variance_initializer": {"class_name": "Ones", "config": {}}, "scale": false, "beta_constraint": null, "moving_mean_initializer": {"class_name": "Zeros", "config": {}}, "momentum": 0.99, "name": "batch_normalization_65", "epsilon": 0.001, "axis": 3, "gamma_initializer": {"class_name": "Ones", "config": {}}, "center": true, "beta_regularizer": null, "gamma_regularizer": null}, "name": "batch_normalization_65", "inbound_nodes": [[["conv2d_65", 0, 0, {}]]]}, {"class_name": "Activation", "config": {"activation": "relu", "name": "activation_65", "trainable": true}, "name": "activation_65", "inbound_nodes": [[["batch_normalization_65", 0, 0, {}]]]}, {"class_name": "Conv2D", "config": {"kernel_regularizer": null, "bias_constraint": null, "strides": [1, 1], "bias_initializer": {"class_name": "Zeros", "config": {}}, "trainable": true, "activation": "linear", "data_format": "channels_last", "filters": 192, "dilation_rate": [1, 1], "bias_regularizer": null, "activity_regularizer": null, "name": "conv2d_66", "kernel_initializer": {"class_name": "VarianceScaling", "config": {"distribution": "uniform", "scale": 1.0, "mode": "fan_avg", "seed": null}}, "kernel_constraint": null, "kernel_size": [7, 1], "padding": "same", "use_bias": false}, "name": "conv2d_66", "inbound_nodes": [[["activation_65", 0, 0, {}]]]}, {"class_name": "BatchNormalization", "config": {"gamma_constraint": null, "beta_initializer": {"class_name": "Zeros", "config": {}}, "trainable": true, "moving_variance_initializer": {"class_name": "Ones", "config": {}}, "scale": false, "beta_constraint": null, "moving_mean_initializer": {"class_name": "Zeros", "config": {}}, "momentum": 0.99, "name": "batch_normalization_66", "epsilon": 0.001, "axis": 3, "gamma_initializer": {"class_name": "Ones", "config": {}}, "center": true, "beta_regularizer": null, "gamma_regularizer": null}, "name": "batch_normalization_66", "inbound_nodes": [[["conv2d_66", 0, 0, {}]]]}, {"class_name": "Activation", "config": {"activation": "relu", "name": "activation_66", "trainable": true}, "name": "activation_66", "inbound_nodes": [[["batch_normalization_66", 0, 0, {}]]]}, {"class_name": "Conv2D", "config": {"kernel_regularizer": null, "bias_constraint": null, "strides": [1, 1], "bias_initializer": {"class_name": "Zeros", "config": {}}, "trainable": true, "activation": "linear", "data_format": "channels_last", "filters": 192, "dilation_rate": [1, 1], "bias_regularizer": null, "activity_regularizer": null, "name": "conv2d_62", "kernel_initializer": {"class_name": "VarianceScaling", "config": {"distribution": "uniform", "scale": 1.0, "mode": "fan_avg", "seed": null}}, "kernel_constraint": null, "kernel_size": [1, 1], "padding": "same", "use_bias": false}, "name": "conv2d_62", "inbound_nodes": [[["mixed6", 0, 0, {}]]]}, {"class_name": "Conv2D", "config": {"kernel_regularizer": null, "bias_constraint": null, "strides": [1, 1], "bias_initializer": {"class_name": "Zeros", "config": {}}, "trainable": true, "activation": "linear", "data_format": "channels_last", "filters": 192, "dilation_rate": [1, 1], "bias_regularizer": null, "activity_regularizer": null, "name": "conv2d_67", "kernel_initializer": {"class_name": "VarianceScaling", "config": {"distribution": "uniform", "scale": 1.0, "mode": "fan_avg", "seed": null}}, "kernel_constraint": null, "kernel_size": [1, 7], "padding": "same", "use_bias": false}, "name": "conv2d_67", "inbound_nodes": [[["activation_66", 0, 0, {}]]]}, {"class_name": "BatchNormalization", "config": {"gamma_constraint": null, "beta_initializer": {"class_name": "Zeros", "config": {}}, "trainable": true, "moving_variance_initializer": {"class_name": "Ones", "config": {}}, "scale": false, "beta_constraint": null, "moving_mean_initializer": {"class_name": "Zeros", "config": {}}, "momentum": 0.99, "name": "batch_normalization_62", "epsilon": 0.001, "axis": 3, "gamma_initializer": {"class_name": "Ones", "config": {}}, "center": true, "beta_regularizer": null, "gamma_regularizer": null}, "name": "batch_normalization_62", "inbound_nodes": [[["conv2d_62", 0, 0, {}]]]}, {"class_name": "BatchNormalization", "config": {"gamma_constraint": null, "beta_initializer": {"class_name": "Zeros", "config": {}}, "trainable": true, "moving_variance_initializer": {"class_name": "Ones", "config": {}}, "scale": false, "beta_constraint": null, "moving_mean_initializer": {"class_name": "Zeros", "config": {}}, "momentum": 0.99, "name": "batch_normalization_67", "epsilon": 0.001, "axis": 3, "gamma_initializer": {"class_name": "Ones", "config": {}}, "center": true, "beta_regularizer": null, "gamma_regularizer": null}, "name": "batch_normalization_67", "inbound_nodes": [[["conv2d_67", 0, 0, {}]]]}, {"class_name": "Activation", "config": {"activation": "relu", "name": "activation_62", "trainable": true}, "name": "activation_62", "inbound_nodes": [[["batch_normalization_62", 0, 0, {}]]]}, {"class_name": "Activation", "config": {"activation": "relu", "name": "activation_67", "trainable": true}, "name": "activation_67", "inbound_nodes": [[["batch_normalization_67", 0, 0, {}]]]}, {"class_name": "Conv2D", "config": {"kernel_regularizer": null, "bias_constraint": null, "strides": [1, 1], "bias_initializer": {"class_name": "Zeros", "config": {}}, "trainable": true, "activation": "linear", "data_format": "channels_last", "filters": 192, "dilation_rate": [1, 1], "bias_regularizer": null, "activity_regularizer": null, "name": "conv2d_63", "kernel_initializer": {"class_name": "VarianceScaling", "config": {"distribution": "uniform", "scale": 1.0, "mode": "fan_avg", "seed": null}}, "kernel_constraint": null, "kernel_size": [1, 7], "padding": "same", "use_bias": false}, "name": "conv2d_63", "inbound_nodes": [[["activation_62", 0, 0, {}]]]}, {"class_name": "Conv2D", "config": {"kernel_regularizer": null, "bias_constraint": null, "strides": [1, 1], "bias_initializer": {"class_name": "Zeros", "config": {}}, "trainable": true, "activation": "linear", "data_format": "channels_last", "filters": 192, "dilation_rate": [1, 1], "bias_regularizer": null, "activity_regularizer": null, "name": "conv2d_68", "kernel_initializer": {"class_name": "VarianceScaling", "config": {"distribution": "uniform", "scale": 1.0, "mode": "fan_avg", "seed": null}}, "kernel_constraint": null, "kernel_size": [7, 1], "padding": "same", "use_bias": false}, "name": "conv2d_68", "inbound_nodes": [[["activation_67", 0, 0, {}]]]}, {"class_name": "BatchNormalization", "config": {"gamma_constraint": null, "beta_initializer": {"class_name": "Zeros", "config": {}}, "trainable": true, "moving_variance_initializer": {"class_name": "Ones", "config": {}}, "scale": false, "beta_constraint": null, "moving_mean_initializer": {"class_name": "Zeros", "config": {}}, "momentum": 0.99, "name": "batch_normalization_63", "epsilon": 0.001, "axis": 3, "gamma_initializer": {"class_name": "Ones", "config": {}}, "center": true, "beta_regularizer": null, "gamma_regularizer": null}, "name": "batch_normalization_63", "inbound_nodes": [[["conv2d_63", 0, 0, {}]]]}, {"class_name": "BatchNormalization", "config": {"gamma_constraint": null, "beta_initializer": {"class_name": "Zeros", "config": {}}, "trainable": true, "moving_variance_initializer": {"class_name": "Ones", "config": {}}, "scale": false, "beta_constraint": null, "moving_mean_initializer": {"class_name": "Zeros", "config": {}}, "momentum": 0.99, "name": "batch_normalization_68", "epsilon": 0.001, "axis": 3, "gamma_initializer": {"class_name": "Ones", "config": {}}, "center": true, "beta_regularizer": null, "gamma_regularizer": null}, "name": "batch_normalization_68", "inbound_nodes": [[["conv2d_68", 0, 0, {}]]]}, {"class_name": "Activation", "config": {"activation": "relu", "name": "activation_63", "trainable": true}, "name": "activation_63", "inbound_nodes": [[["batch_normalization_63", 0, 0, {}]]]}, {"class_name": "Activation", "config": {"activation": "relu", "name": "activation_68", "trainable": true}, "name": "activation_68", "inbound_nodes": [[["batch_normalization_68", 0, 0, {}]]]}, {"class_name": "AveragePooling2D", "config": {"pool_size": [3, 3], "strides": [1, 1], "name": "average_pooling2d_7", "trainable": true, "padding": "same", "data_format": "channels_last"}, "name": "average_pooling2d_7", "inbound_nodes": [[["mixed6", 0, 0, {}]]]}, {"class_name": "Conv2D", "config": {"kernel_regularizer": null, "bias_constraint": null, "strides": [1, 1], "bias_initializer": {"class_name": "Zeros", "config": {}}, "trainable": true, "activation": "linear", "data_format": "channels_last", "filters": 192, "dilation_rate": [1, 1], "bias_regularizer": null, "activity_regularizer": null, "name": "conv2d_61", "kernel_initializer": {"class_name": "VarianceScaling", "config": {"distribution": "uniform", "scale": 1.0, "mode": "fan_avg", "seed": null}}, "kernel_constraint": null, "kernel_size": [1, 1], "padding": "same", "use_bias": false}, "name": "conv2d_61", "inbound_nodes": [[["mixed6", 0, 0, {}]]]}, {"class_name": "Conv2D", "config": {"kernel_regularizer": null, "bias_constraint": null, "strides": [1, 1], "bias_initializer": {"class_name": "Zeros", "config": {}}, "trainable": true, "activation": "linear", "data_format": "channels_last", "filters": 192, "dilation_rate": [1, 1], "bias_regularizer": null, "activity_regularizer": null, "name": "conv2d_64", "kernel_initializer": {"class_name": "VarianceScaling", "config": {"distribution": "uniform", "scale": 1.0, "mode": "fan_avg", "seed": null}}, "kernel_constraint": null, "kernel_size": [7, 1], "padding": "same", "use_bias": false}, "name": "conv2d_64", "inbound_nodes": [[["activation_63", 0, 0, {}]]]}, {"class_name": "Conv2D", "config": {"kernel_regularizer": null, "bias_constraint": null, "strides": [1, 1], "bias_initializer": {"class_name": "Zeros", "config": {}}, "trainable": true, "activation": "linear", "data_format": "channels_last", "filters": 192, "dilation_rate": [1, 1], "bias_regularizer": null, "activity_regularizer": null, "name": "conv2d_69", "kernel_initializer": {"class_name": "VarianceScaling", "config": {"distribution": "uniform", "scale": 1.0, "mode": "fan_avg", "seed": null}}, "kernel_constraint": null, "kernel_size": [1, 7], "padding": "same", "use_bias": false}, "name": "conv2d_69", "inbound_nodes": [[["activation_68", 0, 0, {}]]]}, {"class_name": "Conv2D", "config": {"kernel_regularizer": null, "bias_constraint": null, "strides": [1, 1], "bias_initializer": {"class_name": "Zeros", "config": {}}, "trainable": true, "activation": "linear", "data_format": "channels_last", "filters": 192, "dilation_rate": [1, 1], "bias_regularizer": null, "activity_regularizer": null, "name": "conv2d_70", "kernel_initializer": {"class_name": "VarianceScaling", "config": {"distribution": "uniform", "scale": 1.0, "mode": "fan_avg", "seed": null}}, "kernel_constraint": null, "kernel_size": [1, 1], "padding": "same", "use_bias": false}, "name": "conv2d_70", "inbound_nodes": [[["average_pooling2d_7", 0, 0, {}]]]}, {"class_name": "BatchNormalization", "config": {"gamma_constraint": null, "beta_initializer": {"class_name": "Zeros", "config": {}}, "trainable": true, "moving_variance_initializer": {"class_name": "Ones", "config": {}}, "scale": false, "beta_constraint": null, "moving_mean_initializer": {"class_name": "Zeros", "config": {}}, "momentum": 0.99, "name": "batch_normalization_61", "epsilon": 0.001, "axis": 3, "gamma_initializer": {"class_name": "Ones", "config": {}}, "center": true, "beta_regularizer": null, "gamma_regularizer": null}, "name": "batch_normalization_61", "inbound_nodes": [[["conv2d_61", 0, 0, {}]]]}, {"class_name": "BatchNormalization", "config": {"gamma_constraint": null, "beta_initializer": {"class_name": "Zeros", "config": {}}, "trainable": true, "moving_variance_initializer": {"class_name": "Ones", "config": {}}, "scale": false, "beta_constraint": null, "moving_mean_initializer": {"class_name": "Zeros", "config": {}}, "momentum": 0.99, "name": "batch_normalization_64", "epsilon": 0.001, "axis": 3, "gamma_initializer": {"class_name": "Ones", "config": {}}, "center": true, "beta_regularizer": null, "gamma_regularizer": null}, "name": "batch_normalization_64", "inbound_nodes": [[["conv2d_64", 0, 0, {}]]]}, {"class_name": "BatchNormalization", "config": {"gamma_constraint": null, "beta_initializer": {"class_name": "Zeros", "config": {}}, "trainable": true, "moving_variance_initializer": {"class_name": "Ones", "config": {}}, "scale": false, "beta_constraint": null, "moving_mean_initializer": {"class_name": "Zeros", "config": {}}, "momentum": 0.99, "name": "batch_normalization_69", "epsilon": 0.001, "axis": 3, "gamma_initializer": {"class_name": "Ones", "config": {}}, "center": true, "beta_regularizer": null, "gamma_regularizer": null}, "name": "batch_normalization_69", "inbound_nodes": [[["conv2d_69", 0, 0, {}]]]}, {"class_name": "BatchNormalization", "config": {"gamma_constraint": null, "beta_initializer": {"class_name": "Zeros", "config": {}}, "trainable": true, "moving_variance_initializer": {"class_name": "Ones", "config": {}}, "scale": false, "beta_constraint": null, "moving_mean_initializer": {"class_name": "Zeros", "config": {}}, "momentum": 0.99, "name": "batch_normalization_70", "epsilon": 0.001, "axis": 3, "gamma_initializer": {"class_name": "Ones", "config": {}}, "center": true, "beta_regularizer": null, "gamma_regularizer": null}, "name": "batch_normalization_70", "inbound_nodes": [[["conv2d_70", 0, 0, {}]]]}, {"class_name": "Activation", "config": {"activation": "relu", "name": "activation_61", "trainable": true}, "name": "activation_61", "inbound_nodes": [[["batch_normalization_61", 0, 0, {}]]]}, {"class_name": "Activation", "config": {"activation": "relu", "name": "activation_64", "trainable": true}, "name": "activation_64", "inbound_nodes": [[["batch_normalization_64", 0, 0, {}]]]}, {"class_name": "Activation", "config": {"activation": "relu", "name": "activation_69", "trainable": true}, "name": "activation_69", "inbound_nodes": [[["batch_normalization_69", 0, 0, {}]]]}, {"class_name": "Activation", "config": {"activation": "relu", "name": "activation_70", "trainable": true}, "name": "activation_70", "inbound_nodes": [[["batch_normalization_70", 0, 0, {}]]]}, {"class_name": "Concatenate", "config": {"name": "mixed7", "trainable": true, "axis": 3}, "name": "mixed7", "inbound_nodes": [[["activation_61", 0, 0, {}], ["activation_64", 0, 0, {}], ["activation_69", 0, 0, {}], ["activation_70", 0, 0, {}]]]}, {"class_name": "Conv2D", "config": {"kernel_regularizer": null, "bias_constraint": null, "strides": [1, 1], "bias_initializer": {"class_name": "Zeros", "config": {}}, "trainable": true, "activation": "linear", "data_format": "channels_last", "filters": 192, "dilation_rate": [1, 1], "bias_regularizer": null, "activity_regularizer": null, "name": "conv2d_73", "kernel_initializer": {"class_name": "VarianceScaling", "config": {"distribution": "uniform", "scale": 1.0, "mode": "fan_avg", "seed": null}}, "kernel_constraint": null, "kernel_size": [1, 1], "padding": "same", "use_bias": false}, "name": "conv2d_73", "inbound_nodes": [[["mixed7", 0, 0, {}]]]}, {"class_name": "BatchNormalization", "config": {"gamma_constraint": null, "beta_initializer": {"class_name": "Zeros", "config": {}}, "trainable": true, "moving_variance_initializer": {"class_name": "Ones", "config": {}}, "scale": false, "beta_constraint": null, "moving_mean_initializer": {"class_name": "Zeros", "config": {}}, "momentum": 0.99, "name": "batch_normalization_73", "epsilon": 0.001, "axis": 3, "gamma_initializer": {"class_name": "Ones", "config": {}}, "center": true, "beta_regularizer": null, "gamma_regularizer": null}, "name": "batch_normalization_73", "inbound_nodes": [[["conv2d_73", 0, 0, {}]]]}, {"class_name": "Activation", "config": {"activation": "relu", "name": "activation_73", "trainable": true}, "name": "activation_73", "inbound_nodes": [[["batch_normalization_73", 0, 0, {}]]]}, {"class_name": "Conv2D", "config": {"kernel_regularizer": null, "bias_constraint": null, "strides": [1, 1], "bias_initializer": {"class_name": "Zeros", "config": {}}, "trainable": true, "activation": "linear", "data_format": "channels_last", "filters": 192, "dilation_rate": [1, 1], "bias_regularizer": null, "activity_regularizer": null, "name": "conv2d_74", "kernel_initializer": {"class_name": "VarianceScaling", "config": {"distribution": "uniform", "scale": 1.0, "mode": "fan_avg", "seed": null}}, "kernel_constraint": null, "kernel_size": [1, 7], "padding": "same", "use_bias": false}, "name": "conv2d_74", "inbound_nodes": [[["activation_73", 0, 0, {}]]]}, {"class_name": "BatchNormalization", "config": {"gamma_constraint": null, "beta_initializer": {"class_name": "Zeros", "config": {}}, "trainable": true, "moving_variance_initializer": {"class_name": "Ones", "config": {}}, "scale": false, "beta_constraint": null, "moving_mean_initializer": {"class_name": "Zeros", "config": {}}, "momentum": 0.99, "name": "batch_normalization_74", "epsilon": 0.001, "axis": 3, "gamma_initializer": {"class_name": "Ones", "config": {}}, "center": true, "beta_regularizer": null, "gamma_regularizer": null}, "name": "batch_normalization_74", "inbound_nodes": [[["conv2d_74", 0, 0, {}]]]}, {"class_name": "Activation", "config": {"activation": "relu", "name": "activation_74", "trainable": true}, "name": "activation_74", "inbound_nodes": [[["batch_normalization_74", 0, 0, {}]]]}, {"class_name": "Conv2D", "config": {"kernel_regularizer": null, "bias_constraint": null, "strides": [1, 1], "bias_initializer": {"class_name": "Zeros", "config": {}}, "trainable": true, "activation": "linear", "data_format": "channels_last", "filters": 192, "dilation_rate": [1, 1], "bias_regularizer": null, "activity_regularizer": null, "name": "conv2d_71", "kernel_initializer": {"class_name": "VarianceScaling", "config": {"distribution": "uniform", "scale": 1.0, "mode": "fan_avg", "seed": null}}, "kernel_constraint": null, "kernel_size": [1, 1], "padding": "same", "use_bias": false}, "name": "conv2d_71", "inbound_nodes": [[["mixed7", 0, 0, {}]]]}, {"class_name": "Conv2D", "config": {"kernel_regularizer": null, "bias_constraint": null, "strides": [1, 1], "bias_initializer": {"class_name": "Zeros", "config": {}}, "trainable": true, "activation": "linear", "data_format": "channels_last", "filters": 192, "dilation_rate": [1, 1], "bias_regularizer": null, "activity_regularizer": null, "name": "conv2d_75", "kernel_initializer": {"class_name": "VarianceScaling", "config": {"distribution": "uniform", "scale": 1.0, "mode": "fan_avg", "seed": null}}, "kernel_constraint": null, "kernel_size": [7, 1], "padding": "same", "use_bias": false}, "name": "conv2d_75", "inbound_nodes": [[["activation_74", 0, 0, {}]]]}, {"class_name": "BatchNormalization", "config": {"gamma_constraint": null, "beta_initializer": {"class_name": "Zeros", "config": {}}, "trainable": true, "moving_variance_initializer": {"class_name": "Ones", "config": {}}, "scale": false, "beta_constraint": null, "moving_mean_initializer": {"class_name": "Zeros", "config": {}}, "momentum": 0.99, "name": "batch_normalization_71", "epsilon": 0.001, "axis": 3, "gamma_initializer": {"class_name": "Ones", "config": {}}, "center": true, "beta_regularizer": null, "gamma_regularizer": null}, "name": "batch_normalization_71", "inbound_nodes": [[["conv2d_71", 0, 0, {}]]]}, {"class_name": "BatchNormalization", "config": {"gamma_constraint": null, "beta_initializer": {"class_name": "Zeros", "config": {}}, "trainable": true, "moving_variance_initializer": {"class_name": "Ones", "config": {}}, "scale": false, "beta_constraint": null, "moving_mean_initializer": {"class_name": "Zeros", "config": {}}, "momentum": 0.99, "name": "batch_normalization_75", "epsilon": 0.001, "axis": 3, "gamma_initializer": {"class_name": "Ones", "config": {}}, "center": true, "beta_regularizer": null, "gamma_regularizer": null}, "name": "batch_normalization_75", "inbound_nodes": [[["conv2d_75", 0, 0, {}]]]}, {"class_name": "Activation", "config": {"activation": "relu", "name": "activation_71", "trainable": true}, "name": "activation_71", "inbound_nodes": [[["batch_normalization_71", 0, 0, {}]]]}, {"class_name": "Activation", "config": {"activation": "relu", "name": "activation_75", "trainable": true}, "name": "activation_75", "inbound_nodes": [[["batch_normalization_75", 0, 0, {}]]]}, {"class_name": "Conv2D", "config": {"kernel_regularizer": null, "bias_constraint": null, "strides": [2, 2], "bias_initializer": {"class_name": "Zeros", "config": {}}, "trainable": true, "activation": "linear", "data_format": "channels_last", "filters": 320, "dilation_rate": [1, 1], "bias_regularizer": null, "activity_regularizer": null, "name": "conv2d_72", "kernel_initializer": {"class_name": "VarianceScaling", "config": {"distribution": "uniform", "scale": 1.0, "mode": "fan_avg", "seed": null}}, "kernel_constraint": null, "kernel_size": [3, 3], "padding": "valid", "use_bias": false}, "name": "conv2d_72", "inbound_nodes": [[["activation_71", 0, 0, {}]]]}, {"class_name": "Conv2D", "config": {"kernel_regularizer": null, "bias_constraint": null, "strides": [2, 2], "bias_initializer": {"class_name": "Zeros", "config": {}}, "trainable": true, "activation": "linear", "data_format": "channels_last", "filters": 192, "dilation_rate": [1, 1], "bias_regularizer": null, "activity_regularizer": null, "name": "conv2d_76", "kernel_initializer": {"class_name": "VarianceScaling", "config": {"distribution": "uniform", "scale": 1.0, "mode": "fan_avg", "seed": null}}, "kernel_constraint": null, "kernel_size": [3, 3], "padding": "valid", "use_bias": false}, "name": "conv2d_76", "inbound_nodes": [[["activation_75", 0, 0, {}]]]}, {"class_name": "BatchNormalization", "config": {"gamma_constraint": null, "beta_initializer": {"class_name": "Zeros", "config": {}}, "trainable": true, "moving_variance_initializer": {"class_name": "Ones", "config": {}}, "scale": false, "beta_constraint": null, "moving_mean_initializer": {"class_name": "Zeros", "config": {}}, "momentum": 0.99, "name": "batch_normalization_72", "epsilon": 0.001, "axis": 3, "gamma_initializer": {"class_name": "Ones", "config": {}}, "center": true, "beta_regularizer": null, "gamma_regularizer": null}, "name": "batch_normalization_72", "inbound_nodes": [[["conv2d_72", 0, 0, {}]]]}, {"class_name": "BatchNormalization", "config": {"gamma_constraint": null, "beta_initializer": {"class_name": "Zeros", "config": {}}, "trainable": true, "moving_variance_initializer": {"class_name": "Ones", "config": {}}, "scale": false, "beta_constraint": null, "moving_mean_initializer": {"class_name": "Zeros", "config": {}}, "momentum": 0.99, "name": "batch_normalization_76", "epsilon": 0.001, "axis": 3, "gamma_initializer": {"class_name": "Ones", "config": {}}, "center": true, "beta_regularizer": null, "gamma_regularizer": null}, "name": "batch_normalization_76", "inbound_nodes": [[["conv2d_76", 0, 0, {}]]]}, {"class_name": "Activation", "config": {"activation": "relu", "name": "activation_72", "trainable": true}, "name": "activation_72", "inbound_nodes": [[["batch_normalization_72", 0, 0, {}]]]}, {"class_name": "Activation", "config": {"activation": "relu", "name": "activation_76", "trainable": true}, "name": "activation_76", "inbound_nodes": [[["batch_normalization_76", 0, 0, {}]]]}, {"class_name": "MaxPooling2D", "config": {"pool_size": [3, 3], "strides": [2, 2], "name": "max_pooling2d_4", "trainable": true, "padding": "valid", "data_format": "channels_last"}, "name": "max_pooling2d_4", "inbound_nodes": [[["mixed7", 0, 0, {}]]]}, {"class_name": "Concatenate", "config": {"name": "mixed8", "trainable": true, "axis": 3}, "name": "mixed8", "inbound_nodes": [[["activation_72", 0, 0, {}], ["activation_76", 0, 0, {}], ["max_pooling2d_4", 0, 0, {}]]]}, {"class_name": "Conv2D", "config": {"kernel_regularizer": null, "bias_constraint": null, "strides": [1, 1], "bias_initializer": {"class_name": "Zeros", "config": {}}, "trainable": true, "activation": "linear", "data_format": "channels_last", "filters": 448, "dilation_rate": [1, 1], "bias_regularizer": null, "activity_regularizer": null, "name": "conv2d_81", "kernel_initializer": {"class_name": "VarianceScaling", "config": {"distribution": "uniform", "scale": 1.0, "mode": "fan_avg", "seed": null}}, "kernel_constraint": null, "kernel_size": [1, 1], "padding": "same", "use_bias": false}, "name": "conv2d_81", "inbound_nodes": [[["mixed8", 0, 0, {}]]]}, {"class_name": "BatchNormalization", "config": {"gamma_constraint": null, "beta_initializer": {"class_name": "Zeros", "config": {}}, "trainable": true, "moving_variance_initializer": {"class_name": "Ones", "config": {}}, "scale": false, "beta_constraint": null, "moving_mean_initializer": {"class_name": "Zeros", "config": {}}, "momentum": 0.99, "name": "batch_normalization_81", "epsilon": 0.001, "axis": 3, "gamma_initializer": {"class_name": "Ones", "config": {}}, "center": true, "beta_regularizer": null, "gamma_regularizer": null}, "name": "batch_normalization_81", "inbound_nodes": [[["conv2d_81", 0, 0, {}]]]}, {"class_name": "Activation", "config": {"activation": "relu", "name": "activation_81", "trainable": true}, "name": "activation_81", "inbound_nodes": [[["batch_normalization_81", 0, 0, {}]]]}, {"class_name": "Conv2D", "config": {"kernel_regularizer": null, "bias_constraint": null, "strides": [1, 1], "bias_initializer": {"class_name": "Zeros", "config": {}}, "trainable": true, "activation": "linear", "data_format": "channels_last", "filters": 384, "dilation_rate": [1, 1], "bias_regularizer": null, "activity_regularizer": null, "name": "conv2d_78", "kernel_initializer": {"class_name": "VarianceScaling", "config": {"distribution": "uniform", "scale": 1.0, "mode": "fan_avg", "seed": null}}, "kernel_constraint": null, "kernel_size": [1, 1], "padding": "same", "use_bias": false}, "name": "conv2d_78", "inbound_nodes": [[["mixed8", 0, 0, {}]]]}, {"class_name": "Conv2D", "config": {"kernel_regularizer": null, "bias_constraint": null, "strides": [1, 1], "bias_initializer": {"class_name": "Zeros", "config": {}}, "trainable": true, "activation": "linear", "data_format": "channels_last", "filters": 384, "dilation_rate": [1, 1], "bias_regularizer": null, "activity_regularizer": null, "name": "conv2d_82", "kernel_initializer": {"class_name": "VarianceScaling", "config": {"distribution": "uniform", "scale": 1.0, "mode": "fan_avg", "seed": null}}, "kernel_constraint": null, "kernel_size": [3, 3], "padding": "same", "use_bias": false}, "name": "conv2d_82", "inbound_nodes": [[["activation_81", 0, 0, {}]]]}, {"class_name": "BatchNormalization", "config": {"gamma_constraint": null, "beta_initializer": {"class_name": "Zeros", "config": {}}, "trainable": true, "moving_variance_initializer": {"class_name": "Ones", "config": {}}, "scale": false, "beta_constraint": null, "moving_mean_initializer": {"class_name": "Zeros", "config": {}}, "momentum": 0.99, "name": "batch_normalization_78", "epsilon": 0.001, "axis": 3, "gamma_initializer": {"class_name": "Ones", "config": {}}, "center": true, "beta_regularizer": null, "gamma_regularizer": null}, "name": "batch_normalization_78", "inbound_nodes": [[["conv2d_78", 0, 0, {}]]]}, {"class_name": "BatchNormalization", "config": {"gamma_constraint": null, "beta_initializer": {"class_name": "Zeros", "config": {}}, "trainable": true, "moving_variance_initializer": {"class_name": "Ones", "config": {}}, "scale": false, "beta_constraint": null, "moving_mean_initializer": {"class_name": "Zeros", "config": {}}, "momentum": 0.99, "name": "batch_normalization_82", "epsilon": 0.001, "axis": 3, "gamma_initializer": {"class_name": "Ones", "config": {}}, "center": true, "beta_regularizer": null, "gamma_regularizer": null}, "name": "batch_normalization_82", "inbound_nodes": [[["conv2d_82", 0, 0, {}]]]}, {"class_name": "Activation", "config": {"activation": "relu", "name": "activation_78", "trainable": true}, "name": "activation_78", "inbound_nodes": [[["batch_normalization_78", 0, 0, {}]]]}, {"class_name": "Activation", "config": {"activation": "relu", "name": "activation_82", "trainable": true}, "name": "activation_82", "inbound_nodes": [[["batch_normalization_82", 0, 0, {}]]]}, {"class_name": "Conv2D", "config": {"kernel_regularizer": null, "bias_constraint": null, "strides": [1, 1], "bias_initializer": {"class_name": "Zeros", "config": {}}, "trainable": true, "activation": "linear", "data_format": "channels_last", "filters": 384, "dilation_rate": [1, 1], "bias_regularizer": null, "activity_regularizer": null, "name": "conv2d_79", "kernel_initializer": {"class_name": "VarianceScaling", "config": {"distribution": "uniform", "scale": 1.0, "mode": "fan_avg", "seed": null}}, "kernel_constraint": null, "kernel_size": [1, 3], "padding": "same", "use_bias": false}, "name": "conv2d_79", "inbound_nodes": [[["activation_78", 0, 0, {}]]]}, {"class_name": "Conv2D", "config": {"kernel_regularizer": null, "bias_constraint": null, "strides": [1, 1], "bias_initializer": {"class_name": "Zeros", "config": {}}, "trainable": true, "activation": "linear", "data_format": "channels_last", "filters": 384, "dilation_rate": [1, 1], "bias_regularizer": null, "activity_regularizer": null, "name": "conv2d_80", "kernel_initializer": {"class_name": "VarianceScaling", "config": {"distribution": "uniform", "scale": 1.0, "mode": "fan_avg", "seed": null}}, "kernel_constraint": null, "kernel_size": [3, 1], "padding": "same", "use_bias": false}, "name": "conv2d_80", "inbound_nodes": [[["activation_78", 0, 0, {}]]]}, {"class_name": "Conv2D", "config": {"kernel_regularizer": null, "bias_constraint": null, "strides": [1, 1], "bias_initializer": {"class_name": "Zeros", "config": {}}, "trainable": true, "activation": "linear", "data_format": "channels_last", "filters": 384, "dilation_rate": [1, 1], "bias_regularizer": null, "activity_regularizer": null, "name": "conv2d_83", "kernel_initializer": {"class_name": "VarianceScaling", "config": {"distribution": "uniform", "scale": 1.0, "mode": "fan_avg", "seed": null}}, "kernel_constraint": null, "kernel_size": [1, 3], "padding": "same", "use_bias": false}, "name": "conv2d_83", "inbound_nodes": [[["activation_82", 0, 0, {}]]]}, {"class_name": "Conv2D", "config": {"kernel_regularizer": null, "bias_constraint": null, "strides": [1, 1], "bias_initializer": {"class_name": "Zeros", "config": {}}, "trainable": true, "activation": "linear", "data_format": "channels_last", "filters": 384, "dilation_rate": [1, 1], "bias_regularizer": null, "activity_regularizer": null, "name": "conv2d_84", "kernel_initializer": {"class_name": "VarianceScaling", "config": {"distribution": "uniform", "scale": 1.0, "mode": "fan_avg", "seed": null}}, "kernel_constraint": null, "kernel_size": [3, 1], "padding": "same", "use_bias": false}, "name": "conv2d_84", "inbound_nodes": [[["activation_82", 0, 0, {}]]]}, {"class_name": "AveragePooling2D", "config": {"pool_size": [3, 3], "strides": [1, 1], "name": "average_pooling2d_8", "trainable": true, "padding": "same", "data_format": "channels_last"}, "name": "average_pooling2d_8", "inbound_nodes": [[["mixed8", 0, 0, {}]]]}, {"class_name": "Conv2D", "config": {"kernel_regularizer": null, "bias_constraint": null, "strides": [1, 1], "bias_initializer": {"class_name": "Zeros", "config": {}}, "trainable": true, "activation": "linear", "data_format": "channels_last", "filters": 320, "dilation_rate": [1, 1], "bias_regularizer": null, "activity_regularizer": null, "name": "conv2d_77", "kernel_initializer": {"class_name": "VarianceScaling", "config": {"distribution": "uniform", "scale": 1.0, "mode": "fan_avg", "seed": null}}, "kernel_constraint": null, "kernel_size": [1, 1], "padding": "same", "use_bias": false}, "name": "conv2d_77", "inbound_nodes": [[["mixed8", 0, 0, {}]]]}, {"class_name": "BatchNormalization", "config": {"gamma_constraint": null, "beta_initializer": {"class_name": "Zeros", "config": {}}, "trainable": true, "moving_variance_initializer": {"class_name": "Ones", "config": {}}, "scale": false, "beta_constraint": null, "moving_mean_initializer": {"class_name": "Zeros", "config": {}}, "momentum": 0.99, "name": "batch_normalization_79", "epsilon": 0.001, "axis": 3, "gamma_initializer": {"class_name": "Ones", "config": {}}, "center": true, "beta_regularizer": null, "gamma_regularizer": null}, "name": "batch_normalization_79", "inbound_nodes": [[["conv2d_79", 0, 0, {}]]]}, {"class_name": "BatchNormalization", "config": {"gamma_constraint": null, "beta_initializer": {"class_name": "Zeros", "config": {}}, "trainable": true, "moving_variance_initializer": {"class_name": "Ones", "config": {}}, "scale": false, "beta_constraint": null, "moving_mean_initializer": {"class_name": "Zeros", "config": {}}, "momentum": 0.99, "name": "batch_normalization_80", "epsilon": 0.001, "axis": 3, "gamma_initializer": {"class_name": "Ones", "config": {}}, "center": true, "beta_regularizer": null, "gamma_regularizer": null}, "name": "batch_normalization_80", "inbound_nodes": [[["conv2d_80", 0, 0, {}]]]}, {"class_name": "BatchNormalization", "config": {"gamma_constraint": null, "beta_initializer": {"class_name": "Zeros", "config": {}}, "trainable": true, "moving_variance_initializer": {"class_name": "Ones", "config": {}}, "scale": false, "beta_constraint": null, "moving_mean_initializer": {"class_name": "Zeros", "config": {}}, "momentum": 0.99, "name": "batch_normalization_83", "epsilon": 0.001, "axis": 3, "gamma_initializer": {"class_name": "Ones", "config": {}}, "center": true, "beta_regularizer": null, "gamma_regularizer": null}, "name": "batch_normalization_83", "inbound_nodes": [[["conv2d_83", 0, 0, {}]]]}, {"class_name": "BatchNormalization", "config": {"gamma_constraint": null, "beta_initializer": {"class_name": "Zeros", "config": {}}, "trainable": true, "moving_variance_initializer": {"class_name": "Ones", "config": {}}, "scale": false, "beta_constraint": null, "moving_mean_initializer": {"class_name": "Zeros", "config": {}}, "momentum": 0.99, "name": "batch_normalization_84", "epsilon": 0.001, "axis": 3, "gamma_initializer": {"class_name": "Ones", "config": {}}, "center": true, "beta_regularizer": null, "gamma_regularizer": null}, "name": "batch_normalization_84", "inbound_nodes": [[["conv2d_84", 0, 0, {}]]]}, {"class_name": "Conv2D", "config": {"kernel_regularizer": null, "bias_constraint": null, "strides": [1, 1], "bias_initializer": {"class_name": "Zeros", "config": {}}, "trainable": true, "activation": "linear", "data_format": "channels_last", "filters": 192, "dilation_rate": [1, 1], "bias_regularizer": null, "activity_regularizer": null, "name": "conv2d_85", "kernel_initializer": {"class_name": "VarianceScaling", "config": {"distribution": "uniform", "scale": 1.0, "mode": "fan_avg", "seed": null}}, "kernel_constraint": null, "kernel_size": [1, 1], "padding": "same", "use_bias": false}, "name": "conv2d_85", "inbound_nodes": [[["average_pooling2d_8", 0, 0, {}]]]}, {"class_name": "BatchNormalization", "config": {"gamma_constraint": null, "beta_initializer": {"class_name": "Zeros", "config": {}}, "trainable": true, "moving_variance_initializer": {"class_name": "Ones", "config": {}}, "scale": false, "beta_constraint": null, "moving_mean_initializer": {"class_name": "Zeros", "config": {}}, "momentum": 0.99, "name": "batch_normalization_77", "epsilon": 0.001, "axis": 3, "gamma_initializer": {"class_name": "Ones", "config": {}}, "center": true, "beta_regularizer": null, "gamma_regularizer": null}, "name": "batch_normalization_77", "inbound_nodes": [[["conv2d_77", 0, 0, {}]]]}, {"class_name": "Activation", "config": {"activation": "relu", "name": "activation_79", "trainable": true}, "name": "activation_79", "inbound_nodes": [[["batch_normalization_79", 0, 0, {}]]]}, {"class_name": "Activation", "config": {"activation": "relu", "name": "activation_80", "trainable": true}, "name": "activation_80", "inbound_nodes": [[["batch_normalization_80", 0, 0, {}]]]}, {"class_name": "Activation", "config": {"activation": "relu", "name": "activation_83", "trainable": true}, "name": "activation_83", "inbound_nodes": [[["batch_normalization_83", 0, 0, {}]]]}, {"class_name": "Activation", "config": {"activation": "relu", "name": "activation_84", "trainable": true}, "name": "activation_84", "inbound_nodes": [[["batch_normalization_84", 0, 0, {}]]]}, {"class_name": "BatchNormalization", "config": {"gamma_constraint": null, "beta_initializer": {"class_name": "Zeros", "config": {}}, "trainable": true, "moving_variance_initializer": {"class_name": "Ones", "config": {}}, "scale": false, "beta_constraint": null, "moving_mean_initializer": {"class_name": "Zeros", "config": {}}, "momentum": 0.99, "name": "batch_normalization_85", "epsilon": 0.001, "axis": 3, "gamma_initializer": {"class_name": "Ones", "config": {}}, "center": true, "beta_regularizer": null, "gamma_regularizer": null}, "name": "batch_normalization_85", "inbound_nodes": [[["conv2d_85", 0, 0, {}]]]}, {"class_name": "Activation", "config": {"activation": "relu", "name": "activation_77", "trainable": true}, "name": "activation_77", "inbound_nodes": [[["batch_normalization_77", 0, 0, {}]]]}, {"class_name": "Concatenate", "config": {"name": "mixed9_0", "trainable": true, "axis": 3}, "name": "mixed9_0", "inbound_nodes": [[["activation_79", 0, 0, {}], ["activation_80", 0, 0, {}]]]}, {"class_name": "Concatenate", "config": {"name": "concatenate_1", "trainable": true, "axis": 3}, "name": "concatenate_1", "inbound_nodes": [[["activation_83", 0, 0, {}], ["activation_84", 0, 0, {}]]]}, {"class_name": "Activation", "config": {"activation": "relu", "name": "activation_85", "trainable": true}, "name": "activation_85", "inbound_nodes": [[["batch_normalization_85", 0, 0, {}]]]}, {"class_name": "Concatenate", "config": {"name": "mixed9", "trainable": true, "axis": 3}, "name": "mixed9", "inbound_nodes": [[["activation_77", 0, 0, {}], ["mixed9_0", 0, 0, {}], ["concatenate_1", 0, 0, {}], ["activation_85", 0, 0, {}]]]}, {"class_name": "Conv2D", "config": {"kernel_regularizer": null, "bias_constraint": null, "strides": [1, 1], "bias_initializer": {"class_name": "Zeros", "config": {}}, "trainable": true, "activation": "linear", "data_format": "channels_last", "filters": 448, "dilation_rate": [1, 1], "bias_regularizer": null, "activity_regularizer": null, "name": "conv2d_90", "kernel_initializer": {"class_name": "VarianceScaling", "config": {"distribution": "uniform", "scale": 1.0, "mode": "fan_avg", "seed": null}}, "kernel_constraint": null, "kernel_size": [1, 1], "padding": "same", "use_bias": false}, "name": "conv2d_90", "inbound_nodes": [[["mixed9", 0, 0, {}]]]}, {"class_name": "BatchNormalization", "config": {"gamma_constraint": null, "beta_initializer": {"class_name": "Zeros", "config": {}}, "trainable": true, "moving_variance_initializer": {"class_name": "Ones", "config": {}}, "scale": false, "beta_constraint": null, "moving_mean_initializer": {"class_name": "Zeros", "config": {}}, "momentum": 0.99, "name": "batch_normalization_90", "epsilon": 0.001, "axis": 3, "gamma_initializer": {"class_name": "Ones", "config": {}}, "center": true, "beta_regularizer": null, "gamma_regularizer": null}, "name": "batch_normalization_90", "inbound_nodes": [[["conv2d_90", 0, 0, {}]]]}, {"class_name": "Activation", "config": {"activation": "relu", "name": "activation_90", "trainable": true}, "name": "activation_90", "inbound_nodes": [[["batch_normalization_90", 0, 0, {}]]]}, {"class_name": "Conv2D", "config": {"kernel_regularizer": null, "bias_constraint": null, "strides": [1, 1], "bias_initializer": {"class_name": "Zeros", "config": {}}, "trainable": true, "activation": "linear", "data_format": "channels_last", "filters": 384, "dilation_rate": [1, 1], "bias_regularizer": null, "activity_regularizer": null, "name": "conv2d_87", "kernel_initializer": {"class_name": "VarianceScaling", "config": {"distribution": "uniform", "scale": 1.0, "mode": "fan_avg", "seed": null}}, "kernel_constraint": null, "kernel_size": [1, 1], "padding": "same", "use_bias": false}, "name": "conv2d_87", "inbound_nodes": [[["mixed9", 0, 0, {}]]]}, {"class_name": "Conv2D", "config": {"kernel_regularizer": null, "bias_constraint": null, "strides": [1, 1], "bias_initializer": {"class_name": "Zeros", "config": {}}, "trainable": true, "activation": "linear", "data_format": "channels_last", "filters": 384, "dilation_rate": [1, 1], "bias_regularizer": null, "activity_regularizer": null, "name": "conv2d_91", "kernel_initializer": {"class_name": "VarianceScaling", "config": {"distribution": "uniform", "scale": 1.0, "mode": "fan_avg", "seed": null}}, "kernel_constraint": null, "kernel_size": [3, 3], "padding": "same", "use_bias": false}, "name": "conv2d_91", "inbound_nodes": [[["activation_90", 0, 0, {}]]]}, {"class_name": "BatchNormalization", "config": {"gamma_constraint": null, "beta_initializer": {"class_name": "Zeros", "config": {}}, "trainable": true, "moving_variance_initializer": {"class_name": "Ones", "config": {}}, "scale": false, "beta_constraint": null, "moving_mean_initializer": {"class_name": "Zeros", "config": {}}, "momentum": 0.99, "name": "batch_normalization_87", "epsilon": 0.001, "axis": 3, "gamma_initializer": {"class_name": "Ones", "config": {}}, "center": true, "beta_regularizer": null, "gamma_regularizer": null}, "name": "batch_normalization_87", "inbound_nodes": [[["conv2d_87", 0, 0, {}]]]}, {"class_name": "BatchNormalization", "config": {"gamma_constraint": null, "beta_initializer": {"class_name": "Zeros", "config": {}}, "trainable": true, "moving_variance_initializer": {"class_name": "Ones", "config": {}}, "scale": false, "beta_constraint": null, "moving_mean_initializer": {"class_name": "Zeros", "config": {}}, "momentum": 0.99, "name": "batch_normalization_91", "epsilon": 0.001, "axis": 3, "gamma_initializer": {"class_name": "Ones", "config": {}}, "center": true, "beta_regularizer": null, "gamma_regularizer": null}, "name": "batch_normalization_91", "inbound_nodes": [[["conv2d_91", 0, 0, {}]]]}, {"class_name": "Activation", "config": {"activation": "relu", "name": "activation_87", "trainable": true}, "name": "activation_87", "inbound_nodes": [[["batch_normalization_87", 0, 0, {}]]]}, {"class_name": "Activation", "config": {"activation": "relu", "name": "activation_91", "trainable": true}, "name": "activation_91", "inbound_nodes": [[["batch_normalization_91", 0, 0, {}]]]}, {"class_name": "Conv2D", "config": {"kernel_regularizer": null, "bias_constraint": null, "strides": [1, 1], "bias_initializer": {"class_name": "Zeros", "config": {}}, "trainable": true, "activation": "linear", "data_format": "channels_last", "filters": 384, "dilation_rate": [1, 1], "bias_regularizer": null, "activity_regularizer": null, "name": "conv2d_88", "kernel_initializer": {"class_name": "VarianceScaling", "config": {"distribution": "uniform", "scale": 1.0, "mode": "fan_avg", "seed": null}}, "kernel_constraint": null, "kernel_size": [1, 3], "padding": "same", "use_bias": false}, "name": "conv2d_88", "inbound_nodes": [[["activation_87", 0, 0, {}]]]}, {"class_name": "Conv2D", "config": {"kernel_regularizer": null, "bias_constraint": null, "strides": [1, 1], "bias_initializer": {"class_name": "Zeros", "config": {}}, "trainable": true, "activation": "linear", "data_format": "channels_last", "filters": 384, "dilation_rate": [1, 1], "bias_regularizer": null, "activity_regularizer": null, "name": "conv2d_89", "kernel_initializer": {"class_name": "VarianceScaling", "config": {"distribution": "uniform", "scale": 1.0, "mode": "fan_avg", "seed": null}}, "kernel_constraint": null, "kernel_size": [3, 1], "padding": "same", "use_bias": false}, "name": "conv2d_89", "inbound_nodes": [[["activation_87", 0, 0, {}]]]}, {"class_name": "Conv2D", "config": {"kernel_regularizer": null, "bias_constraint": null, "strides": [1, 1], "bias_initializer": {"class_name": "Zeros", "config": {}}, "trainable": true, "activation": "linear", "data_format": "channels_last", "filters": 384, "dilation_rate": [1, 1], "bias_regularizer": null, "activity_regularizer": null, "name": "conv2d_92", "kernel_initializer": {"class_name": "VarianceScaling", "config": {"distribution": "uniform", "scale": 1.0, "mode": "fan_avg", "seed": null}}, "kernel_constraint": null, "kernel_size": [1, 3], "padding": "same", "use_bias": false}, "name": "conv2d_92", "inbound_nodes": [[["activation_91", 0, 0, {}]]]}, {"class_name": "Conv2D", "config": {"kernel_regularizer": null, "bias_constraint": null, "strides": [1, 1], "bias_initializer": {"class_name": "Zeros", "config": {}}, "trainable": true, "activation": "linear", "data_format": "channels_last", "filters": 384, "dilation_rate": [1, 1], "bias_regularizer": null, "activity_regularizer": null, "name": "conv2d_93", "kernel_initializer": {"class_name": "VarianceScaling", "config": {"distribution": "uniform", "scale": 1.0, "mode": "fan_avg", "seed": null}}, "kernel_constraint": null, "kernel_size": [3, 1], "padding": "same", "use_bias": false}, "name": "conv2d_93", "inbound_nodes": [[["activation_91", 0, 0, {}]]]}, {"class_name": "AveragePooling2D", "config": {"pool_size": [3, 3], "strides": [1, 1], "name": "average_pooling2d_9", "trainable": true, "padding": "same", "data_format": "channels_last"}, "name": "average_pooling2d_9", "inbound_nodes": [[["mixed9", 0, 0, {}]]]}, {"class_name": "Conv2D", "config": {"kernel_regularizer": null, "bias_constraint": null, "strides": [1, 1], "bias_initializer": {"class_name": "Zeros", "config": {}}, "trainable": true, "activation": "linear", "data_format": "channels_last", "filters": 320, "dilation_rate": [1, 1], "bias_regularizer": null, "activity_regularizer": null, "name": "conv2d_86", "kernel_initializer": {"class_name": "VarianceScaling", "config": {"distribution": "uniform", "scale": 1.0, "mode": "fan_avg", "seed": null}}, "kernel_constraint": null, "kernel_size": [1, 1], "padding": "same", "use_bias": false}, "name": "conv2d_86", "inbound_nodes": [[["mixed9", 0, 0, {}]]]}, {"class_name": "BatchNormalization", "config": {"gamma_constraint": null, "beta_initializer": {"class_name": "Zeros", "config": {}}, "trainable": true, "moving_variance_initializer": {"class_name": "Ones", "config": {}}, "scale": false, "beta_constraint": null, "moving_mean_initializer": {"class_name": "Zeros", "config": {}}, "momentum": 0.99, "name": "batch_normalization_88", "epsilon": 0.001, "axis": 3, "gamma_initializer": {"class_name": "Ones", "config": {}}, "center": true, "beta_regularizer": null, "gamma_regularizer": null}, "name": "batch_normalization_88", "inbound_nodes": [[["conv2d_88", 0, 0, {}]]]}, {"class_name": "BatchNormalization", "config": {"gamma_constraint": null, "beta_initializer": {"class_name": "Zeros", "config": {}}, "trainable": true, "moving_variance_initializer": {"class_name": "Ones", "config": {}}, "scale": false, "beta_constraint": null, "moving_mean_initializer": {"class_name": "Zeros", "config": {}}, "momentum": 0.99, "name": "batch_normalization_89", "epsilon": 0.001, "axis": 3, "gamma_initializer": {"class_name": "Ones", "config": {}}, "center": true, "beta_regularizer": null, "gamma_regularizer": null}, "name": "batch_normalization_89", "inbound_nodes": [[["conv2d_89", 0, 0, {}]]]}, {"class_name": "BatchNormalization", "config": {"gamma_constraint": null, "beta_initializer": {"class_name": "Zeros", "config": {}}, "trainable": true, "moving_variance_initializer": {"class_name": "Ones", "config": {}}, "scale": false, "beta_constraint": null, "moving_mean_initializer": {"class_name": "Zeros", "config": {}}, "momentum": 0.99, "name": "batch_normalization_92", "epsilon": 0.001, "axis": 3, "gamma_initializer": {"class_name": "Ones", "config": {}}, "center": true, "beta_regularizer": null, "gamma_regularizer": null}, "name": "batch_normalization_92", "inbound_nodes": [[["conv2d_92", 0, 0, {}]]]}, {"class_name": "BatchNormalization", "config": {"gamma_constraint": null, "beta_initializer": {"class_name": "Zeros", "config": {}}, "trainable": true, "moving_variance_initializer": {"class_name": "Ones", "config": {}}, "scale": false, "beta_constraint": null, "moving_mean_initializer": {"class_name": "Zeros", "config": {}}, "momentum": 0.99, "name": "batch_normalization_93", "epsilon": 0.001, "axis": 3, "gamma_initializer": {"class_name": "Ones", "config": {}}, "center": true, "beta_regularizer": null, "gamma_regularizer": null}, "name": "batch_normalization_93", "inbound_nodes": [[["conv2d_93", 0, 0, {}]]]}, {"class_name": "Conv2D", "config": {"kernel_regularizer": null, "bias_constraint": null, "strides": [1, 1], "bias_initializer": {"class_name": "Zeros", "config": {}}, "trainable": true, "activation": "linear", "data_format": "channels_last", "filters": 192, "dilation_rate": [1, 1], "bias_regularizer": null, "activity_regularizer": null, "name": "conv2d_94", "kernel_initializer": {"class_name": "VarianceScaling", "config": {"distribution": "uniform", "scale": 1.0, "mode": "fan_avg", "seed": null}}, "kernel_constraint": null, "kernel_size": [1, 1], "padding": "same", "use_bias": false}, "name": "conv2d_94", "inbound_nodes": [[["average_pooling2d_9", 0, 0, {}]]]}, {"class_name": "BatchNormalization", "config": {"gamma_constraint": null, "beta_initializer": {"class_name": "Zeros", "config": {}}, "trainable": true, "moving_variance_initializer": {"class_name": "Ones", "config": {}}, "scale": false, "beta_constraint": null, "moving_mean_initializer": {"class_name": "Zeros", "config": {}}, "momentum": 0.99, "name": "batch_normalization_86", "epsilon": 0.001, "axis": 3, "gamma_initializer": {"class_name": "Ones", "config": {}}, "center": true, "beta_regularizer": null, "gamma_regularizer": null}, "name": "batch_normalization_86", "inbound_nodes": [[["conv2d_86", 0, 0, {}]]]}, {"class_name": "Activation", "config": {"activation": "relu", "name": "activation_88", "trainable": true}, "name": "activation_88", "inbound_nodes": [[["batch_normalization_88", 0, 0, {}]]]}, {"class_name": "Activation", "config": {"activation": "relu", "name": "activation_89", "trainable": true}, "name": "activation_89", "inbound_nodes": [[["batch_normalization_89", 0, 0, {}]]]}, {"class_name": "Activation", "config": {"activation": "relu", "name": "activation_92", "trainable": true}, "name": "activation_92", "inbound_nodes": [[["batch_normalization_92", 0, 0, {}]]]}, {"class_name": "Activation", "config": {"activation": "relu", "name": "activation_93", "trainable": true}, "name": "activation_93", "inbound_nodes": [[["batch_normalization_93", 0, 0, {}]]]}, {"class_name": "BatchNormalization", "config": {"gamma_constraint": null, "beta_initializer": {"class_name": "Zeros", "config": {}}, "trainable": true, "moving_variance_initializer": {"class_name": "Ones", "config": {}}, "scale": false, "beta_constraint": null, "moving_mean_initializer": {"class_name": "Zeros", "config": {}}, "momentum": 0.99, "name": "batch_normalization_94", "epsilon": 0.001, "axis": 3, "gamma_initializer": {"class_name": "Ones", "config": {}}, "center": true, "beta_regularizer": null, "gamma_regularizer": null}, "name": "batch_normalization_94", "inbound_nodes": [[["conv2d_94", 0, 0, {}]]]}, {"class_name": "Activation", "config": {"activation": "relu", "name": "activation_86", "trainable": true}, "name": "activation_86", "inbound_nodes": [[["batch_normalization_86", 0, 0, {}]]]}, {"class_name": "Concatenate", "config": {"name": "mixed9_1", "trainable": true, "axis": 3}, "name": "mixed9_1", "inbound_nodes": [[["activation_88", 0, 0, {}], ["activation_89", 0, 0, {}]]]}, {"class_name": "Concatenate", "config": {"name": "concatenate_2", "trainable": true, "axis": 3}, "name": "concatenate_2", "inbound_nodes": [[["activation_92", 0, 0, {}], ["activation_93", 0, 0, {}]]]}, {"class_name": "Activation", "config": {"activation": "relu", "name": "activation_94", "trainable": true}, "name": "activation_94", "inbound_nodes": [[["batch_normalization_94", 0, 0, {}]]]}, {"class_name": "Concatenate", "config": {"name": "mixed10", "trainable": true, "axis": 3}, "name": "mixed10", "inbound_nodes": [[["activation_86", 0, 0, {}], ["mixed9_1", 0, 0, {}], ["concatenate_2", 0, 0, {}], ["activation_94", 0, 0, {}]]]}, {"class_name": "GlobalAveragePooling2D", "config": {"data_format": "channels_last", "name": "global_average_pooling2d_1", "trainable": true}, "name": "global_average_pooling2d_1", "inbound_nodes": [[["mixed10", 0, 0, {}]]]}, {"class_name": "Dense", "config": {"units": 256, "bias_constraint": null, "kernel_constraint": null, "bias_initializer": {"class_name": "Zeros", "config": {}}, "trainable": true, "activation": "relu", "use_bias": true, "bias_regularizer": null, "activity_regularizer": null, "name": "dense_1", "kernel_initializer": {"class_name": "VarianceScaling", "config": {"distribution": "uniform", "scale": 1.0, "mode": "fan_avg", "seed": null}}, "kernel_regularizer": null}, "name": "dense_1", "inbound_nodes": [[["global_average_pooling2d_1", 0, 0, {}]]]}, {"class_name": "Dropout", "config": {"noise_shape": null, "rate": 0.5, "name": "dropout_1", "trainable": true, "seed": null}, "name": "dropout_1", "inbound_nodes": [[["dense_1", 0, 0, {}]]]}, {"class_name": "Dense", "config": {"units": 1, "bias_constraint": null, "kernel_constraint": null, "bias_initializer": {"class_name": "Zeros", "config": {}}, "trainable": true, "activation": "sigmoid", "use_bias": true, "bias_regularizer": null, "activity_regularizer": null, "name": "dense_2", "kernel_initializer": {"class_name": "VarianceScaling", "config": {"distribution": "uniform", "scale": 1.0, "mode": "fan_avg", "seed": null}}, "kernel_regularizer": null}, "name": "dense_2", "inbound_nodes": [[["dropout_1", 0, 0, {}]]]}], "output_layers": [["dense_2", 0, 0]]}, "keras_version": "2.0.9", "backend": "tensorflow"}