{"backend": "tensorflow", "keras_version": "2.0.9", "class_name": "Model", "config": {"name": "model_1", "layers": [{"name": "input_1", "inbound_nodes": [], "class_name": "InputLayer", "config": {"sparse": false, "name": "input_1", "dtype": "float32", "batch_input_shape": [null, null, null, 3]}}, {"name": "conv2d_1", "inbound_nodes": [[["input_1", 0, 0, {}]]], "class_name": "Conv2D", "config": {"name": "conv2d_1", "activation": "linear", "strides": [2, 2], "use_bias": false, "data_format": "channels_last", "dilation_rate": [1, 1], "kernel_constraint": null, "kernel_size": [3, 3], "bias_regularizer": null, "bias_initializer": {"class_name": "Zeros", "config": {}}, "padding": "valid", "kernel_initializer": {"class_name": "VarianceScaling", "config": {"seed": null, "distribution": "uniform", "mode": "fan_avg", "scale": 1.0}}, "activity_regularizer": null, "trainable": false, "filters": 32, "bias_constraint": null, "kernel_regularizer": null}}, {"name": "batch_normalization_1", "inbound_nodes": [[["conv2d_1", 0, 0, {}]]], "class_name": "BatchNormalization", "config": {"name": "batch_normalization_1", "beta_initializer": {"class_name": "Zeros", "config": {}}, "gamma_regularizer": null, "moving_mean_initializer": {"class_name": "Zeros", "config": {}}, "gamma_initializer": {"class_name": "Ones", "config": {}}, "axis": 3, "beta_regularizer": null, "scale": false, "epsilon": 0.001, "beta_constraint": null, "momentum": 0.99, "center": true, "trainable": false, "moving_variance_initializer": {"class_name": "Ones", "config": {}}, "gamma_constraint": null}}, {"name": "activation_1", "inbound_nodes": [[["batch_normalization_1", 0, 0, {}]]], "class_name": "Activation", "config": {"name": "activation_1", "activation": "relu", "trainable": false}}, {"name": "conv2d_2", "inbound_nodes": [[["activation_1", 0, 0, {}]]], "class_name": "Conv2D", "config": {"name": "conv2d_2", "activation": "linear", "strides": [1, 1], "use_bias": false, "data_format": "channels_last", "dilation_rate": [1, 1], "kernel_constraint": null, "kernel_size": [3, 3], "bias_regularizer": null, "bias_initializer": {"class_name": "Zeros", "config": {}}, "padding": "valid", "kernel_initializer": {"class_name": "VarianceScaling", "config": {"seed": null, "distribution": "uniform", "mode": "fan_avg", "scale": 1.0}}, "activity_regularizer": null, "trainable": false, "filters": 32, "bias_constraint": null, "kernel_regularizer": null}}, {"name": "batch_normalization_2", "inbound_nodes": [[["conv2d_2", 0, 0, {}]]], "class_name": "BatchNormalization", "config": {"name": "batch_normalization_2", "beta_initializer": {"class_name": "Zeros", "config": {}}, "gamma_regularizer": null, "moving_mean_initializer": {"class_name": "Zeros", "config": {}}, "gamma_initializer": {"class_name": "Ones", "config": {}}, "axis": 3, "beta_regularizer": null, "scale": false, "epsilon": 0.001, "beta_constraint": null, "momentum": 0.99, "center": true, "trainable": false, "moving_variance_initializer": {"class_name": "Ones", "config": {}}, "gamma_constraint": null}}, {"name": "activation_2", "inbound_nodes": [[["batch_normalization_2", 0, 0, {}]]], "class_name": "Activation", "config": {"name": "activation_2", "activation": "relu", "trainable": false}}, {"name": "conv2d_3", "inbound_nodes": [[["activation_2", 0, 0, {}]]], "class_name": "Conv2D", "config": {"name": "conv2d_3", "activation": "linear", "strides": [1, 1], "use_bias": false, "data_format": "channels_last", "dilation_rate": [1, 1], "kernel_constraint": null, "kernel_size": [3, 3], "bias_regularizer": null, "bias_initializer": {"class_name": "Zeros", "config": {}}, "padding": "same", "kernel_initializer": {"class_name": "VarianceScaling", "config": {"seed": null, "distribution": "uniform", "mode": "fan_avg", "scale": 1.0}}, "activity_regularizer": null, "trainable": false, "filters": 64, "bias_constraint": null, "kernel_regularizer": null}}, {"name": "batch_normalization_3", "inbound_nodes": [[["conv2d_3", 0, 0, {}]]], "class_name": "BatchNormalization", "config": {"name": "batch_normalization_3", "beta_initializer": {"class_name": "Zeros", "config": {}}, "gamma_regularizer": null, "moving_mean_initializer": {"class_name": "Zeros", "config": {}}, "gamma_initializer": {"class_name": "Ones", "config": {}}, "axis": 3, "beta_regularizer": null, "scale": false, "epsilon": 0.001, "beta_constraint": null, "momentum": 0.99, "center": true, "trainable": false, "moving_variance_initializer": {"class_name": "Ones", "config": {}}, "gamma_constraint": null}}, {"name": "activation_3", "inbound_nodes": [[["batch_normalization_3", 0, 0, {}]]], "class_name": "Activation", "config": {"name": "activation_3", "activation": "relu", "trainable": false}}, {"name": "max_pooling2d_1", "inbound_nodes": [[["activation_3", 0, 0, {}]]], "class_name": "MaxPooling2D", "config": {"name": "max_pooling2d_1", "data_format": "channels_last", "strides": [2, 2], "padding": "valid", "trainable": false, "pool_size": [3, 3]}}, {"name": "conv2d_4", "inbound_nodes": [[["max_pooling2d_1", 0, 0, {}]]], "class_name": "Conv2D", "config": {"name": "conv2d_4", "activation": "linear", "strides": [1, 1], "use_bias": false, "data_format": "channels_last", "dilation_rate": [1, 1], "kernel_constraint": null, "kernel_size": [1, 1], "bias_regularizer": null, "bias_initializer": {"class_name": "Zeros", "config": {}}, "padding": "valid", "kernel_initializer": {"class_name": "VarianceScaling", "config": {"seed": null, "distribution": "uniform", "mode": "fan_avg", "scale": 1.0}}, "activity_regularizer": null, "trainable": false, "filters": 80, "bias_constraint": null, "kernel_regularizer": null}}, {"name": "batch_normalization_4", "inbound_nodes": [[["conv2d_4", 0, 0, {}]]], "class_name": "BatchNormalization", "config": {"name": "batch_normalization_4", "beta_initializer": {"class_name": "Zeros", "config": {}}, "gamma_regularizer": null, "moving_mean_initializer": {"class_name": "Zeros", "config": {}}, "gamma_initializer": {"class_name": "Ones", "config": {}}, "axis": 3, "beta_regularizer": null, "scale": false, "epsilon": 0.001, "beta_constraint": null, "momentum": 0.99, "center": true, "trainable": false, "moving_variance_initializer": {"class_name": "Ones", "config": {}}, "gamma_constraint": null}}, {"name": "activation_4", "inbound_nodes": [[["batch_normalization_4", 0, 0, {}]]], "class_name": "Activation", "config": {"name": "activation_4", "activation": "relu", "trainable": false}}, {"name": "conv2d_5", "inbound_nodes": [[["activation_4", 0, 0, {}]]], "class_name": "Conv2D", "config": {"name": "conv2d_5", "activation": "linear", "strides": [1, 1], "use_bias": false, "data_format": "channels_last", "dilation_rate": [1, 1], "kernel_constraint": null, "kernel_size": [3, 3], "bias_regularizer": null, "bias_initializer": {"class_name": "Zeros", "config": {}}, "padding": "valid", "kernel_initializer": {"class_name": "VarianceScaling", "config": {"seed": null, "distribution": "uniform", "mode": "fan_avg", "scale": 1.0}}, "activity_regularizer": null, "trainable": false, "filters": 192, "bias_constraint": null, "kernel_regularizer": null}}, {"name": "batch_normalization_5", "inbound_nodes": [[["conv2d_5", 0, 0, {}]]], "class_name": "BatchNormalization", "config": {"name": "batch_normalization_5", "beta_initializer": {"class_name": "Zeros", "config": {}}, "gamma_regularizer": null, "moving_mean_initializer": {"class_name": "Zeros", "config": {}}, "gamma_initializer": {"class_name": "Ones", "config": {}}, "axis": 3, "beta_regularizer": null, "scale": false, "epsilon": 0.001, "beta_constraint": null, "momentum": 0.99, "center": true, "trainable": false, "moving_variance_initializer": {"class_name": "Ones", "config": {}}, "gamma_constraint": null}}, {"name": "activation_5", "inbound_nodes": [[["batch_normalization_5", 0, 0, {}]]], "class_name": "Activation", "config": {"name": "activation_5", "activation": "relu", "trainable": false}}, {"name": "max_pooling2d_2", "inbound_nodes": [[["activation_5", 0, 0, {}]]], "class_name": "MaxPooling2D", "config": {"name": "max_pooling2d_2", "data_format": "channels_last", "strides": [2, 2], "padding": "valid", "trainable": false, "pool_size": [3, 3]}}, {"name": "conv2d_9", "inbound_nodes": [[["max_pooling2d_2", 0, 0, {}]]], "class_name": "Conv2D", "config": {"name": "conv2d_9", "activation": "linear", "strides": [1, 1], "use_bias": false, "data_format": "channels_last", "dilation_rate": [1, 1], "kernel_constraint": null, "kernel_size": [1, 1], "bias_regularizer": null, "bias_initializer": {"class_name": "Zeros", "config": {}}, "padding": "same", "kernel_initializer": {"class_name": "VarianceScaling", "config": {"seed": null, "distribution": "uniform", "mode": "fan_avg", "scale": 1.0}}, "activity_regularizer": null, "trainable": false, "filters": 64, "bias_constraint": null, "kernel_regularizer": null}}, {"name": "batch_normalization_9", "inbound_nodes": [[["conv2d_9", 0, 0, {}]]], "class_name": "BatchNormalization", "config": {"name": "batch_normalization_9", "beta_initializer": {"class_name": "Zeros", "config": {}}, "gamma_regularizer": null, "moving_mean_initializer": {"class_name": "Zeros", "config": {}}, "gamma_initializer": {"class_name": "Ones", "config": {}}, "axis": 3, "beta_regularizer": null, "scale": false, "epsilon": 0.001, "beta_constraint": null, "momentum": 0.99, "center": true, "trainable": false, "moving_variance_initializer": {"class_name": "Ones", "config": {}}, "gamma_constraint": null}}, {"name": "activation_9", "inbound_nodes": [[["batch_normalization_9", 0, 0, {}]]], "class_name": "Activation", "config": {"name": "activation_9", "activation": "relu", "trainable": false}}, {"name": "conv2d_7", "inbound_nodes": [[["max_pooling2d_2", 0, 0, {}]]], "class_name": "Conv2D", "config": {"name": "conv2d_7", "activation": "linear", "strides": [1, 1], "use_bias": false, "data_format": "channels_last", "dilation_rate": [1, 1], "kernel_constraint": null, "kernel_size": [1, 1], "bias_regularizer": null, "bias_initializer": {"class_name": "Zeros", "config": {}}, "padding": "same", "kernel_initializer": {"class_name": "VarianceScaling", "config": {"seed": null, "distribution": "uniform", "mode": "fan_avg", "scale": 1.0}}, "activity_regularizer": null, "trainable": false, "filters": 48, "bias_constraint": null, "kernel_regularizer": null}}, {"name": "conv2d_10", "inbound_nodes": [[["activation_9", 0, 0, {}]]], "class_name": "Conv2D", "config": {"name": "conv2d_10", "activation": "linear", "strides": [1, 1], "use_bias": false, "data_format": "channels_last", "dilation_rate": [1, 1], "kernel_constraint": null, "kernel_size": [3, 3], "bias_regularizer": null, "bias_initializer": {"class_name": "Zeros", "config": {}}, "padding": "same", "kernel_initializer": {"class_name": "VarianceScaling", "config": {"seed": null, "distribution": "uniform", "mode": "fan_avg", "scale": 1.0}}, "activity_regularizer": null, "trainable": false, "filters": 96, "bias_constraint": null, "kernel_regularizer": null}}, {"name": "batch_normalization_7", "inbound_nodes": [[["conv2d_7", 0, 0, {}]]], "class_name": "BatchNormalization", "config": {"name": "batch_normalization_7", "beta_initializer": {"class_name": "Zeros", "config": {}}, "gamma_regularizer": null, "moving_mean_initializer": {"class_name": "Zeros", "config": {}}, "gamma_initializer": {"class_name": "Ones", "config": {}}, "axis": 3, "beta_regularizer": null, "scale": false, "epsilon": 0.001, "beta_constraint": null, "momentum": 0.99, "center": true, "trainable": false, "moving_variance_initializer": {"class_name": "Ones", "config": {}}, "gamma_constraint": null}}, {"name": "batch_normalization_10", "inbound_nodes": [[["conv2d_10", 0, 0, {}]]], "class_name": "BatchNormalization", "config": {"name": "batch_normalization_10", "beta_initializer": {"class_name": "Zeros", "config": {}}, "gamma_regularizer": null, "moving_mean_initializer": {"class_name": "Zeros", "config": {}}, "gamma_initializer": {"class_name": "Ones", "config": {}}, "axis": 3, "beta_regularizer": null, "scale": false, "epsilon": 0.001, "beta_constraint": null, "momentum": 0.99, "center": true, "trainable": false, "moving_variance_initializer": {"class_name": "Ones", "config": {}}, "gamma_constraint": null}}, {"name": "activation_7", "inbound_nodes": [[["batch_normalization_7", 0, 0, {}]]], "class_name": "Activation", "config": {"name": "activation_7", "activation": "relu", "trainable": false}}, {"name": "activation_10", "inbound_nodes": [[["batch_normalization_10", 0, 0, {}]]], "class_name": "Activation", "config": {"name": "activation_10", "activation": "relu", "trainable": false}}, {"name": "average_pooling2d_1", "inbound_nodes": [[["max_pooling2d_2", 0, 0, {}]]], "class_name": "AveragePooling2D", "config": {"name": "average_pooling2d_1", "data_format": "channels_last", "strides": [1, 1], "padding": "same", "trainable": false, "pool_size": [3, 3]}}, {"name": "conv2d_6", "inbound_nodes": [[["max_pooling2d_2", 0, 0, {}]]], "class_name": "Conv2D", "config": {"name": "conv2d_6", "activation": "linear", "strides": [1, 1], "use_bias": false, "data_format": "channels_last", "dilation_rate": [1, 1], "kernel_constraint": null, "kernel_size": [1, 1], "bias_regularizer": null, "bias_initializer": {"class_name": "Zeros", "config": {}}, "padding": "same", "kernel_initializer": {"class_name": "VarianceScaling", "config": {"seed": null, "distribution": "uniform", "mode": "fan_avg", "scale": 1.0}}, "activity_regularizer": null, "trainable": false, "filters": 64, "bias_constraint": null, "kernel_regularizer": null}}, {"name": "conv2d_8", "inbound_nodes": [[["activation_7", 0, 0, {}]]], "class_name": "Conv2D", "config": {"name": "conv2d_8", "activation": "linear", "strides": [1, 1], "use_bias": false, "data_format": "channels_last", "dilation_rate": [1, 1], "kernel_constraint": null, "kernel_size": [5, 5], "bias_regularizer": null, "bias_initializer": {"class_name": "Zeros", "config": {}}, "padding": "same", "kernel_initializer": {"class_name": "VarianceScaling", "config": {"seed": null, "distribution": "uniform", "mode": "fan_avg", "scale": 1.0}}, "activity_regularizer": null, "trainable": false, "filters": 64, "bias_constraint": null, "kernel_regularizer": null}}, {"name": "conv2d_11", "inbound_nodes": [[["activation_10", 0, 0, {}]]], "class_name": "Conv2D", "config": {"name": "conv2d_11", "activation": "linear", "strides": [1, 1], "use_bias": false, "data_format": "channels_last", "dilation_rate": [1, 1], "kernel_constraint": null, "kernel_size": [3, 3], "bias_regularizer": null, "bias_initializer": {"class_name": "Zeros", "config": {}}, "padding": "same", "kernel_initializer": {"class_name": "VarianceScaling", "config": {"seed": null, "distribution": "uniform", "mode": "fan_avg", "scale": 1.0}}, "activity_regularizer": null, "trainable": false, "filters": 96, "bias_constraint": null, "kernel_regularizer": null}}, {"name": "conv2d_12", "inbound_nodes": [[["average_pooling2d_1", 0, 0, {}]]], "class_name": "Conv2D", "config": {"name": "conv2d_12", "activation": "linear", "strides": [1, 1], "use_bias": false, "data_format": "channels_last", "dilation_rate": [1, 1], "kernel_constraint": null, "kernel_size": [1, 1], "bias_regularizer": null, "bias_initializer": {"class_name": "Zeros", "config": {}}, "padding": "same", "kernel_initializer": {"class_name": "VarianceScaling", "config": {"seed": null, "distribution": "uniform", "mode": "fan_avg", "scale": 1.0}}, "activity_regularizer": null, "trainable": false, "filters": 32, "bias_constraint": null, "kernel_regularizer": null}}, {"name": "batch_normalization_6", "inbound_nodes": [[["conv2d_6", 0, 0, {}]]], "class_name": "BatchNormalization", "config": {"name": "batch_normalization_6", "beta_initializer": {"class_name": "Zeros", "config": {}}, "gamma_regularizer": null, "moving_mean_initializer": {"class_name": "Zeros", "config": {}}, "gamma_initializer": {"class_name": "Ones", "config": {}}, "axis": 3, "beta_regularizer": null, "scale": false, "epsilon": 0.001, "beta_constraint": null, "momentum": 0.99, "center": true, "trainable": false, "moving_variance_initializer": {"class_name": "Ones", "config": {}}, "gamma_constraint": null}}, {"name": "batch_normalization_8", "inbound_nodes": [[["conv2d_8", 0, 0, {}]]], "class_name": "BatchNormalization", "config": {"name": "batch_normalization_8", "beta_initializer": {"class_name": "Zeros", "config": {}}, "gamma_regularizer": null, "moving_mean_initializer": {"class_name": "Zeros", "config": {}}, "gamma_initializer": {"class_name": "Ones", "config": {}}, "axis": 3, "beta_regularizer": null, "scale": false, "epsilon": 0.001, "beta_constraint": null, "momentum": 0.99, "center": true, "trainable": false, "moving_variance_initializer": {"class_name": "Ones", "config": {}}, "gamma_constraint": null}}, {"name": "batch_normalization_11", "inbound_nodes": [[["conv2d_11", 0, 0, {}]]], "class_name": "BatchNormalization", "config": {"name": "batch_normalization_11", "beta_initializer": {"class_name": "Zeros", "config": {}}, "gamma_regularizer": null, "moving_mean_initializer": {"class_name": "Zeros", "config": {}}, "gamma_initializer": {"class_name": "Ones", "config": {}}, "axis": 3, "beta_regularizer": null, "scale": false, "epsilon": 0.001, "beta_constraint": null, "momentum": 0.99, "center": true, "trainable": false, "moving_variance_initializer": {"class_name": "Ones", "config": {}}, "gamma_constraint": null}}, {"name": "batch_normalization_12", "inbound_nodes": [[["conv2d_12", 0, 0, {}]]], "class_name": "BatchNormalization", "config": {"name": "batch_normalization_12", "beta_initializer": {"class_name": "Zeros", "config": {}}, "gamma_regularizer": null, "moving_mean_initializer": {"class_name": "Zeros", "config": {}}, "gamma_initializer": {"class_name": "Ones", "config": {}}, "axis": 3, "beta_regularizer": null, "scale": false, "epsilon": 0.001, "beta_constraint": null, "momentum": 0.99, "center": true, "trainable": false, "moving_variance_initializer": {"class_name": "Ones", "config": {}}, "gamma_constraint": null}}, {"name": "activation_6", "inbound_nodes": [[["batch_normalization_6", 0, 0, {}]]], "class_name": "Activation", "config": {"name": "activation_6", "activation": "relu", "trainable": false}}, {"name": "activation_8", "inbound_nodes": [[["batch_normalization_8", 0, 0, {}]]], "class_name": "Activation", "config": {"name": "activation_8", "activation": "relu", "trainable": false}}, {"name": "activation_11", "inbound_nodes": [[["batch_normalization_11", 0, 0, {}]]], "class_name": "Activation", "config": {"name": "activation_11", "activation": "relu", "trainable": false}}, {"name": "activation_12", "inbound_nodes": [[["batch_normalization_12", 0, 0, {}]]], "class_name": "Activation", "config": {"name": "activation_12", "activation": "relu", "trainable": false}}, {"name": "mixed0", "inbound_nodes": [[["activation_6", 0, 0, {}], ["activation_8", 0, 0, {}], ["activation_11", 0, 0, {}], ["activation_12", 0, 0, {}]]], "class_name": "Concatenate", "config": {"name": "mixed0", "trainable": false, "axis": 3}}, {"name": "conv2d_16", "inbound_nodes": [[["mixed0", 0, 0, {}]]], "class_name": "Conv2D", "config": {"name": "conv2d_16", "activation": "linear", "strides": [1, 1], "use_bias": false, "data_format": "channels_last", "dilation_rate": [1, 1], "kernel_constraint": null, "kernel_size": [1, 1], "bias_regularizer": null, "bias_initializer": {"class_name": "Zeros", "config": {}}, "padding": "same", "kernel_initializer": {"class_name": "VarianceScaling", "config": {"seed": null, "distribution": "uniform", "mode": "fan_avg", "scale": 1.0}}, "activity_regularizer": null, "trainable": false, "filters": 64, "bias_constraint": null, "kernel_regularizer": null}}, {"name": "batch_normalization_16", "inbound_nodes": [[["conv2d_16", 0, 0, {}]]], "class_name": "BatchNormalization", "config": {"name": "batch_normalization_16", "beta_initializer": {"class_name": "Zeros", "config": {}}, "gamma_regularizer": null, "moving_mean_initializer": {"class_name": "Zeros", "config": {}}, "gamma_initializer": {"class_name": "Ones", "config": {}}, "axis": 3, "beta_regularizer": null, "scale": false, "epsilon": 0.001, "beta_constraint": null, "momentum": 0.99, "center": true, "trainable": false, "moving_variance_initializer": {"class_name": "Ones", "config": {}}, "gamma_constraint": null}}, {"name": "activation_16", "inbound_nodes": [[["batch_normalization_16", 0, 0, {}]]], "class_name": "Activation", "config": {"name": "activation_16", "activation": "relu", "trainable": false}}, {"name": "conv2d_14", "inbound_nodes": [[["mixed0", 0, 0, {}]]], "class_name": "Conv2D", "config": {"name": "conv2d_14", "activation": "linear", "strides": [1, 1], "use_bias": false, "data_format": "channels_last", "dilation_rate": [1, 1], "kernel_constraint": null, "kernel_size": [1, 1], "bias_regularizer": null, "bias_initializer": {"class_name": "Zeros", "config": {}}, "padding": "same", "kernel_initializer": {"class_name": "VarianceScaling", "config": {"seed": null, "distribution": "uniform", "mode": "fan_avg", "scale": 1.0}}, "activity_regularizer": null, "trainable": false, "filters": 48, "bias_constraint": null, "kernel_regularizer": null}}, {"name": "conv2d_17", "inbound_nodes": [[["activation_16", 0, 0, {}]]], "class_name": "Conv2D", "config": {"name": "conv2d_17", "activation": "linear", "strides": [1, 1], "use_bias": false, "data_format": "channels_last", "dilation_rate": [1, 1], "kernel_constraint": null, "kernel_size": [3, 3], "bias_regularizer": null, "bias_initializer": {"class_name": "Zeros", "config": {}}, "padding": "same", "kernel_initializer": {"class_name": "VarianceScaling", "config": {"seed": null, "distribution": "uniform", "mode": "fan_avg", "scale": 1.0}}, "activity_regularizer": null, "trainable": false, "filters": 96, "bias_constraint": null, "kernel_regularizer": null}}, {"name": "batch_normalization_14", "inbound_nodes": [[["conv2d_14", 0, 0, {}]]], "class_name": "BatchNormalization", "config": {"name": "batch_normalization_14", "beta_initializer": {"class_name": "Zeros", "config": {}}, "gamma_regularizer": null, "moving_mean_initializer": {"class_name": "Zeros", "config": {}}, "gamma_initializer": {"class_name": "Ones", "config": {}}, "axis": 3, "beta_regularizer": null, "scale": false, "epsilon": 0.001, "beta_constraint": null, "momentum": 0.99, "center": true, "trainable": false, "moving_variance_initializer": {"class_name": "Ones", "config": {}}, "gamma_constraint": null}}, {"name": "batch_normalization_17", "inbound_nodes": [[["conv2d_17", 0, 0, {}]]], "class_name": "BatchNormalization", "config": {"name": "batch_normalization_17", "beta_initializer": {"class_name": "Zeros", "config": {}}, "gamma_regularizer": null, "moving_mean_initializer": {"class_name": "Zeros", "config": {}}, "gamma_initializer": {"class_name": "Ones", "config": {}}, "axis": 3, "beta_regularizer": null, "scale": false, "epsilon": 0.001, "beta_constraint": null, "momentum": 0.99, "center": true, "trainable": false, "moving_variance_initializer": {"class_name": "Ones", "config": {}}, "gamma_constraint": null}}, {"name": "activation_14", "inbound_nodes": [[["batch_normalization_14", 0, 0, {}]]], "class_name": "Activation", "config": {"name": "activation_14", "activation": "relu", "trainable": false}}, {"name": "activation_17", "inbound_nodes": [[["batch_normalization_17", 0, 0, {}]]], "class_name": "Activation", "config": {"name": "activation_17", "activation": "relu", "trainable": false}}, {"name": "average_pooling2d_2", "inbound_nodes": [[["mixed0", 0, 0, {}]]], "class_name": "AveragePooling2D", "config": {"name": "average_pooling2d_2", "data_format": "channels_last", "strides": [1, 1], "padding": "same", "trainable": false, "pool_size": [3, 3]}}, {"name": "conv2d_13", "inbound_nodes": [[["mixed0", 0, 0, {}]]], "class_name": "Conv2D", "config": {"name": "conv2d_13", "activation": "linear", "strides": [1, 1], "use_bias": false, "data_format": "channels_last", "dilation_rate": [1, 1], "kernel_constraint": null, "kernel_size": [1, 1], "bias_regularizer": null, "bias_initializer": {"class_name": "Zeros", "config": {}}, "padding": "same", "kernel_initializer": {"class_name": "VarianceScaling", "config": {"seed": null, "distribution": "uniform", "mode": "fan_avg", "scale": 1.0}}, "activity_regularizer": null, "trainable": false, "filters": 64, "bias_constraint": null, "kernel_regularizer": null}}, {"name": "conv2d_15", "inbound_nodes": [[["activation_14", 0, 0, {}]]], "class_name": "Conv2D", "config": {"name": "conv2d_15", "activation": "linear", "strides": [1, 1], "use_bias": false, "data_format": "channels_last", "dilation_rate": [1, 1], "kernel_constraint": null, "kernel_size": [5, 5], "bias_regularizer": null, "bias_initializer": {"class_name": "Zeros", "config": {}}, "padding": "same", "kernel_initializer": {"class_name": "VarianceScaling", "config": {"seed": null, "distribution": "uniform", "mode": "fan_avg", "scale": 1.0}}, "activity_regularizer": null, "trainable": false, "filters": 64, "bias_constraint": null, "kernel_regularizer": null}}, {"name": "conv2d_18", "inbound_nodes": [[["activation_17", 0, 0, {}]]], "class_name": "Conv2D", "config": {"name": "conv2d_18", "activation": "linear", "strides": [1, 1], "use_bias": false, "data_format": "channels_last", "dilation_rate": [1, 1], "kernel_constraint": null, "kernel_size": [3, 3], "bias_regularizer": null, "bias_initializer": {"class_name": "Zeros", "config": {}}, "padding": "same", "kernel_initializer": {"class_name": "VarianceScaling", "config": {"seed": null, "distribution": "uniform", "mode": "fan_avg", "scale": 1.0}}, "activity_regularizer": null, "trainable": false, "filters": 96, "bias_constraint": null, "kernel_regularizer": null}}, {"name": "conv2d_19", "inbound_nodes": [[["average_pooling2d_2", 0, 0, {}]]], "class_name": "Conv2D", "config": {"name": "conv2d_19", "activation": "linear", "strides": [1, 1], "use_bias": false, "data_format": "channels_last", "dilation_rate": [1, 1], "kernel_constraint": null, "kernel_size": [1, 1], "bias_regularizer": null, "bias_initializer": {"class_name": "Zeros", "config": {}}, "padding": "same", "kernel_initializer": {"class_name": "VarianceScaling", "config": {"seed": null, "distribution": "uniform", "mode": "fan_avg", "scale": 1.0}}, "activity_regularizer": null, "trainable": false, "filters": 64, "bias_constraint": null, "kernel_regularizer": null}}, {"name": "batch_normalization_13", "inbound_nodes": [[["conv2d_13", 0, 0, {}]]], "class_name": "BatchNormalization", "config": {"name": "batch_normalization_13", "beta_initializer": {"class_name": "Zeros", "config": {}}, "gamma_regularizer": null, "moving_mean_initializer": {"class_name": "Zeros", "config": {}}, "gamma_initializer": {"class_name": "Ones", "config": {}}, "axis": 3, "beta_regularizer": null, "scale": false, "epsilon": 0.001, "beta_constraint": null, "momentum": 0.99, "center": true, "trainable": false, "moving_variance_initializer": {"class_name": "Ones", "config": {}}, "gamma_constraint": null}}, {"name": "batch_normalization_15", "inbound_nodes": [[["conv2d_15", 0, 0, {}]]], "class_name": "BatchNormalization", "config": {"name": "batch_normalization_15", "beta_initializer": {"class_name": "Zeros", "config": {}}, "gamma_regularizer": null, "moving_mean_initializer": {"class_name": "Zeros", "config": {}}, "gamma_initializer": {"class_name": "Ones", "config": {}}, "axis": 3, "beta_regularizer": null, "scale": false, "epsilon": 0.001, "beta_constraint": null, "momentum": 0.99, "center": true, "trainable": false, "moving_variance_initializer": {"class_name": "Ones", "config": {}}, "gamma_constraint": null}}, {"name": "batch_normalization_18", "inbound_nodes": [[["conv2d_18", 0, 0, {}]]], "class_name": "BatchNormalization", "config": {"name": "batch_normalization_18", "beta_initializer": {"class_name": "Zeros", "config": {}}, "gamma_regularizer": null, "moving_mean_initializer": {"class_name": "Zeros", "config": {}}, "gamma_initializer": {"class_name": "Ones", "config": {}}, "axis": 3, "beta_regularizer": null, "scale": false, "epsilon": 0.001, "beta_constraint": null, "momentum": 0.99, "center": true, "trainable": false, "moving_variance_initializer": {"class_name": "Ones", "config": {}}, "gamma_constraint": null}}, {"name": "batch_normalization_19", "inbound_nodes": [[["conv2d_19", 0, 0, {}]]], "class_name": "BatchNormalization", "config": {"name": "batch_normalization_19", "beta_initializer": {"class_name": "Zeros", "config": {}}, "gamma_regularizer": null, "moving_mean_initializer": {"class_name": "Zeros", "config": {}}, "gamma_initializer": {"class_name": "Ones", "config": {}}, "axis": 3, "beta_regularizer": null, "scale": false, "epsilon": 0.001, "beta_constraint": null, "momentum": 0.99, "center": true, "trainable": false, "moving_variance_initializer": {"class_name": "Ones", "config": {}}, "gamma_constraint": null}}, {"name": "activation_13", "inbound_nodes": [[["batch_normalization_13", 0, 0, {}]]], "class_name": "Activation", "config": {"name": "activation_13", "activation": "relu", "trainable": false}}, {"name": "activation_15", "inbound_nodes": [[["batch_normalization_15", 0, 0, {}]]], "class_name": "Activation", "config": {"name": "activation_15", "activation": "relu", "trainable": false}}, {"name": "activation_18", "inbound_nodes": [[["batch_normalization_18", 0, 0, {}]]], "class_name": "Activation", "config": {"name": "activation_18", "activation": "relu", "trainable": false}}, {"name": "activation_19", "inbound_nodes": [[["batch_normalization_19", 0, 0, {}]]], "class_name": "Activation", "config": {"name": "activation_19", "activation": "relu", "trainable": false}}, {"name": "mixed1", "inbound_nodes": [[["activation_13", 0, 0, {}], ["activation_15", 0, 0, {}], ["activation_18", 0, 0, {}], ["activation_19", 0, 0, {}]]], "class_name": "Concatenate", "config": {"name": "mixed1", "trainable": false, "axis": 3}}, {"name": "conv2d_23", "inbound_nodes": [[["mixed1", 0, 0, {}]]], "class_name": "Conv2D", "config": {"name": "conv2d_23", "activation": "linear", "strides": [1, 1], "use_bias": false, "data_format": "channels_last", "dilation_rate": [1, 1], "kernel_constraint": null, "kernel_size": [1, 1], "bias_regularizer": null, "bias_initializer": {"class_name": "Zeros", "config": {}}, "padding": "same", "kernel_initializer": {"class_name": "VarianceScaling", "config": {"seed": null, "distribution": "uniform", "mode": "fan_avg", "scale": 1.0}}, "activity_regularizer": null, "trainable": false, "filters": 64, "bias_constraint": null, "kernel_regularizer": null}}, {"name": "batch_normalization_23", "inbound_nodes": [[["conv2d_23", 0, 0, {}]]], "class_name": "BatchNormalization", "config": {"name": "batch_normalization_23", "beta_initializer": {"class_name": "Zeros", "config": {}}, "gamma_regularizer": null, "moving_mean_initializer": {"class_name": "Zeros", "config": {}}, "gamma_initializer": {"class_name": "Ones", "config": {}}, "axis": 3, "beta_regularizer": null, "scale": false, "epsilon": 0.001, "beta_constraint": null, "momentum": 0.99, "center": true, "trainable": false, "moving_variance_initializer": {"class_name": "Ones", "config": {}}, "gamma_constraint": null}}, {"name": "activation_23", "inbound_nodes": [[["batch_normalization_23", 0, 0, {}]]], "class_name": "Activation", "config": {"name": "activation_23", "activation": "relu", "trainable": false}}, {"name": "conv2d_21", "inbound_nodes": [[["mixed1", 0, 0, {}]]], "class_name": "Conv2D", "config": {"name": "conv2d_21", "activation": "linear", "strides": [1, 1], "use_bias": false, "data_format": "channels_last", "dilation_rate": [1, 1], "kernel_constraint": null, "kernel_size": [1, 1], "bias_regularizer": null, "bias_initializer": {"class_name": "Zeros", "config": {}}, "padding": "same", "kernel_initializer": {"class_name": "VarianceScaling", "config": {"seed": null, "distribution": "uniform", "mode": "fan_avg", "scale": 1.0}}, "activity_regularizer": null, "trainable": false, "filters": 48, "bias_constraint": null, "kernel_regularizer": null}}, {"name": "conv2d_24", "inbound_nodes": [[["activation_23", 0, 0, {}]]], "class_name": "Conv2D", "config": {"name": "conv2d_24", "activation": "linear", "strides": [1, 1], "use_bias": false, "data_format": "channels_last", "dilation_rate": [1, 1], "kernel_constraint": null, "kernel_size": [3, 3], "bias_regularizer": null, "bias_initializer": {"class_name": "Zeros", "config": {}}, "padding": "same", "kernel_initializer": {"class_name": "VarianceScaling", "config": {"seed": null, "distribution": "uniform", "mode": "fan_avg", "scale": 1.0}}, "activity_regularizer": null, "trainable": false, "filters": 96, "bias_constraint": null, "kernel_regularizer": null}}, {"name": "batch_normalization_21", "inbound_nodes": [[["conv2d_21", 0, 0, {}]]], "class_name": "BatchNormalization", "config": {"name": "batch_normalization_21", "beta_initializer": {"class_name": "Zeros", "config": {}}, "gamma_regularizer": null, "moving_mean_initializer": {"class_name": "Zeros", "config": {}}, "gamma_initializer": {"class_name": "Ones", "config": {}}, "axis": 3, "beta_regularizer": null, "scale": false, "epsilon": 0.001, "beta_constraint": null, "momentum": 0.99, "center": true, "trainable": false, "moving_variance_initializer": {"class_name": "Ones", "config": {}}, "gamma_constraint": null}}, {"name": "batch_normalization_24", "inbound_nodes": [[["conv2d_24", 0, 0, {}]]], "class_name": "BatchNormalization", "config": {"name": "batch_normalization_24", "beta_initializer": {"class_name": "Zeros", "config": {}}, "gamma_regularizer": null, "moving_mean_initializer": {"class_name": "Zeros", "config": {}}, "gamma_initializer": {"class_name": "Ones", "config": {}}, "axis": 3, "beta_regularizer": null, "scale": false, "epsilon": 0.001, "beta_constraint": null, "momentum": 0.99, "center": true, "trainable": false, "moving_variance_initializer": {"class_name": "Ones", "config": {}}, "gamma_constraint": null}}, {"name": "activation_21", "inbound_nodes": [[["batch_normalization_21", 0, 0, {}]]], "class_name": "Activation", "config": {"name": "activation_21", "activation": "relu", "trainable": false}}, {"name": "activation_24", "inbound_nodes": [[["batch_normalization_24", 0, 0, {}]]], "class_name": "Activation", "config": {"name": "activation_24", "activation": "relu", "trainable": false}}, {"name": "average_pooling2d_3", "inbound_nodes": [[["mixed1", 0, 0, {}]]], "class_name": "AveragePooling2D", "config": {"name": "average_pooling2d_3", "data_format": "channels_last", "strides": [1, 1], "padding": "same", "trainable": false, "pool_size": [3, 3]}}, {"name": "conv2d_20", "inbound_nodes": [[["mixed1", 0, 0, {}]]], "class_name": "Conv2D", "config": {"name": "conv2d_20", "activation": "linear", "strides": [1, 1], "use_bias": false, "data_format": "channels_last", "dilation_rate": [1, 1], "kernel_constraint": null, "kernel_size": [1, 1], "bias_regularizer": null, "bias_initializer": {"class_name": "Zeros", "config": {}}, "padding": "same", "kernel_initializer": {"class_name": "VarianceScaling", "config": {"seed": null, "distribution": "uniform", "mode": "fan_avg", "scale": 1.0}}, "activity_regularizer": null, "trainable": false, "filters": 64, "bias_constraint": null, "kernel_regularizer": null}}, {"name": "conv2d_22", "inbound_nodes": [[["activation_21", 0, 0, {}]]], "class_name": "Conv2D", "config": {"name": "conv2d_22", "activation": "linear", "strides": [1, 1], "use_bias": false, "data_format": "channels_last", "dilation_rate": [1, 1], "kernel_constraint": null, "kernel_size": [5, 5], "bias_regularizer": null, "bias_initializer": {"class_name": "Zeros", "config": {}}, "padding": "same", "kernel_initializer": {"class_name": "VarianceScaling", "config": {"seed": null, "distribution": "uniform", "mode": "fan_avg", "scale": 1.0}}, "activity_regularizer": null, "trainable": false, "filters": 64, "bias_constraint": null, "kernel_regularizer": null}}, {"name": "conv2d_25", "inbound_nodes": [[["activation_24", 0, 0, {}]]], "class_name": "Conv2D", "config": {"name": "conv2d_25", "activation": "linear", "strides": [1, 1], "use_bias": false, "data_format": "channels_last", "dilation_rate": [1, 1], "kernel_constraint": null, "kernel_size": [3, 3], "bias_regularizer": null, "bias_initializer": {"class_name": "Zeros", "config": {}}, "padding": "same", "kernel_initializer": {"class_name": "VarianceScaling", "config": {"seed": null, "distribution": "uniform", "mode": "fan_avg", "scale": 1.0}}, "activity_regularizer": null, "trainable": false, "filters": 96, "bias_constraint": null, "kernel_regularizer": null}}, {"name": "conv2d_26", "inbound_nodes": [[["average_pooling2d_3", 0, 0, {}]]], "class_name": "Conv2D", "config": {"name": "conv2d_26", "activation": "linear", "strides": [1, 1], "use_bias": false, "data_format": "channels_last", "dilation_rate": [1, 1], "kernel_constraint": null, "kernel_size": [1, 1], "bias_regularizer": null, "bias_initializer": {"class_name": "Zeros", "config": {}}, "padding": "same", "kernel_initializer": {"class_name": "VarianceScaling", "config": {"seed": null, "distribution": "uniform", "mode": "fan_avg", "scale": 1.0}}, "activity_regularizer": null, "trainable": false, "filters": 64, "bias_constraint": null, "kernel_regularizer": null}}, {"name": "batch_normalization_20", "inbound_nodes": [[["conv2d_20", 0, 0, {}]]], "class_name": "BatchNormalization", "config": {"name": "batch_normalization_20", "beta_initializer": {"class_name": "Zeros", "config": {}}, "gamma_regularizer": null, "moving_mean_initializer": {"class_name": "Zeros", "config": {}}, "gamma_initializer": {"class_name": "Ones", "config": {}}, "axis": 3, "beta_regularizer": null, "scale": false, "epsilon": 0.001, "beta_constraint": null, "momentum": 0.99, "center": true, "trainable": false, "moving_variance_initializer": {"class_name": "Ones", "config": {}}, "gamma_constraint": null}}, {"name": "batch_normalization_22", "inbound_nodes": [[["conv2d_22", 0, 0, {}]]], "class_name": "BatchNormalization", "config": {"name": "batch_normalization_22", "beta_initializer": {"class_name": "Zeros", "config": {}}, "gamma_regularizer": null, "moving_mean_initializer": {"class_name": "Zeros", "config": {}}, "gamma_initializer": {"class_name": "Ones", "config": {}}, "axis": 3, "beta_regularizer": null, "scale": false, "epsilon": 0.001, "beta_constraint": null, "momentum": 0.99, "center": true, "trainable": false, "moving_variance_initializer": {"class_name": "Ones", "config": {}}, "gamma_constraint": null}}, {"name": "batch_normalization_25", "inbound_nodes": [[["conv2d_25", 0, 0, {}]]], "class_name": "BatchNormalization", "config": {"name": "batch_normalization_25", "beta_initializer": {"class_name": "Zeros", "config": {}}, "gamma_regularizer": null, "moving_mean_initializer": {"class_name": "Zeros", "config": {}}, "gamma_initializer": {"class_name": "Ones", "config": {}}, "axis": 3, "beta_regularizer": null, "scale": false, "epsilon": 0.001, "beta_constraint": null, "momentum": 0.99, "center": true, "trainable": false, "moving_variance_initializer": {"class_name": "Ones", "config": {}}, "gamma_constraint": null}}, {"name": "batch_normalization_26", "inbound_nodes": [[["conv2d_26", 0, 0, {}]]], "class_name": "BatchNormalization", "config": {"name": "batch_normalization_26", "beta_initializer": {"class_name": "Zeros", "config": {}}, "gamma_regularizer": null, "moving_mean_initializer": {"class_name": "Zeros", "config": {}}, "gamma_initializer": {"class_name": "Ones", "config": {}}, "axis": 3, "beta_regularizer": null, "scale": false, "epsilon": 0.001, "beta_constraint": null, "momentum": 0.99, "center": true, "trainable": false, "moving_variance_initializer": {"class_name": "Ones", "config": {}}, "gamma_constraint": null}}, {"name": "activation_20", "inbound_nodes": [[["batch_normalization_20", 0, 0, {}]]], "class_name": "Activation", "config": {"name": "activation_20", "activation": "relu", "trainable": false}}, {"name": "activation_22", "inbound_nodes": [[["batch_normalization_22", 0, 0, {}]]], "class_name": "Activation", "config": {"name": "activation_22", "activation": "relu", "trainable": false}}, {"name": "activation_25", "inbound_nodes": [[["batch_normalization_25", 0, 0, {}]]], "class_name": "Activation", "config": {"name": "activation_25", "activation": "relu", "trainable": false}}, {"name": "activation_26", "inbound_nodes": [[["batch_normalization_26", 0, 0, {}]]], "class_name": "Activation", "config": {"name": "activation_26", "activation": "relu", "trainable": false}}, {"name": "mixed2", "inbound_nodes": [[["activation_20", 0, 0, {}], ["activation_22", 0, 0, {}], ["activation_25", 0, 0, {}], ["activation_26", 0, 0, {}]]], "class_name": "Concatenate", "config": {"name": "mixed2", "trainable": false, "axis": 3}}, {"name": "conv2d_28", "inbound_nodes": [[["mixed2", 0, 0, {}]]], "class_name": "Conv2D", "config": {"name": "conv2d_28", "activation": "linear", "strides": [1, 1], "use_bias": false, "data_format": "channels_last", "dilation_rate": [1, 1], "kernel_constraint": null, "kernel_size": [1, 1], "bias_regularizer": null, "bias_initializer": {"class_name": "Zeros", "config": {}}, "padding": "same", "kernel_initializer": {"class_name": "VarianceScaling", "config": {"seed": null, "distribution": "uniform", "mode": "fan_avg", "scale": 1.0}}, "activity_regularizer": null, "trainable": false, "filters": 64, "bias_constraint": null, "kernel_regularizer": null}}, {"name": "batch_normalization_28", "inbound_nodes": [[["conv2d_28", 0, 0, {}]]], "class_name": "BatchNormalization", "config": {"name": "batch_normalization_28", "beta_initializer": {"class_name": "Zeros", "config": {}}, "gamma_regularizer": null, "moving_mean_initializer": {"class_name": "Zeros", "config": {}}, "gamma_initializer": {"class_name": "Ones", "config": {}}, "axis": 3, "beta_regularizer": null, "scale": false, "epsilon": 0.001, "beta_constraint": null, "momentum": 0.99, "center": true, "trainable": false, "moving_variance_initializer": {"class_name": "Ones", "config": {}}, "gamma_constraint": null}}, {"name": "activation_28", "inbound_nodes": [[["batch_normalization_28", 0, 0, {}]]], "class_name": "Activation", "config": {"name": "activation_28", "activation": "relu", "trainable": false}}, {"name": "conv2d_29", "inbound_nodes": [[["activation_28", 0, 0, {}]]], "class_name": "Conv2D", "config": {"name": "conv2d_29", "activation": "linear", "strides": [1, 1], "use_bias": false, "data_format": "channels_last", "dilation_rate": [1, 1], "kernel_constraint": null, "kernel_size": [3, 3], "bias_regularizer": null, "bias_initializer": {"class_name": "Zeros", "config": {}}, "padding": "same", "kernel_initializer": {"class_name": "VarianceScaling", "config": {"seed": null, "distribution": "uniform", "mode": "fan_avg", "scale": 1.0}}, "activity_regularizer": null, "trainable": false, "filters": 96, "bias_constraint": null, "kernel_regularizer": null}}, {"name": "batch_normalization_29", "inbound_nodes": [[["conv2d_29", 0, 0, {}]]], "class_name": "BatchNormalization", "config": {"name": "batch_normalization_29", "beta_initializer": {"class_name": "Zeros", "config": {}}, "gamma_regularizer": null, "moving_mean_initializer": {"class_name": "Zeros", "config": {}}, "gamma_initializer": {"class_name": "Ones", "config": {}}, "axis": 3, "beta_regularizer": null, "scale": false, "epsilon": 0.001, "beta_constraint": null, "momentum": 0.99, "center": true, "trainable": false, "moving_variance_initializer": {"class_name": "Ones", "config": {}}, "gamma_constraint": null}}, {"name": "activation_29", "inbound_nodes": [[["batch_normalization_29", 0, 0, {}]]], "class_name": "Activation", "config": {"name": "activation_29", "activation": "relu", "trainable": false}}, {"name": "conv2d_27", "inbound_nodes": [[["mixed2", 0, 0, {}]]], "class_name": "Conv2D", "config": {"name": "conv2d_27", "activation": "linear", "strides": [2, 2], "use_bias": false, "data_format": "channels_last", "dilation_rate": [1, 1], "kernel_constraint": null, "kernel_size": [3, 3], "bias_regularizer": null, "bias_initializer": {"class_name": "Zeros", "config": {}}, "padding": "valid", "kernel_initializer": {"class_name": "VarianceScaling", "config": {"seed": null, "distribution": "uniform", "mode": "fan_avg", "scale": 1.0}}, "activity_regularizer": null, "trainable": false, "filters": 384, "bias_constraint": null, "kernel_regularizer": null}}, {"name": "conv2d_30", "inbound_nodes": [[["activation_29", 0, 0, {}]]], "class_name": "Conv2D", "config": {"name": "conv2d_30", "activation": "linear", "strides": [2, 2], "use_bias": false, "data_format": "channels_last", "dilation_rate": [1, 1], "kernel_constraint": null, "kernel_size": [3, 3], "bias_regularizer": null, "bias_initializer": {"class_name": "Zeros", "config": {}}, "padding": "valid", "kernel_initializer": {"class_name": "VarianceScaling", "config": {"seed": null, "distribution": "uniform", "mode": "fan_avg", "scale": 1.0}}, "activity_regularizer": null, "trainable": false, "filters": 96, "bias_constraint": null, "kernel_regularizer": null}}, {"name": "batch_normalization_27", "inbound_nodes": [[["conv2d_27", 0, 0, {}]]], "class_name": "BatchNormalization", "config": {"name": "batch_normalization_27", "beta_initializer": {"class_name": "Zeros", "config": {}}, "gamma_regularizer": null, "moving_mean_initializer": {"class_name": "Zeros", "config": {}}, "gamma_initializer": {"class_name": "Ones", "config": {}}, "axis": 3, "beta_regularizer": null, "scale": false, "epsilon": 0.001, "beta_constraint": null, "momentum": 0.99, "center": true, "trainable": false, "moving_variance_initializer": {"class_name": "Ones", "config": {}}, "gamma_constraint": null}}, {"name": "batch_normalization_30", "inbound_nodes": [[["conv2d_30", 0, 0, {}]]], "class_name": "BatchNormalization", "config": {"name": "batch_normalization_30", "beta_initializer": {"class_name": "Zeros", "config": {}}, "gamma_regularizer": null, "moving_mean_initializer": {"class_name": "Zeros", "config": {}}, "gamma_initializer": {"class_name": "Ones", "config": {}}, "axis": 3, "beta_regularizer": null, "scale": false, "epsilon": 0.001, "beta_constraint": null, "momentum": 0.99, "center": true, "trainable": false, "moving_variance_initializer": {"class_name": "Ones", "config": {}}, "gamma_constraint": null}}, {"name": "activation_27", "inbound_nodes": [[["batch_normalization_27", 0, 0, {}]]], "class_name": "Activation", "config": {"name": "activation_27", "activation": "relu", "trainable": false}}, {"name": "activation_30", "inbound_nodes": [[["batch_normalization_30", 0, 0, {}]]], "class_name": "Activation", "config": {"name": "activation_30", "activation": "relu", "trainable": false}}, {"name": "max_pooling2d_3", "inbound_nodes": [[["mixed2", 0, 0, {}]]], "class_name": "MaxPooling2D", "config": {"name": "max_pooling2d_3", "data_format": "channels_last", "strides": [2, 2], "padding": "valid", "trainable": false, "pool_size": [3, 3]}}, {"name": "mixed3", "inbound_nodes": [[["activation_27", 0, 0, {}], ["activation_30", 0, 0, {}], ["max_pooling2d_3", 0, 0, {}]]], "class_name": "Concatenate", "config": {"name": "mixed3", "trainable": false, "axis": 3}}, {"name": "conv2d_35", "inbound_nodes": [[["mixed3", 0, 0, {}]]], "class_name": "Conv2D", "config": {"name": "conv2d_35", "activation": "linear", "strides": [1, 1], "use_bias": false, "data_format": "channels_last", "dilation_rate": [1, 1], "kernel_constraint": null, "kernel_size": [1, 1], "bias_regularizer": null, "bias_initializer": {"class_name": "Zeros", "config": {}}, "padding": "same", "kernel_initializer": {"class_name": "VarianceScaling", "config": {"seed": null, "distribution": "uniform", "mode": "fan_avg", "scale": 1.0}}, "activity_regularizer": null, "trainable": false, "filters": 128, "bias_constraint": null, "kernel_regularizer": null}}, {"name": "batch_normalization_35", "inbound_nodes": [[["conv2d_35", 0, 0, {}]]], "class_name": "BatchNormalization", "config": {"name": "batch_normalization_35", "beta_initializer": {"class_name": "Zeros", "config": {}}, "gamma_regularizer": null, "moving_mean_initializer": {"class_name": "Zeros", "config": {}}, "gamma_initializer": {"class_name": "Ones", "config": {}}, "axis": 3, "beta_regularizer": null, "scale": false, "epsilon": 0.001, "beta_constraint": null, "momentum": 0.99, "center": true, "trainable": false, "moving_variance_initializer": {"class_name": "Ones", "config": {}}, "gamma_constraint": null}}, {"name": "activation_35", "inbound_nodes": [[["batch_normalization_35", 0, 0, {}]]], "class_name": "Activation", "config": {"name": "activation_35", "activation": "relu", "trainable": false}}, {"name": "conv2d_36", "inbound_nodes": [[["activation_35", 0, 0, {}]]], "class_name": "Conv2D", "config": {"name": "conv2d_36", "activation": "linear", "strides": [1, 1], "use_bias": false, "data_format": "channels_last", "dilation_rate": [1, 1], "kernel_constraint": null, "kernel_size": [7, 1], "bias_regularizer": null, "bias_initializer": {"class_name": "Zeros", "config": {}}, "padding": "same", "kernel_initializer": {"class_name": "VarianceScaling", "config": {"seed": null, "distribution": "uniform", "mode": "fan_avg", "scale": 1.0}}, "activity_regularizer": null, "trainable": false, "filters": 128, "bias_constraint": null, "kernel_regularizer": null}}, {"name": "batch_normalization_36", "inbound_nodes": [[["conv2d_36", 0, 0, {}]]], "class_name": "BatchNormalization", "config": {"name": "batch_normalization_36", "beta_initializer": {"class_name": "Zeros", "config": {}}, "gamma_regularizer": null, "moving_mean_initializer": {"class_name": "Zeros", "config": {}}, "gamma_initializer": {"class_name": "Ones", "config": {}}, "axis": 3, "beta_regularizer": null, "scale": false, "epsilon": 0.001, "beta_constraint": null, "momentum": 0.99, "center": true, "trainable": false, "moving_variance_initializer": {"class_name": "Ones", "config": {}}, "gamma_constraint": null}}, {"name": "activation_36", "inbound_nodes": [[["batch_normalization_36", 0, 0, {}]]], "class_name": "Activation", "config": {"name": "activation_36", "activation": "relu", "trainable": false}}, {"name": "conv2d_32", "inbound_nodes": [[["mixed3", 0, 0, {}]]], "class_name": "Conv2D", "config": {"name": "conv2d_32", "activation": "linear", "strides": [1, 1], "use_bias": false, "data_format": "channels_last", "dilation_rate": [1, 1], "kernel_constraint": null, "kernel_size": [1, 1], "bias_regularizer": null, "bias_initializer": {"class_name": "Zeros", "config": {}}, "padding": "same", "kernel_initializer": {"class_name": "VarianceScaling", "config": {"seed": null, "distribution": "uniform", "mode": "fan_avg", "scale": 1.0}}, "activity_regularizer": null, "trainable": false, "filters": 128, "bias_constraint": null, "kernel_regularizer": null}}, {"name": "conv2d_37", "inbound_nodes": [[["activation_36", 0, 0, {}]]], "class_name": "Conv2D", "config": {"name": "conv2d_37", "activation": "linear", "strides": [1, 1], "use_bias": false, "data_format": "channels_last", "dilation_rate": [1, 1], "kernel_constraint": null, "kernel_size": [1, 7], "bias_regularizer": null, "bias_initializer": {"class_name": "Zeros", "config": {}}, "padding": "same", "kernel_initializer": {"class_name": "VarianceScaling", "config": {"seed": null, "distribution": "uniform", "mode": "fan_avg", "scale": 1.0}}, "activity_regularizer": null, "trainable": false, "filters": 128, "bias_constraint": null, "kernel_regularizer": null}}, {"name": "batch_normalization_32", "inbound_nodes": [[["conv2d_32", 0, 0, {}]]], "class_name": "BatchNormalization", "config": {"name": "batch_normalization_32", "beta_initializer": {"class_name": "Zeros", "config": {}}, "gamma_regularizer": null, "moving_mean_initializer": {"class_name": "Zeros", "config": {}}, "gamma_initializer": {"class_name": "Ones", "config": {}}, "axis": 3, "beta_regularizer": null, "scale": false, "epsilon": 0.001, "beta_constraint": null, "momentum": 0.99, "center": true, "trainable": false, "moving_variance_initializer": {"class_name": "Ones", "config": {}}, "gamma_constraint": null}}, {"name": "batch_normalization_37", "inbound_nodes": [[["conv2d_37", 0, 0, {}]]], "class_name": "BatchNormalization", "config": {"name": "batch_normalization_37", "beta_initializer": {"class_name": "Zeros", "config": {}}, "gamma_regularizer": null, "moving_mean_initializer": {"class_name": "Zeros", "config": {}}, "gamma_initializer": {"class_name": "Ones", "config": {}}, "axis": 3, "beta_regularizer": null, "scale": false, "epsilon": 0.001, "beta_constraint": null, "momentum": 0.99, "center": true, "trainable": false, "moving_variance_initializer": {"class_name": "Ones", "config": {}}, "gamma_constraint": null}}, {"name": "activation_32", "inbound_nodes": [[["batch_normalization_32", 0, 0, {}]]], "class_name": "Activation", "config": {"name": "activation_32", "activation": "relu", "trainable": false}}, {"name": "activation_37", "inbound_nodes": [[["batch_normalization_37", 0, 0, {}]]], "class_name": "Activation", "config": {"name": "activation_37", "activation": "relu", "trainable": false}}, {"name": "conv2d_33", "inbound_nodes": [[["activation_32", 0, 0, {}]]], "class_name": "Conv2D", "config": {"name": "conv2d_33", "activation": "linear", "strides": [1, 1], "use_bias": false, "data_format": "channels_last", "dilation_rate": [1, 1], "kernel_constraint": null, "kernel_size": [1, 7], "bias_regularizer": null, "bias_initializer": {"class_name": "Zeros", "config": {}}, "padding": "same", "kernel_initializer": {"class_name": "VarianceScaling", "config": {"seed": null, "distribution": "uniform", "mode": "fan_avg", "scale": 1.0}}, "activity_regularizer": null, "trainable": false, "filters": 128, "bias_constraint": null, "kernel_regularizer": null}}, {"name": "conv2d_38", "inbound_nodes": [[["activation_37", 0, 0, {}]]], "class_name": "Conv2D", "config": {"name": "conv2d_38", "activation": "linear", "strides": [1, 1], "use_bias": false, "data_format": "channels_last", "dilation_rate": [1, 1], "kernel_constraint": null, "kernel_size": [7, 1], "bias_regularizer": null, "bias_initializer": {"class_name": "Zeros", "config": {}}, "padding": "same", "kernel_initializer": {"class_name": "VarianceScaling", "config": {"seed": null, "distribution": "uniform", "mode": "fan_avg", "scale": 1.0}}, "activity_regularizer": null, "trainable": false, "filters": 128, "bias_constraint": null, "kernel_regularizer": null}}, {"name": "batch_normalization_33", "inbound_nodes": [[["conv2d_33", 0, 0, {}]]], "class_name": "BatchNormalization", "config": {"name": "batch_normalization_33", "beta_initializer": {"class_name": "Zeros", "config": {}}, "gamma_regularizer": null, "moving_mean_initializer": {"class_name": "Zeros", "config": {}}, "gamma_initializer": {"class_name": "Ones", "config": {}}, "axis": 3, "beta_regularizer": null, "scale": false, "epsilon": 0.001, "beta_constraint": null, "momentum": 0.99, "center": true, "trainable": false, "moving_variance_initializer": {"class_name": "Ones", "config": {}}, "gamma_constraint": null}}, {"name": "batch_normalization_38", "inbound_nodes": [[["conv2d_38", 0, 0, {}]]], "class_name": "BatchNormalization", "config": {"name": "batch_normalization_38", "beta_initializer": {"class_name": "Zeros", "config": {}}, "gamma_regularizer": null, "moving_mean_initializer": {"class_name": "Zeros", "config": {}}, "gamma_initializer": {"class_name": "Ones", "config": {}}, "axis": 3, "beta_regularizer": null, "scale": false, "epsilon": 0.001, "beta_constraint": null, "momentum": 0.99, "center": true, "trainable": false, "moving_variance_initializer": {"class_name": "Ones", "config": {}}, "gamma_constraint": null}}, {"name": "activation_33", "inbound_nodes": [[["batch_normalization_33", 0, 0, {}]]], "class_name": "Activation", "config": {"name": "activation_33", "activation": "relu", "trainable": false}}, {"name": "activation_38", "inbound_nodes": [[["batch_normalization_38", 0, 0, {}]]], "class_name": "Activation", "config": {"name": "activation_38", "activation": "relu", "trainable": false}}, {"name": "average_pooling2d_4", "inbound_nodes": [[["mixed3", 0, 0, {}]]], "class_name": "AveragePooling2D", "config": {"name": "average_pooling2d_4", "data_format": "channels_last", "strides": [1, 1], "padding": "same", "trainable": false, "pool_size": [3, 3]}}, {"name": "conv2d_31", "inbound_nodes": [[["mixed3", 0, 0, {}]]], "class_name": "Conv2D", "config": {"name": "conv2d_31", "activation": "linear", "strides": [1, 1], "use_bias": false, "data_format": "channels_last", "dilation_rate": [1, 1], "kernel_constraint": null, "kernel_size": [1, 1], "bias_regularizer": null, "bias_initializer": {"class_name": "Zeros", "config": {}}, "padding": "same", "kernel_initializer": {"class_name": "VarianceScaling", "config": {"seed": null, "distribution": "uniform", "mode": "fan_avg", "scale": 1.0}}, "activity_regularizer": null, "trainable": false, "filters": 192, "bias_constraint": null, "kernel_regularizer": null}}, {"name": "conv2d_34", "inbound_nodes": [[["activation_33", 0, 0, {}]]], "class_name": "Conv2D", "config": {"name": "conv2d_34", "activation": "linear", "strides": [1, 1], "use_bias": false, "data_format": "channels_last", "dilation_rate": [1, 1], "kernel_constraint": null, "kernel_size": [7, 1], "bias_regularizer": null, "bias_initializer": {"class_name": "Zeros", "config": {}}, "padding": "same", "kernel_initializer": {"class_name": "VarianceScaling", "config": {"seed": null, "distribution": "uniform", "mode": "fan_avg", "scale": 1.0}}, "activity_regularizer": null, "trainable": false, "filters": 192, "bias_constraint": null, "kernel_regularizer": null}}, {"name": "conv2d_39", "inbound_nodes": [[["activation_38", 0, 0, {}]]], "class_name": "Conv2D", "config": {"name": "conv2d_39", "activation": "linear", "strides": [1, 1], "use_bias": false, "data_format": "channels_last", "dilation_rate": [1, 1], "kernel_constraint": null, "kernel_size": [1, 7], "bias_regularizer": null, "bias_initializer": {"class_name": "Zeros", "config": {}}, "padding": "same", "kernel_initializer": {"class_name": "VarianceScaling", "config": {"seed": null, "distribution": "uniform", "mode": "fan_avg", "scale": 1.0}}, "activity_regularizer": null, "trainable": false, "filters": 192, "bias_constraint": null, "kernel_regularizer": null}}, {"name": "conv2d_40", "inbound_nodes": [[["average_pooling2d_4", 0, 0, {}]]], "class_name": "Conv2D", "config": {"name": "conv2d_40", "activation": "linear", "strides": [1, 1], "use_bias": false, "data_format": "channels_last", "dilation_rate": [1, 1], "kernel_constraint": null, "kernel_size": [1, 1], "bias_regularizer": null, "bias_initializer": {"class_name": "Zeros", "config": {}}, "padding": "same", "kernel_initializer": {"class_name": "VarianceScaling", "config": {"seed": null, "distribution": "uniform", "mode": "fan_avg", "scale": 1.0}}, "activity_regularizer": null, "trainable": false, "filters": 192, "bias_constraint": null, "kernel_regularizer": null}}, {"name": "batch_normalization_31", "inbound_nodes": [[["conv2d_31", 0, 0, {}]]], "class_name": "BatchNormalization", "config": {"name": "batch_normalization_31", "beta_initializer": {"class_name": "Zeros", "config": {}}, "gamma_regularizer": null, "moving_mean_initializer": {"class_name": "Zeros", "config": {}}, "gamma_initializer": {"class_name": "Ones", "config": {}}, "axis": 3, "beta_regularizer": null, "scale": false, "epsilon": 0.001, "beta_constraint": null, "momentum": 0.99, "center": true, "trainable": false, "moving_variance_initializer": {"class_name": "Ones", "config": {}}, "gamma_constraint": null}}, {"name": "batch_normalization_34", "inbound_nodes": [[["conv2d_34", 0, 0, {}]]], "class_name": "BatchNormalization", "config": {"name": "batch_normalization_34", "beta_initializer": {"class_name": "Zeros", "config": {}}, "gamma_regularizer": null, "moving_mean_initializer": {"class_name": "Zeros", "config": {}}, "gamma_initializer": {"class_name": "Ones", "config": {}}, "axis": 3, "beta_regularizer": null, "scale": false, "epsilon": 0.001, "beta_constraint": null, "momentum": 0.99, "center": true, "trainable": false, "moving_variance_initializer": {"class_name": "Ones", "config": {}}, "gamma_constraint": null}}, {"name": "batch_normalization_39", "inbound_nodes": [[["conv2d_39", 0, 0, {}]]], "class_name": "BatchNormalization", "config": {"name": "batch_normalization_39", "beta_initializer": {"class_name": "Zeros", "config": {}}, "gamma_regularizer": null, "moving_mean_initializer": {"class_name": "Zeros", "config": {}}, "gamma_initializer": {"class_name": "Ones", "config": {}}, "axis": 3, "beta_regularizer": null, "scale": false, "epsilon": 0.001, "beta_constraint": null, "momentum": 0.99, "center": true, "trainable": false, "moving_variance_initializer": {"class_name": "Ones", "config": {}}, "gamma_constraint": null}}, {"name": "batch_normalization_40", "inbound_nodes": [[["conv2d_40", 0, 0, {}]]], "class_name": "BatchNormalization", "config": {"name": "batch_normalization_40", "beta_initializer": {"class_name": "Zeros", "config": {}}, "gamma_regularizer": null, "moving_mean_initializer": {"class_name": "Zeros", "config": {}}, "gamma_initializer": {"class_name": "Ones", "config": {}}, "axis": 3, "beta_regularizer": null, "scale": false, "epsilon": 0.001, "beta_constraint": null, "momentum": 0.99, "center": true, "trainable": false, "moving_variance_initializer": {"class_name": "Ones", "config": {}}, "gamma_constraint": null}}, {"name": "activation_31", "inbound_nodes": [[["batch_normalization_31", 0, 0, {}]]], "class_name": "Activation", "config": {"name": "activation_31", "activation": "relu", "trainable": false}}, {"name": "activation_34", "inbound_nodes": [[["batch_normalization_34", 0, 0, {}]]], "class_name": "Activation", "config": {"name": "activation_34", "activation": "relu", "trainable": false}}, {"name": "activation_39", "inbound_nodes": [[["batch_normalization_39", 0, 0, {}]]], "class_name": "Activation", "config": {"name": "activation_39", "activation": "relu", "trainable": false}}, {"name": "activation_40", "inbound_nodes": [[["batch_normalization_40", 0, 0, {}]]], "class_name": "Activation", "config": {"name": "activation_40", "activation": "relu", "trainable": false}}, {"name": "mixed4", "inbound_nodes": [[["activation_31", 0, 0, {}], ["activation_34", 0, 0, {}], ["activation_39", 0, 0, {}], ["activation_40", 0, 0, {}]]], "class_name": "Concatenate", "config": {"name": "mixed4", "trainable": false, "axis": 3}}, {"name": "conv2d_45", "inbound_nodes": [[["mixed4", 0, 0, {}]]], "class_name": "Conv2D", "config": {"name": "conv2d_45", "activation": "linear", "strides": [1, 1], "use_bias": false, "data_format": "channels_last", "dilation_rate": [1, 1], "kernel_constraint": null, "kernel_size": [1, 1], "bias_regularizer": null, "bias_initializer": {"class_name": "Zeros", "config": {}}, "padding": "same", "kernel_initializer": {"class_name": "VarianceScaling", "config": {"seed": null, "distribution": "uniform", "mode": "fan_avg", "scale": 1.0}}, "activity_regularizer": null, "trainable": false, "filters": 160, "bias_constraint": null, "kernel_regularizer": null}}, {"name": "batch_normalization_45", "inbound_nodes": [[["conv2d_45", 0, 0, {}]]], "class_name": "BatchNormalization", "config": {"name": "batch_normalization_45", "beta_initializer": {"class_name": "Zeros", "config": {}}, "gamma_regularizer": null, "moving_mean_initializer": {"class_name": "Zeros", "config": {}}, "gamma_initializer": {"class_name": "Ones", "config": {}}, "axis": 3, "beta_regularizer": null, "scale": false, "epsilon": 0.001, "beta_constraint": null, "momentum": 0.99, "center": true, "trainable": false, "moving_variance_initializer": {"class_name": "Ones", "config": {}}, "gamma_constraint": null}}, {"name": "activation_45", "inbound_nodes": [[["batch_normalization_45", 0, 0, {}]]], "class_name": "Activation", "config": {"name": "activation_45", "activation": "relu", "trainable": false}}, {"name": "conv2d_46", "inbound_nodes": [[["activation_45", 0, 0, {}]]], "class_name": "Conv2D", "config": {"name": "conv2d_46", "activation": "linear", "strides": [1, 1], "use_bias": false, "data_format": "channels_last", "dilation_rate": [1, 1], "kernel_constraint": null, "kernel_size": [7, 1], "bias_regularizer": null, "bias_initializer": {"class_name": "Zeros", "config": {}}, "padding": "same", "kernel_initializer": {"class_name": "VarianceScaling", "config": {"seed": null, "distribution": "uniform", "mode": "fan_avg", "scale": 1.0}}, "activity_regularizer": null, "trainable": false, "filters": 160, "bias_constraint": null, "kernel_regularizer": null}}, {"name": "batch_normalization_46", "inbound_nodes": [[["conv2d_46", 0, 0, {}]]], "class_name": "BatchNormalization", "config": {"name": "batch_normalization_46", "beta_initializer": {"class_name": "Zeros", "config": {}}, "gamma_regularizer": null, "moving_mean_initializer": {"class_name": "Zeros", "config": {}}, "gamma_initializer": {"class_name": "Ones", "config": {}}, "axis": 3, "beta_regularizer": null, "scale": false, "epsilon": 0.001, "beta_constraint": null, "momentum": 0.99, "center": true, "trainable": false, "moving_variance_initializer": {"class_name": "Ones", "config": {}}, "gamma_constraint": null}}, {"name": "activation_46", "inbound_nodes": [[["batch_normalization_46", 0, 0, {}]]], "class_name": "Activation", "config": {"name": "activation_46", "activation": "relu", "trainable": false}}, {"name": "conv2d_42", "inbound_nodes": [[["mixed4", 0, 0, {}]]], "class_name": "Conv2D", "config": {"name": "conv2d_42", "activation": "linear", "strides": [1, 1], "use_bias": false, "data_format": "channels_last", "dilation_rate": [1, 1], "kernel_constraint": null, "kernel_size": [1, 1], "bias_regularizer": null, "bias_initializer": {"class_name": "Zeros", "config": {}}, "padding": "same", "kernel_initializer": {"class_name": "VarianceScaling", "config": {"seed": null, "distribution": "uniform", "mode": "fan_avg", "scale": 1.0}}, "activity_regularizer": null, "trainable": false, "filters": 160, "bias_constraint": null, "kernel_regularizer": null}}, {"name": "conv2d_47", "inbound_nodes": [[["activation_46", 0, 0, {}]]], "class_name": "Conv2D", "config": {"name": "conv2d_47", "activation": "linear", "strides": [1, 1], "use_bias": false, "data_format": "channels_last", "dilation_rate": [1, 1], "kernel_constraint": null, "kernel_size": [1, 7], "bias_regularizer": null, "bias_initializer": {"class_name": "Zeros", "config": {}}, "padding": "same", "kernel_initializer": {"class_name": "VarianceScaling", "config": {"seed": null, "distribution": "uniform", "mode": "fan_avg", "scale": 1.0}}, "activity_regularizer": null, "trainable": false, "filters": 160, "bias_constraint": null, "kernel_regularizer": null}}, {"name": "batch_normalization_42", "inbound_nodes": [[["conv2d_42", 0, 0, {}]]], "class_name": "BatchNormalization", "config": {"name": "batch_normalization_42", "beta_initializer": {"class_name": "Zeros", "config": {}}, "gamma_regularizer": null, "moving_mean_initializer": {"class_name": "Zeros", "config": {}}, "gamma_initializer": {"class_name": "Ones", "config": {}}, "axis": 3, "beta_regularizer": null, "scale": false, "epsilon": 0.001, "beta_constraint": null, "momentum": 0.99, "center": true, "trainable": false, "moving_variance_initializer": {"class_name": "Ones", "config": {}}, "gamma_constraint": null}}, {"name": "batch_normalization_47", "inbound_nodes": [[["conv2d_47", 0, 0, {}]]], "class_name": "BatchNormalization", "config": {"name": "batch_normalization_47", "beta_initializer": {"class_name": "Zeros", "config": {}}, "gamma_regularizer": null, "moving_mean_initializer": {"class_name": "Zeros", "config": {}}, "gamma_initializer": {"class_name": "Ones", "config": {}}, "axis": 3, "beta_regularizer": null, "scale": false, "epsilon": 0.001, "beta_constraint": null, "momentum": 0.99, "center": true, "trainable": false, "moving_variance_initializer": {"class_name": "Ones", "config": {}}, "gamma_constraint": null}}, {"name": "activation_42", "inbound_nodes": [[["batch_normalization_42", 0, 0, {}]]], "class_name": "Activation", "config": {"name": "activation_42", "activation": "relu", "trainable": false}}, {"name": "activation_47", "inbound_nodes": [[["batch_normalization_47", 0, 0, {}]]], "class_name": "Activation", "config": {"name": "activation_47", "activation": "relu", "trainable": false}}, {"name": "conv2d_43", "inbound_nodes": [[["activation_42", 0, 0, {}]]], "class_name": "Conv2D", "config": {"name": "conv2d_43", "activation": "linear", "strides": [1, 1], "use_bias": false, "data_format": "channels_last", "dilation_rate": [1, 1], "kernel_constraint": null, "kernel_size": [1, 7], "bias_regularizer": null, "bias_initializer": {"class_name": "Zeros", "config": {}}, "padding": "same", "kernel_initializer": {"class_name": "VarianceScaling", "config": {"seed": null, "distribution": "uniform", "mode": "fan_avg", "scale": 1.0}}, "activity_regularizer": null, "trainable": false, "filters": 160, "bias_constraint": null, "kernel_regularizer": null}}, {"name": "conv2d_48", "inbound_nodes": [[["activation_47", 0, 0, {}]]], "class_name": "Conv2D", "config": {"name": "conv2d_48", "activation": "linear", "strides": [1, 1], "use_bias": false, "data_format": "channels_last", "dilation_rate": [1, 1], "kernel_constraint": null, "kernel_size": [7, 1], "bias_regularizer": null, "bias_initializer": {"class_name": "Zeros", "config": {}}, "padding": "same", "kernel_initializer": {"class_name": "VarianceScaling", "config": {"seed": null, "distribution": "uniform", "mode": "fan_avg", "scale": 1.0}}, "activity_regularizer": null, "trainable": false, "filters": 160, "bias_constraint": null, "kernel_regularizer": null}}, {"name": "batch_normalization_43", "inbound_nodes": [[["conv2d_43", 0, 0, {}]]], "class_name": "BatchNormalization", "config": {"name": "batch_normalization_43", "beta_initializer": {"class_name": "Zeros", "config": {}}, "gamma_regularizer": null, "moving_mean_initializer": {"class_name": "Zeros", "config": {}}, "gamma_initializer": {"class_name": "Ones", "config": {}}, "axis": 3, "beta_regularizer": null, "scale": false, "epsilon": 0.001, "beta_constraint": null, "momentum": 0.99, "center": true, "trainable": false, "moving_variance_initializer": {"class_name": "Ones", "config": {}}, "gamma_constraint": null}}, {"name": "batch_normalization_48", "inbound_nodes": [[["conv2d_48", 0, 0, {}]]], "class_name": "BatchNormalization", "config": {"name": "batch_normalization_48", "beta_initializer": {"class_name": "Zeros", "config": {}}, "gamma_regularizer": null, "moving_mean_initializer": {"class_name": "Zeros", "config": {}}, "gamma_initializer": {"class_name": "Ones", "config": {}}, "axis": 3, "beta_regularizer": null, "scale": false, "epsilon": 0.001, "beta_constraint": null, "momentum": 0.99, "center": true, "trainable": false, "moving_variance_initializer": {"class_name": "Ones", "config": {}}, "gamma_constraint": null}}, {"name": "activation_43", "inbound_nodes": [[["batch_normalization_43", 0, 0, {}]]], "class_name": "Activation", "config": {"name": "activation_43", "activation": "relu", "trainable": false}}, {"name": "activation_48", "inbound_nodes": [[["batch_normalization_48", 0, 0, {}]]], "class_name": "Activation", "config": {"name": "activation_48", "activation": "relu", "trainable": false}}, {"name": "average_pooling2d_5", "inbound_nodes": [[["mixed4", 0, 0, {}]]], "class_name": "AveragePooling2D", "config": {"name": "average_pooling2d_5", "data_format": "channels_last", "strides": [1, 1], "padding": "same", "trainable": false, "pool_size": [3, 3]}}, {"name": "conv2d_41", "inbound_nodes": [[["mixed4", 0, 0, {}]]], "class_name": "Conv2D", "config": {"name": "conv2d_41", "activation": "linear", "strides": [1, 1], "use_bias": false, "data_format": "channels_last", "dilation_rate": [1, 1], "kernel_constraint": null, "kernel_size": [1, 1], "bias_regularizer": null, "bias_initializer": {"class_name": "Zeros", "config": {}}, "padding": "same", "kernel_initializer": {"class_name": "VarianceScaling", "config": {"seed": null, "distribution": "uniform", "mode": "fan_avg", "scale": 1.0}}, "activity_regularizer": null, "trainable": false, "filters": 192, "bias_constraint": null, "kernel_regularizer": null}}, {"name": "conv2d_44", "inbound_nodes": [[["activation_43", 0, 0, {}]]], "class_name": "Conv2D", "config": {"name": "conv2d_44", "activation": "linear", "strides": [1, 1], "use_bias": false, "data_format": "channels_last", "dilation_rate": [1, 1], "kernel_constraint": null, "kernel_size": [7, 1], "bias_regularizer": null, "bias_initializer": {"class_name": "Zeros", "config": {}}, "padding": "same", "kernel_initializer": {"class_name": "VarianceScaling", "config": {"seed": null, "distribution": "uniform", "mode": "fan_avg", "scale": 1.0}}, "activity_regularizer": null, "trainable": false, "filters": 192, "bias_constraint": null, "kernel_regularizer": null}}, {"name": "conv2d_49", "inbound_nodes": [[["activation_48", 0, 0, {}]]], "class_name": "Conv2D", "config": {"name": "conv2d_49", "activation": "linear", "strides": [1, 1], "use_bias": false, "data_format": "channels_last", "dilation_rate": [1, 1], "kernel_constraint": null, "kernel_size": [1, 7], "bias_regularizer": null, "bias_initializer": {"class_name": "Zeros", "config": {}}, "padding": "same", "kernel_initializer": {"class_name": "VarianceScaling", "config": {"seed": null, "distribution": "uniform", "mode": "fan_avg", "scale": 1.0}}, "activity_regularizer": null, "trainable": false, "filters": 192, "bias_constraint": null, "kernel_regularizer": null}}, {"name": "conv2d_50", "inbound_nodes": [[["average_pooling2d_5", 0, 0, {}]]], "class_name": "Conv2D", "config": {"name": "conv2d_50", "activation": "linear", "strides": [1, 1], "use_bias": false, "data_format": "channels_last", "dilation_rate": [1, 1], "kernel_constraint": null, "kernel_size": [1, 1], "bias_regularizer": null, "bias_initializer": {"class_name": "Zeros", "config": {}}, "padding": "same", "kernel_initializer": {"class_name": "VarianceScaling", "config": {"seed": null, "distribution": "uniform", "mode": "fan_avg", "scale": 1.0}}, "activity_regularizer": null, "trainable": false, "filters": 192, "bias_constraint": null, "kernel_regularizer": null}}, {"name": "batch_normalization_41", "inbound_nodes": [[["conv2d_41", 0, 0, {}]]], "class_name": "BatchNormalization", "config": {"name": "batch_normalization_41", "beta_initializer": {"class_name": "Zeros", "config": {}}, "gamma_regularizer": null, "moving_mean_initializer": {"class_name": "Zeros", "config": {}}, "gamma_initializer": {"class_name": "Ones", "config": {}}, "axis": 3, "beta_regularizer": null, "scale": false, "epsilon": 0.001, "beta_constraint": null, "momentum": 0.99, "center": true, "trainable": false, "moving_variance_initializer": {"class_name": "Ones", "config": {}}, "gamma_constraint": null}}, {"name": "batch_normalization_44", "inbound_nodes": [[["conv2d_44", 0, 0, {}]]], "class_name": "BatchNormalization", "config": {"name": "batch_normalization_44", "beta_initializer": {"class_name": "Zeros", "config": {}}, "gamma_regularizer": null, "moving_mean_initializer": {"class_name": "Zeros", "config": {}}, "gamma_initializer": {"class_name": "Ones", "config": {}}, "axis": 3, "beta_regularizer": null, "scale": false, "epsilon": 0.001, "beta_constraint": null, "momentum": 0.99, "center": true, "trainable": false, "moving_variance_initializer": {"class_name": "Ones", "config": {}}, "gamma_constraint": null}}, {"name": "batch_normalization_49", "inbound_nodes": [[["conv2d_49", 0, 0, {}]]], "class_name": "BatchNormalization", "config": {"name": "batch_normalization_49", "beta_initializer": {"class_name": "Zeros", "config": {}}, "gamma_regularizer": null, "moving_mean_initializer": {"class_name": "Zeros", "config": {}}, "gamma_initializer": {"class_name": "Ones", "config": {}}, "axis": 3, "beta_regularizer": null, "scale": false, "epsilon": 0.001, "beta_constraint": null, "momentum": 0.99, "center": true, "trainable": false, "moving_variance_initializer": {"class_name": "Ones", "config": {}}, "gamma_constraint": null}}, {"name": "batch_normalization_50", "inbound_nodes": [[["conv2d_50", 0, 0, {}]]], "class_name": "BatchNormalization", "config": {"name": "batch_normalization_50", "beta_initializer": {"class_name": "Zeros", "config": {}}, "gamma_regularizer": null, "moving_mean_initializer": {"class_name": "Zeros", "config": {}}, "gamma_initializer": {"class_name": "Ones", "config": {}}, "axis": 3, "beta_regularizer": null, "scale": false, "epsilon": 0.001, "beta_constraint": null, "momentum": 0.99, "center": true, "trainable": false, "moving_variance_initializer": {"class_name": "Ones", "config": {}}, "gamma_constraint": null}}, {"name": "activation_41", "inbound_nodes": [[["batch_normalization_41", 0, 0, {}]]], "class_name": "Activation", "config": {"name": "activation_41", "activation": "relu", "trainable": false}}, {"name": "activation_44", "inbound_nodes": [[["batch_normalization_44", 0, 0, {}]]], "class_name": "Activation", "config": {"name": "activation_44", "activation": "relu", "trainable": false}}, {"name": "activation_49", "inbound_nodes": [[["batch_normalization_49", 0, 0, {}]]], "class_name": "Activation", "config": {"name": "activation_49", "activation": "relu", "trainable": false}}, {"name": "activation_50", "inbound_nodes": [[["batch_normalization_50", 0, 0, {}]]], "class_name": "Activation", "config": {"name": "activation_50", "activation": "relu", "trainable": false}}, {"name": "mixed5", "inbound_nodes": [[["activation_41", 0, 0, {}], ["activation_44", 0, 0, {}], ["activation_49", 0, 0, {}], ["activation_50", 0, 0, {}]]], "class_name": "Concatenate", "config": {"name": "mixed5", "trainable": false, "axis": 3}}, {"name": "conv2d_55", "inbound_nodes": [[["mixed5", 0, 0, {}]]], "class_name": "Conv2D", "config": {"name": "conv2d_55", "activation": "linear", "strides": [1, 1], "use_bias": false, "data_format": "channels_last", "dilation_rate": [1, 1], "kernel_constraint": null, "kernel_size": [1, 1], "bias_regularizer": null, "bias_initializer": {"class_name": "Zeros", "config": {}}, "padding": "same", "kernel_initializer": {"class_name": "VarianceScaling", "config": {"seed": null, "distribution": "uniform", "mode": "fan_avg", "scale": 1.0}}, "activity_regularizer": null, "trainable": false, "filters": 160, "bias_constraint": null, "kernel_regularizer": null}}, {"name": "batch_normalization_55", "inbound_nodes": [[["conv2d_55", 0, 0, {}]]], "class_name": "BatchNormalization", "config": {"name": "batch_normalization_55", "beta_initializer": {"class_name": "Zeros", "config": {}}, "gamma_regularizer": null, "moving_mean_initializer": {"class_name": "Zeros", "config": {}}, "gamma_initializer": {"class_name": "Ones", "config": {}}, "axis": 3, "beta_regularizer": null, "scale": false, "epsilon": 0.001, "beta_constraint": null, "momentum": 0.99, "center": true, "trainable": false, "moving_variance_initializer": {"class_name": "Ones", "config": {}}, "gamma_constraint": null}}, {"name": "activation_55", "inbound_nodes": [[["batch_normalization_55", 0, 0, {}]]], "class_name": "Activation", "config": {"name": "activation_55", "activation": "relu", "trainable": false}}, {"name": "conv2d_56", "inbound_nodes": [[["activation_55", 0, 0, {}]]], "class_name": "Conv2D", "config": {"name": "conv2d_56", "activation": "linear", "strides": [1, 1], "use_bias": false, "data_format": "channels_last", "dilation_rate": [1, 1], "kernel_constraint": null, "kernel_size": [7, 1], "bias_regularizer": null, "bias_initializer": {"class_name": "Zeros", "config": {}}, "padding": "same", "kernel_initializer": {"class_name": "VarianceScaling", "config": {"seed": null, "distribution": "uniform", "mode": "fan_avg", "scale": 1.0}}, "activity_regularizer": null, "trainable": false, "filters": 160, "bias_constraint": null, "kernel_regularizer": null}}, {"name": "batch_normalization_56", "inbound_nodes": [[["conv2d_56", 0, 0, {}]]], "class_name": "BatchNormalization", "config": {"name": "batch_normalization_56", "beta_initializer": {"class_name": "Zeros", "config": {}}, "gamma_regularizer": null, "moving_mean_initializer": {"class_name": "Zeros", "config": {}}, "gamma_initializer": {"class_name": "Ones", "config": {}}, "axis": 3, "beta_regularizer": null, "scale": false, "epsilon": 0.001, "beta_constraint": null, "momentum": 0.99, "center": true, "trainable": false, "moving_variance_initializer": {"class_name": "Ones", "config": {}}, "gamma_constraint": null}}, {"name": "activation_56", "inbound_nodes": [[["batch_normalization_56", 0, 0, {}]]], "class_name": "Activation", "config": {"name": "activation_56", "activation": "relu", "trainable": false}}, {"name": "conv2d_52", "inbound_nodes": [[["mixed5", 0, 0, {}]]], "class_name": "Conv2D", "config": {"name": "conv2d_52", "activation": "linear", "strides": [1, 1], "use_bias": false, "data_format": "channels_last", "dilation_rate": [1, 1], "kernel_constraint": null, "kernel_size": [1, 1], "bias_regularizer": null, "bias_initializer": {"class_name": "Zeros", "config": {}}, "padding": "same", "kernel_initializer": {"class_name": "VarianceScaling", "config": {"seed": null, "distribution": "uniform", "mode": "fan_avg", "scale": 1.0}}, "activity_regularizer": null, "trainable": false, "filters": 160, "bias_constraint": null, "kernel_regularizer": null}}, {"name": "conv2d_57", "inbound_nodes": [[["activation_56", 0, 0, {}]]], "class_name": "Conv2D", "config": {"name": "conv2d_57", "activation": "linear", "strides": [1, 1], "use_bias": false, "data_format": "channels_last", "dilation_rate": [1, 1], "kernel_constraint": null, "kernel_size": [1, 7], "bias_regularizer": null, "bias_initializer": {"class_name": "Zeros", "config": {}}, "padding": "same", "kernel_initializer": {"class_name": "VarianceScaling", "config": {"seed": null, "distribution": "uniform", "mode": "fan_avg", "scale": 1.0}}, "activity_regularizer": null, "trainable": true, "filters": 160, "bias_constraint": null, "kernel_regularizer": null}}, {"name": "batch_normalization_52", "inbound_nodes": [[["conv2d_52", 0, 0, {}]]], "class_name": "BatchNormalization", "config": {"name": "batch_normalization_52", "beta_initializer": {"class_name": "Zeros", "config": {}}, "gamma_regularizer": null, "moving_mean_initializer": {"class_name": "Zeros", "config": {}}, "gamma_initializer": {"class_name": "Ones", "config": {}}, "axis": 3, "beta_regularizer": null, "scale": false, "epsilon": 0.001, "beta_constraint": null, "momentum": 0.99, "center": true, "trainable": true, "moving_variance_initializer": {"class_name": "Ones", "config": {}}, "gamma_constraint": null}}, {"name": "batch_normalization_57", "inbound_nodes": [[["conv2d_57", 0, 0, {}]]], "class_name": "BatchNormalization", "config": {"name": "batch_normalization_57", "beta_initializer": {"class_name": "Zeros", "config": {}}, "gamma_regularizer": null, "moving_mean_initializer": {"class_name": "Zeros", "config": {}}, "gamma_initializer": {"class_name": "Ones", "config": {}}, "axis": 3, "beta_regularizer": null, "scale": false, "epsilon": 0.001, "beta_constraint": null, "momentum": 0.99, "center": true, "trainable": true, "moving_variance_initializer": {"class_name": "Ones", "config": {}}, "gamma_constraint": null}}, {"name": "activation_52", "inbound_nodes": [[["batch_normalization_52", 0, 0, {}]]], "class_name": "Activation", "config": {"name": "activation_52", "activation": "relu", "trainable": true}}, {"name": "activation_57", "inbound_nodes": [[["batch_normalization_57", 0, 0, {}]]], "class_name": "Activation", "config": {"name": "activation_57", "activation": "relu", "trainable": true}}, {"name": "conv2d_53", "inbound_nodes": [[["activation_52", 0, 0, {}]]], "class_name": "Conv2D", "config": {"name": "conv2d_53", "activation": "linear", "strides": [1, 1], "use_bias": false, "data_format": "channels_last", "dilation_rate": [1, 1], "kernel_constraint": null, "kernel_size": [1, 7], "bias_regularizer": null, "bias_initializer": {"class_name": "Zeros", "config": {}}, "padding": "same", "kernel_initializer": {"class_name": "VarianceScaling", "config": {"seed": null, "distribution": "uniform", "mode": "fan_avg", "scale": 1.0}}, "activity_regularizer": null, "trainable": true, "filters": 160, "bias_constraint": null, "kernel_regularizer": null}}, {"name": "conv2d_58", "inbound_nodes": [[["activation_57", 0, 0, {}]]], "class_name": "Conv2D", "config": {"name": "conv2d_58", "activation": "linear", "strides": [1, 1], "use_bias": false, "data_format": "channels_last", "dilation_rate": [1, 1], "kernel_constraint": null, "kernel_size": [7, 1], "bias_regularizer": null, "bias_initializer": {"class_name": "Zeros", "config": {}}, "padding": "same", "kernel_initializer": {"class_name": "VarianceScaling", "config": {"seed": null, "distribution": "uniform", "mode": "fan_avg", "scale": 1.0}}, "activity_regularizer": null, "trainable": true, "filters": 160, "bias_constraint": null, "kernel_regularizer": null}}, {"name": "batch_normalization_53", "inbound_nodes": [[["conv2d_53", 0, 0, {}]]], "class_name": "BatchNormalization", "config": {"name": "batch_normalization_53", "beta_initializer": {"class_name": "Zeros", "config": {}}, "gamma_regularizer": null, "moving_mean_initializer": {"class_name": "Zeros", "config": {}}, "gamma_initializer": {"class_name": "Ones", "config": {}}, "axis": 3, "beta_regularizer": null, "scale": false, "epsilon": 0.001, "beta_constraint": null, "momentum": 0.99, "center": true, "trainable": true, "moving_variance_initializer": {"class_name": "Ones", "config": {}}, "gamma_constraint": null}}, {"name": "batch_normalization_58", "inbound_nodes": [[["conv2d_58", 0, 0, {}]]], "class_name": "BatchNormalization", "config": {"name": "batch_normalization_58", "beta_initializer": {"class_name": "Zeros", "config": {}}, "gamma_regularizer": null, "moving_mean_initializer": {"class_name": "Zeros", "config": {}}, "gamma_initializer": {"class_name": "Ones", "config": {}}, "axis": 3, "beta_regularizer": null, "scale": false, "epsilon": 0.001, "beta_constraint": null, "momentum": 0.99, "center": true, "trainable": true, "moving_variance_initializer": {"class_name": "Ones", "config": {}}, "gamma_constraint": null}}, {"name": "activation_53", "inbound_nodes": [[["batch_normalization_53", 0, 0, {}]]], "class_name": "Activation", "config": {"name": "activation_53", "activation": "relu", "trainable": true}}, {"name": "activation_58", "inbound_nodes": [[["batch_normalization_58", 0, 0, {}]]], "class_name": "Activation", "config": {"name": "activation_58", "activation": "relu", "trainable": true}}, {"name": "average_pooling2d_6", "inbound_nodes": [[["mixed5", 0, 0, {}]]], "class_name": "AveragePooling2D", "config": {"name": "average_pooling2d_6", "data_format": "channels_last", "strides": [1, 1], "padding": "same", "trainable": true, "pool_size": [3, 3]}}, {"name": "conv2d_51", "inbound_nodes": [[["mixed5", 0, 0, {}]]], "class_name": "Conv2D", "config": {"name": "conv2d_51", "activation": "linear", "strides": [1, 1], "use_bias": false, "data_format": "channels_last", "dilation_rate": [1, 1], "kernel_constraint": null, "kernel_size": [1, 1], "bias_regularizer": null, "bias_initializer": {"class_name": "Zeros", "config": {}}, "padding": "same", "kernel_initializer": {"class_name": "VarianceScaling", "config": {"seed": null, "distribution": "uniform", "mode": "fan_avg", "scale": 1.0}}, "activity_regularizer": null, "trainable": true, "filters": 192, "bias_constraint": null, "kernel_regularizer": null}}, {"name": "conv2d_54", "inbound_nodes": [[["activation_53", 0, 0, {}]]], "class_name": "Conv2D", "config": {"name": "conv2d_54", "activation": "linear", "strides": [1, 1], "use_bias": false, "data_format": "channels_last", "dilation_rate": [1, 1], "kernel_constraint": null, "kernel_size": [7, 1], "bias_regularizer": null, "bias_initializer": {"class_name": "Zeros", "config": {}}, "padding": "same", "kernel_initializer": {"class_name": "VarianceScaling", "config": {"seed": null, "distribution": "uniform", "mode": "fan_avg", "scale": 1.0}}, "activity_regularizer": null, "trainable": true, "filters": 192, "bias_constraint": null, "kernel_regularizer": null}}, {"name": "conv2d_59", "inbound_nodes": [[["activation_58", 0, 0, {}]]], "class_name": "Conv2D", "config": {"name": "conv2d_59", "activation": "linear", "strides": [1, 1], "use_bias": false, "data_format": "channels_last", "dilation_rate": [1, 1], "kernel_constraint": null, "kernel_size": [1, 7], "bias_regularizer": null, "bias_initializer": {"class_name": "Zeros", "config": {}}, "padding": "same", "kernel_initializer": {"class_name": "VarianceScaling", "config": {"seed": null, "distribution": "uniform", "mode": "fan_avg", "scale": 1.0}}, "activity_regularizer": null, "trainable": true, "filters": 192, "bias_constraint": null, "kernel_regularizer": null}}, {"name": "conv2d_60", "inbound_nodes": [[["average_pooling2d_6", 0, 0, {}]]], "class_name": "Conv2D", "config": {"name": "conv2d_60", "activation": "linear", "strides": [1, 1], "use_bias": false, "data_format": "channels_last", "dilation_rate": [1, 1], "kernel_constraint": null, "kernel_size": [1, 1], "bias_regularizer": null, "bias_initializer": {"class_name": "Zeros", "config": {}}, "padding": "same", "kernel_initializer": {"class_name": "VarianceScaling", "config": {"seed": null, "distribution": "uniform", "mode": "fan_avg", "scale": 1.0}}, "activity_regularizer": null, "trainable": true, "filters": 192, "bias_constraint": null, "kernel_regularizer": null}}, {"name": "batch_normalization_51", "inbound_nodes": [[["conv2d_51", 0, 0, {}]]], "class_name": "BatchNormalization", "config": {"name": "batch_normalization_51", "beta_initializer": {"class_name": "Zeros", "config": {}}, "gamma_regularizer": null, "moving_mean_initializer": {"class_name": "Zeros", "config": {}}, "gamma_initializer": {"class_name": "Ones", "config": {}}, "axis": 3, "beta_regularizer": null, "scale": false, "epsilon": 0.001, "beta_constraint": null, "momentum": 0.99, "center": true, "trainable": true, "moving_variance_initializer": {"class_name": "Ones", "config": {}}, "gamma_constraint": null}}, {"name": "batch_normalization_54", "inbound_nodes": [[["conv2d_54", 0, 0, {}]]], "class_name": "BatchNormalization", "config": {"name": "batch_normalization_54", "beta_initializer": {"class_name": "Zeros", "config": {}}, "gamma_regularizer": null, "moving_mean_initializer": {"class_name": "Zeros", "config": {}}, "gamma_initializer": {"class_name": "Ones", "config": {}}, "axis": 3, "beta_regularizer": null, "scale": false, "epsilon": 0.001, "beta_constraint": null, "momentum": 0.99, "center": true, "trainable": true, "moving_variance_initializer": {"class_name": "Ones", "config": {}}, "gamma_constraint": null}}, {"name": "batch_normalization_59", "inbound_nodes": [[["conv2d_59", 0, 0, {}]]], "class_name": "BatchNormalization", "config": {"name": "batch_normalization_59", "beta_initializer": {"class_name": "Zeros", "config": {}}, "gamma_regularizer": null, "moving_mean_initializer": {"class_name": "Zeros", "config": {}}, "gamma_initializer": {"class_name": "Ones", "config": {}}, "axis": 3, "beta_regularizer": null, "scale": false, "epsilon": 0.001, "beta_constraint": null, "momentum": 0.99, "center": true, "trainable": true, "moving_variance_initializer": {"class_name": "Ones", "config": {}}, "gamma_constraint": null}}, {"name": "batch_normalization_60", "inbound_nodes": [[["conv2d_60", 0, 0, {}]]], "class_name": "BatchNormalization", "config": {"name": "batch_normalization_60", "beta_initializer": {"class_name": "Zeros", "config": {}}, "gamma_regularizer": null, "moving_mean_initializer": {"class_name": "Zeros", "config": {}}, "gamma_initializer": {"class_name": "Ones", "config": {}}, "axis": 3, "beta_regularizer": null, "scale": false, "epsilon": 0.001, "beta_constraint": null, "momentum": 0.99, "center": true, "trainable": true, "moving_variance_initializer": {"class_name": "Ones", "config": {}}, "gamma_constraint": null}}, {"name": "activation_51", "inbound_nodes": [[["batch_normalization_51", 0, 0, {}]]], "class_name": "Activation", "config": {"name": "activation_51", "activation": "relu", "trainable": true}}, {"name": "activation_54", "inbound_nodes": [[["batch_normalization_54", 0, 0, {}]]], "class_name": "Activation", "config": {"name": "activation_54", "activation": "relu", "trainable": true}}, {"name": "activation_59", "inbound_nodes": [[["batch_normalization_59", 0, 0, {}]]], "class_name": "Activation", "config": {"name": "activation_59", "activation": "relu", "trainable": true}}, {"name": "activation_60", "inbound_nodes": [[["batch_normalization_60", 0, 0, {}]]], "class_name": "Activation", "config": {"name": "activation_60", "activation": "relu", "trainable": true}}, {"name": "mixed6", "inbound_nodes": [[["activation_51", 0, 0, {}], ["activation_54", 0, 0, {}], ["activation_59", 0, 0, {}], ["activation_60", 0, 0, {}]]], "class_name": "Concatenate", "config": {"name": "mixed6", "trainable": true, "axis": 3}}, {"name": "conv2d_65", "inbound_nodes": [[["mixed6", 0, 0, {}]]], "class_name": "Conv2D", "config": {"name": "conv2d_65", "activation": "linear", "strides": [1, 1], "use_bias": false, "data_format": "channels_last", "dilation_rate": [1, 1], "kernel_constraint": null, "kernel_size": [1, 1], "bias_regularizer": null, "bias_initializer": {"class_name": "Zeros", "config": {}}, "padding": "same", "kernel_initializer": {"class_name": "VarianceScaling", "config": {"seed": null, "distribution": "uniform", "mode": "fan_avg", "scale": 1.0}}, "activity_regularizer": null, "trainable": true, "filters": 192, "bias_constraint": null, "kernel_regularizer": null}}, {"name": "batch_normalization_65", "inbound_nodes": [[["conv2d_65", 0, 0, {}]]], "class_name": "BatchNormalization", "config": {"name": "batch_normalization_65", "beta_initializer": {"class_name": "Zeros", "config": {}}, "gamma_regularizer": null, "moving_mean_initializer": {"class_name": "Zeros", "config": {}}, "gamma_initializer": {"class_name": "Ones", "config": {}}, "axis": 3, "beta_regularizer": null, "scale": false, "epsilon": 0.001, "beta_constraint": null, "momentum": 0.99, "center": true, "trainable": true, "moving_variance_initializer": {"class_name": "Ones", "config": {}}, "gamma_constraint": null}}, {"name": "activation_65", "inbound_nodes": [[["batch_normalization_65", 0, 0, {}]]], "class_name": "Activation", "config": {"name": "activation_65", "activation": "relu", "trainable": true}}, {"name": "conv2d_66", "inbound_nodes": [[["activation_65", 0, 0, {}]]], "class_name": "Conv2D", "config": {"name": "conv2d_66", "activation": "linear", "strides": [1, 1], "use_bias": false, "data_format": "channels_last", "dilation_rate": [1, 1], "kernel_constraint": null, "kernel_size": [7, 1], "bias_regularizer": null, "bias_initializer": {"class_name": "Zeros", "config": {}}, "padding": "same", "kernel_initializer": {"class_name": "VarianceScaling", "config": {"seed": null, "distribution": "uniform", "mode": "fan_avg", "scale": 1.0}}, "activity_regularizer": null, "trainable": true, "filters": 192, "bias_constraint": null, "kernel_regularizer": null}}, {"name": "batch_normalization_66", "inbound_nodes": [[["conv2d_66", 0, 0, {}]]], "class_name": "BatchNormalization", "config": {"name": "batch_normalization_66", "beta_initializer": {"class_name": "Zeros", "config": {}}, "gamma_regularizer": null, "moving_mean_initializer": {"class_name": "Zeros", "config": {}}, "gamma_initializer": {"class_name": "Ones", "config": {}}, "axis": 3, "beta_regularizer": null, "scale": false, "epsilon": 0.001, "beta_constraint": null, "momentum": 0.99, "center": true, "trainable": true, "moving_variance_initializer": {"class_name": "Ones", "config": {}}, "gamma_constraint": null}}, {"name": "activation_66", "inbound_nodes": [[["batch_normalization_66", 0, 0, {}]]], "class_name": "Activation", "config": {"name": "activation_66", "activation": "relu", "trainable": true}}, {"name": "conv2d_62", "inbound_nodes": [[["mixed6", 0, 0, {}]]], "class_name": "Conv2D", "config": {"name": "conv2d_62", "activation": "linear", "strides": [1, 1], "use_bias": false, "data_format": "channels_last", "dilation_rate": [1, 1], "kernel_constraint": null, "kernel_size": [1, 1], "bias_regularizer": null, "bias_initializer": {"class_name": "Zeros", "config": {}}, "padding": "same", "kernel_initializer": {"class_name": "VarianceScaling", "config": {"seed": null, "distribution": "uniform", "mode": "fan_avg", "scale": 1.0}}, "activity_regularizer": null, "trainable": true, "filters": 192, "bias_constraint": null, "kernel_regularizer": null}}, {"name": "conv2d_67", "inbound_nodes": [[["activation_66", 0, 0, {}]]], "class_name": "Conv2D", "config": {"name": "conv2d_67", "activation": "linear", "strides": [1, 1], "use_bias": false, "data_format": "channels_last", "dilation_rate": [1, 1], "kernel_constraint": null, "kernel_size": [1, 7], "bias_regularizer": null, "bias_initializer": {"class_name": "Zeros", "config": {}}, "padding": "same", "kernel_initializer": {"class_name": "VarianceScaling", "config": {"seed": null, "distribution": "uniform", "mode": "fan_avg", "scale": 1.0}}, "activity_regularizer": null, "trainable": true, "filters": 192, "bias_constraint": null, "kernel_regularizer": null}}, {"name": "batch_normalization_62", "inbound_nodes": [[["conv2d_62", 0, 0, {}]]], "class_name": "BatchNormalization", "config": {"name": "batch_normalization_62", "beta_initializer": {"class_name": "Zeros", "config": {}}, "gamma_regularizer": null, "moving_mean_initializer": {"class_name": "Zeros", "config": {}}, "gamma_initializer": {"class_name": "Ones", "config": {}}, "axis": 3, "beta_regularizer": null, "scale": false, "epsilon": 0.001, "beta_constraint": null, "momentum": 0.99, "center": true, "trainable": true, "moving_variance_initializer": {"class_name": "Ones", "config": {}}, "gamma_constraint": null}}, {"name": "batch_normalization_67", "inbound_nodes": [[["conv2d_67", 0, 0, {}]]], "class_name": "BatchNormalization", "config": {"name": "batch_normalization_67", "beta_initializer": {"class_name": "Zeros", "config": {}}, "gamma_regularizer": null, "moving_mean_initializer": {"class_name": "Zeros", "config": {}}, "gamma_initializer": {"class_name": "Ones", "config": {}}, "axis": 3, "beta_regularizer": null, "scale": false, "epsilon": 0.001, "beta_constraint": null, "momentum": 0.99, "center": true, "trainable": true, "moving_variance_initializer": {"class_name": "Ones", "config": {}}, "gamma_constraint": null}}, {"name": "activation_62", "inbound_nodes": [[["batch_normalization_62", 0, 0, {}]]], "class_name": "Activation", "config": {"name": "activation_62", "activation": "relu", "trainable": true}}, {"name": "activation_67", "inbound_nodes": [[["batch_normalization_67", 0, 0, {}]]], "class_name": "Activation", "config": {"name": "activation_67", "activation": "relu", "trainable": true}}, {"name": "conv2d_63", "inbound_nodes": [[["activation_62", 0, 0, {}]]], "class_name": "Conv2D", "config": {"name": "conv2d_63", "activation": "linear", "strides": [1, 1], "use_bias": false, "data_format": "channels_last", "dilation_rate": [1, 1], "kernel_constraint": null, "kernel_size": [1, 7], "bias_regularizer": null, "bias_initializer": {"class_name": "Zeros", "config": {}}, "padding": "same", "kernel_initializer": {"class_name": "VarianceScaling", "config": {"seed": null, "distribution": "uniform", "mode": "fan_avg", "scale": 1.0}}, "activity_regularizer": null, "trainable": true, "filters": 192, "bias_constraint": null, "kernel_regularizer": null}}, {"name": "conv2d_68", "inbound_nodes": [[["activation_67", 0, 0, {}]]], "class_name": "Conv2D", "config": {"name": "conv2d_68", "activation": "linear", "strides": [1, 1], "use_bias": false, "data_format": "channels_last", "dilation_rate": [1, 1], "kernel_constraint": null, "kernel_size": [7, 1], "bias_regularizer": null, "bias_initializer": {"class_name": "Zeros", "config": {}}, "padding": "same", "kernel_initializer": {"class_name": "VarianceScaling", "config": {"seed": null, "distribution": "uniform", "mode": "fan_avg", "scale": 1.0}}, "activity_regularizer": null, "trainable": true, "filters": 192, "bias_constraint": null, "kernel_regularizer": null}}, {"name": "batch_normalization_63", "inbound_nodes": [[["conv2d_63", 0, 0, {}]]], "class_name": "BatchNormalization", "config": {"name": "batch_normalization_63", "beta_initializer": {"class_name": "Zeros", "config": {}}, "gamma_regularizer": null, "moving_mean_initializer": {"class_name": "Zeros", "config": {}}, "gamma_initializer": {"class_name": "Ones", "config": {}}, "axis": 3, "beta_regularizer": null, "scale": false, "epsilon": 0.001, "beta_constraint": null, "momentum": 0.99, "center": true, "trainable": true, "moving_variance_initializer": {"class_name": "Ones", "config": {}}, "gamma_constraint": null}}, {"name": "batch_normalization_68", "inbound_nodes": [[["conv2d_68", 0, 0, {}]]], "class_name": "BatchNormalization", "config": {"name": "batch_normalization_68", "beta_initializer": {"class_name": "Zeros", "config": {}}, "gamma_regularizer": null, "moving_mean_initializer": {"class_name": "Zeros", "config": {}}, "gamma_initializer": {"class_name": "Ones", "config": {}}, "axis": 3, "beta_regularizer": null, "scale": false, "epsilon": 0.001, "beta_constraint": null, "momentum": 0.99, "center": true, "trainable": true, "moving_variance_initializer": {"class_name": "Ones", "config": {}}, "gamma_constraint": null}}, {"name": "activation_63", "inbound_nodes": [[["batch_normalization_63", 0, 0, {}]]], "class_name": "Activation", "config": {"name": "activation_63", "activation": "relu", "trainable": true}}, {"name": "activation_68", "inbound_nodes": [[["batch_normalization_68", 0, 0, {}]]], "class_name": "Activation", "config": {"name": "activation_68", "activation": "relu", "trainable": true}}, {"name": "average_pooling2d_7", "inbound_nodes": [[["mixed6", 0, 0, {}]]], "class_name": "AveragePooling2D", "config": {"name": "average_pooling2d_7", "data_format": "channels_last", "strides": [1, 1], "padding": "same", "trainable": true, "pool_size": [3, 3]}}, {"name": "conv2d_61", "inbound_nodes": [[["mixed6", 0, 0, {}]]], "class_name": "Conv2D", "config": {"name": "conv2d_61", "activation": "linear", "strides": [1, 1], "use_bias": false, "data_format": "channels_last", "dilation_rate": [1, 1], "kernel_constraint": null, "kernel_size": [1, 1], "bias_regularizer": null, "bias_initializer": {"class_name": "Zeros", "config": {}}, "padding": "same", "kernel_initializer": {"class_name": "VarianceScaling", "config": {"seed": null, "distribution": "uniform", "mode": "fan_avg", "scale": 1.0}}, "activity_regularizer": null, "trainable": true, "filters": 192, "bias_constraint": null, "kernel_regularizer": null}}, {"name": "conv2d_64", "inbound_nodes": [[["activation_63", 0, 0, {}]]], "class_name": "Conv2D", "config": {"name": "conv2d_64", "activation": "linear", "strides": [1, 1], "use_bias": false, "data_format": "channels_last", "dilation_rate": [1, 1], "kernel_constraint": null, "kernel_size": [7, 1], "bias_regularizer": null, "bias_initializer": {"class_name": "Zeros", "config": {}}, "padding": "same", "kernel_initializer": {"class_name": "VarianceScaling", "config": {"seed": null, "distribution": "uniform", "mode": "fan_avg", "scale": 1.0}}, "activity_regularizer": null, "trainable": true, "filters": 192, "bias_constraint": null, "kernel_regularizer": null}}, {"name": "conv2d_69", "inbound_nodes": [[["activation_68", 0, 0, {}]]], "class_name": "Conv2D", "config": {"name": "conv2d_69", "activation": "linear", "strides": [1, 1], "use_bias": false, "data_format": "channels_last", "dilation_rate": [1, 1], "kernel_constraint": null, "kernel_size": [1, 7], "bias_regularizer": null, "bias_initializer": {"class_name": "Zeros", "config": {}}, "padding": "same", "kernel_initializer": {"class_name": "VarianceScaling", "config": {"seed": null, "distribution": "uniform", "mode": "fan_avg", "scale": 1.0}}, "activity_regularizer": null, "trainable": true, "filters": 192, "bias_constraint": null, "kernel_regularizer": null}}, {"name": "conv2d_70", "inbound_nodes": [[["average_pooling2d_7", 0, 0, {}]]], "class_name": "Conv2D", "config": {"name": "conv2d_70", "activation": "linear", "strides": [1, 1], "use_bias": false, "data_format": "channels_last", "dilation_rate": [1, 1], "kernel_constraint": null, "kernel_size": [1, 1], "bias_regularizer": null, "bias_initializer": {"class_name": "Zeros", "config": {}}, "padding": "same", "kernel_initializer": {"class_name": "VarianceScaling", "config": {"seed": null, "distribution": "uniform", "mode": "fan_avg", "scale": 1.0}}, "activity_regularizer": null, "trainable": true, "filters": 192, "bias_constraint": null, "kernel_regularizer": null}}, {"name": "batch_normalization_61", "inbound_nodes": [[["conv2d_61", 0, 0, {}]]], "class_name": "BatchNormalization", "config": {"name": "batch_normalization_61", "beta_initializer": {"class_name": "Zeros", "config": {}}, "gamma_regularizer": null, "moving_mean_initializer": {"class_name": "Zeros", "config": {}}, "gamma_initializer": {"class_name": "Ones", "config": {}}, "axis": 3, "beta_regularizer": null, "scale": false, "epsilon": 0.001, "beta_constraint": null, "momentum": 0.99, "center": true, "trainable": true, "moving_variance_initializer": {"class_name": "Ones", "config": {}}, "gamma_constraint": null}}, {"name": "batch_normalization_64", "inbound_nodes": [[["conv2d_64", 0, 0, {}]]], "class_name": "BatchNormalization", "config": {"name": "batch_normalization_64", "beta_initializer": {"class_name": "Zeros", "config": {}}, "gamma_regularizer": null, "moving_mean_initializer": {"class_name": "Zeros", "config": {}}, "gamma_initializer": {"class_name": "Ones", "config": {}}, "axis": 3, "beta_regularizer": null, "scale": false, "epsilon": 0.001, "beta_constraint": null, "momentum": 0.99, "center": true, "trainable": true, "moving_variance_initializer": {"class_name": "Ones", "config": {}}, "gamma_constraint": null}}, {"name": "batch_normalization_69", "inbound_nodes": [[["conv2d_69", 0, 0, {}]]], "class_name": "BatchNormalization", "config": {"name": "batch_normalization_69", "beta_initializer": {"class_name": "Zeros", "config": {}}, "gamma_regularizer": null, "moving_mean_initializer": {"class_name": "Zeros", "config": {}}, "gamma_initializer": {"class_name": "Ones", "config": {}}, "axis": 3, "beta_regularizer": null, "scale": false, "epsilon": 0.001, "beta_constraint": null, "momentum": 0.99, "center": true, "trainable": true, "moving_variance_initializer": {"class_name": "Ones", "config": {}}, "gamma_constraint": null}}, {"name": "batch_normalization_70", "inbound_nodes": [[["conv2d_70", 0, 0, {}]]], "class_name": "BatchNormalization", "config": {"name": "batch_normalization_70", "beta_initializer": {"class_name": "Zeros", "config": {}}, "gamma_regularizer": null, "moving_mean_initializer": {"class_name": "Zeros", "config": {}}, "gamma_initializer": {"class_name": "Ones", "config": {}}, "axis": 3, "beta_regularizer": null, "scale": false, "epsilon": 0.001, "beta_constraint": null, "momentum": 0.99, "center": true, "trainable": true, "moving_variance_initializer": {"class_name": "Ones", "config": {}}, "gamma_constraint": null}}, {"name": "activation_61", "inbound_nodes": [[["batch_normalization_61", 0, 0, {}]]], "class_name": "Activation", "config": {"name": "activation_61", "activation": "relu", "trainable": true}}, {"name": "activation_64", "inbound_nodes": [[["batch_normalization_64", 0, 0, {}]]], "class_name": "Activation", "config": {"name": "activation_64", "activation": "relu", "trainable": true}}, {"name": "activation_69", "inbound_nodes": [[["batch_normalization_69", 0, 0, {}]]], "class_name": "Activation", "config": {"name": "activation_69", "activation": "relu", "trainable": true}}, {"name": "activation_70", "inbound_nodes": [[["batch_normalization_70", 0, 0, {}]]], "class_name": "Activation", "config": {"name": "activation_70", "activation": "relu", "trainable": true}}, {"name": "mixed7", "inbound_nodes": [[["activation_61", 0, 0, {}], ["activation_64", 0, 0, {}], ["activation_69", 0, 0, {}], ["activation_70", 0, 0, {}]]], "class_name": "Concatenate", "config": {"name": "mixed7", "trainable": true, "axis": 3}}, {"name": "conv2d_73", "inbound_nodes": [[["mixed7", 0, 0, {}]]], "class_name": "Conv2D", "config": {"name": "conv2d_73", "activation": "linear", "strides": [1, 1], "use_bias": false, "data_format": "channels_last", "dilation_rate": [1, 1], "kernel_constraint": null, "kernel_size": [1, 1], "bias_regularizer": null, "bias_initializer": {"class_name": "Zeros", "config": {}}, "padding": "same", "kernel_initializer": {"class_name": "VarianceScaling", "config": {"seed": null, "distribution": "uniform", "mode": "fan_avg", "scale": 1.0}}, "activity_regularizer": null, "trainable": true, "filters": 192, "bias_constraint": null, "kernel_regularizer": null}}, {"name": "batch_normalization_73", "inbound_nodes": [[["conv2d_73", 0, 0, {}]]], "class_name": "BatchNormalization", "config": {"name": "batch_normalization_73", "beta_initializer": {"class_name": "Zeros", "config": {}}, "gamma_regularizer": null, "moving_mean_initializer": {"class_name": "Zeros", "config": {}}, "gamma_initializer": {"class_name": "Ones", "config": {}}, "axis": 3, "beta_regularizer": null, "scale": false, "epsilon": 0.001, "beta_constraint": null, "momentum": 0.99, "center": true, "trainable": true, "moving_variance_initializer": {"class_name": "Ones", "config": {}}, "gamma_constraint": null}}, {"name": "activation_73", "inbound_nodes": [[["batch_normalization_73", 0, 0, {}]]], "class_name": "Activation", "config": {"name": "activation_73", "activation": "relu", "trainable": true}}, {"name": "conv2d_74", "inbound_nodes": [[["activation_73", 0, 0, {}]]], "class_name": "Conv2D", "config": {"name": "conv2d_74", "activation": "linear", "strides": [1, 1], "use_bias": false, "data_format": "channels_last", "dilation_rate": [1, 1], "kernel_constraint": null, "kernel_size": [1, 7], "bias_regularizer": null, "bias_initializer": {"class_name": "Zeros", "config": {}}, "padding": "same", "kernel_initializer": {"class_name": "VarianceScaling", "config": {"seed": null, "distribution": "uniform", "mode": "fan_avg", "scale": 1.0}}, "activity_regularizer": null, "trainable": true, "filters": 192, "bias_constraint": null, "kernel_regularizer": null}}, {"name": "batch_normalization_74", "inbound_nodes": [[["conv2d_74", 0, 0, {}]]], "class_name": "BatchNormalization", "config": {"name": "batch_normalization_74", "beta_initializer": {"class_name": "Zeros", "config": {}}, "gamma_regularizer": null, "moving_mean_initializer": {"class_name": "Zeros", "config": {}}, "gamma_initializer": {"class_name": "Ones", "config": {}}, "axis": 3, "beta_regularizer": null, "scale": false, "epsilon": 0.001, "beta_constraint": null, "momentum": 0.99, "center": true, "trainable": true, "moving_variance_initializer": {"class_name": "Ones", "config": {}}, "gamma_constraint": null}}, {"name": "activation_74", "inbound_nodes": [[["batch_normalization_74", 0, 0, {}]]], "class_name": "Activation", "config": {"name": "activation_74", "activation": "relu", "trainable": true}}, {"name": "conv2d_71", "inbound_nodes": [[["mixed7", 0, 0, {}]]], "class_name": "Conv2D", "config": {"name": "conv2d_71", "activation": "linear", "strides": [1, 1], "use_bias": false, "data_format": "channels_last", "dilation_rate": [1, 1], "kernel_constraint": null, "kernel_size": [1, 1], "bias_regularizer": null, "bias_initializer": {"class_name": "Zeros", "config": {}}, "padding": "same", "kernel_initializer": {"class_name": "VarianceScaling", "config": {"seed": null, "distribution": "uniform", "mode": "fan_avg", "scale": 1.0}}, "activity_regularizer": null, "trainable": true, "filters": 192, "bias_constraint": null, "kernel_regularizer": null}}, {"name": "conv2d_75", "inbound_nodes": [[["activation_74", 0, 0, {}]]], "class_name": "Conv2D", "config": {"name": "conv2d_75", "activation": "linear", "strides": [1, 1], "use_bias": false, "data_format": "channels_last", "dilation_rate": [1, 1], "kernel_constraint": null, "kernel_size": [7, 1], "bias_regularizer": null, "bias_initializer": {"class_name": "Zeros", "config": {}}, "padding": "same", "kernel_initializer": {"class_name": "VarianceScaling", "config": {"seed": null, "distribution": "uniform", "mode": "fan_avg", "scale": 1.0}}, "activity_regularizer": null, "trainable": true, "filters": 192, "bias_constraint": null, "kernel_regularizer": null}}, {"name": "batch_normalization_71", "inbound_nodes": [[["conv2d_71", 0, 0, {}]]], "class_name": "BatchNormalization", "config": {"name": "batch_normalization_71", "beta_initializer": {"class_name": "Zeros", "config": {}}, "gamma_regularizer": null, "moving_mean_initializer": {"class_name": "Zeros", "config": {}}, "gamma_initializer": {"class_name": "Ones", "config": {}}, "axis": 3, "beta_regularizer": null, "scale": false, "epsilon": 0.001, "beta_constraint": null, "momentum": 0.99, "center": true, "trainable": true, "moving_variance_initializer": {"class_name": "Ones", "config": {}}, "gamma_constraint": null}}, {"name": "batch_normalization_75", "inbound_nodes": [[["conv2d_75", 0, 0, {}]]], "class_name": "BatchNormalization", "config": {"name": "batch_normalization_75", "beta_initializer": {"class_name": "Zeros", "config": {}}, "gamma_regularizer": null, "moving_mean_initializer": {"class_name": "Zeros", "config": {}}, "gamma_initializer": {"class_name": "Ones", "config": {}}, "axis": 3, "beta_regularizer": null, "scale": false, "epsilon": 0.001, "beta_constraint": null, "momentum": 0.99, "center": true, "trainable": true, "moving_variance_initializer": {"class_name": "Ones", "config": {}}, "gamma_constraint": null}}, {"name": "activation_71", "inbound_nodes": [[["batch_normalization_71", 0, 0, {}]]], "class_name": "Activation", "config": {"name": "activation_71", "activation": "relu", "trainable": true}}, {"name": "activation_75", "inbound_nodes": [[["batch_normalization_75", 0, 0, {}]]], "class_name": "Activation", "config": {"name": "activation_75", "activation": "relu", "trainable": true}}, {"name": "conv2d_72", "inbound_nodes": [[["activation_71", 0, 0, {}]]], "class_name": "Conv2D", "config": {"name": "conv2d_72", "activation": "linear", "strides": [2, 2], "use_bias": false, "data_format": "channels_last", "dilation_rate": [1, 1], "kernel_constraint": null, "kernel_size": [3, 3], "bias_regularizer": null, "bias_initializer": {"class_name": "Zeros", "config": {}}, "padding": "valid", "kernel_initializer": {"class_name": "VarianceScaling", "config": {"seed": null, "distribution": "uniform", "mode": "fan_avg", "scale": 1.0}}, "activity_regularizer": null, "trainable": true, "filters": 320, "bias_constraint": null, "kernel_regularizer": null}}, {"name": "conv2d_76", "inbound_nodes": [[["activation_75", 0, 0, {}]]], "class_name": "Conv2D", "config": {"name": "conv2d_76", "activation": "linear", "strides": [2, 2], "use_bias": false, "data_format": "channels_last", "dilation_rate": [1, 1], "kernel_constraint": null, "kernel_size": [3, 3], "bias_regularizer": null, "bias_initializer": {"class_name": "Zeros", "config": {}}, "padding": "valid", "kernel_initializer": {"class_name": "VarianceScaling", "config": {"seed": null, "distribution": "uniform", "mode": "fan_avg", "scale": 1.0}}, "activity_regularizer": null, "trainable": true, "filters": 192, "bias_constraint": null, "kernel_regularizer": null}}, {"name": "batch_normalization_72", "inbound_nodes": [[["conv2d_72", 0, 0, {}]]], "class_name": "BatchNormalization", "config": {"name": "batch_normalization_72", "beta_initializer": {"class_name": "Zeros", "config": {}}, "gamma_regularizer": null, "moving_mean_initializer": {"class_name": "Zeros", "config": {}}, "gamma_initializer": {"class_name": "Ones", "config": {}}, "axis": 3, "beta_regularizer": null, "scale": false, "epsilon": 0.001, "beta_constraint": null, "momentum": 0.99, "center": true, "trainable": true, "moving_variance_initializer": {"class_name": "Ones", "config": {}}, "gamma_constraint": null}}, {"name": "batch_normalization_76", "inbound_nodes": [[["conv2d_76", 0, 0, {}]]], "class_name": "BatchNormalization", "config": {"name": "batch_normalization_76", "beta_initializer": {"class_name": "Zeros", "config": {}}, "gamma_regularizer": null, "moving_mean_initializer": {"class_name": "Zeros", "config": {}}, "gamma_initializer": {"class_name": "Ones", "config": {}}, "axis": 3, "beta_regularizer": null, "scale": false, "epsilon": 0.001, "beta_constraint": null, "momentum": 0.99, "center": true, "trainable": true, "moving_variance_initializer": {"class_name": "Ones", "config": {}}, "gamma_constraint": null}}, {"name": "activation_72", "inbound_nodes": [[["batch_normalization_72", 0, 0, {}]]], "class_name": "Activation", "config": {"name": "activation_72", "activation": "relu", "trainable": true}}, {"name": "activation_76", "inbound_nodes": [[["batch_normalization_76", 0, 0, {}]]], "class_name": "Activation", "config": {"name": "activation_76", "activation": "relu", "trainable": true}}, {"name": "max_pooling2d_4", "inbound_nodes": [[["mixed7", 0, 0, {}]]], "class_name": "MaxPooling2D", "config": {"name": "max_pooling2d_4", "data_format": "channels_last", "strides": [2, 2], "padding": "valid", "trainable": true, "pool_size": [3, 3]}}, {"name": "mixed8", "inbound_nodes": [[["activation_72", 0, 0, {}], ["activation_76", 0, 0, {}], ["max_pooling2d_4", 0, 0, {}]]], "class_name": "Concatenate", "config": {"name": "mixed8", "trainable": true, "axis": 3}}, {"name": "conv2d_81", "inbound_nodes": [[["mixed8", 0, 0, {}]]], "class_name": "Conv2D", "config": {"name": "conv2d_81", "activation": "linear", "strides": [1, 1], "use_bias": false, "data_format": "channels_last", "dilation_rate": [1, 1], "kernel_constraint": null, "kernel_size": [1, 1], "bias_regularizer": null, "bias_initializer": {"class_name": "Zeros", "config": {}}, "padding": "same", "kernel_initializer": {"class_name": "VarianceScaling", "config": {"seed": null, "distribution": "uniform", "mode": "fan_avg", "scale": 1.0}}, "activity_regularizer": null, "trainable": true, "filters": 448, "bias_constraint": null, "kernel_regularizer": null}}, {"name": "batch_normalization_81", "inbound_nodes": [[["conv2d_81", 0, 0, {}]]], "class_name": "BatchNormalization", "config": {"name": "batch_normalization_81", "beta_initializer": {"class_name": "Zeros", "config": {}}, "gamma_regularizer": null, "moving_mean_initializer": {"class_name": "Zeros", "config": {}}, "gamma_initializer": {"class_name": "Ones", "config": {}}, "axis": 3, "beta_regularizer": null, "scale": false, "epsilon": 0.001, "beta_constraint": null, "momentum": 0.99, "center": true, "trainable": true, "moving_variance_initializer": {"class_name": "Ones", "config": {}}, "gamma_constraint": null}}, {"name": "activation_81", "inbound_nodes": [[["batch_normalization_81", 0, 0, {}]]], "class_name": "Activation", "config": {"name": "activation_81", "activation": "relu", "trainable": true}}, {"name": "conv2d_78", "inbound_nodes": [[["mixed8", 0, 0, {}]]], "class_name": "Conv2D", "config": {"name": "conv2d_78", "activation": "linear", "strides": [1, 1], "use_bias": false, "data_format": "channels_last", "dilation_rate": [1, 1], "kernel_constraint": null, "kernel_size": [1, 1], "bias_regularizer": null, "bias_initializer": {"class_name": "Zeros", "config": {}}, "padding": "same", "kernel_initializer": {"class_name": "VarianceScaling", "config": {"seed": null, "distribution": "uniform", "mode": "fan_avg", "scale": 1.0}}, "activity_regularizer": null, "trainable": true, "filters": 384, "bias_constraint": null, "kernel_regularizer": null}}, {"name": "conv2d_82", "inbound_nodes": [[["activation_81", 0, 0, {}]]], "class_name": "Conv2D", "config": {"name": "conv2d_82", "activation": "linear", "strides": [1, 1], "use_bias": false, "data_format": "channels_last", "dilation_rate": [1, 1], "kernel_constraint": null, "kernel_size": [3, 3], "bias_regularizer": null, "bias_initializer": {"class_name": "Zeros", "config": {}}, "padding": "same", "kernel_initializer": {"class_name": "VarianceScaling", "config": {"seed": null, "distribution": "uniform", "mode": "fan_avg", "scale": 1.0}}, "activity_regularizer": null, "trainable": true, "filters": 384, "bias_constraint": null, "kernel_regularizer": null}}, {"name": "batch_normalization_78", "inbound_nodes": [[["conv2d_78", 0, 0, {}]]], "class_name": "BatchNormalization", "config": {"name": "batch_normalization_78", "beta_initializer": {"class_name": "Zeros", "config": {}}, "gamma_regularizer": null, "moving_mean_initializer": {"class_name": "Zeros", "config": {}}, "gamma_initializer": {"class_name": "Ones", "config": {}}, "axis": 3, "beta_regularizer": null, "scale": false, "epsilon": 0.001, "beta_constraint": null, "momentum": 0.99, "center": true, "trainable": true, "moving_variance_initializer": {"class_name": "Ones", "config": {}}, "gamma_constraint": null}}, {"name": "batch_normalization_82", "inbound_nodes": [[["conv2d_82", 0, 0, {}]]], "class_name": "BatchNormalization", "config": {"name": "batch_normalization_82", "beta_initializer": {"class_name": "Zeros", "config": {}}, "gamma_regularizer": null, "moving_mean_initializer": {"class_name": "Zeros", "config": {}}, "gamma_initializer": {"class_name": "Ones", "config": {}}, "axis": 3, "beta_regularizer": null, "scale": false, "epsilon": 0.001, "beta_constraint": null, "momentum": 0.99, "center": true, "trainable": true, "moving_variance_initializer": {"class_name": "Ones", "config": {}}, "gamma_constraint": null}}, {"name": "activation_78", "inbound_nodes": [[["batch_normalization_78", 0, 0, {}]]], "class_name": "Activation", "config": {"name": "activation_78", "activation": "relu", "trainable": true}}, {"name": "activation_82", "inbound_nodes": [[["batch_normalization_82", 0, 0, {}]]], "class_name": "Activation", "config": {"name": "activation_82", "activation": "relu", "trainable": true}}, {"name": "conv2d_79", "inbound_nodes": [[["activation_78", 0, 0, {}]]], "class_name": "Conv2D", "config": {"name": "conv2d_79", "activation": "linear", "strides": [1, 1], "use_bias": false, "data_format": "channels_last", "dilation_rate": [1, 1], "kernel_constraint": null, "kernel_size": [1, 3], "bias_regularizer": null, "bias_initializer": {"class_name": "Zeros", "config": {}}, "padding": "same", "kernel_initializer": {"class_name": "VarianceScaling", "config": {"seed": null, "distribution": "uniform", "mode": "fan_avg", "scale": 1.0}}, "activity_regularizer": null, "trainable": true, "filters": 384, "bias_constraint": null, "kernel_regularizer": null}}, {"name": "conv2d_80", "inbound_nodes": [[["activation_78", 0, 0, {}]]], "class_name": "Conv2D", "config": {"name": "conv2d_80", "activation": "linear", "strides": [1, 1], "use_bias": false, "data_format": "channels_last", "dilation_rate": [1, 1], "kernel_constraint": null, "kernel_size": [3, 1], "bias_regularizer": null, "bias_initializer": {"class_name": "Zeros", "config": {}}, "padding": "same", "kernel_initializer": {"class_name": "VarianceScaling", "config": {"seed": null, "distribution": "uniform", "mode": "fan_avg", "scale": 1.0}}, "activity_regularizer": null, "trainable": true, "filters": 384, "bias_constraint": null, "kernel_regularizer": null}}, {"name": "conv2d_83", "inbound_nodes": [[["activation_82", 0, 0, {}]]], "class_name": "Conv2D", "config": {"name": "conv2d_83", "activation": "linear", "strides": [1, 1], "use_bias": false, "data_format": "channels_last", "dilation_rate": [1, 1], "kernel_constraint": null, "kernel_size": [1, 3], "bias_regularizer": null, "bias_initializer": {"class_name": "Zeros", "config": {}}, "padding": "same", "kernel_initializer": {"class_name": "VarianceScaling", "config": {"seed": null, "distribution": "uniform", "mode": "fan_avg", "scale": 1.0}}, "activity_regularizer": null, "trainable": true, "filters": 384, "bias_constraint": null, "kernel_regularizer": null}}, {"name": "conv2d_84", "inbound_nodes": [[["activation_82", 0, 0, {}]]], "class_name": "Conv2D", "config": {"name": "conv2d_84", "activation": "linear", "strides": [1, 1], "use_bias": false, "data_format": "channels_last", "dilation_rate": [1, 1], "kernel_constraint": null, "kernel_size": [3, 1], "bias_regularizer": null, "bias_initializer": {"class_name": "Zeros", "config": {}}, "padding": "same", "kernel_initializer": {"class_name": "VarianceScaling", "config": {"seed": null, "distribution": "uniform", "mode": "fan_avg", "scale": 1.0}}, "activity_regularizer": null, "trainable": true, "filters": 384, "bias_constraint": null, "kernel_regularizer": null}}, {"name": "average_pooling2d_8", "inbound_nodes": [[["mixed8", 0, 0, {}]]], "class_name": "AveragePooling2D", "config": {"name": "average_pooling2d_8", "data_format": "channels_last", "strides": [1, 1], "padding": "same", "trainable": true, "pool_size": [3, 3]}}, {"name": "conv2d_77", "inbound_nodes": [[["mixed8", 0, 0, {}]]], "class_name": "Conv2D", "config": {"name": "conv2d_77", "activation": "linear", "strides": [1, 1], "use_bias": false, "data_format": "channels_last", "dilation_rate": [1, 1], "kernel_constraint": null, "kernel_size": [1, 1], "bias_regularizer": null, "bias_initializer": {"class_name": "Zeros", "config": {}}, "padding": "same", "kernel_initializer": {"class_name": "VarianceScaling", "config": {"seed": null, "distribution": "uniform", "mode": "fan_avg", "scale": 1.0}}, "activity_regularizer": null, "trainable": true, "filters": 320, "bias_constraint": null, "kernel_regularizer": null}}, {"name": "batch_normalization_79", "inbound_nodes": [[["conv2d_79", 0, 0, {}]]], "class_name": "BatchNormalization", "config": {"name": "batch_normalization_79", "beta_initializer": {"class_name": "Zeros", "config": {}}, "gamma_regularizer": null, "moving_mean_initializer": {"class_name": "Zeros", "config": {}}, "gamma_initializer": {"class_name": "Ones", "config": {}}, "axis": 3, "beta_regularizer": null, "scale": false, "epsilon": 0.001, "beta_constraint": null, "momentum": 0.99, "center": true, "trainable": true, "moving_variance_initializer": {"class_name": "Ones", "config": {}}, "gamma_constraint": null}}, {"name": "batch_normalization_80", "inbound_nodes": [[["conv2d_80", 0, 0, {}]]], "class_name": "BatchNormalization", "config": {"name": "batch_normalization_80", "beta_initializer": {"class_name": "Zeros", "config": {}}, "gamma_regularizer": null, "moving_mean_initializer": {"class_name": "Zeros", "config": {}}, "gamma_initializer": {"class_name": "Ones", "config": {}}, "axis": 3, "beta_regularizer": null, "scale": false, "epsilon": 0.001, "beta_constraint": null, "momentum": 0.99, "center": true, "trainable": true, "moving_variance_initializer": {"class_name": "Ones", "config": {}}, "gamma_constraint": null}}, {"name": "batch_normalization_83", "inbound_nodes": [[["conv2d_83", 0, 0, {}]]], "class_name": "BatchNormalization", "config": {"name": "batch_normalization_83", "beta_initializer": {"class_name": "Zeros", "config": {}}, "gamma_regularizer": null, "moving_mean_initializer": {"class_name": "Zeros", "config": {}}, "gamma_initializer": {"class_name": "Ones", "config": {}}, "axis": 3, "beta_regularizer": null, "scale": false, "epsilon": 0.001, "beta_constraint": null, "momentum": 0.99, "center": true, "trainable": true, "moving_variance_initializer": {"class_name": "Ones", "config": {}}, "gamma_constraint": null}}, {"name": "batch_normalization_84", "inbound_nodes": [[["conv2d_84", 0, 0, {}]]], "class_name": "BatchNormalization", "config": {"name": "batch_normalization_84", "beta_initializer": {"class_name": "Zeros", "config": {}}, "gamma_regularizer": null, "moving_mean_initializer": {"class_name": "Zeros", "config": {}}, "gamma_initializer": {"class_name": "Ones", "config": {}}, "axis": 3, "beta_regularizer": null, "scale": false, "epsilon": 0.001, "beta_constraint": null, "momentum": 0.99, "center": true, "trainable": true, "moving_variance_initializer": {"class_name": "Ones", "config": {}}, "gamma_constraint": null}}, {"name": "conv2d_85", "inbound_nodes": [[["average_pooling2d_8", 0, 0, {}]]], "class_name": "Conv2D", "config": {"name": "conv2d_85", "activation": "linear", "strides": [1, 1], "use_bias": false, "data_format": "channels_last", "dilation_rate": [1, 1], "kernel_constraint": null, "kernel_size": [1, 1], "bias_regularizer": null, "bias_initializer": {"class_name": "Zeros", "config": {}}, "padding": "same", "kernel_initializer": {"class_name": "VarianceScaling", "config": {"seed": null, "distribution": "uniform", "mode": "fan_avg", "scale": 1.0}}, "activity_regularizer": null, "trainable": true, "filters": 192, "bias_constraint": null, "kernel_regularizer": null}}, {"name": "batch_normalization_77", "inbound_nodes": [[["conv2d_77", 0, 0, {}]]], "class_name": "BatchNormalization", "config": {"name": "batch_normalization_77", "beta_initializer": {"class_name": "Zeros", "config": {}}, "gamma_regularizer": null, "moving_mean_initializer": {"class_name": "Zeros", "config": {}}, "gamma_initializer": {"class_name": "Ones", "config": {}}, "axis": 3, "beta_regularizer": null, "scale": false, "epsilon": 0.001, "beta_constraint": null, "momentum": 0.99, "center": true, "trainable": true, "moving_variance_initializer": {"class_name": "Ones", "config": {}}, "gamma_constraint": null}}, {"name": "activation_79", "inbound_nodes": [[["batch_normalization_79", 0, 0, {}]]], "class_name": "Activation", "config": {"name": "activation_79", "activation": "relu", "trainable": true}}, {"name": "activation_80", "inbound_nodes": [[["batch_normalization_80", 0, 0, {}]]], "class_name": "Activation", "config": {"name": "activation_80", "activation": "relu", "trainable": true}}, {"name": "activation_83", "inbound_nodes": [[["batch_normalization_83", 0, 0, {}]]], "class_name": "Activation", "config": {"name": "activation_83", "activation": "relu", "trainable": true}}, {"name": "activation_84", "inbound_nodes": [[["batch_normalization_84", 0, 0, {}]]], "class_name": "Activation", "config": {"name": "activation_84", "activation": "relu", "trainable": true}}, {"name": "batch_normalization_85", "inbound_nodes": [[["conv2d_85", 0, 0, {}]]], "class_name": "BatchNormalization", "config": {"name": "batch_normalization_85", "beta_initializer": {"class_name": "Zeros", "config": {}}, "gamma_regularizer": null, "moving_mean_initializer": {"class_name": "Zeros", "config": {}}, "gamma_initializer": {"class_name": "Ones", "config": {}}, "axis": 3, "beta_regularizer": null, "scale": false, "epsilon": 0.001, "beta_constraint": null, "momentum": 0.99, "center": true, "trainable": true, "moving_variance_initializer": {"class_name": "Ones", "config": {}}, "gamma_constraint": null}}, {"name": "activation_77", "inbound_nodes": [[["batch_normalization_77", 0, 0, {}]]], "class_name": "Activation", "config": {"name": "activation_77", "activation": "relu", "trainable": true}}, {"name": "mixed9_0", "inbound_nodes": [[["activation_79", 0, 0, {}], ["activation_80", 0, 0, {}]]], "class_name": "Concatenate", "config": {"name": "mixed9_0", "trainable": true, "axis": 3}}, {"name": "concatenate_1", "inbound_nodes": [[["activation_83", 0, 0, {}], ["activation_84", 0, 0, {}]]], "class_name": "Concatenate", "config": {"name": "concatenate_1", "trainable": true, "axis": 3}}, {"name": "activation_85", "inbound_nodes": [[["batch_normalization_85", 0, 0, {}]]], "class_name": "Activation", "config": {"name": "activation_85", "activation": "relu", "trainable": true}}, {"name": "mixed9", "inbound_nodes": [[["activation_77", 0, 0, {}], ["mixed9_0", 0, 0, {}], ["concatenate_1", 0, 0, {}], ["activation_85", 0, 0, {}]]], "class_name": "Concatenate", "config": {"name": "mixed9", "trainable": true, "axis": 3}}, {"name": "conv2d_90", "inbound_nodes": [[["mixed9", 0, 0, {}]]], "class_name": "Conv2D", "config": {"name": "conv2d_90", "activation": "linear", "strides": [1, 1], "use_bias": false, "data_format": "channels_last", "dilation_rate": [1, 1], "kernel_constraint": null, "kernel_size": [1, 1], "bias_regularizer": null, "bias_initializer": {"class_name": "Zeros", "config": {}}, "padding": "same", "kernel_initializer": {"class_name": "VarianceScaling", "config": {"seed": null, "distribution": "uniform", "mode": "fan_avg", "scale": 1.0}}, "activity_regularizer": null, "trainable": true, "filters": 448, "bias_constraint": null, "kernel_regularizer": null}}, {"name": "batch_normalization_90", "inbound_nodes": [[["conv2d_90", 0, 0, {}]]], "class_name": "BatchNormalization", "config": {"name": "batch_normalization_90", "beta_initializer": {"class_name": "Zeros", "config": {}}, "gamma_regularizer": null, "moving_mean_initializer": {"class_name": "Zeros", "config": {}}, "gamma_initializer": {"class_name": "Ones", "config": {}}, "axis": 3, "beta_regularizer": null, "scale": false, "epsilon": 0.001, "beta_constraint": null, "momentum": 0.99, "center": true, "trainable": true, "moving_variance_initializer": {"class_name": "Ones", "config": {}}, "gamma_constraint": null}}, {"name": "activation_90", "inbound_nodes": [[["batch_normalization_90", 0, 0, {}]]], "class_name": "Activation", "config": {"name": "activation_90", "activation": "relu", "trainable": true}}, {"name": "conv2d_87", "inbound_nodes": [[["mixed9", 0, 0, {}]]], "class_name": "Conv2D", "config": {"name": "conv2d_87", "activation": "linear", "strides": [1, 1], "use_bias": false, "data_format": "channels_last", "dilation_rate": [1, 1], "kernel_constraint": null, "kernel_size": [1, 1], "bias_regularizer": null, "bias_initializer": {"class_name": "Zeros", "config": {}}, "padding": "same", "kernel_initializer": {"class_name": "VarianceScaling", "config": {"seed": null, "distribution": "uniform", "mode": "fan_avg", "scale": 1.0}}, "activity_regularizer": null, "trainable": true, "filters": 384, "bias_constraint": null, "kernel_regularizer": null}}, {"name": "conv2d_91", "inbound_nodes": [[["activation_90", 0, 0, {}]]], "class_name": "Conv2D", "config": {"name": "conv2d_91", "activation": "linear", "strides": [1, 1], "use_bias": false, "data_format": "channels_last", "dilation_rate": [1, 1], "kernel_constraint": null, "kernel_size": [3, 3], "bias_regularizer": null, "bias_initializer": {"class_name": "Zeros", "config": {}}, "padding": "same", "kernel_initializer": {"class_name": "VarianceScaling", "config": {"seed": null, "distribution": "uniform", "mode": "fan_avg", "scale": 1.0}}, "activity_regularizer": null, "trainable": true, "filters": 384, "bias_constraint": null, "kernel_regularizer": null}}, {"name": "batch_normalization_87", "inbound_nodes": [[["conv2d_87", 0, 0, {}]]], "class_name": "BatchNormalization", "config": {"name": "batch_normalization_87", "beta_initializer": {"class_name": "Zeros", "config": {}}, "gamma_regularizer": null, "moving_mean_initializer": {"class_name": "Zeros", "config": {}}, "gamma_initializer": {"class_name": "Ones", "config": {}}, "axis": 3, "beta_regularizer": null, "scale": false, "epsilon": 0.001, "beta_constraint": null, "momentum": 0.99, "center": true, "trainable": true, "moving_variance_initializer": {"class_name": "Ones", "config": {}}, "gamma_constraint": null}}, {"name": "batch_normalization_91", "inbound_nodes": [[["conv2d_91", 0, 0, {}]]], "class_name": "BatchNormalization", "config": {"name": "batch_normalization_91", "beta_initializer": {"class_name": "Zeros", "config": {}}, "gamma_regularizer": null, "moving_mean_initializer": {"class_name": "Zeros", "config": {}}, "gamma_initializer": {"class_name": "Ones", "config": {}}, "axis": 3, "beta_regularizer": null, "scale": false, "epsilon": 0.001, "beta_constraint": null, "momentum": 0.99, "center": true, "trainable": true, "moving_variance_initializer": {"class_name": "Ones", "config": {}}, "gamma_constraint": null}}, {"name": "activation_87", "inbound_nodes": [[["batch_normalization_87", 0, 0, {}]]], "class_name": "Activation", "config": {"name": "activation_87", "activation": "relu", "trainable": true}}, {"name": "activation_91", "inbound_nodes": [[["batch_normalization_91", 0, 0, {}]]], "class_name": "Activation", "config": {"name": "activation_91", "activation": "relu", "trainable": true}}, {"name": "conv2d_88", "inbound_nodes": [[["activation_87", 0, 0, {}]]], "class_name": "Conv2D", "config": {"name": "conv2d_88", "activation": "linear", "strides": [1, 1], "use_bias": false, "data_format": "channels_last", "dilation_rate": [1, 1], "kernel_constraint": null, "kernel_size": [1, 3], "bias_regularizer": null, "bias_initializer": {"class_name": "Zeros", "config": {}}, "padding": "same", "kernel_initializer": {"class_name": "VarianceScaling", "config": {"seed": null, "distribution": "uniform", "mode": "fan_avg", "scale": 1.0}}, "activity_regularizer": null, "trainable": true, "filters": 384, "bias_constraint": null, "kernel_regularizer": null}}, {"name": "conv2d_89", "inbound_nodes": [[["activation_87", 0, 0, {}]]], "class_name": "Conv2D", "config": {"name": "conv2d_89", "activation": "linear", "strides": [1, 1], "use_bias": false, "data_format": "channels_last", "dilation_rate": [1, 1], "kernel_constraint": null, "kernel_size": [3, 1], "bias_regularizer": null, "bias_initializer": {"class_name": "Zeros", "config": {}}, "padding": "same", "kernel_initializer": {"class_name": "VarianceScaling", "config": {"seed": null, "distribution": "uniform", "mode": "fan_avg", "scale": 1.0}}, "activity_regularizer": null, "trainable": true, "filters": 384, "bias_constraint": null, "kernel_regularizer": null}}, {"name": "conv2d_92", "inbound_nodes": [[["activation_91", 0, 0, {}]]], "class_name": "Conv2D", "config": {"name": "conv2d_92", "activation": "linear", "strides": [1, 1], "use_bias": false, "data_format": "channels_last", "dilation_rate": [1, 1], "kernel_constraint": null, "kernel_size": [1, 3], "bias_regularizer": null, "bias_initializer": {"class_name": "Zeros", "config": {}}, "padding": "same", "kernel_initializer": {"class_name": "VarianceScaling", "config": {"seed": null, "distribution": "uniform", "mode": "fan_avg", "scale": 1.0}}, "activity_regularizer": null, "trainable": true, "filters": 384, "bias_constraint": null, "kernel_regularizer": null}}, {"name": "conv2d_93", "inbound_nodes": [[["activation_91", 0, 0, {}]]], "class_name": "Conv2D", "config": {"name": "conv2d_93", "activation": "linear", "strides": [1, 1], "use_bias": false, "data_format": "channels_last", "dilation_rate": [1, 1], "kernel_constraint": null, "kernel_size": [3, 1], "bias_regularizer": null, "bias_initializer": {"class_name": "Zeros", "config": {}}, "padding": "same", "kernel_initializer": {"class_name": "VarianceScaling", "config": {"seed": null, "distribution": "uniform", "mode": "fan_avg", "scale": 1.0}}, "activity_regularizer": null, "trainable": true, "filters": 384, "bias_constraint": null, "kernel_regularizer": null}}, {"name": "average_pooling2d_9", "inbound_nodes": [[["mixed9", 0, 0, {}]]], "class_name": "AveragePooling2D", "config": {"name": "average_pooling2d_9", "data_format": "channels_last", "strides": [1, 1], "padding": "same", "trainable": true, "pool_size": [3, 3]}}, {"name": "conv2d_86", "inbound_nodes": [[["mixed9", 0, 0, {}]]], "class_name": "Conv2D", "config": {"name": "conv2d_86", "activation": "linear", "strides": [1, 1], "use_bias": false, "data_format": "channels_last", "dilation_rate": [1, 1], "kernel_constraint": null, "kernel_size": [1, 1], "bias_regularizer": null, "bias_initializer": {"class_name": "Zeros", "config": {}}, "padding": "same", "kernel_initializer": {"class_name": "VarianceScaling", "config": {"seed": null, "distribution": "uniform", "mode": "fan_avg", "scale": 1.0}}, "activity_regularizer": null, "trainable": true, "filters": 320, "bias_constraint": null, "kernel_regularizer": null}}, {"name": "batch_normalization_88", "inbound_nodes": [[["conv2d_88", 0, 0, {}]]], "class_name": "BatchNormalization", "config": {"name": "batch_normalization_88", "beta_initializer": {"class_name": "Zeros", "config": {}}, "gamma_regularizer": null, "moving_mean_initializer": {"class_name": "Zeros", "config": {}}, "gamma_initializer": {"class_name": "Ones", "config": {}}, "axis": 3, "beta_regularizer": null, "scale": false, "epsilon": 0.001, "beta_constraint": null, "momentum": 0.99, "center": true, "trainable": true, "moving_variance_initializer": {"class_name": "Ones", "config": {}}, "gamma_constraint": null}}, {"name": "batch_normalization_89", "inbound_nodes": [[["conv2d_89", 0, 0, {}]]], "class_name": "BatchNormalization", "config": {"name": "batch_normalization_89", "beta_initializer": {"class_name": "Zeros", "config": {}}, "gamma_regularizer": null, "moving_mean_initializer": {"class_name": "Zeros", "config": {}}, "gamma_initializer": {"class_name": "Ones", "config": {}}, "axis": 3, "beta_regularizer": null, "scale": false, "epsilon": 0.001, "beta_constraint": null, "momentum": 0.99, "center": true, "trainable": true, "moving_variance_initializer": {"class_name": "Ones", "config": {}}, "gamma_constraint": null}}, {"name": "batch_normalization_92", "inbound_nodes": [[["conv2d_92", 0, 0, {}]]], "class_name": "BatchNormalization", "config": {"name": "batch_normalization_92", "beta_initializer": {"class_name": "Zeros", "config": {}}, "gamma_regularizer": null, "moving_mean_initializer": {"class_name": "Zeros", "config": {}}, "gamma_initializer": {"class_name": "Ones", "config": {}}, "axis": 3, "beta_regularizer": null, "scale": false, "epsilon": 0.001, "beta_constraint": null, "momentum": 0.99, "center": true, "trainable": true, "moving_variance_initializer": {"class_name": "Ones", "config": {}}, "gamma_constraint": null}}, {"name": "batch_normalization_93", "inbound_nodes": [[["conv2d_93", 0, 0, {}]]], "class_name": "BatchNormalization", "config": {"name": "batch_normalization_93", "beta_initializer": {"class_name": "Zeros", "config": {}}, "gamma_regularizer": null, "moving_mean_initializer": {"class_name": "Zeros", "config": {}}, "gamma_initializer": {"class_name": "Ones", "config": {}}, "axis": 3, "beta_regularizer": null, "scale": false, "epsilon": 0.001, "beta_constraint": null, "momentum": 0.99, "center": true, "trainable": true, "moving_variance_initializer": {"class_name": "Ones", "config": {}}, "gamma_constraint": null}}, {"name": "conv2d_94", "inbound_nodes": [[["average_pooling2d_9", 0, 0, {}]]], "class_name": "Conv2D", "config": {"name": "conv2d_94", "activation": "linear", "strides": [1, 1], "use_bias": false, "data_format": "channels_last", "dilation_rate": [1, 1], "kernel_constraint": null, "kernel_size": [1, 1], "bias_regularizer": null, "bias_initializer": {"class_name": "Zeros", "config": {}}, "padding": "same", "kernel_initializer": {"class_name": "VarianceScaling", "config": {"seed": null, "distribution": "uniform", "mode": "fan_avg", "scale": 1.0}}, "activity_regularizer": null, "trainable": true, "filters": 192, "bias_constraint": null, "kernel_regularizer": null}}, {"name": "batch_normalization_86", "inbound_nodes": [[["conv2d_86", 0, 0, {}]]], "class_name": "BatchNormalization", "config": {"name": "batch_normalization_86", "beta_initializer": {"class_name": "Zeros", "config": {}}, "gamma_regularizer": null, "moving_mean_initializer": {"class_name": "Zeros", "config": {}}, "gamma_initializer": {"class_name": "Ones", "config": {}}, "axis": 3, "beta_regularizer": null, "scale": false, "epsilon": 0.001, "beta_constraint": null, "momentum": 0.99, "center": true, "trainable": true, "moving_variance_initializer": {"class_name": "Ones", "config": {}}, "gamma_constraint": null}}, {"name": "activation_88", "inbound_nodes": [[["batch_normalization_88", 0, 0, {}]]], "class_name": "Activation", "config": {"name": "activation_88", "activation": "relu", "trainable": true}}, {"name": "activation_89", "inbound_nodes": [[["batch_normalization_89", 0, 0, {}]]], "class_name": "Activation", "config": {"name": "activation_89", "activation": "relu", "trainable": true}}, {"name": "activation_92", "inbound_nodes": [[["batch_normalization_92", 0, 0, {}]]], "class_name": "Activation", "config": {"name": "activation_92", "activation": "relu", "trainable": true}}, {"name": "activation_93", "inbound_nodes": [[["batch_normalization_93", 0, 0, {}]]], "class_name": "Activation", "config": {"name": "activation_93", "activation": "relu", "trainable": true}}, {"name": "batch_normalization_94", "inbound_nodes": [[["conv2d_94", 0, 0, {}]]], "class_name": "BatchNormalization", "config": {"name": "batch_normalization_94", "beta_initializer": {"class_name": "Zeros", "config": {}}, "gamma_regularizer": null, "moving_mean_initializer": {"class_name": "Zeros", "config": {}}, "gamma_initializer": {"class_name": "Ones", "config": {}}, "axis": 3, "beta_regularizer": null, "scale": false, "epsilon": 0.001, "beta_constraint": null, "momentum": 0.99, "center": true, "trainable": true, "moving_variance_initializer": {"class_name": "Ones", "config": {}}, "gamma_constraint": null}}, {"name": "activation_86", "inbound_nodes": [[["batch_normalization_86", 0, 0, {}]]], "class_name": "Activation", "config": {"name": "activation_86", "activation": "relu", "trainable": true}}, {"name": "mixed9_1", "inbound_nodes": [[["activation_88", 0, 0, {}], ["activation_89", 0, 0, {}]]], "class_name": "Concatenate", "config": {"name": "mixed9_1", "trainable": true, "axis": 3}}, {"name": "concatenate_2", "inbound_nodes": [[["activation_92", 0, 0, {}], ["activation_93", 0, 0, {}]]], "class_name": "Concatenate", "config": {"name": "concatenate_2", "trainable": true, "axis": 3}}, {"name": "activation_94", "inbound_nodes": [[["batch_normalization_94", 0, 0, {}]]], "class_name": "Activation", "config": {"name": "activation_94", "activation": "relu", "trainable": true}}, {"name": "mixed10", "inbound_nodes": [[["activation_86", 0, 0, {}], ["mixed9_1", 0, 0, {}], ["concatenate_2", 0, 0, {}], ["activation_94", 0, 0, {}]]], "class_name": "Concatenate", "config": {"name": "mixed10", "trainable": true, "axis": 3}}, {"name": "global_average_pooling2d_1", "inbound_nodes": [[["mixed10", 0, 0, {}]]], "class_name": "GlobalAveragePooling2D", "config": {"name": "global_average_pooling2d_1", "data_format": "channels_last", "trainable": true}}, {"name": "dense_1", "inbound_nodes": [[["global_average_pooling2d_1", 0, 0, {}]]], "class_name": "Dense", "config": {"name": "dense_1", "units": 256, "kernel_regularizer": null, "use_bias": true, "activation": "relu", "kernel_constraint": null, "bias_regularizer": null, "bias_initializer": {"class_name": "Zeros", "config": {}}, "bias_constraint": null, "kernel_initializer": {"class_name": "VarianceScaling", "config": {"seed": null, "distribution": "uniform", "mode": "fan_avg", "scale": 1.0}}, "activity_regularizer": null, "trainable": true}}, {"name": "dropout_1", "inbound_nodes": [[["dense_1", 0, 0, {}]]], "class_name": "Dropout", "config": {"name": "dropout_1", "rate": 0.5, "trainable": true, "noise_shape": null, "seed": null}}, {"name": "dense_2", "inbound_nodes": [[["dropout_1", 0, 0, {}]]], "class_name": "Dense", "config": {"name": "dense_2", "units": 1, "kernel_regularizer": null, "use_bias": true, "activation": "sigmoid", "kernel_constraint": null, "bias_regularizer": null, "bias_initializer": {"class_name": "Zeros", "config": {}}, "bias_constraint": null, "kernel_initializer": {"class_name": "VarianceScaling", "config": {"seed": null, "distribution": "uniform", "mode": "fan_avg", "scale": 1.0}}, "activity_regularizer": null, "trainable": true}}], "output_layers": [["dense_2", 0, 0]], "input_layers": [["input_1", 0, 0]]}}