{"keras_version": "2.0.9", "class_name": "Model", "config": {"input_layers": [["input_1", 0, 0]], "output_layers": [["dense_2", 0, 0]], "layers": [{"class_name": "InputLayer", "config": {"sparse": false, "dtype": "float32", "batch_input_shape": [null, null, null, 3], "name": "input_1"}, "name": "input_1", "inbound_nodes": []}, {"class_name": "Conv2D", "config": {"bias_constraint": null, "kernel_initializer": {"class_name": "VarianceScaling", "config": {"mode": "fan_avg", "distribution": "uniform", "scale": 1.0, "seed": null}}, "kernel_size": [3, 3], "padding": "valid", "data_format": "channels_last", "activity_regularizer": null, "filters": 32, "kernel_regularizer": null, "bias_regularizer": null, "use_bias": false, "kernel_constraint": null, "strides": [2, 2], "trainable": false, "dilation_rate": [1, 1], "activation": "linear", "name": "conv2d_1", "bias_initializer": {"class_name": "Zeros", "config": {}}}, "name": "conv2d_1", "inbound_nodes": [[["input_1", 0, 0, {}]]]}, {"class_name": "BatchNormalization", "config": {"axis": 3, "gamma_constraint": null, "beta_regularizer": null, "center": true, "gamma_regularizer": null, "beta_initializer": {"class_name": "Zeros", "config": {}}, "moving_mean_initializer": {"class_name": "Zeros", "config": {}}, "trainable": false, "scale": false, "beta_constraint": null, "gamma_initializer": {"class_name": "Ones", "config": {}}, "momentum": 0.99, "epsilon": 0.001, "name": "batch_normalization_1", "moving_variance_initializer": {"class_name": "Ones", "config": {}}}, "name": "batch_normalization_1", "inbound_nodes": [[["conv2d_1", 0, 0, {}]]]}, {"class_name": "Activation", "config": {"trainable": false, "activation": "relu", "name": "activation_1"}, "name": "activation_1", "inbound_nodes": [[["batch_normalization_1", 0, 0, {}]]]}, {"class_name": "Conv2D", "config": {"bias_constraint": null, "kernel_initializer": {"class_name": "VarianceScaling", "config": {"mode": "fan_avg", "distribution": "uniform", "scale": 1.0, "seed": null}}, "kernel_size": [3, 3], "padding": "valid", "data_format": "channels_last", "activity_regularizer": null, "filters": 32, "kernel_regularizer": null, "bias_regularizer": null, "use_bias": false, "kernel_constraint": null, "strides": [1, 1], "trainable": false, "dilation_rate": [1, 1], "activation": "linear", "name": "conv2d_2", "bias_initializer": {"class_name": "Zeros", "config": {}}}, "name": "conv2d_2", "inbound_nodes": [[["activation_1", 0, 0, {}]]]}, {"class_name": "BatchNormalization", "config": {"axis": 3, "gamma_constraint": null, "beta_regularizer": null, "center": true, "gamma_regularizer": null, "beta_initializer": {"class_name": "Zeros", "config": {}}, "moving_mean_initializer": {"class_name": "Zeros", "config": {}}, "trainable": false, "scale": false, "beta_constraint": null, "gamma_initializer": {"class_name": "Ones", "config": {}}, "momentum": 0.99, "epsilon": 0.001, "name": "batch_normalization_2", "moving_variance_initializer": {"class_name": "Ones", "config": {}}}, "name": "batch_normalization_2", "inbound_nodes": [[["conv2d_2", 0, 0, {}]]]}, {"class_name": "Activation", "config": {"trainable": false, "activation": "relu", "name": "activation_2"}, "name": "activation_2", "inbound_nodes": [[["batch_normalization_2", 0, 0, {}]]]}, {"class_name": "Conv2D", "config": {"bias_constraint": null, "kernel_initializer": {"class_name": "VarianceScaling", "config": {"mode": "fan_avg", "distribution": "uniform", "scale": 1.0, "seed": null}}, "kernel_size": [3, 3], "padding": "same", "data_format": "channels_last", "activity_regularizer": null, "filters": 64, "kernel_regularizer": null, "bias_regularizer": null, "use_bias": false, "kernel_constraint": null, "strides": [1, 1], "trainable": false, "dilation_rate": [1, 1], "activation": "linear", "name": "conv2d_3", "bias_initializer": {"class_name": "Zeros", "config": {}}}, "name": "conv2d_3", "inbound_nodes": [[["activation_2", 0, 0, {}]]]}, {"class_name": "BatchNormalization", "config": {"axis": 3, "gamma_constraint": null, "beta_regularizer": null, "center": true, "gamma_regularizer": null, "beta_initializer": {"class_name": "Zeros", "config": {}}, "moving_mean_initializer": {"class_name": "Zeros", "config": {}}, "trainable": false, "scale": false, "beta_constraint": null, "gamma_initializer": {"class_name": "Ones", "config": {}}, "momentum": 0.99, "epsilon": 0.001, "name": "batch_normalization_3", "moving_variance_initializer": {"class_name": "Ones", "config": {}}}, "name": "batch_normalization_3", "inbound_nodes": [[["conv2d_3", 0, 0, {}]]]}, {"class_name": "Activation", "config": {"trainable": false, "activation": "relu", "name": "activation_3"}, "name": "activation_3", "inbound_nodes": [[["batch_normalization_3", 0, 0, {}]]]}, {"class_name": "MaxPooling2D", "config": {"strides": [2, 2], "trainable": false, "padding": "valid", "data_format": "channels_last", "name": "max_pooling2d_1", "pool_size": [3, 3]}, "name": "max_pooling2d_1", "inbound_nodes": [[["activation_3", 0, 0, {}]]]}, {"class_name": "Conv2D", "config": {"bias_constraint": null, "kernel_initializer": {"class_name": "VarianceScaling", "config": {"mode": "fan_avg", "distribution": "uniform", "scale": 1.0, "seed": null}}, "kernel_size": [1, 1], "padding": "valid", "data_format": "channels_last", "activity_regularizer": null, "filters": 80, "kernel_regularizer": null, "bias_regularizer": null, "use_bias": false, "kernel_constraint": null, "strides": [1, 1], "trainable": false, "dilation_rate": [1, 1], "activation": "linear", "name": "conv2d_4", "bias_initializer": {"class_name": "Zeros", "config": {}}}, "name": "conv2d_4", "inbound_nodes": [[["max_pooling2d_1", 0, 0, {}]]]}, {"class_name": "BatchNormalization", "config": {"axis": 3, "gamma_constraint": null, "beta_regularizer": null, "center": true, "gamma_regularizer": null, "beta_initializer": {"class_name": "Zeros", "config": {}}, "moving_mean_initializer": {"class_name": "Zeros", "config": {}}, "trainable": false, "scale": false, "beta_constraint": null, "gamma_initializer": {"class_name": "Ones", "config": {}}, "momentum": 0.99, "epsilon": 0.001, "name": "batch_normalization_4", "moving_variance_initializer": {"class_name": "Ones", "config": {}}}, "name": "batch_normalization_4", "inbound_nodes": [[["conv2d_4", 0, 0, {}]]]}, {"class_name": "Activation", "config": {"trainable": false, "activation": "relu", "name": "activation_4"}, "name": "activation_4", "inbound_nodes": [[["batch_normalization_4", 0, 0, {}]]]}, {"class_name": "Conv2D", "config": {"bias_constraint": null, "kernel_initializer": {"class_name": "VarianceScaling", "config": {"mode": "fan_avg", "distribution": "uniform", "scale": 1.0, "seed": null}}, "kernel_size": [3, 3], "padding": "valid", "data_format": "channels_last", "activity_regularizer": null, "filters": 192, "kernel_regularizer": null, "bias_regularizer": null, "use_bias": false, "kernel_constraint": null, "strides": [1, 1], "trainable": false, "dilation_rate": [1, 1], "activation": "linear", "name": "conv2d_5", "bias_initializer": {"class_name": "Zeros", "config": {}}}, "name": "conv2d_5", "inbound_nodes": [[["activation_4", 0, 0, {}]]]}, {"class_name": "BatchNormalization", "config": {"axis": 3, "gamma_constraint": null, "beta_regularizer": null, "center": true, "gamma_regularizer": null, "beta_initializer": {"class_name": "Zeros", "config": {}}, "moving_mean_initializer": {"class_name": "Zeros", "config": {}}, "trainable": false, "scale": false, "beta_constraint": null, "gamma_initializer": {"class_name": "Ones", "config": {}}, "momentum": 0.99, "epsilon": 0.001, "name": "batch_normalization_5", "moving_variance_initializer": {"class_name": "Ones", "config": {}}}, "name": "batch_normalization_5", "inbound_nodes": [[["conv2d_5", 0, 0, {}]]]}, {"class_name": "Activation", "config": {"trainable": false, "activation": "relu", "name": "activation_5"}, "name": "activation_5", "inbound_nodes": [[["batch_normalization_5", 0, 0, {}]]]}, {"class_name": "MaxPooling2D", "config": {"strides": [2, 2], "trainable": false, "padding": "valid", "data_format": "channels_last", "name": "max_pooling2d_2", "pool_size": [3, 3]}, "name": "max_pooling2d_2", "inbound_nodes": [[["activation_5", 0, 0, {}]]]}, {"class_name": "Conv2D", "config": {"bias_constraint": null, "kernel_initializer": {"class_name": "VarianceScaling", "config": {"mode": "fan_avg", "distribution": "uniform", "scale": 1.0, "seed": null}}, "kernel_size": [1, 1], "padding": "same", "data_format": "channels_last", "activity_regularizer": null, "filters": 64, "kernel_regularizer": null, "bias_regularizer": null, "use_bias": false, "kernel_constraint": null, "strides": [1, 1], "trainable": false, "dilation_rate": [1, 1], "activation": "linear", "name": "conv2d_9", "bias_initializer": {"class_name": "Zeros", "config": {}}}, "name": "conv2d_9", "inbound_nodes": [[["max_pooling2d_2", 0, 0, {}]]]}, {"class_name": "BatchNormalization", "config": {"axis": 3, "gamma_constraint": null, "beta_regularizer": null, "center": true, "gamma_regularizer": null, "beta_initializer": {"class_name": "Zeros", "config": {}}, "moving_mean_initializer": {"class_name": "Zeros", "config": {}}, "trainable": false, "scale": false, "beta_constraint": null, "gamma_initializer": {"class_name": "Ones", "config": {}}, "momentum": 0.99, "epsilon": 0.001, "name": "batch_normalization_9", "moving_variance_initializer": {"class_name": "Ones", "config": {}}}, "name": "batch_normalization_9", "inbound_nodes": [[["conv2d_9", 0, 0, {}]]]}, {"class_name": "Activation", "config": {"trainable": false, "activation": "relu", "name": "activation_9"}, "name": "activation_9", "inbound_nodes": [[["batch_normalization_9", 0, 0, {}]]]}, {"class_name": "Conv2D", "config": {"bias_constraint": null, "kernel_initializer": {"class_name": "VarianceScaling", "config": {"mode": "fan_avg", "distribution": "uniform", "scale": 1.0, "seed": null}}, "kernel_size": [1, 1], "padding": "same", "data_format": "channels_last", "activity_regularizer": null, "filters": 48, "kernel_regularizer": null, "bias_regularizer": null, "use_bias": false, "kernel_constraint": null, "strides": [1, 1], "trainable": false, "dilation_rate": [1, 1], "activation": "linear", "name": "conv2d_7", "bias_initializer": {"class_name": "Zeros", "config": {}}}, "name": "conv2d_7", "inbound_nodes": [[["max_pooling2d_2", 0, 0, {}]]]}, {"class_name": "Conv2D", "config": {"bias_constraint": null, "kernel_initializer": {"class_name": "VarianceScaling", "config": {"mode": "fan_avg", "distribution": "uniform", "scale": 1.0, "seed": null}}, "kernel_size": [3, 3], "padding": "same", "data_format": "channels_last", "activity_regularizer": null, "filters": 96, "kernel_regularizer": null, "bias_regularizer": null, "use_bias": false, "kernel_constraint": null, "strides": [1, 1], "trainable": false, "dilation_rate": [1, 1], "activation": "linear", "name": "conv2d_10", "bias_initializer": {"class_name": "Zeros", "config": {}}}, "name": "conv2d_10", "inbound_nodes": [[["activation_9", 0, 0, {}]]]}, {"class_name": "BatchNormalization", "config": {"axis": 3, "gamma_constraint": null, "beta_regularizer": null, "center": true, "gamma_regularizer": null, "beta_initializer": {"class_name": "Zeros", "config": {}}, "moving_mean_initializer": {"class_name": "Zeros", "config": {}}, "trainable": false, "scale": false, "beta_constraint": null, "gamma_initializer": {"class_name": "Ones", "config": {}}, "momentum": 0.99, "epsilon": 0.001, "name": "batch_normalization_7", "moving_variance_initializer": {"class_name": "Ones", "config": {}}}, "name": "batch_normalization_7", "inbound_nodes": [[["conv2d_7", 0, 0, {}]]]}, {"class_name": "BatchNormalization", "config": {"axis": 3, "gamma_constraint": null, "beta_regularizer": null, "center": true, "gamma_regularizer": null, "beta_initializer": {"class_name": "Zeros", "config": {}}, "moving_mean_initializer": {"class_name": "Zeros", "config": {}}, "trainable": false, "scale": false, "beta_constraint": null, "gamma_initializer": {"class_name": "Ones", "config": {}}, "momentum": 0.99, "epsilon": 0.001, "name": "batch_normalization_10", "moving_variance_initializer": {"class_name": "Ones", "config": {}}}, "name": "batch_normalization_10", "inbound_nodes": [[["conv2d_10", 0, 0, {}]]]}, {"class_name": "Activation", "config": {"trainable": false, "activation": "relu", "name": "activation_7"}, "name": "activation_7", "inbound_nodes": [[["batch_normalization_7", 0, 0, {}]]]}, {"class_name": "Activation", "config": {"trainable": false, "activation": "relu", "name": "activation_10"}, "name": "activation_10", "inbound_nodes": [[["batch_normalization_10", 0, 0, {}]]]}, {"class_name": "AveragePooling2D", "config": {"strides": [1, 1], "trainable": false, "padding": "same", "data_format": "channels_last", "name": "average_pooling2d_1", "pool_size": [3, 3]}, "name": "average_pooling2d_1", "inbound_nodes": [[["max_pooling2d_2", 0, 0, {}]]]}, {"class_name": "Conv2D", "config": {"bias_constraint": null, "kernel_initializer": {"class_name": "VarianceScaling", "config": {"mode": "fan_avg", "distribution": "uniform", "scale": 1.0, "seed": null}}, "kernel_size": [1, 1], "padding": "same", "data_format": "channels_last", "activity_regularizer": null, "filters": 64, "kernel_regularizer": null, "bias_regularizer": null, "use_bias": false, "kernel_constraint": null, "strides": [1, 1], "trainable": false, "dilation_rate": [1, 1], "activation": "linear", "name": "conv2d_6", "bias_initializer": {"class_name": "Zeros", "config": {}}}, "name": "conv2d_6", "inbound_nodes": [[["max_pooling2d_2", 0, 0, {}]]]}, {"class_name": "Conv2D", "config": {"bias_constraint": null, "kernel_initializer": {"class_name": "VarianceScaling", "config": {"mode": "fan_avg", "distribution": "uniform", "scale": 1.0, "seed": null}}, "kernel_size": [5, 5], "padding": "same", "data_format": "channels_last", "activity_regularizer": null, "filters": 64, "kernel_regularizer": null, "bias_regularizer": null, "use_bias": false, "kernel_constraint": null, "strides": [1, 1], "trainable": false, "dilation_rate": [1, 1], "activation": "linear", "name": "conv2d_8", "bias_initializer": {"class_name": "Zeros", "config": {}}}, "name": "conv2d_8", "inbound_nodes": [[["activation_7", 0, 0, {}]]]}, {"class_name": "Conv2D", "config": {"bias_constraint": null, "kernel_initializer": {"class_name": "VarianceScaling", "config": {"mode": "fan_avg", "distribution": "uniform", "scale": 1.0, "seed": null}}, "kernel_size": [3, 3], "padding": "same", "data_format": "channels_last", "activity_regularizer": null, "filters": 96, "kernel_regularizer": null, "bias_regularizer": null, "use_bias": false, "kernel_constraint": null, "strides": [1, 1], "trainable": false, "dilation_rate": [1, 1], "activation": "linear", "name": "conv2d_11", "bias_initializer": {"class_name": "Zeros", "config": {}}}, "name": "conv2d_11", "inbound_nodes": [[["activation_10", 0, 0, {}]]]}, {"class_name": "Conv2D", "config": {"bias_constraint": null, "kernel_initializer": {"class_name": "VarianceScaling", "config": {"mode": "fan_avg", "distribution": "uniform", "scale": 1.0, "seed": null}}, "kernel_size": [1, 1], "padding": "same", "data_format": "channels_last", "activity_regularizer": null, "filters": 32, "kernel_regularizer": null, "bias_regularizer": null, "use_bias": false, "kernel_constraint": null, "strides": [1, 1], "trainable": false, "dilation_rate": [1, 1], "activation": "linear", "name": "conv2d_12", "bias_initializer": {"class_name": "Zeros", "config": {}}}, "name": "conv2d_12", "inbound_nodes": [[["average_pooling2d_1", 0, 0, {}]]]}, {"class_name": "BatchNormalization", "config": {"axis": 3, "gamma_constraint": null, "beta_regularizer": null, "center": true, "gamma_regularizer": null, "beta_initializer": {"class_name": "Zeros", "config": {}}, "moving_mean_initializer": {"class_name": "Zeros", "config": {}}, "trainable": false, "scale": false, "beta_constraint": null, "gamma_initializer": {"class_name": "Ones", "config": {}}, "momentum": 0.99, "epsilon": 0.001, "name": "batch_normalization_6", "moving_variance_initializer": {"class_name": "Ones", "config": {}}}, "name": "batch_normalization_6", "inbound_nodes": [[["conv2d_6", 0, 0, {}]]]}, {"class_name": "BatchNormalization", "config": {"axis": 3, "gamma_constraint": null, "beta_regularizer": null, "center": true, "gamma_regularizer": null, "beta_initializer": {"class_name": "Zeros", "config": {}}, "moving_mean_initializer": {"class_name": "Zeros", "config": {}}, "trainable": false, "scale": false, "beta_constraint": null, "gamma_initializer": {"class_name": "Ones", "config": {}}, "momentum": 0.99, "epsilon": 0.001, "name": "batch_normalization_8", "moving_variance_initializer": {"class_name": "Ones", "config": {}}}, "name": "batch_normalization_8", "inbound_nodes": [[["conv2d_8", 0, 0, {}]]]}, {"class_name": "BatchNormalization", "config": {"axis": 3, "gamma_constraint": null, "beta_regularizer": null, "center": true, "gamma_regularizer": null, "beta_initializer": {"class_name": "Zeros", "config": {}}, "moving_mean_initializer": {"class_name": "Zeros", "config": {}}, "trainable": false, "scale": false, "beta_constraint": null, "gamma_initializer": {"class_name": "Ones", "config": {}}, "momentum": 0.99, "epsilon": 0.001, "name": "batch_normalization_11", "moving_variance_initializer": {"class_name": "Ones", "config": {}}}, "name": "batch_normalization_11", "inbound_nodes": [[["conv2d_11", 0, 0, {}]]]}, {"class_name": "BatchNormalization", "config": {"axis": 3, "gamma_constraint": null, "beta_regularizer": null, "center": true, "gamma_regularizer": null, "beta_initializer": {"class_name": "Zeros", "config": {}}, "moving_mean_initializer": {"class_name": "Zeros", "config": {}}, "trainable": false, "scale": false, "beta_constraint": null, "gamma_initializer": {"class_name": "Ones", "config": {}}, "momentum": 0.99, "epsilon": 0.001, "name": "batch_normalization_12", "moving_variance_initializer": {"class_name": "Ones", "config": {}}}, "name": "batch_normalization_12", "inbound_nodes": [[["conv2d_12", 0, 0, {}]]]}, {"class_name": "Activation", "config": {"trainable": false, "activation": "relu", "name": "activation_6"}, "name": "activation_6", "inbound_nodes": [[["batch_normalization_6", 0, 0, {}]]]}, {"class_name": "Activation", "config": {"trainable": false, "activation": "relu", "name": "activation_8"}, "name": "activation_8", "inbound_nodes": [[["batch_normalization_8", 0, 0, {}]]]}, {"class_name": "Activation", "config": {"trainable": false, "activation": "relu", "name": "activation_11"}, "name": "activation_11", "inbound_nodes": [[["batch_normalization_11", 0, 0, {}]]]}, {"class_name": "Activation", "config": {"trainable": false, "activation": "relu", "name": "activation_12"}, "name": "activation_12", "inbound_nodes": [[["batch_normalization_12", 0, 0, {}]]]}, {"class_name": "Concatenate", "config": {"axis": 3, "trainable": false, "name": "mixed0"}, "name": "mixed0", "inbound_nodes": [[["activation_6", 0, 0, {}], ["activation_8", 0, 0, {}], ["activation_11", 0, 0, {}], ["activation_12", 0, 0, {}]]]}, {"class_name": "Conv2D", "config": {"bias_constraint": null, "kernel_initializer": {"class_name": "VarianceScaling", "config": {"mode": "fan_avg", "distribution": "uniform", "scale": 1.0, "seed": null}}, "kernel_size": [1, 1], "padding": "same", "data_format": "channels_last", "activity_regularizer": null, "filters": 64, "kernel_regularizer": null, "bias_regularizer": null, "use_bias": false, "kernel_constraint": null, "strides": [1, 1], "trainable": false, "dilation_rate": [1, 1], "activation": "linear", "name": "conv2d_16", "bias_initializer": {"class_name": "Zeros", "config": {}}}, "name": "conv2d_16", "inbound_nodes": [[["mixed0", 0, 0, {}]]]}, {"class_name": "BatchNormalization", "config": {"axis": 3, "gamma_constraint": null, "beta_regularizer": null, "center": true, "gamma_regularizer": null, "beta_initializer": {"class_name": "Zeros", "config": {}}, "moving_mean_initializer": {"class_name": "Zeros", "config": {}}, "trainable": false, "scale": false, "beta_constraint": null, "gamma_initializer": {"class_name": "Ones", "config": {}}, "momentum": 0.99, "epsilon": 0.001, "name": "batch_normalization_16", "moving_variance_initializer": {"class_name": "Ones", "config": {}}}, "name": "batch_normalization_16", "inbound_nodes": [[["conv2d_16", 0, 0, {}]]]}, {"class_name": "Activation", "config": {"trainable": false, "activation": "relu", "name": "activation_16"}, "name": "activation_16", "inbound_nodes": [[["batch_normalization_16", 0, 0, {}]]]}, {"class_name": "Conv2D", "config": {"bias_constraint": null, "kernel_initializer": {"class_name": "VarianceScaling", "config": {"mode": "fan_avg", "distribution": "uniform", "scale": 1.0, "seed": null}}, "kernel_size": [1, 1], "padding": "same", "data_format": "channels_last", "activity_regularizer": null, "filters": 48, "kernel_regularizer": null, "bias_regularizer": null, "use_bias": false, "kernel_constraint": null, "strides": [1, 1], "trainable": false, "dilation_rate": [1, 1], "activation": "linear", "name": "conv2d_14", "bias_initializer": {"class_name": "Zeros", "config": {}}}, "name": "conv2d_14", "inbound_nodes": [[["mixed0", 0, 0, {}]]]}, {"class_name": "Conv2D", "config": {"bias_constraint": null, "kernel_initializer": {"class_name": "VarianceScaling", "config": {"mode": "fan_avg", "distribution": "uniform", "scale": 1.0, "seed": null}}, "kernel_size": [3, 3], "padding": "same", "data_format": "channels_last", "activity_regularizer": null, "filters": 96, "kernel_regularizer": null, "bias_regularizer": null, "use_bias": false, "kernel_constraint": null, "strides": [1, 1], "trainable": false, "dilation_rate": [1, 1], "activation": "linear", "name": "conv2d_17", "bias_initializer": {"class_name": "Zeros", "config": {}}}, "name": "conv2d_17", "inbound_nodes": [[["activation_16", 0, 0, {}]]]}, {"class_name": "BatchNormalization", "config": {"axis": 3, "gamma_constraint": null, "beta_regularizer": null, "center": true, "gamma_regularizer": null, "beta_initializer": {"class_name": "Zeros", "config": {}}, "moving_mean_initializer": {"class_name": "Zeros", "config": {}}, "trainable": false, "scale": false, "beta_constraint": null, "gamma_initializer": {"class_name": "Ones", "config": {}}, "momentum": 0.99, "epsilon": 0.001, "name": "batch_normalization_14", "moving_variance_initializer": {"class_name": "Ones", "config": {}}}, "name": "batch_normalization_14", "inbound_nodes": [[["conv2d_14", 0, 0, {}]]]}, {"class_name": "BatchNormalization", "config": {"axis": 3, "gamma_constraint": null, "beta_regularizer": null, "center": true, "gamma_regularizer": null, "beta_initializer": {"class_name": "Zeros", "config": {}}, "moving_mean_initializer": {"class_name": "Zeros", "config": {}}, "trainable": false, "scale": false, "beta_constraint": null, "gamma_initializer": {"class_name": "Ones", "config": {}}, "momentum": 0.99, "epsilon": 0.001, "name": "batch_normalization_17", "moving_variance_initializer": {"class_name": "Ones", "config": {}}}, "name": "batch_normalization_17", "inbound_nodes": [[["conv2d_17", 0, 0, {}]]]}, {"class_name": "Activation", "config": {"trainable": false, "activation": "relu", "name": "activation_14"}, "name": "activation_14", "inbound_nodes": [[["batch_normalization_14", 0, 0, {}]]]}, {"class_name": "Activation", "config": {"trainable": false, "activation": "relu", "name": "activation_17"}, "name": "activation_17", "inbound_nodes": [[["batch_normalization_17", 0, 0, {}]]]}, {"class_name": "AveragePooling2D", "config": {"strides": [1, 1], "trainable": false, "padding": "same", "data_format": "channels_last", "name": "average_pooling2d_2", "pool_size": [3, 3]}, "name": "average_pooling2d_2", "inbound_nodes": [[["mixed0", 0, 0, {}]]]}, {"class_name": "Conv2D", "config": {"bias_constraint": null, "kernel_initializer": {"class_name": "VarianceScaling", "config": {"mode": "fan_avg", "distribution": "uniform", "scale": 1.0, "seed": null}}, "kernel_size": [1, 1], "padding": "same", "data_format": "channels_last", "activity_regularizer": null, "filters": 64, "kernel_regularizer": null, "bias_regularizer": null, "use_bias": false, "kernel_constraint": null, "strides": [1, 1], "trainable": false, "dilation_rate": [1, 1], "activation": "linear", "name": "conv2d_13", "bias_initializer": {"class_name": "Zeros", "config": {}}}, "name": "conv2d_13", "inbound_nodes": [[["mixed0", 0, 0, {}]]]}, {"class_name": "Conv2D", "config": {"bias_constraint": null, "kernel_initializer": {"class_name": "VarianceScaling", "config": {"mode": "fan_avg", "distribution": "uniform", "scale": 1.0, "seed": null}}, "kernel_size": [5, 5], "padding": "same", "data_format": "channels_last", "activity_regularizer": null, "filters": 64, "kernel_regularizer": null, "bias_regularizer": null, "use_bias": false, "kernel_constraint": null, "strides": [1, 1], "trainable": false, "dilation_rate": [1, 1], "activation": "linear", "name": "conv2d_15", "bias_initializer": {"class_name": "Zeros", "config": {}}}, "name": "conv2d_15", "inbound_nodes": [[["activation_14", 0, 0, {}]]]}, {"class_name": "Conv2D", "config": {"bias_constraint": null, "kernel_initializer": {"class_name": "VarianceScaling", "config": {"mode": "fan_avg", "distribution": "uniform", "scale": 1.0, "seed": null}}, "kernel_size": [3, 3], "padding": "same", "data_format": "channels_last", "activity_regularizer": null, "filters": 96, "kernel_regularizer": null, "bias_regularizer": null, "use_bias": false, "kernel_constraint": null, "strides": [1, 1], "trainable": false, "dilation_rate": [1, 1], "activation": "linear", "name": "conv2d_18", "bias_initializer": {"class_name": "Zeros", "config": {}}}, "name": "conv2d_18", "inbound_nodes": [[["activation_17", 0, 0, {}]]]}, {"class_name": "Conv2D", "config": {"bias_constraint": null, "kernel_initializer": {"class_name": "VarianceScaling", "config": {"mode": "fan_avg", "distribution": "uniform", "scale": 1.0, "seed": null}}, "kernel_size": [1, 1], "padding": "same", "data_format": "channels_last", "activity_regularizer": null, "filters": 64, "kernel_regularizer": null, "bias_regularizer": null, "use_bias": false, "kernel_constraint": null, "strides": [1, 1], "trainable": false, "dilation_rate": [1, 1], "activation": "linear", "name": "conv2d_19", "bias_initializer": {"class_name": "Zeros", "config": {}}}, "name": "conv2d_19", "inbound_nodes": [[["average_pooling2d_2", 0, 0, {}]]]}, {"class_name": "BatchNormalization", "config": {"axis": 3, "gamma_constraint": null, "beta_regularizer": null, "center": true, "gamma_regularizer": null, "beta_initializer": {"class_name": "Zeros", "config": {}}, "moving_mean_initializer": {"class_name": "Zeros", "config": {}}, "trainable": false, "scale": false, "beta_constraint": null, "gamma_initializer": {"class_name": "Ones", "config": {}}, "momentum": 0.99, "epsilon": 0.001, "name": "batch_normalization_13", "moving_variance_initializer": {"class_name": "Ones", "config": {}}}, "name": "batch_normalization_13", "inbound_nodes": [[["conv2d_13", 0, 0, {}]]]}, {"class_name": "BatchNormalization", "config": {"axis": 3, "gamma_constraint": null, "beta_regularizer": null, "center": true, "gamma_regularizer": null, "beta_initializer": {"class_name": "Zeros", "config": {}}, "moving_mean_initializer": {"class_name": "Zeros", "config": {}}, "trainable": false, "scale": false, "beta_constraint": null, "gamma_initializer": {"class_name": "Ones", "config": {}}, "momentum": 0.99, "epsilon": 0.001, "name": "batch_normalization_15", "moving_variance_initializer": {"class_name": "Ones", "config": {}}}, "name": "batch_normalization_15", "inbound_nodes": [[["conv2d_15", 0, 0, {}]]]}, {"class_name": "BatchNormalization", "config": {"axis": 3, "gamma_constraint": null, "beta_regularizer": null, "center": true, "gamma_regularizer": null, "beta_initializer": {"class_name": "Zeros", "config": {}}, "moving_mean_initializer": {"class_name": "Zeros", "config": {}}, "trainable": false, "scale": false, "beta_constraint": null, "gamma_initializer": {"class_name": "Ones", "config": {}}, "momentum": 0.99, "epsilon": 0.001, "name": "batch_normalization_18", "moving_variance_initializer": {"class_name": "Ones", "config": {}}}, "name": "batch_normalization_18", "inbound_nodes": [[["conv2d_18", 0, 0, {}]]]}, {"class_name": "BatchNormalization", "config": {"axis": 3, "gamma_constraint": null, "beta_regularizer": null, "center": true, "gamma_regularizer": null, "beta_initializer": {"class_name": "Zeros", "config": {}}, "moving_mean_initializer": {"class_name": "Zeros", "config": {}}, "trainable": false, "scale": false, "beta_constraint": null, "gamma_initializer": {"class_name": "Ones", "config": {}}, "momentum": 0.99, "epsilon": 0.001, "name": "batch_normalization_19", "moving_variance_initializer": {"class_name": "Ones", "config": {}}}, "name": "batch_normalization_19", "inbound_nodes": [[["conv2d_19", 0, 0, {}]]]}, {"class_name": "Activation", "config": {"trainable": false, "activation": "relu", "name": "activation_13"}, "name": "activation_13", "inbound_nodes": [[["batch_normalization_13", 0, 0, {}]]]}, {"class_name": "Activation", "config": {"trainable": false, "activation": "relu", "name": "activation_15"}, "name": "activation_15", "inbound_nodes": [[["batch_normalization_15", 0, 0, {}]]]}, {"class_name": "Activation", "config": {"trainable": false, "activation": "relu", "name": "activation_18"}, "name": "activation_18", "inbound_nodes": [[["batch_normalization_18", 0, 0, {}]]]}, {"class_name": "Activation", "config": {"trainable": false, "activation": "relu", "name": "activation_19"}, "name": "activation_19", "inbound_nodes": [[["batch_normalization_19", 0, 0, {}]]]}, {"class_name": "Concatenate", "config": {"axis": 3, "trainable": false, "name": "mixed1"}, "name": "mixed1", "inbound_nodes": [[["activation_13", 0, 0, {}], ["activation_15", 0, 0, {}], ["activation_18", 0, 0, {}], ["activation_19", 0, 0, {}]]]}, {"class_name": "Conv2D", "config": {"bias_constraint": null, "kernel_initializer": {"class_name": "VarianceScaling", "config": {"mode": "fan_avg", "distribution": "uniform", "scale": 1.0, "seed": null}}, "kernel_size": [1, 1], "padding": "same", "data_format": "channels_last", "activity_regularizer": null, "filters": 64, "kernel_regularizer": null, "bias_regularizer": null, "use_bias": false, "kernel_constraint": null, "strides": [1, 1], "trainable": false, "dilation_rate": [1, 1], "activation": "linear", "name": "conv2d_23", "bias_initializer": {"class_name": "Zeros", "config": {}}}, "name": "conv2d_23", "inbound_nodes": [[["mixed1", 0, 0, {}]]]}, {"class_name": "BatchNormalization", "config": {"axis": 3, "gamma_constraint": null, "beta_regularizer": null, "center": true, "gamma_regularizer": null, "beta_initializer": {"class_name": "Zeros", "config": {}}, "moving_mean_initializer": {"class_name": "Zeros", "config": {}}, "trainable": false, "scale": false, "beta_constraint": null, "gamma_initializer": {"class_name": "Ones", "config": {}}, "momentum": 0.99, "epsilon": 0.001, "name": "batch_normalization_23", "moving_variance_initializer": {"class_name": "Ones", "config": {}}}, "name": "batch_normalization_23", "inbound_nodes": [[["conv2d_23", 0, 0, {}]]]}, {"class_name": "Activation", "config": {"trainable": false, "activation": "relu", "name": "activation_23"}, "name": "activation_23", "inbound_nodes": [[["batch_normalization_23", 0, 0, {}]]]}, {"class_name": "Conv2D", "config": {"bias_constraint": null, "kernel_initializer": {"class_name": "VarianceScaling", "config": {"mode": "fan_avg", "distribution": "uniform", "scale": 1.0, "seed": null}}, "kernel_size": [1, 1], "padding": "same", "data_format": "channels_last", "activity_regularizer": null, "filters": 48, "kernel_regularizer": null, "bias_regularizer": null, "use_bias": false, "kernel_constraint": null, "strides": [1, 1], "trainable": false, "dilation_rate": [1, 1], "activation": "linear", "name": "conv2d_21", "bias_initializer": {"class_name": "Zeros", "config": {}}}, "name": "conv2d_21", "inbound_nodes": [[["mixed1", 0, 0, {}]]]}, {"class_name": "Conv2D", "config": {"bias_constraint": null, "kernel_initializer": {"class_name": "VarianceScaling", "config": {"mode": "fan_avg", "distribution": "uniform", "scale": 1.0, "seed": null}}, "kernel_size": [3, 3], "padding": "same", "data_format": "channels_last", "activity_regularizer": null, "filters": 96, "kernel_regularizer": null, "bias_regularizer": null, "use_bias": false, "kernel_constraint": null, "strides": [1, 1], "trainable": false, "dilation_rate": [1, 1], "activation": "linear", "name": "conv2d_24", "bias_initializer": {"class_name": "Zeros", "config": {}}}, "name": "conv2d_24", "inbound_nodes": [[["activation_23", 0, 0, {}]]]}, {"class_name": "BatchNormalization", "config": {"axis": 3, "gamma_constraint": null, "beta_regularizer": null, "center": true, "gamma_regularizer": null, "beta_initializer": {"class_name": "Zeros", "config": {}}, "moving_mean_initializer": {"class_name": "Zeros", "config": {}}, "trainable": false, "scale": false, "beta_constraint": null, "gamma_initializer": {"class_name": "Ones", "config": {}}, "momentum": 0.99, "epsilon": 0.001, "name": "batch_normalization_21", "moving_variance_initializer": {"class_name": "Ones", "config": {}}}, "name": "batch_normalization_21", "inbound_nodes": [[["conv2d_21", 0, 0, {}]]]}, {"class_name": "BatchNormalization", "config": {"axis": 3, "gamma_constraint": null, "beta_regularizer": null, "center": true, "gamma_regularizer": null, "beta_initializer": {"class_name": "Zeros", "config": {}}, "moving_mean_initializer": {"class_name": "Zeros", "config": {}}, "trainable": false, "scale": false, "beta_constraint": null, "gamma_initializer": {"class_name": "Ones", "config": {}}, "momentum": 0.99, "epsilon": 0.001, "name": "batch_normalization_24", "moving_variance_initializer": {"class_name": "Ones", "config": {}}}, "name": "batch_normalization_24", "inbound_nodes": [[["conv2d_24", 0, 0, {}]]]}, {"class_name": "Activation", "config": {"trainable": false, "activation": "relu", "name": "activation_21"}, "name": "activation_21", "inbound_nodes": [[["batch_normalization_21", 0, 0, {}]]]}, {"class_name": "Activation", "config": {"trainable": false, "activation": "relu", "name": "activation_24"}, "name": "activation_24", "inbound_nodes": [[["batch_normalization_24", 0, 0, {}]]]}, {"class_name": "AveragePooling2D", "config": {"strides": [1, 1], "trainable": false, "padding": "same", "data_format": "channels_last", "name": "average_pooling2d_3", "pool_size": [3, 3]}, "name": "average_pooling2d_3", "inbound_nodes": [[["mixed1", 0, 0, {}]]]}, {"class_name": "Conv2D", "config": {"bias_constraint": null, "kernel_initializer": {"class_name": "VarianceScaling", "config": {"mode": "fan_avg", "distribution": "uniform", "scale": 1.0, "seed": null}}, "kernel_size": [1, 1], "padding": "same", "data_format": "channels_last", "activity_regularizer": null, "filters": 64, "kernel_regularizer": null, "bias_regularizer": null, "use_bias": false, "kernel_constraint": null, "strides": [1, 1], "trainable": false, "dilation_rate": [1, 1], "activation": "linear", "name": "conv2d_20", "bias_initializer": {"class_name": "Zeros", "config": {}}}, "name": "conv2d_20", "inbound_nodes": [[["mixed1", 0, 0, {}]]]}, {"class_name": "Conv2D", "config": {"bias_constraint": null, "kernel_initializer": {"class_name": "VarianceScaling", "config": {"mode": "fan_avg", "distribution": "uniform", "scale": 1.0, "seed": null}}, "kernel_size": [5, 5], "padding": "same", "data_format": "channels_last", "activity_regularizer": null, "filters": 64, "kernel_regularizer": null, "bias_regularizer": null, "use_bias": false, "kernel_constraint": null, "strides": [1, 1], "trainable": false, "dilation_rate": [1, 1], "activation": "linear", "name": "conv2d_22", "bias_initializer": {"class_name": "Zeros", "config": {}}}, "name": "conv2d_22", "inbound_nodes": [[["activation_21", 0, 0, {}]]]}, {"class_name": "Conv2D", "config": {"bias_constraint": null, "kernel_initializer": {"class_name": "VarianceScaling", "config": {"mode": "fan_avg", "distribution": "uniform", "scale": 1.0, "seed": null}}, "kernel_size": [3, 3], "padding": "same", "data_format": "channels_last", "activity_regularizer": null, "filters": 96, "kernel_regularizer": null, "bias_regularizer": null, "use_bias": false, "kernel_constraint": null, "strides": [1, 1], "trainable": false, "dilation_rate": [1, 1], "activation": "linear", "name": "conv2d_25", "bias_initializer": {"class_name": "Zeros", "config": {}}}, "name": "conv2d_25", "inbound_nodes": [[["activation_24", 0, 0, {}]]]}, {"class_name": "Conv2D", "config": {"bias_constraint": null, "kernel_initializer": {"class_name": "VarianceScaling", "config": {"mode": "fan_avg", "distribution": "uniform", "scale": 1.0, "seed": null}}, "kernel_size": [1, 1], "padding": "same", "data_format": "channels_last", "activity_regularizer": null, "filters": 64, "kernel_regularizer": null, "bias_regularizer": null, "use_bias": false, "kernel_constraint": null, "strides": [1, 1], "trainable": false, "dilation_rate": [1, 1], "activation": "linear", "name": "conv2d_26", "bias_initializer": {"class_name": "Zeros", "config": {}}}, "name": "conv2d_26", "inbound_nodes": [[["average_pooling2d_3", 0, 0, {}]]]}, {"class_name": "BatchNormalization", "config": {"axis": 3, "gamma_constraint": null, "beta_regularizer": null, "center": true, "gamma_regularizer": null, "beta_initializer": {"class_name": "Zeros", "config": {}}, "moving_mean_initializer": {"class_name": "Zeros", "config": {}}, "trainable": false, "scale": false, "beta_constraint": null, "gamma_initializer": {"class_name": "Ones", "config": {}}, "momentum": 0.99, "epsilon": 0.001, "name": "batch_normalization_20", "moving_variance_initializer": {"class_name": "Ones", "config": {}}}, "name": "batch_normalization_20", "inbound_nodes": [[["conv2d_20", 0, 0, {}]]]}, {"class_name": "BatchNormalization", "config": {"axis": 3, "gamma_constraint": null, "beta_regularizer": null, "center": true, "gamma_regularizer": null, "beta_initializer": {"class_name": "Zeros", "config": {}}, "moving_mean_initializer": {"class_name": "Zeros", "config": {}}, "trainable": false, "scale": false, "beta_constraint": null, "gamma_initializer": {"class_name": "Ones", "config": {}}, "momentum": 0.99, "epsilon": 0.001, "name": "batch_normalization_22", "moving_variance_initializer": {"class_name": "Ones", "config": {}}}, "name": "batch_normalization_22", "inbound_nodes": [[["conv2d_22", 0, 0, {}]]]}, {"class_name": "BatchNormalization", "config": {"axis": 3, "gamma_constraint": null, "beta_regularizer": null, "center": true, "gamma_regularizer": null, "beta_initializer": {"class_name": "Zeros", "config": {}}, "moving_mean_initializer": {"class_name": "Zeros", "config": {}}, "trainable": false, "scale": false, "beta_constraint": null, "gamma_initializer": {"class_name": "Ones", "config": {}}, "momentum": 0.99, "epsilon": 0.001, "name": "batch_normalization_25", "moving_variance_initializer": {"class_name": "Ones", "config": {}}}, "name": "batch_normalization_25", "inbound_nodes": [[["conv2d_25", 0, 0, {}]]]}, {"class_name": "BatchNormalization", "config": {"axis": 3, "gamma_constraint": null, "beta_regularizer": null, "center": true, "gamma_regularizer": null, "beta_initializer": {"class_name": "Zeros", "config": {}}, "moving_mean_initializer": {"class_name": "Zeros", "config": {}}, "trainable": false, "scale": false, "beta_constraint": null, "gamma_initializer": {"class_name": "Ones", "config": {}}, "momentum": 0.99, "epsilon": 0.001, "name": "batch_normalization_26", "moving_variance_initializer": {"class_name": "Ones", "config": {}}}, "name": "batch_normalization_26", "inbound_nodes": [[["conv2d_26", 0, 0, {}]]]}, {"class_name": "Activation", "config": {"trainable": false, "activation": "relu", "name": "activation_20"}, "name": "activation_20", "inbound_nodes": [[["batch_normalization_20", 0, 0, {}]]]}, {"class_name": "Activation", "config": {"trainable": false, "activation": "relu", "name": "activation_22"}, "name": "activation_22", "inbound_nodes": [[["batch_normalization_22", 0, 0, {}]]]}, {"class_name": "Activation", "config": {"trainable": false, "activation": "relu", "name": "activation_25"}, "name": "activation_25", "inbound_nodes": [[["batch_normalization_25", 0, 0, {}]]]}, {"class_name": "Activation", "config": {"trainable": false, "activation": "relu", "name": "activation_26"}, "name": "activation_26", "inbound_nodes": [[["batch_normalization_26", 0, 0, {}]]]}, {"class_name": "Concatenate", "config": {"axis": 3, "trainable": false, "name": "mixed2"}, "name": "mixed2", "inbound_nodes": [[["activation_20", 0, 0, {}], ["activation_22", 0, 0, {}], ["activation_25", 0, 0, {}], ["activation_26", 0, 0, {}]]]}, {"class_name": "Conv2D", "config": {"bias_constraint": null, "kernel_initializer": {"class_name": "VarianceScaling", "config": {"mode": "fan_avg", "distribution": "uniform", "scale": 1.0, "seed": null}}, "kernel_size": [1, 1], "padding": "same", "data_format": "channels_last", "activity_regularizer": null, "filters": 64, "kernel_regularizer": null, "bias_regularizer": null, "use_bias": false, "kernel_constraint": null, "strides": [1, 1], "trainable": false, "dilation_rate": [1, 1], "activation": "linear", "name": "conv2d_28", "bias_initializer": {"class_name": "Zeros", "config": {}}}, "name": "conv2d_28", "inbound_nodes": [[["mixed2", 0, 0, {}]]]}, {"class_name": "BatchNormalization", "config": {"axis": 3, "gamma_constraint": null, "beta_regularizer": null, "center": true, "gamma_regularizer": null, "beta_initializer": {"class_name": "Zeros", "config": {}}, "moving_mean_initializer": {"class_name": "Zeros", "config": {}}, "trainable": false, "scale": false, "beta_constraint": null, "gamma_initializer": {"class_name": "Ones", "config": {}}, "momentum": 0.99, "epsilon": 0.001, "name": "batch_normalization_28", "moving_variance_initializer": {"class_name": "Ones", "config": {}}}, "name": "batch_normalization_28", "inbound_nodes": [[["conv2d_28", 0, 0, {}]]]}, {"class_name": "Activation", "config": {"trainable": false, "activation": "relu", "name": "activation_28"}, "name": "activation_28", "inbound_nodes": [[["batch_normalization_28", 0, 0, {}]]]}, {"class_name": "Conv2D", "config": {"bias_constraint": null, "kernel_initializer": {"class_name": "VarianceScaling", "config": {"mode": "fan_avg", "distribution": "uniform", "scale": 1.0, "seed": null}}, "kernel_size": [3, 3], "padding": "same", "data_format": "channels_last", "activity_regularizer": null, "filters": 96, "kernel_regularizer": null, "bias_regularizer": null, "use_bias": false, "kernel_constraint": null, "strides": [1, 1], "trainable": false, "dilation_rate": [1, 1], "activation": "linear", "name": "conv2d_29", "bias_initializer": {"class_name": "Zeros", "config": {}}}, "name": "conv2d_29", "inbound_nodes": [[["activation_28", 0, 0, {}]]]}, {"class_name": "BatchNormalization", "config": {"axis": 3, "gamma_constraint": null, "beta_regularizer": null, "center": true, "gamma_regularizer": null, "beta_initializer": {"class_name": "Zeros", "config": {}}, "moving_mean_initializer": {"class_name": "Zeros", "config": {}}, "trainable": false, "scale": false, "beta_constraint": null, "gamma_initializer": {"class_name": "Ones", "config": {}}, "momentum": 0.99, "epsilon": 0.001, "name": "batch_normalization_29", "moving_variance_initializer": {"class_name": "Ones", "config": {}}}, "name": "batch_normalization_29", "inbound_nodes": [[["conv2d_29", 0, 0, {}]]]}, {"class_name": "Activation", "config": {"trainable": false, "activation": "relu", "name": "activation_29"}, "name": "activation_29", "inbound_nodes": [[["batch_normalization_29", 0, 0, {}]]]}, {"class_name": "Conv2D", "config": {"bias_constraint": null, "kernel_initializer": {"class_name": "VarianceScaling", "config": {"mode": "fan_avg", "distribution": "uniform", "scale": 1.0, "seed": null}}, "kernel_size": [3, 3], "padding": "valid", "data_format": "channels_last", "activity_regularizer": null, "filters": 384, "kernel_regularizer": null, "bias_regularizer": null, "use_bias": false, "kernel_constraint": null, "strides": [2, 2], "trainable": false, "dilation_rate": [1, 1], "activation": "linear", "name": "conv2d_27", "bias_initializer": {"class_name": "Zeros", "config": {}}}, "name": "conv2d_27", "inbound_nodes": [[["mixed2", 0, 0, {}]]]}, {"class_name": "Conv2D", "config": {"bias_constraint": null, "kernel_initializer": {"class_name": "VarianceScaling", "config": {"mode": "fan_avg", "distribution": "uniform", "scale": 1.0, "seed": null}}, "kernel_size": [3, 3], "padding": "valid", "data_format": "channels_last", "activity_regularizer": null, "filters": 96, "kernel_regularizer": null, "bias_regularizer": null, "use_bias": false, "kernel_constraint": null, "strides": [2, 2], "trainable": false, "dilation_rate": [1, 1], "activation": "linear", "name": "conv2d_30", "bias_initializer": {"class_name": "Zeros", "config": {}}}, "name": "conv2d_30", "inbound_nodes": [[["activation_29", 0, 0, {}]]]}, {"class_name": "BatchNormalization", "config": {"axis": 3, "gamma_constraint": null, "beta_regularizer": null, "center": true, "gamma_regularizer": null, "beta_initializer": {"class_name": "Zeros", "config": {}}, "moving_mean_initializer": {"class_name": "Zeros", "config": {}}, "trainable": false, "scale": false, "beta_constraint": null, "gamma_initializer": {"class_name": "Ones", "config": {}}, "momentum": 0.99, "epsilon": 0.001, "name": "batch_normalization_27", "moving_variance_initializer": {"class_name": "Ones", "config": {}}}, "name": "batch_normalization_27", "inbound_nodes": [[["conv2d_27", 0, 0, {}]]]}, {"class_name": "BatchNormalization", "config": {"axis": 3, "gamma_constraint": null, "beta_regularizer": null, "center": true, "gamma_regularizer": null, "beta_initializer": {"class_name": "Zeros", "config": {}}, "moving_mean_initializer": {"class_name": "Zeros", "config": {}}, "trainable": false, "scale": false, "beta_constraint": null, "gamma_initializer": {"class_name": "Ones", "config": {}}, "momentum": 0.99, "epsilon": 0.001, "name": "batch_normalization_30", "moving_variance_initializer": {"class_name": "Ones", "config": {}}}, "name": "batch_normalization_30", "inbound_nodes": [[["conv2d_30", 0, 0, {}]]]}, {"class_name": "Activation", "config": {"trainable": false, "activation": "relu", "name": "activation_27"}, "name": "activation_27", "inbound_nodes": [[["batch_normalization_27", 0, 0, {}]]]}, {"class_name": "Activation", "config": {"trainable": false, "activation": "relu", "name": "activation_30"}, "name": "activation_30", "inbound_nodes": [[["batch_normalization_30", 0, 0, {}]]]}, {"class_name": "MaxPooling2D", "config": {"strides": [2, 2], "trainable": false, "padding": "valid", "data_format": "channels_last", "name": "max_pooling2d_3", "pool_size": [3, 3]}, "name": "max_pooling2d_3", "inbound_nodes": [[["mixed2", 0, 0, {}]]]}, {"class_name": "Concatenate", "config": {"axis": 3, "trainable": false, "name": "mixed3"}, "name": "mixed3", "inbound_nodes": [[["activation_27", 0, 0, {}], ["activation_30", 0, 0, {}], ["max_pooling2d_3", 0, 0, {}]]]}, {"class_name": "Conv2D", "config": {"bias_constraint": null, "kernel_initializer": {"class_name": "VarianceScaling", "config": {"mode": "fan_avg", "distribution": "uniform", "scale": 1.0, "seed": null}}, "kernel_size": [1, 1], "padding": "same", "data_format": "channels_last", "activity_regularizer": null, "filters": 128, "kernel_regularizer": null, "bias_regularizer": null, "use_bias": false, "kernel_constraint": null, "strides": [1, 1], "trainable": false, "dilation_rate": [1, 1], "activation": "linear", "name": "conv2d_35", "bias_initializer": {"class_name": "Zeros", "config": {}}}, "name": "conv2d_35", "inbound_nodes": [[["mixed3", 0, 0, {}]]]}, {"class_name": "BatchNormalization", "config": {"axis": 3, "gamma_constraint": null, "beta_regularizer": null, "center": true, "gamma_regularizer": null, "beta_initializer": {"class_name": "Zeros", "config": {}}, "moving_mean_initializer": {"class_name": "Zeros", "config": {}}, "trainable": false, "scale": false, "beta_constraint": null, "gamma_initializer": {"class_name": "Ones", "config": {}}, "momentum": 0.99, "epsilon": 0.001, "name": "batch_normalization_35", "moving_variance_initializer": {"class_name": "Ones", "config": {}}}, "name": "batch_normalization_35", "inbound_nodes": [[["conv2d_35", 0, 0, {}]]]}, {"class_name": "Activation", "config": {"trainable": false, "activation": "relu", "name": "activation_35"}, "name": "activation_35", "inbound_nodes": [[["batch_normalization_35", 0, 0, {}]]]}, {"class_name": "Conv2D", "config": {"bias_constraint": null, "kernel_initializer": {"class_name": "VarianceScaling", "config": {"mode": "fan_avg", "distribution": "uniform", "scale": 1.0, "seed": null}}, "kernel_size": [7, 1], "padding": "same", "data_format": "channels_last", "activity_regularizer": null, "filters": 128, "kernel_regularizer": null, "bias_regularizer": null, "use_bias": false, "kernel_constraint": null, "strides": [1, 1], "trainable": false, "dilation_rate": [1, 1], "activation": "linear", "name": "conv2d_36", "bias_initializer": {"class_name": "Zeros", "config": {}}}, "name": "conv2d_36", "inbound_nodes": [[["activation_35", 0, 0, {}]]]}, {"class_name": "BatchNormalization", "config": {"axis": 3, "gamma_constraint": null, "beta_regularizer": null, "center": true, "gamma_regularizer": null, "beta_initializer": {"class_name": "Zeros", "config": {}}, "moving_mean_initializer": {"class_name": "Zeros", "config": {}}, "trainable": false, "scale": false, "beta_constraint": null, "gamma_initializer": {"class_name": "Ones", "config": {}}, "momentum": 0.99, "epsilon": 0.001, "name": "batch_normalization_36", "moving_variance_initializer": {"class_name": "Ones", "config": {}}}, "name": "batch_normalization_36", "inbound_nodes": [[["conv2d_36", 0, 0, {}]]]}, {"class_name": "Activation", "config": {"trainable": false, "activation": "relu", "name": "activation_36"}, "name": "activation_36", "inbound_nodes": [[["batch_normalization_36", 0, 0, {}]]]}, {"class_name": "Conv2D", "config": {"bias_constraint": null, "kernel_initializer": {"class_name": "VarianceScaling", "config": {"mode": "fan_avg", "distribution": "uniform", "scale": 1.0, "seed": null}}, "kernel_size": [1, 1], "padding": "same", "data_format": "channels_last", "activity_regularizer": null, "filters": 128, "kernel_regularizer": null, "bias_regularizer": null, "use_bias": false, "kernel_constraint": null, "strides": [1, 1], "trainable": false, "dilation_rate": [1, 1], "activation": "linear", "name": "conv2d_32", "bias_initializer": {"class_name": "Zeros", "config": {}}}, "name": "conv2d_32", "inbound_nodes": [[["mixed3", 0, 0, {}]]]}, {"class_name": "Conv2D", "config": {"bias_constraint": null, "kernel_initializer": {"class_name": "VarianceScaling", "config": {"mode": "fan_avg", "distribution": "uniform", "scale": 1.0, "seed": null}}, "kernel_size": [1, 7], "padding": "same", "data_format": "channels_last", "activity_regularizer": null, "filters": 128, "kernel_regularizer": null, "bias_regularizer": null, "use_bias": false, "kernel_constraint": null, "strides": [1, 1], "trainable": false, "dilation_rate": [1, 1], "activation": "linear", "name": "conv2d_37", "bias_initializer": {"class_name": "Zeros", "config": {}}}, "name": "conv2d_37", "inbound_nodes": [[["activation_36", 0, 0, {}]]]}, {"class_name": "BatchNormalization", "config": {"axis": 3, "gamma_constraint": null, "beta_regularizer": null, "center": true, "gamma_regularizer": null, "beta_initializer": {"class_name": "Zeros", "config": {}}, "moving_mean_initializer": {"class_name": "Zeros", "config": {}}, "trainable": false, "scale": false, "beta_constraint": null, "gamma_initializer": {"class_name": "Ones", "config": {}}, "momentum": 0.99, "epsilon": 0.001, "name": "batch_normalization_32", "moving_variance_initializer": {"class_name": "Ones", "config": {}}}, "name": "batch_normalization_32", "inbound_nodes": [[["conv2d_32", 0, 0, {}]]]}, {"class_name": "BatchNormalization", "config": {"axis": 3, "gamma_constraint": null, "beta_regularizer": null, "center": true, "gamma_regularizer": null, "beta_initializer": {"class_name": "Zeros", "config": {}}, "moving_mean_initializer": {"class_name": "Zeros", "config": {}}, "trainable": false, "scale": false, "beta_constraint": null, "gamma_initializer": {"class_name": "Ones", "config": {}}, "momentum": 0.99, "epsilon": 0.001, "name": "batch_normalization_37", "moving_variance_initializer": {"class_name": "Ones", "config": {}}}, "name": "batch_normalization_37", "inbound_nodes": [[["conv2d_37", 0, 0, {}]]]}, {"class_name": "Activation", "config": {"trainable": false, "activation": "relu", "name": "activation_32"}, "name": "activation_32", "inbound_nodes": [[["batch_normalization_32", 0, 0, {}]]]}, {"class_name": "Activation", "config": {"trainable": false, "activation": "relu", "name": "activation_37"}, "name": "activation_37", "inbound_nodes": [[["batch_normalization_37", 0, 0, {}]]]}, {"class_name": "Conv2D", "config": {"bias_constraint": null, "kernel_initializer": {"class_name": "VarianceScaling", "config": {"mode": "fan_avg", "distribution": "uniform", "scale": 1.0, "seed": null}}, "kernel_size": [1, 7], "padding": "same", "data_format": "channels_last", "activity_regularizer": null, "filters": 128, "kernel_regularizer": null, "bias_regularizer": null, "use_bias": false, "kernel_constraint": null, "strides": [1, 1], "trainable": false, "dilation_rate": [1, 1], "activation": "linear", "name": "conv2d_33", "bias_initializer": {"class_name": "Zeros", "config": {}}}, "name": "conv2d_33", "inbound_nodes": [[["activation_32", 0, 0, {}]]]}, {"class_name": "Conv2D", "config": {"bias_constraint": null, "kernel_initializer": {"class_name": "VarianceScaling", "config": {"mode": "fan_avg", "distribution": "uniform", "scale": 1.0, "seed": null}}, "kernel_size": [7, 1], "padding": "same", "data_format": "channels_last", "activity_regularizer": null, "filters": 128, "kernel_regularizer": null, "bias_regularizer": null, "use_bias": false, "kernel_constraint": null, "strides": [1, 1], "trainable": false, "dilation_rate": [1, 1], "activation": "linear", "name": "conv2d_38", "bias_initializer": {"class_name": "Zeros", "config": {}}}, "name": "conv2d_38", "inbound_nodes": [[["activation_37", 0, 0, {}]]]}, {"class_name": "BatchNormalization", "config": {"axis": 3, "gamma_constraint": null, "beta_regularizer": null, "center": true, "gamma_regularizer": null, "beta_initializer": {"class_name": "Zeros", "config": {}}, "moving_mean_initializer": {"class_name": "Zeros", "config": {}}, "trainable": false, "scale": false, "beta_constraint": null, "gamma_initializer": {"class_name": "Ones", "config": {}}, "momentum": 0.99, "epsilon": 0.001, "name": "batch_normalization_33", "moving_variance_initializer": {"class_name": "Ones", "config": {}}}, "name": "batch_normalization_33", "inbound_nodes": [[["conv2d_33", 0, 0, {}]]]}, {"class_name": "BatchNormalization", "config": {"axis": 3, "gamma_constraint": null, "beta_regularizer": null, "center": true, "gamma_regularizer": null, "beta_initializer": {"class_name": "Zeros", "config": {}}, "moving_mean_initializer": {"class_name": "Zeros", "config": {}}, "trainable": false, "scale": false, "beta_constraint": null, "gamma_initializer": {"class_name": "Ones", "config": {}}, "momentum": 0.99, "epsilon": 0.001, "name": "batch_normalization_38", "moving_variance_initializer": {"class_name": "Ones", "config": {}}}, "name": "batch_normalization_38", "inbound_nodes": [[["conv2d_38", 0, 0, {}]]]}, {"class_name": "Activation", "config": {"trainable": false, "activation": "relu", "name": "activation_33"}, "name": "activation_33", "inbound_nodes": [[["batch_normalization_33", 0, 0, {}]]]}, {"class_name": "Activation", "config": {"trainable": false, "activation": "relu", "name": "activation_38"}, "name": "activation_38", "inbound_nodes": [[["batch_normalization_38", 0, 0, {}]]]}, {"class_name": "AveragePooling2D", "config": {"strides": [1, 1], "trainable": false, "padding": "same", "data_format": "channels_last", "name": "average_pooling2d_4", "pool_size": [3, 3]}, "name": "average_pooling2d_4", "inbound_nodes": [[["mixed3", 0, 0, {}]]]}, {"class_name": "Conv2D", "config": {"bias_constraint": null, "kernel_initializer": {"class_name": "VarianceScaling", "config": {"mode": "fan_avg", "distribution": "uniform", "scale": 1.0, "seed": null}}, "kernel_size": [1, 1], "padding": "same", "data_format": "channels_last", "activity_regularizer": null, "filters": 192, "kernel_regularizer": null, "bias_regularizer": null, "use_bias": false, "kernel_constraint": null, "strides": [1, 1], "trainable": false, "dilation_rate": [1, 1], "activation": "linear", "name": "conv2d_31", "bias_initializer": {"class_name": "Zeros", "config": {}}}, "name": "conv2d_31", "inbound_nodes": [[["mixed3", 0, 0, {}]]]}, {"class_name": "Conv2D", "config": {"bias_constraint": null, "kernel_initializer": {"class_name": "VarianceScaling", "config": {"mode": "fan_avg", "distribution": "uniform", "scale": 1.0, "seed": null}}, "kernel_size": [7, 1], "padding": "same", "data_format": "channels_last", "activity_regularizer": null, "filters": 192, "kernel_regularizer": null, "bias_regularizer": null, "use_bias": false, "kernel_constraint": null, "strides": [1, 1], "trainable": false, "dilation_rate": [1, 1], "activation": "linear", "name": "conv2d_34", "bias_initializer": {"class_name": "Zeros", "config": {}}}, "name": "conv2d_34", "inbound_nodes": [[["activation_33", 0, 0, {}]]]}, {"class_name": "Conv2D", "config": {"bias_constraint": null, "kernel_initializer": {"class_name": "VarianceScaling", "config": {"mode": "fan_avg", "distribution": "uniform", "scale": 1.0, "seed": null}}, "kernel_size": [1, 7], "padding": "same", "data_format": "channels_last", "activity_regularizer": null, "filters": 192, "kernel_regularizer": null, "bias_regularizer": null, "use_bias": false, "kernel_constraint": null, "strides": [1, 1], "trainable": false, "dilation_rate": [1, 1], "activation": "linear", "name": "conv2d_39", "bias_initializer": {"class_name": "Zeros", "config": {}}}, "name": "conv2d_39", "inbound_nodes": [[["activation_38", 0, 0, {}]]]}, {"class_name": "Conv2D", "config": {"bias_constraint": null, "kernel_initializer": {"class_name": "VarianceScaling", "config": {"mode": "fan_avg", "distribution": "uniform", "scale": 1.0, "seed": null}}, "kernel_size": [1, 1], "padding": "same", "data_format": "channels_last", "activity_regularizer": null, "filters": 192, "kernel_regularizer": null, "bias_regularizer": null, "use_bias": false, "kernel_constraint": null, "strides": [1, 1], "trainable": false, "dilation_rate": [1, 1], "activation": "linear", "name": "conv2d_40", "bias_initializer": {"class_name": "Zeros", "config": {}}}, "name": "conv2d_40", "inbound_nodes": [[["average_pooling2d_4", 0, 0, {}]]]}, {"class_name": "BatchNormalization", "config": {"axis": 3, "gamma_constraint": null, "beta_regularizer": null, "center": true, "gamma_regularizer": null, "beta_initializer": {"class_name": "Zeros", "config": {}}, "moving_mean_initializer": {"class_name": "Zeros", "config": {}}, "trainable": false, "scale": false, "beta_constraint": null, "gamma_initializer": {"class_name": "Ones", "config": {}}, "momentum": 0.99, "epsilon": 0.001, "name": "batch_normalization_31", "moving_variance_initializer": {"class_name": "Ones", "config": {}}}, "name": "batch_normalization_31", "inbound_nodes": [[["conv2d_31", 0, 0, {}]]]}, {"class_name": "BatchNormalization", "config": {"axis": 3, "gamma_constraint": null, "beta_regularizer": null, "center": true, "gamma_regularizer": null, "beta_initializer": {"class_name": "Zeros", "config": {}}, "moving_mean_initializer": {"class_name": "Zeros", "config": {}}, "trainable": false, "scale": false, "beta_constraint": null, "gamma_initializer": {"class_name": "Ones", "config": {}}, "momentum": 0.99, "epsilon": 0.001, "name": "batch_normalization_34", "moving_variance_initializer": {"class_name": "Ones", "config": {}}}, "name": "batch_normalization_34", "inbound_nodes": [[["conv2d_34", 0, 0, {}]]]}, {"class_name": "BatchNormalization", "config": {"axis": 3, "gamma_constraint": null, "beta_regularizer": null, "center": true, "gamma_regularizer": null, "beta_initializer": {"class_name": "Zeros", "config": {}}, "moving_mean_initializer": {"class_name": "Zeros", "config": {}}, "trainable": false, "scale": false, "beta_constraint": null, "gamma_initializer": {"class_name": "Ones", "config": {}}, "momentum": 0.99, "epsilon": 0.001, "name": "batch_normalization_39", "moving_variance_initializer": {"class_name": "Ones", "config": {}}}, "name": "batch_normalization_39", "inbound_nodes": [[["conv2d_39", 0, 0, {}]]]}, {"class_name": "BatchNormalization", "config": {"axis": 3, "gamma_constraint": null, "beta_regularizer": null, "center": true, "gamma_regularizer": null, "beta_initializer": {"class_name": "Zeros", "config": {}}, "moving_mean_initializer": {"class_name": "Zeros", "config": {}}, "trainable": false, "scale": false, "beta_constraint": null, "gamma_initializer": {"class_name": "Ones", "config": {}}, "momentum": 0.99, "epsilon": 0.001, "name": "batch_normalization_40", "moving_variance_initializer": {"class_name": "Ones", "config": {}}}, "name": "batch_normalization_40", "inbound_nodes": [[["conv2d_40", 0, 0, {}]]]}, {"class_name": "Activation", "config": {"trainable": false, "activation": "relu", "name": "activation_31"}, "name": "activation_31", "inbound_nodes": [[["batch_normalization_31", 0, 0, {}]]]}, {"class_name": "Activation", "config": {"trainable": false, "activation": "relu", "name": "activation_34"}, "name": "activation_34", "inbound_nodes": [[["batch_normalization_34", 0, 0, {}]]]}, {"class_name": "Activation", "config": {"trainable": false, "activation": "relu", "name": "activation_39"}, "name": "activation_39", "inbound_nodes": [[["batch_normalization_39", 0, 0, {}]]]}, {"class_name": "Activation", "config": {"trainable": false, "activation": "relu", "name": "activation_40"}, "name": "activation_40", "inbound_nodes": [[["batch_normalization_40", 0, 0, {}]]]}, {"class_name": "Concatenate", "config": {"axis": 3, "trainable": false, "name": "mixed4"}, "name": "mixed4", "inbound_nodes": [[["activation_31", 0, 0, {}], ["activation_34", 0, 0, {}], ["activation_39", 0, 0, {}], ["activation_40", 0, 0, {}]]]}, {"class_name": "Conv2D", "config": {"bias_constraint": null, "kernel_initializer": {"class_name": "VarianceScaling", "config": {"mode": "fan_avg", "distribution": "uniform", "scale": 1.0, "seed": null}}, "kernel_size": [1, 1], "padding": "same", "data_format": "channels_last", "activity_regularizer": null, "filters": 160, "kernel_regularizer": null, "bias_regularizer": null, "use_bias": false, "kernel_constraint": null, "strides": [1, 1], "trainable": false, "dilation_rate": [1, 1], "activation": "linear", "name": "conv2d_45", "bias_initializer": {"class_name": "Zeros", "config": {}}}, "name": "conv2d_45", "inbound_nodes": [[["mixed4", 0, 0, {}]]]}, {"class_name": "BatchNormalization", "config": {"axis": 3, "gamma_constraint": null, "beta_regularizer": null, "center": true, "gamma_regularizer": null, "beta_initializer": {"class_name": "Zeros", "config": {}}, "moving_mean_initializer": {"class_name": "Zeros", "config": {}}, "trainable": false, "scale": false, "beta_constraint": null, "gamma_initializer": {"class_name": "Ones", "config": {}}, "momentum": 0.99, "epsilon": 0.001, "name": "batch_normalization_45", "moving_variance_initializer": {"class_name": "Ones", "config": {}}}, "name": "batch_normalization_45", "inbound_nodes": [[["conv2d_45", 0, 0, {}]]]}, {"class_name": "Activation", "config": {"trainable": false, "activation": "relu", "name": "activation_45"}, "name": "activation_45", "inbound_nodes": [[["batch_normalization_45", 0, 0, {}]]]}, {"class_name": "Conv2D", "config": {"bias_constraint": null, "kernel_initializer": {"class_name": "VarianceScaling", "config": {"mode": "fan_avg", "distribution": "uniform", "scale": 1.0, "seed": null}}, "kernel_size": [7, 1], "padding": "same", "data_format": "channels_last", "activity_regularizer": null, "filters": 160, "kernel_regularizer": null, "bias_regularizer": null, "use_bias": false, "kernel_constraint": null, "strides": [1, 1], "trainable": false, "dilation_rate": [1, 1], "activation": "linear", "name": "conv2d_46", "bias_initializer": {"class_name": "Zeros", "config": {}}}, "name": "conv2d_46", "inbound_nodes": [[["activation_45", 0, 0, {}]]]}, {"class_name": "BatchNormalization", "config": {"axis": 3, "gamma_constraint": null, "beta_regularizer": null, "center": true, "gamma_regularizer": null, "beta_initializer": {"class_name": "Zeros", "config": {}}, "moving_mean_initializer": {"class_name": "Zeros", "config": {}}, "trainable": false, "scale": false, "beta_constraint": null, "gamma_initializer": {"class_name": "Ones", "config": {}}, "momentum": 0.99, "epsilon": 0.001, "name": "batch_normalization_46", "moving_variance_initializer": {"class_name": "Ones", "config": {}}}, "name": "batch_normalization_46", "inbound_nodes": [[["conv2d_46", 0, 0, {}]]]}, {"class_name": "Activation", "config": {"trainable": false, "activation": "relu", "name": "activation_46"}, "name": "activation_46", "inbound_nodes": [[["batch_normalization_46", 0, 0, {}]]]}, {"class_name": "Conv2D", "config": {"bias_constraint": null, "kernel_initializer": {"class_name": "VarianceScaling", "config": {"mode": "fan_avg", "distribution": "uniform", "scale": 1.0, "seed": null}}, "kernel_size": [1, 1], "padding": "same", "data_format": "channels_last", "activity_regularizer": null, "filters": 160, "kernel_regularizer": null, "bias_regularizer": null, "use_bias": false, "kernel_constraint": null, "strides": [1, 1], "trainable": false, "dilation_rate": [1, 1], "activation": "linear", "name": "conv2d_42", "bias_initializer": {"class_name": "Zeros", "config": {}}}, "name": "conv2d_42", "inbound_nodes": [[["mixed4", 0, 0, {}]]]}, {"class_name": "Conv2D", "config": {"bias_constraint": null, "kernel_initializer": {"class_name": "VarianceScaling", "config": {"mode": "fan_avg", "distribution": "uniform", "scale": 1.0, "seed": null}}, "kernel_size": [1, 7], "padding": "same", "data_format": "channels_last", "activity_regularizer": null, "filters": 160, "kernel_regularizer": null, "bias_regularizer": null, "use_bias": false, "kernel_constraint": null, "strides": [1, 1], "trainable": false, "dilation_rate": [1, 1], "activation": "linear", "name": "conv2d_47", "bias_initializer": {"class_name": "Zeros", "config": {}}}, "name": "conv2d_47", "inbound_nodes": [[["activation_46", 0, 0, {}]]]}, {"class_name": "BatchNormalization", "config": {"axis": 3, "gamma_constraint": null, "beta_regularizer": null, "center": true, "gamma_regularizer": null, "beta_initializer": {"class_name": "Zeros", "config": {}}, "moving_mean_initializer": {"class_name": "Zeros", "config": {}}, "trainable": false, "scale": false, "beta_constraint": null, "gamma_initializer": {"class_name": "Ones", "config": {}}, "momentum": 0.99, "epsilon": 0.001, "name": "batch_normalization_42", "moving_variance_initializer": {"class_name": "Ones", "config": {}}}, "name": "batch_normalization_42", "inbound_nodes": [[["conv2d_42", 0, 0, {}]]]}, {"class_name": "BatchNormalization", "config": {"axis": 3, "gamma_constraint": null, "beta_regularizer": null, "center": true, "gamma_regularizer": null, "beta_initializer": {"class_name": "Zeros", "config": {}}, "moving_mean_initializer": {"class_name": "Zeros", "config": {}}, "trainable": false, "scale": false, "beta_constraint": null, "gamma_initializer": {"class_name": "Ones", "config": {}}, "momentum": 0.99, "epsilon": 0.001, "name": "batch_normalization_47", "moving_variance_initializer": {"class_name": "Ones", "config": {}}}, "name": "batch_normalization_47", "inbound_nodes": [[["conv2d_47", 0, 0, {}]]]}, {"class_name": "Activation", "config": {"trainable": false, "activation": "relu", "name": "activation_42"}, "name": "activation_42", "inbound_nodes": [[["batch_normalization_42", 0, 0, {}]]]}, {"class_name": "Activation", "config": {"trainable": false, "activation": "relu", "name": "activation_47"}, "name": "activation_47", "inbound_nodes": [[["batch_normalization_47", 0, 0, {}]]]}, {"class_name": "Conv2D", "config": {"bias_constraint": null, "kernel_initializer": {"class_name": "VarianceScaling", "config": {"mode": "fan_avg", "distribution": "uniform", "scale": 1.0, "seed": null}}, "kernel_size": [1, 7], "padding": "same", "data_format": "channels_last", "activity_regularizer": null, "filters": 160, "kernel_regularizer": null, "bias_regularizer": null, "use_bias": false, "kernel_constraint": null, "strides": [1, 1], "trainable": false, "dilation_rate": [1, 1], "activation": "linear", "name": "conv2d_43", "bias_initializer": {"class_name": "Zeros", "config": {}}}, "name": "conv2d_43", "inbound_nodes": [[["activation_42", 0, 0, {}]]]}, {"class_name": "Conv2D", "config": {"bias_constraint": null, "kernel_initializer": {"class_name": "VarianceScaling", "config": {"mode": "fan_avg", "distribution": "uniform", "scale": 1.0, "seed": null}}, "kernel_size": [7, 1], "padding": "same", "data_format": "channels_last", "activity_regularizer": null, "filters": 160, "kernel_regularizer": null, "bias_regularizer": null, "use_bias": false, "kernel_constraint": null, "strides": [1, 1], "trainable": false, "dilation_rate": [1, 1], "activation": "linear", "name": "conv2d_48", "bias_initializer": {"class_name": "Zeros", "config": {}}}, "name": "conv2d_48", "inbound_nodes": [[["activation_47", 0, 0, {}]]]}, {"class_name": "BatchNormalization", "config": {"axis": 3, "gamma_constraint": null, "beta_regularizer": null, "center": true, "gamma_regularizer": null, "beta_initializer": {"class_name": "Zeros", "config": {}}, "moving_mean_initializer": {"class_name": "Zeros", "config": {}}, "trainable": false, "scale": false, "beta_constraint": null, "gamma_initializer": {"class_name": "Ones", "config": {}}, "momentum": 0.99, "epsilon": 0.001, "name": "batch_normalization_43", "moving_variance_initializer": {"class_name": "Ones", "config": {}}}, "name": "batch_normalization_43", "inbound_nodes": [[["conv2d_43", 0, 0, {}]]]}, {"class_name": "BatchNormalization", "config": {"axis": 3, "gamma_constraint": null, "beta_regularizer": null, "center": true, "gamma_regularizer": null, "beta_initializer": {"class_name": "Zeros", "config": {}}, "moving_mean_initializer": {"class_name": "Zeros", "config": {}}, "trainable": false, "scale": false, "beta_constraint": null, "gamma_initializer": {"class_name": "Ones", "config": {}}, "momentum": 0.99, "epsilon": 0.001, "name": "batch_normalization_48", "moving_variance_initializer": {"class_name": "Ones", "config": {}}}, "name": "batch_normalization_48", "inbound_nodes": [[["conv2d_48", 0, 0, {}]]]}, {"class_name": "Activation", "config": {"trainable": false, "activation": "relu", "name": "activation_43"}, "name": "activation_43", "inbound_nodes": [[["batch_normalization_43", 0, 0, {}]]]}, {"class_name": "Activation", "config": {"trainable": false, "activation": "relu", "name": "activation_48"}, "name": "activation_48", "inbound_nodes": [[["batch_normalization_48", 0, 0, {}]]]}, {"class_name": "AveragePooling2D", "config": {"strides": [1, 1], "trainable": false, "padding": "same", "data_format": "channels_last", "name": "average_pooling2d_5", "pool_size": [3, 3]}, "name": "average_pooling2d_5", "inbound_nodes": [[["mixed4", 0, 0, {}]]]}, {"class_name": "Conv2D", "config": {"bias_constraint": null, "kernel_initializer": {"class_name": "VarianceScaling", "config": {"mode": "fan_avg", "distribution": "uniform", "scale": 1.0, "seed": null}}, "kernel_size": [1, 1], "padding": "same", "data_format": "channels_last", "activity_regularizer": null, "filters": 192, "kernel_regularizer": null, "bias_regularizer": null, "use_bias": false, "kernel_constraint": null, "strides": [1, 1], "trainable": false, "dilation_rate": [1, 1], "activation": "linear", "name": "conv2d_41", "bias_initializer": {"class_name": "Zeros", "config": {}}}, "name": "conv2d_41", "inbound_nodes": [[["mixed4", 0, 0, {}]]]}, {"class_name": "Conv2D", "config": {"bias_constraint": null, "kernel_initializer": {"class_name": "VarianceScaling", "config": {"mode": "fan_avg", "distribution": "uniform", "scale": 1.0, "seed": null}}, "kernel_size": [7, 1], "padding": "same", "data_format": "channels_last", "activity_regularizer": null, "filters": 192, "kernel_regularizer": null, "bias_regularizer": null, "use_bias": false, "kernel_constraint": null, "strides": [1, 1], "trainable": false, "dilation_rate": [1, 1], "activation": "linear", "name": "conv2d_44", "bias_initializer": {"class_name": "Zeros", "config": {}}}, "name": "conv2d_44", "inbound_nodes": [[["activation_43", 0, 0, {}]]]}, {"class_name": "Conv2D", "config": {"bias_constraint": null, "kernel_initializer": {"class_name": "VarianceScaling", "config": {"mode": "fan_avg", "distribution": "uniform", "scale": 1.0, "seed": null}}, "kernel_size": [1, 7], "padding": "same", "data_format": "channels_last", "activity_regularizer": null, "filters": 192, "kernel_regularizer": null, "bias_regularizer": null, "use_bias": false, "kernel_constraint": null, "strides": [1, 1], "trainable": false, "dilation_rate": [1, 1], "activation": "linear", "name": "conv2d_49", "bias_initializer": {"class_name": "Zeros", "config": {}}}, "name": "conv2d_49", "inbound_nodes": [[["activation_48", 0, 0, {}]]]}, {"class_name": "Conv2D", "config": {"bias_constraint": null, "kernel_initializer": {"class_name": "VarianceScaling", "config": {"mode": "fan_avg", "distribution": "uniform", "scale": 1.0, "seed": null}}, "kernel_size": [1, 1], "padding": "same", "data_format": "channels_last", "activity_regularizer": null, "filters": 192, "kernel_regularizer": null, "bias_regularizer": null, "use_bias": false, "kernel_constraint": null, "strides": [1, 1], "trainable": false, "dilation_rate": [1, 1], "activation": "linear", "name": "conv2d_50", "bias_initializer": {"class_name": "Zeros", "config": {}}}, "name": "conv2d_50", "inbound_nodes": [[["average_pooling2d_5", 0, 0, {}]]]}, {"class_name": "BatchNormalization", "config": {"axis": 3, "gamma_constraint": null, "beta_regularizer": null, "center": true, "gamma_regularizer": null, "beta_initializer": {"class_name": "Zeros", "config": {}}, "moving_mean_initializer": {"class_name": "Zeros", "config": {}}, "trainable": false, "scale": false, "beta_constraint": null, "gamma_initializer": {"class_name": "Ones", "config": {}}, "momentum": 0.99, "epsilon": 0.001, "name": "batch_normalization_41", "moving_variance_initializer": {"class_name": "Ones", "config": {}}}, "name": "batch_normalization_41", "inbound_nodes": [[["conv2d_41", 0, 0, {}]]]}, {"class_name": "BatchNormalization", "config": {"axis": 3, "gamma_constraint": null, "beta_regularizer": null, "center": true, "gamma_regularizer": null, "beta_initializer": {"class_name": "Zeros", "config": {}}, "moving_mean_initializer": {"class_name": "Zeros", "config": {}}, "trainable": false, "scale": false, "beta_constraint": null, "gamma_initializer": {"class_name": "Ones", "config": {}}, "momentum": 0.99, "epsilon": 0.001, "name": "batch_normalization_44", "moving_variance_initializer": {"class_name": "Ones", "config": {}}}, "name": "batch_normalization_44", "inbound_nodes": [[["conv2d_44", 0, 0, {}]]]}, {"class_name": "BatchNormalization", "config": {"axis": 3, "gamma_constraint": null, "beta_regularizer": null, "center": true, "gamma_regularizer": null, "beta_initializer": {"class_name": "Zeros", "config": {}}, "moving_mean_initializer": {"class_name": "Zeros", "config": {}}, "trainable": false, "scale": false, "beta_constraint": null, "gamma_initializer": {"class_name": "Ones", "config": {}}, "momentum": 0.99, "epsilon": 0.001, "name": "batch_normalization_49", "moving_variance_initializer": {"class_name": "Ones", "config": {}}}, "name": "batch_normalization_49", "inbound_nodes": [[["conv2d_49", 0, 0, {}]]]}, {"class_name": "BatchNormalization", "config": {"axis": 3, "gamma_constraint": null, "beta_regularizer": null, "center": true, "gamma_regularizer": null, "beta_initializer": {"class_name": "Zeros", "config": {}}, "moving_mean_initializer": {"class_name": "Zeros", "config": {}}, "trainable": false, "scale": false, "beta_constraint": null, "gamma_initializer": {"class_name": "Ones", "config": {}}, "momentum": 0.99, "epsilon": 0.001, "name": "batch_normalization_50", "moving_variance_initializer": {"class_name": "Ones", "config": {}}}, "name": "batch_normalization_50", "inbound_nodes": [[["conv2d_50", 0, 0, {}]]]}, {"class_name": "Activation", "config": {"trainable": false, "activation": "relu", "name": "activation_41"}, "name": "activation_41", "inbound_nodes": [[["batch_normalization_41", 0, 0, {}]]]}, {"class_name": "Activation", "config": {"trainable": false, "activation": "relu", "name": "activation_44"}, "name": "activation_44", "inbound_nodes": [[["batch_normalization_44", 0, 0, {}]]]}, {"class_name": "Activation", "config": {"trainable": false, "activation": "relu", "name": "activation_49"}, "name": "activation_49", "inbound_nodes": [[["batch_normalization_49", 0, 0, {}]]]}, {"class_name": "Activation", "config": {"trainable": false, "activation": "relu", "name": "activation_50"}, "name": "activation_50", "inbound_nodes": [[["batch_normalization_50", 0, 0, {}]]]}, {"class_name": "Concatenate", "config": {"axis": 3, "trainable": false, "name": "mixed5"}, "name": "mixed5", "inbound_nodes": [[["activation_41", 0, 0, {}], ["activation_44", 0, 0, {}], ["activation_49", 0, 0, {}], ["activation_50", 0, 0, {}]]]}, {"class_name": "Conv2D", "config": {"bias_constraint": null, "kernel_initializer": {"class_name": "VarianceScaling", "config": {"mode": "fan_avg", "distribution": "uniform", "scale": 1.0, "seed": null}}, "kernel_size": [1, 1], "padding": "same", "data_format": "channels_last", "activity_regularizer": null, "filters": 160, "kernel_regularizer": null, "bias_regularizer": null, "use_bias": false, "kernel_constraint": null, "strides": [1, 1], "trainable": false, "dilation_rate": [1, 1], "activation": "linear", "name": "conv2d_55", "bias_initializer": {"class_name": "Zeros", "config": {}}}, "name": "conv2d_55", "inbound_nodes": [[["mixed5", 0, 0, {}]]]}, {"class_name": "BatchNormalization", "config": {"axis": 3, "gamma_constraint": null, "beta_regularizer": null, "center": true, "gamma_regularizer": null, "beta_initializer": {"class_name": "Zeros", "config": {}}, "moving_mean_initializer": {"class_name": "Zeros", "config": {}}, "trainable": false, "scale": false, "beta_constraint": null, "gamma_initializer": {"class_name": "Ones", "config": {}}, "momentum": 0.99, "epsilon": 0.001, "name": "batch_normalization_55", "moving_variance_initializer": {"class_name": "Ones", "config": {}}}, "name": "batch_normalization_55", "inbound_nodes": [[["conv2d_55", 0, 0, {}]]]}, {"class_name": "Activation", "config": {"trainable": false, "activation": "relu", "name": "activation_55"}, "name": "activation_55", "inbound_nodes": [[["batch_normalization_55", 0, 0, {}]]]}, {"class_name": "Conv2D", "config": {"bias_constraint": null, "kernel_initializer": {"class_name": "VarianceScaling", "config": {"mode": "fan_avg", "distribution": "uniform", "scale": 1.0, "seed": null}}, "kernel_size": [7, 1], "padding": "same", "data_format": "channels_last", "activity_regularizer": null, "filters": 160, "kernel_regularizer": null, "bias_regularizer": null, "use_bias": false, "kernel_constraint": null, "strides": [1, 1], "trainable": false, "dilation_rate": [1, 1], "activation": "linear", "name": "conv2d_56", "bias_initializer": {"class_name": "Zeros", "config": {}}}, "name": "conv2d_56", "inbound_nodes": [[["activation_55", 0, 0, {}]]]}, {"class_name": "BatchNormalization", "config": {"axis": 3, "gamma_constraint": null, "beta_regularizer": null, "center": true, "gamma_regularizer": null, "beta_initializer": {"class_name": "Zeros", "config": {}}, "moving_mean_initializer": {"class_name": "Zeros", "config": {}}, "trainable": false, "scale": false, "beta_constraint": null, "gamma_initializer": {"class_name": "Ones", "config": {}}, "momentum": 0.99, "epsilon": 0.001, "name": "batch_normalization_56", "moving_variance_initializer": {"class_name": "Ones", "config": {}}}, "name": "batch_normalization_56", "inbound_nodes": [[["conv2d_56", 0, 0, {}]]]}, {"class_name": "Activation", "config": {"trainable": false, "activation": "relu", "name": "activation_56"}, "name": "activation_56", "inbound_nodes": [[["batch_normalization_56", 0, 0, {}]]]}, {"class_name": "Conv2D", "config": {"bias_constraint": null, "kernel_initializer": {"class_name": "VarianceScaling", "config": {"mode": "fan_avg", "distribution": "uniform", "scale": 1.0, "seed": null}}, "kernel_size": [1, 1], "padding": "same", "data_format": "channels_last", "activity_regularizer": null, "filters": 160, "kernel_regularizer": null, "bias_regularizer": null, "use_bias": false, "kernel_constraint": null, "strides": [1, 1], "trainable": false, "dilation_rate": [1, 1], "activation": "linear", "name": "conv2d_52", "bias_initializer": {"class_name": "Zeros", "config": {}}}, "name": "conv2d_52", "inbound_nodes": [[["mixed5", 0, 0, {}]]]}, {"class_name": "Conv2D", "config": {"bias_constraint": null, "kernel_initializer": {"class_name": "VarianceScaling", "config": {"mode": "fan_avg", "distribution": "uniform", "scale": 1.0, "seed": null}}, "kernel_size": [1, 7], "padding": "same", "data_format": "channels_last", "activity_regularizer": null, "filters": 160, "kernel_regularizer": null, "bias_regularizer": null, "use_bias": false, "kernel_constraint": null, "strides": [1, 1], "trainable": true, "dilation_rate": [1, 1], "activation": "linear", "name": "conv2d_57", "bias_initializer": {"class_name": "Zeros", "config": {}}}, "name": "conv2d_57", "inbound_nodes": [[["activation_56", 0, 0, {}]]]}, {"class_name": "BatchNormalization", "config": {"axis": 3, "gamma_constraint": null, "beta_regularizer": null, "center": true, "gamma_regularizer": null, "beta_initializer": {"class_name": "Zeros", "config": {}}, "moving_mean_initializer": {"class_name": "Zeros", "config": {}}, "trainable": true, "scale": false, "beta_constraint": null, "gamma_initializer": {"class_name": "Ones", "config": {}}, "momentum": 0.99, "epsilon": 0.001, "name": "batch_normalization_52", "moving_variance_initializer": {"class_name": "Ones", "config": {}}}, "name": "batch_normalization_52", "inbound_nodes": [[["conv2d_52", 0, 0, {}]]]}, {"class_name": "BatchNormalization", "config": {"axis": 3, "gamma_constraint": null, "beta_regularizer": null, "center": true, "gamma_regularizer": null, "beta_initializer": {"class_name": "Zeros", "config": {}}, "moving_mean_initializer": {"class_name": "Zeros", "config": {}}, "trainable": true, "scale": false, "beta_constraint": null, "gamma_initializer": {"class_name": "Ones", "config": {}}, "momentum": 0.99, "epsilon": 0.001, "name": "batch_normalization_57", "moving_variance_initializer": {"class_name": "Ones", "config": {}}}, "name": "batch_normalization_57", "inbound_nodes": [[["conv2d_57", 0, 0, {}]]]}, {"class_name": "Activation", "config": {"trainable": true, "activation": "relu", "name": "activation_52"}, "name": "activation_52", "inbound_nodes": [[["batch_normalization_52", 0, 0, {}]]]}, {"class_name": "Activation", "config": {"trainable": true, "activation": "relu", "name": "activation_57"}, "name": "activation_57", "inbound_nodes": [[["batch_normalization_57", 0, 0, {}]]]}, {"class_name": "Conv2D", "config": {"bias_constraint": null, "kernel_initializer": {"class_name": "VarianceScaling", "config": {"mode": "fan_avg", "distribution": "uniform", "scale": 1.0, "seed": null}}, "kernel_size": [1, 7], "padding": "same", "data_format": "channels_last", "activity_regularizer": null, "filters": 160, "kernel_regularizer": null, "bias_regularizer": null, "use_bias": false, "kernel_constraint": null, "strides": [1, 1], "trainable": true, "dilation_rate": [1, 1], "activation": "linear", "name": "conv2d_53", "bias_initializer": {"class_name": "Zeros", "config": {}}}, "name": "conv2d_53", "inbound_nodes": [[["activation_52", 0, 0, {}]]]}, {"class_name": "Conv2D", "config": {"bias_constraint": null, "kernel_initializer": {"class_name": "VarianceScaling", "config": {"mode": "fan_avg", "distribution": "uniform", "scale": 1.0, "seed": null}}, "kernel_size": [7, 1], "padding": "same", "data_format": "channels_last", "activity_regularizer": null, "filters": 160, "kernel_regularizer": null, "bias_regularizer": null, "use_bias": false, "kernel_constraint": null, "strides": [1, 1], "trainable": true, "dilation_rate": [1, 1], "activation": "linear", "name": "conv2d_58", "bias_initializer": {"class_name": "Zeros", "config": {}}}, "name": "conv2d_58", "inbound_nodes": [[["activation_57", 0, 0, {}]]]}, {"class_name": "BatchNormalization", "config": {"axis": 3, "gamma_constraint": null, "beta_regularizer": null, "center": true, "gamma_regularizer": null, "beta_initializer": {"class_name": "Zeros", "config": {}}, "moving_mean_initializer": {"class_name": "Zeros", "config": {}}, "trainable": true, "scale": false, "beta_constraint": null, "gamma_initializer": {"class_name": "Ones", "config": {}}, "momentum": 0.99, "epsilon": 0.001, "name": "batch_normalization_53", "moving_variance_initializer": {"class_name": "Ones", "config": {}}}, "name": "batch_normalization_53", "inbound_nodes": [[["conv2d_53", 0, 0, {}]]]}, {"class_name": "BatchNormalization", "config": {"axis": 3, "gamma_constraint": null, "beta_regularizer": null, "center": true, "gamma_regularizer": null, "beta_initializer": {"class_name": "Zeros", "config": {}}, "moving_mean_initializer": {"class_name": "Zeros", "config": {}}, "trainable": true, "scale": false, "beta_constraint": null, "gamma_initializer": {"class_name": "Ones", "config": {}}, "momentum": 0.99, "epsilon": 0.001, "name": "batch_normalization_58", "moving_variance_initializer": {"class_name": "Ones", "config": {}}}, "name": "batch_normalization_58", "inbound_nodes": [[["conv2d_58", 0, 0, {}]]]}, {"class_name": "Activation", "config": {"trainable": true, "activation": "relu", "name": "activation_53"}, "name": "activation_53", "inbound_nodes": [[["batch_normalization_53", 0, 0, {}]]]}, {"class_name": "Activation", "config": {"trainable": true, "activation": "relu", "name": "activation_58"}, "name": "activation_58", "inbound_nodes": [[["batch_normalization_58", 0, 0, {}]]]}, {"class_name": "AveragePooling2D", "config": {"strides": [1, 1], "trainable": true, "padding": "same", "data_format": "channels_last", "name": "average_pooling2d_6", "pool_size": [3, 3]}, "name": "average_pooling2d_6", "inbound_nodes": [[["mixed5", 0, 0, {}]]]}, {"class_name": "Conv2D", "config": {"bias_constraint": null, "kernel_initializer": {"class_name": "VarianceScaling", "config": {"mode": "fan_avg", "distribution": "uniform", "scale": 1.0, "seed": null}}, "kernel_size": [1, 1], "padding": "same", "data_format": "channels_last", "activity_regularizer": null, "filters": 192, "kernel_regularizer": null, "bias_regularizer": null, "use_bias": false, "kernel_constraint": null, "strides": [1, 1], "trainable": true, "dilation_rate": [1, 1], "activation": "linear", "name": "conv2d_51", "bias_initializer": {"class_name": "Zeros", "config": {}}}, "name": "conv2d_51", "inbound_nodes": [[["mixed5", 0, 0, {}]]]}, {"class_name": "Conv2D", "config": {"bias_constraint": null, "kernel_initializer": {"class_name": "VarianceScaling", "config": {"mode": "fan_avg", "distribution": "uniform", "scale": 1.0, "seed": null}}, "kernel_size": [7, 1], "padding": "same", "data_format": "channels_last", "activity_regularizer": null, "filters": 192, "kernel_regularizer": null, "bias_regularizer": null, "use_bias": false, "kernel_constraint": null, "strides": [1, 1], "trainable": true, "dilation_rate": [1, 1], "activation": "linear", "name": "conv2d_54", "bias_initializer": {"class_name": "Zeros", "config": {}}}, "name": "conv2d_54", "inbound_nodes": [[["activation_53", 0, 0, {}]]]}, {"class_name": "Conv2D", "config": {"bias_constraint": null, "kernel_initializer": {"class_name": "VarianceScaling", "config": {"mode": "fan_avg", "distribution": "uniform", "scale": 1.0, "seed": null}}, "kernel_size": [1, 7], "padding": "same", "data_format": "channels_last", "activity_regularizer": null, "filters": 192, "kernel_regularizer": null, "bias_regularizer": null, "use_bias": false, "kernel_constraint": null, "strides": [1, 1], "trainable": true, "dilation_rate": [1, 1], "activation": "linear", "name": "conv2d_59", "bias_initializer": {"class_name": "Zeros", "config": {}}}, "name": "conv2d_59", "inbound_nodes": [[["activation_58", 0, 0, {}]]]}, {"class_name": "Conv2D", "config": {"bias_constraint": null, "kernel_initializer": {"class_name": "VarianceScaling", "config": {"mode": "fan_avg", "distribution": "uniform", "scale": 1.0, "seed": null}}, "kernel_size": [1, 1], "padding": "same", "data_format": "channels_last", "activity_regularizer": null, "filters": 192, "kernel_regularizer": null, "bias_regularizer": null, "use_bias": false, "kernel_constraint": null, "strides": [1, 1], "trainable": true, "dilation_rate": [1, 1], "activation": "linear", "name": "conv2d_60", "bias_initializer": {"class_name": "Zeros", "config": {}}}, "name": "conv2d_60", "inbound_nodes": [[["average_pooling2d_6", 0, 0, {}]]]}, {"class_name": "BatchNormalization", "config": {"axis": 3, "gamma_constraint": null, "beta_regularizer": null, "center": true, "gamma_regularizer": null, "beta_initializer": {"class_name": "Zeros", "config": {}}, "moving_mean_initializer": {"class_name": "Zeros", "config": {}}, "trainable": true, "scale": false, "beta_constraint": null, "gamma_initializer": {"class_name": "Ones", "config": {}}, "momentum": 0.99, "epsilon": 0.001, "name": "batch_normalization_51", "moving_variance_initializer": {"class_name": "Ones", "config": {}}}, "name": "batch_normalization_51", "inbound_nodes": [[["conv2d_51", 0, 0, {}]]]}, {"class_name": "BatchNormalization", "config": {"axis": 3, "gamma_constraint": null, "beta_regularizer": null, "center": true, "gamma_regularizer": null, "beta_initializer": {"class_name": "Zeros", "config": {}}, "moving_mean_initializer": {"class_name": "Zeros", "config": {}}, "trainable": true, "scale": false, "beta_constraint": null, "gamma_initializer": {"class_name": "Ones", "config": {}}, "momentum": 0.99, "epsilon": 0.001, "name": "batch_normalization_54", "moving_variance_initializer": {"class_name": "Ones", "config": {}}}, "name": "batch_normalization_54", "inbound_nodes": [[["conv2d_54", 0, 0, {}]]]}, {"class_name": "BatchNormalization", "config": {"axis": 3, "gamma_constraint": null, "beta_regularizer": null, "center": true, "gamma_regularizer": null, "beta_initializer": {"class_name": "Zeros", "config": {}}, "moving_mean_initializer": {"class_name": "Zeros", "config": {}}, "trainable": true, "scale": false, "beta_constraint": null, "gamma_initializer": {"class_name": "Ones", "config": {}}, "momentum": 0.99, "epsilon": 0.001, "name": "batch_normalization_59", "moving_variance_initializer": {"class_name": "Ones", "config": {}}}, "name": "batch_normalization_59", "inbound_nodes": [[["conv2d_59", 0, 0, {}]]]}, {"class_name": "BatchNormalization", "config": {"axis": 3, "gamma_constraint": null, "beta_regularizer": null, "center": true, "gamma_regularizer": null, "beta_initializer": {"class_name": "Zeros", "config": {}}, "moving_mean_initializer": {"class_name": "Zeros", "config": {}}, "trainable": true, "scale": false, "beta_constraint": null, "gamma_initializer": {"class_name": "Ones", "config": {}}, "momentum": 0.99, "epsilon": 0.001, "name": "batch_normalization_60", "moving_variance_initializer": {"class_name": "Ones", "config": {}}}, "name": "batch_normalization_60", "inbound_nodes": [[["conv2d_60", 0, 0, {}]]]}, {"class_name": "Activation", "config": {"trainable": true, "activation": "relu", "name": "activation_51"}, "name": "activation_51", "inbound_nodes": [[["batch_normalization_51", 0, 0, {}]]]}, {"class_name": "Activation", "config": {"trainable": true, "activation": "relu", "name": "activation_54"}, "name": "activation_54", "inbound_nodes": [[["batch_normalization_54", 0, 0, {}]]]}, {"class_name": "Activation", "config": {"trainable": true, "activation": "relu", "name": "activation_59"}, "name": "activation_59", "inbound_nodes": [[["batch_normalization_59", 0, 0, {}]]]}, {"class_name": "Activation", "config": {"trainable": true, "activation": "relu", "name": "activation_60"}, "name": "activation_60", "inbound_nodes": [[["batch_normalization_60", 0, 0, {}]]]}, {"class_name": "Concatenate", "config": {"axis": 3, "trainable": true, "name": "mixed6"}, "name": "mixed6", "inbound_nodes": [[["activation_51", 0, 0, {}], ["activation_54", 0, 0, {}], ["activation_59", 0, 0, {}], ["activation_60", 0, 0, {}]]]}, {"class_name": "Conv2D", "config": {"bias_constraint": null, "kernel_initializer": {"class_name": "VarianceScaling", "config": {"mode": "fan_avg", "distribution": "uniform", "scale": 1.0, "seed": null}}, "kernel_size": [1, 1], "padding": "same", "data_format": "channels_last", "activity_regularizer": null, "filters": 192, "kernel_regularizer": null, "bias_regularizer": null, "use_bias": false, "kernel_constraint": null, "strides": [1, 1], "trainable": true, "dilation_rate": [1, 1], "activation": "linear", "name": "conv2d_65", "bias_initializer": {"class_name": "Zeros", "config": {}}}, "name": "conv2d_65", "inbound_nodes": [[["mixed6", 0, 0, {}]]]}, {"class_name": "BatchNormalization", "config": {"axis": 3, "gamma_constraint": null, "beta_regularizer": null, "center": true, "gamma_regularizer": null, "beta_initializer": {"class_name": "Zeros", "config": {}}, "moving_mean_initializer": {"class_name": "Zeros", "config": {}}, "trainable": true, "scale": false, "beta_constraint": null, "gamma_initializer": {"class_name": "Ones", "config": {}}, "momentum": 0.99, "epsilon": 0.001, "name": "batch_normalization_65", "moving_variance_initializer": {"class_name": "Ones", "config": {}}}, "name": "batch_normalization_65", "inbound_nodes": [[["conv2d_65", 0, 0, {}]]]}, {"class_name": "Activation", "config": {"trainable": true, "activation": "relu", "name": "activation_65"}, "name": "activation_65", "inbound_nodes": [[["batch_normalization_65", 0, 0, {}]]]}, {"class_name": "Conv2D", "config": {"bias_constraint": null, "kernel_initializer": {"class_name": "VarianceScaling", "config": {"mode": "fan_avg", "distribution": "uniform", "scale": 1.0, "seed": null}}, "kernel_size": [7, 1], "padding": "same", "data_format": "channels_last", "activity_regularizer": null, "filters": 192, "kernel_regularizer": null, "bias_regularizer": null, "use_bias": false, "kernel_constraint": null, "strides": [1, 1], "trainable": true, "dilation_rate": [1, 1], "activation": "linear", "name": "conv2d_66", "bias_initializer": {"class_name": "Zeros", "config": {}}}, "name": "conv2d_66", "inbound_nodes": [[["activation_65", 0, 0, {}]]]}, {"class_name": "BatchNormalization", "config": {"axis": 3, "gamma_constraint": null, "beta_regularizer": null, "center": true, "gamma_regularizer": null, "beta_initializer": {"class_name": "Zeros", "config": {}}, "moving_mean_initializer": {"class_name": "Zeros", "config": {}}, "trainable": true, "scale": false, "beta_constraint": null, "gamma_initializer": {"class_name": "Ones", "config": {}}, "momentum": 0.99, "epsilon": 0.001, "name": "batch_normalization_66", "moving_variance_initializer": {"class_name": "Ones", "config": {}}}, "name": "batch_normalization_66", "inbound_nodes": [[["conv2d_66", 0, 0, {}]]]}, {"class_name": "Activation", "config": {"trainable": true, "activation": "relu", "name": "activation_66"}, "name": "activation_66", "inbound_nodes": [[["batch_normalization_66", 0, 0, {}]]]}, {"class_name": "Conv2D", "config": {"bias_constraint": null, "kernel_initializer": {"class_name": "VarianceScaling", "config": {"mode": "fan_avg", "distribution": "uniform", "scale": 1.0, "seed": null}}, "kernel_size": [1, 1], "padding": "same", "data_format": "channels_last", "activity_regularizer": null, "filters": 192, "kernel_regularizer": null, "bias_regularizer": null, "use_bias": false, "kernel_constraint": null, "strides": [1, 1], "trainable": true, "dilation_rate": [1, 1], "activation": "linear", "name": "conv2d_62", "bias_initializer": {"class_name": "Zeros", "config": {}}}, "name": "conv2d_62", "inbound_nodes": [[["mixed6", 0, 0, {}]]]}, {"class_name": "Conv2D", "config": {"bias_constraint": null, "kernel_initializer": {"class_name": "VarianceScaling", "config": {"mode": "fan_avg", "distribution": "uniform", "scale": 1.0, "seed": null}}, "kernel_size": [1, 7], "padding": "same", "data_format": "channels_last", "activity_regularizer": null, "filters": 192, "kernel_regularizer": null, "bias_regularizer": null, "use_bias": false, "kernel_constraint": null, "strides": [1, 1], "trainable": true, "dilation_rate": [1, 1], "activation": "linear", "name": "conv2d_67", "bias_initializer": {"class_name": "Zeros", "config": {}}}, "name": "conv2d_67", "inbound_nodes": [[["activation_66", 0, 0, {}]]]}, {"class_name": "BatchNormalization", "config": {"axis": 3, "gamma_constraint": null, "beta_regularizer": null, "center": true, "gamma_regularizer": null, "beta_initializer": {"class_name": "Zeros", "config": {}}, "moving_mean_initializer": {"class_name": "Zeros", "config": {}}, "trainable": true, "scale": false, "beta_constraint": null, "gamma_initializer": {"class_name": "Ones", "config": {}}, "momentum": 0.99, "epsilon": 0.001, "name": "batch_normalization_62", "moving_variance_initializer": {"class_name": "Ones", "config": {}}}, "name": "batch_normalization_62", "inbound_nodes": [[["conv2d_62", 0, 0, {}]]]}, {"class_name": "BatchNormalization", "config": {"axis": 3, "gamma_constraint": null, "beta_regularizer": null, "center": true, "gamma_regularizer": null, "beta_initializer": {"class_name": "Zeros", "config": {}}, "moving_mean_initializer": {"class_name": "Zeros", "config": {}}, "trainable": true, "scale": false, "beta_constraint": null, "gamma_initializer": {"class_name": "Ones", "config": {}}, "momentum": 0.99, "epsilon": 0.001, "name": "batch_normalization_67", "moving_variance_initializer": {"class_name": "Ones", "config": {}}}, "name": "batch_normalization_67", "inbound_nodes": [[["conv2d_67", 0, 0, {}]]]}, {"class_name": "Activation", "config": {"trainable": true, "activation": "relu", "name": "activation_62"}, "name": "activation_62", "inbound_nodes": [[["batch_normalization_62", 0, 0, {}]]]}, {"class_name": "Activation", "config": {"trainable": true, "activation": "relu", "name": "activation_67"}, "name": "activation_67", "inbound_nodes": [[["batch_normalization_67", 0, 0, {}]]]}, {"class_name": "Conv2D", "config": {"bias_constraint": null, "kernel_initializer": {"class_name": "VarianceScaling", "config": {"mode": "fan_avg", "distribution": "uniform", "scale": 1.0, "seed": null}}, "kernel_size": [1, 7], "padding": "same", "data_format": "channels_last", "activity_regularizer": null, "filters": 192, "kernel_regularizer": null, "bias_regularizer": null, "use_bias": false, "kernel_constraint": null, "strides": [1, 1], "trainable": true, "dilation_rate": [1, 1], "activation": "linear", "name": "conv2d_63", "bias_initializer": {"class_name": "Zeros", "config": {}}}, "name": "conv2d_63", "inbound_nodes": [[["activation_62", 0, 0, {}]]]}, {"class_name": "Conv2D", "config": {"bias_constraint": null, "kernel_initializer": {"class_name": "VarianceScaling", "config": {"mode": "fan_avg", "distribution": "uniform", "scale": 1.0, "seed": null}}, "kernel_size": [7, 1], "padding": "same", "data_format": "channels_last", "activity_regularizer": null, "filters": 192, "kernel_regularizer": null, "bias_regularizer": null, "use_bias": false, "kernel_constraint": null, "strides": [1, 1], "trainable": true, "dilation_rate": [1, 1], "activation": "linear", "name": "conv2d_68", "bias_initializer": {"class_name": "Zeros", "config": {}}}, "name": "conv2d_68", "inbound_nodes": [[["activation_67", 0, 0, {}]]]}, {"class_name": "BatchNormalization", "config": {"axis": 3, "gamma_constraint": null, "beta_regularizer": null, "center": true, "gamma_regularizer": null, "beta_initializer": {"class_name": "Zeros", "config": {}}, "moving_mean_initializer": {"class_name": "Zeros", "config": {}}, "trainable": true, "scale": false, "beta_constraint": null, "gamma_initializer": {"class_name": "Ones", "config": {}}, "momentum": 0.99, "epsilon": 0.001, "name": "batch_normalization_63", "moving_variance_initializer": {"class_name": "Ones", "config": {}}}, "name": "batch_normalization_63", "inbound_nodes": [[["conv2d_63", 0, 0, {}]]]}, {"class_name": "BatchNormalization", "config": {"axis": 3, "gamma_constraint": null, "beta_regularizer": null, "center": true, "gamma_regularizer": null, "beta_initializer": {"class_name": "Zeros", "config": {}}, "moving_mean_initializer": {"class_name": "Zeros", "config": {}}, "trainable": true, "scale": false, "beta_constraint": null, "gamma_initializer": {"class_name": "Ones", "config": {}}, "momentum": 0.99, "epsilon": 0.001, "name": "batch_normalization_68", "moving_variance_initializer": {"class_name": "Ones", "config": {}}}, "name": "batch_normalization_68", "inbound_nodes": [[["conv2d_68", 0, 0, {}]]]}, {"class_name": "Activation", "config": {"trainable": true, "activation": "relu", "name": "activation_63"}, "name": "activation_63", "inbound_nodes": [[["batch_normalization_63", 0, 0, {}]]]}, {"class_name": "Activation", "config": {"trainable": true, "activation": "relu", "name": "activation_68"}, "name": "activation_68", "inbound_nodes": [[["batch_normalization_68", 0, 0, {}]]]}, {"class_name": "AveragePooling2D", "config": {"strides": [1, 1], "trainable": true, "padding": "same", "data_format": "channels_last", "name": "average_pooling2d_7", "pool_size": [3, 3]}, "name": "average_pooling2d_7", "inbound_nodes": [[["mixed6", 0, 0, {}]]]}, {"class_name": "Conv2D", "config": {"bias_constraint": null, "kernel_initializer": {"class_name": "VarianceScaling", "config": {"mode": "fan_avg", "distribution": "uniform", "scale": 1.0, "seed": null}}, "kernel_size": [1, 1], "padding": "same", "data_format": "channels_last", "activity_regularizer": null, "filters": 192, "kernel_regularizer": null, "bias_regularizer": null, "use_bias": false, "kernel_constraint": null, "strides": [1, 1], "trainable": true, "dilation_rate": [1, 1], "activation": "linear", "name": "conv2d_61", "bias_initializer": {"class_name": "Zeros", "config": {}}}, "name": "conv2d_61", "inbound_nodes": [[["mixed6", 0, 0, {}]]]}, {"class_name": "Conv2D", "config": {"bias_constraint": null, "kernel_initializer": {"class_name": "VarianceScaling", "config": {"mode": "fan_avg", "distribution": "uniform", "scale": 1.0, "seed": null}}, "kernel_size": [7, 1], "padding": "same", "data_format": "channels_last", "activity_regularizer": null, "filters": 192, "kernel_regularizer": null, "bias_regularizer": null, "use_bias": false, "kernel_constraint": null, "strides": [1, 1], "trainable": true, "dilation_rate": [1, 1], "activation": "linear", "name": "conv2d_64", "bias_initializer": {"class_name": "Zeros", "config": {}}}, "name": "conv2d_64", "inbound_nodes": [[["activation_63", 0, 0, {}]]]}, {"class_name": "Conv2D", "config": {"bias_constraint": null, "kernel_initializer": {"class_name": "VarianceScaling", "config": {"mode": "fan_avg", "distribution": "uniform", "scale": 1.0, "seed": null}}, "kernel_size": [1, 7], "padding": "same", "data_format": "channels_last", "activity_regularizer": null, "filters": 192, "kernel_regularizer": null, "bias_regularizer": null, "use_bias": false, "kernel_constraint": null, "strides": [1, 1], "trainable": true, "dilation_rate": [1, 1], "activation": "linear", "name": "conv2d_69", "bias_initializer": {"class_name": "Zeros", "config": {}}}, "name": "conv2d_69", "inbound_nodes": [[["activation_68", 0, 0, {}]]]}, {"class_name": "Conv2D", "config": {"bias_constraint": null, "kernel_initializer": {"class_name": "VarianceScaling", "config": {"mode": "fan_avg", "distribution": "uniform", "scale": 1.0, "seed": null}}, "kernel_size": [1, 1], "padding": "same", "data_format": "channels_last", "activity_regularizer": null, "filters": 192, "kernel_regularizer": null, "bias_regularizer": null, "use_bias": false, "kernel_constraint": null, "strides": [1, 1], "trainable": true, "dilation_rate": [1, 1], "activation": "linear", "name": "conv2d_70", "bias_initializer": {"class_name": "Zeros", "config": {}}}, "name": "conv2d_70", "inbound_nodes": [[["average_pooling2d_7", 0, 0, {}]]]}, {"class_name": "BatchNormalization", "config": {"axis": 3, "gamma_constraint": null, "beta_regularizer": null, "center": true, "gamma_regularizer": null, "beta_initializer": {"class_name": "Zeros", "config": {}}, "moving_mean_initializer": {"class_name": "Zeros", "config": {}}, "trainable": true, "scale": false, "beta_constraint": null, "gamma_initializer": {"class_name": "Ones", "config": {}}, "momentum": 0.99, "epsilon": 0.001, "name": "batch_normalization_61", "moving_variance_initializer": {"class_name": "Ones", "config": {}}}, "name": "batch_normalization_61", "inbound_nodes": [[["conv2d_61", 0, 0, {}]]]}, {"class_name": "BatchNormalization", "config": {"axis": 3, "gamma_constraint": null, "beta_regularizer": null, "center": true, "gamma_regularizer": null, "beta_initializer": {"class_name": "Zeros", "config": {}}, "moving_mean_initializer": {"class_name": "Zeros", "config": {}}, "trainable": true, "scale": false, "beta_constraint": null, "gamma_initializer": {"class_name": "Ones", "config": {}}, "momentum": 0.99, "epsilon": 0.001, "name": "batch_normalization_64", "moving_variance_initializer": {"class_name": "Ones", "config": {}}}, "name": "batch_normalization_64", "inbound_nodes": [[["conv2d_64", 0, 0, {}]]]}, {"class_name": "BatchNormalization", "config": {"axis": 3, "gamma_constraint": null, "beta_regularizer": null, "center": true, "gamma_regularizer": null, "beta_initializer": {"class_name": "Zeros", "config": {}}, "moving_mean_initializer": {"class_name": "Zeros", "config": {}}, "trainable": true, "scale": false, "beta_constraint": null, "gamma_initializer": {"class_name": "Ones", "config": {}}, "momentum": 0.99, "epsilon": 0.001, "name": "batch_normalization_69", "moving_variance_initializer": {"class_name": "Ones", "config": {}}}, "name": "batch_normalization_69", "inbound_nodes": [[["conv2d_69", 0, 0, {}]]]}, {"class_name": "BatchNormalization", "config": {"axis": 3, "gamma_constraint": null, "beta_regularizer": null, "center": true, "gamma_regularizer": null, "beta_initializer": {"class_name": "Zeros", "config": {}}, "moving_mean_initializer": {"class_name": "Zeros", "config": {}}, "trainable": true, "scale": false, "beta_constraint": null, "gamma_initializer": {"class_name": "Ones", "config": {}}, "momentum": 0.99, "epsilon": 0.001, "name": "batch_normalization_70", "moving_variance_initializer": {"class_name": "Ones", "config": {}}}, "name": "batch_normalization_70", "inbound_nodes": [[["conv2d_70", 0, 0, {}]]]}, {"class_name": "Activation", "config": {"trainable": true, "activation": "relu", "name": "activation_61"}, "name": "activation_61", "inbound_nodes": [[["batch_normalization_61", 0, 0, {}]]]}, {"class_name": "Activation", "config": {"trainable": true, "activation": "relu", "name": "activation_64"}, "name": "activation_64", "inbound_nodes": [[["batch_normalization_64", 0, 0, {}]]]}, {"class_name": "Activation", "config": {"trainable": true, "activation": "relu", "name": "activation_69"}, "name": "activation_69", "inbound_nodes": [[["batch_normalization_69", 0, 0, {}]]]}, {"class_name": "Activation", "config": {"trainable": true, "activation": "relu", "name": "activation_70"}, "name": "activation_70", "inbound_nodes": [[["batch_normalization_70", 0, 0, {}]]]}, {"class_name": "Concatenate", "config": {"axis": 3, "trainable": true, "name": "mixed7"}, "name": "mixed7", "inbound_nodes": [[["activation_61", 0, 0, {}], ["activation_64", 0, 0, {}], ["activation_69", 0, 0, {}], ["activation_70", 0, 0, {}]]]}, {"class_name": "Conv2D", "config": {"bias_constraint": null, "kernel_initializer": {"class_name": "VarianceScaling", "config": {"mode": "fan_avg", "distribution": "uniform", "scale": 1.0, "seed": null}}, "kernel_size": [1, 1], "padding": "same", "data_format": "channels_last", "activity_regularizer": null, "filters": 192, "kernel_regularizer": null, "bias_regularizer": null, "use_bias": false, "kernel_constraint": null, "strides": [1, 1], "trainable": true, "dilation_rate": [1, 1], "activation": "linear", "name": "conv2d_73", "bias_initializer": {"class_name": "Zeros", "config": {}}}, "name": "conv2d_73", "inbound_nodes": [[["mixed7", 0, 0, {}]]]}, {"class_name": "BatchNormalization", "config": {"axis": 3, "gamma_constraint": null, "beta_regularizer": null, "center": true, "gamma_regularizer": null, "beta_initializer": {"class_name": "Zeros", "config": {}}, "moving_mean_initializer": {"class_name": "Zeros", "config": {}}, "trainable": true, "scale": false, "beta_constraint": null, "gamma_initializer": {"class_name": "Ones", "config": {}}, "momentum": 0.99, "epsilon": 0.001, "name": "batch_normalization_73", "moving_variance_initializer": {"class_name": "Ones", "config": {}}}, "name": "batch_normalization_73", "inbound_nodes": [[["conv2d_73", 0, 0, {}]]]}, {"class_name": "Activation", "config": {"trainable": true, "activation": "relu", "name": "activation_73"}, "name": "activation_73", "inbound_nodes": [[["batch_normalization_73", 0, 0, {}]]]}, {"class_name": "Conv2D", "config": {"bias_constraint": null, "kernel_initializer": {"class_name": "VarianceScaling", "config": {"mode": "fan_avg", "distribution": "uniform", "scale": 1.0, "seed": null}}, "kernel_size": [1, 7], "padding": "same", "data_format": "channels_last", "activity_regularizer": null, "filters": 192, "kernel_regularizer": null, "bias_regularizer": null, "use_bias": false, "kernel_constraint": null, "strides": [1, 1], "trainable": true, "dilation_rate": [1, 1], "activation": "linear", "name": "conv2d_74", "bias_initializer": {"class_name": "Zeros", "config": {}}}, "name": "conv2d_74", "inbound_nodes": [[["activation_73", 0, 0, {}]]]}, {"class_name": "BatchNormalization", "config": {"axis": 3, "gamma_constraint": null, "beta_regularizer": null, "center": true, "gamma_regularizer": null, "beta_initializer": {"class_name": "Zeros", "config": {}}, "moving_mean_initializer": {"class_name": "Zeros", "config": {}}, "trainable": true, "scale": false, "beta_constraint": null, "gamma_initializer": {"class_name": "Ones", "config": {}}, "momentum": 0.99, "epsilon": 0.001, "name": "batch_normalization_74", "moving_variance_initializer": {"class_name": "Ones", "config": {}}}, "name": "batch_normalization_74", "inbound_nodes": [[["conv2d_74", 0, 0, {}]]]}, {"class_name": "Activation", "config": {"trainable": true, "activation": "relu", "name": "activation_74"}, "name": "activation_74", "inbound_nodes": [[["batch_normalization_74", 0, 0, {}]]]}, {"class_name": "Conv2D", "config": {"bias_constraint": null, "kernel_initializer": {"class_name": "VarianceScaling", "config": {"mode": "fan_avg", "distribution": "uniform", "scale": 1.0, "seed": null}}, "kernel_size": [1, 1], "padding": "same", "data_format": "channels_last", "activity_regularizer": null, "filters": 192, "kernel_regularizer": null, "bias_regularizer": null, "use_bias": false, "kernel_constraint": null, "strides": [1, 1], "trainable": true, "dilation_rate": [1, 1], "activation": "linear", "name": "conv2d_71", "bias_initializer": {"class_name": "Zeros", "config": {}}}, "name": "conv2d_71", "inbound_nodes": [[["mixed7", 0, 0, {}]]]}, {"class_name": "Conv2D", "config": {"bias_constraint": null, "kernel_initializer": {"class_name": "VarianceScaling", "config": {"mode": "fan_avg", "distribution": "uniform", "scale": 1.0, "seed": null}}, "kernel_size": [7, 1], "padding": "same", "data_format": "channels_last", "activity_regularizer": null, "filters": 192, "kernel_regularizer": null, "bias_regularizer": null, "use_bias": false, "kernel_constraint": null, "strides": [1, 1], "trainable": true, "dilation_rate": [1, 1], "activation": "linear", "name": "conv2d_75", "bias_initializer": {"class_name": "Zeros", "config": {}}}, "name": "conv2d_75", "inbound_nodes": [[["activation_74", 0, 0, {}]]]}, {"class_name": "BatchNormalization", "config": {"axis": 3, "gamma_constraint": null, "beta_regularizer": null, "center": true, "gamma_regularizer": null, "beta_initializer": {"class_name": "Zeros", "config": {}}, "moving_mean_initializer": {"class_name": "Zeros", "config": {}}, "trainable": true, "scale": false, "beta_constraint": null, "gamma_initializer": {"class_name": "Ones", "config": {}}, "momentum": 0.99, "epsilon": 0.001, "name": "batch_normalization_71", "moving_variance_initializer": {"class_name": "Ones", "config": {}}}, "name": "batch_normalization_71", "inbound_nodes": [[["conv2d_71", 0, 0, {}]]]}, {"class_name": "BatchNormalization", "config": {"axis": 3, "gamma_constraint": null, "beta_regularizer": null, "center": true, "gamma_regularizer": null, "beta_initializer": {"class_name": "Zeros", "config": {}}, "moving_mean_initializer": {"class_name": "Zeros", "config": {}}, "trainable": true, "scale": false, "beta_constraint": null, "gamma_initializer": {"class_name": "Ones", "config": {}}, "momentum": 0.99, "epsilon": 0.001, "name": "batch_normalization_75", "moving_variance_initializer": {"class_name": "Ones", "config": {}}}, "name": "batch_normalization_75", "inbound_nodes": [[["conv2d_75", 0, 0, {}]]]}, {"class_name": "Activation", "config": {"trainable": true, "activation": "relu", "name": "activation_71"}, "name": "activation_71", "inbound_nodes": [[["batch_normalization_71", 0, 0, {}]]]}, {"class_name": "Activation", "config": {"trainable": true, "activation": "relu", "name": "activation_75"}, "name": "activation_75", "inbound_nodes": [[["batch_normalization_75", 0, 0, {}]]]}, {"class_name": "Conv2D", "config": {"bias_constraint": null, "kernel_initializer": {"class_name": "VarianceScaling", "config": {"mode": "fan_avg", "distribution": "uniform", "scale": 1.0, "seed": null}}, "kernel_size": [3, 3], "padding": "valid", "data_format": "channels_last", "activity_regularizer": null, "filters": 320, "kernel_regularizer": null, "bias_regularizer": null, "use_bias": false, "kernel_constraint": null, "strides": [2, 2], "trainable": true, "dilation_rate": [1, 1], "activation": "linear", "name": "conv2d_72", "bias_initializer": {"class_name": "Zeros", "config": {}}}, "name": "conv2d_72", "inbound_nodes": [[["activation_71", 0, 0, {}]]]}, {"class_name": "Conv2D", "config": {"bias_constraint": null, "kernel_initializer": {"class_name": "VarianceScaling", "config": {"mode": "fan_avg", "distribution": "uniform", "scale": 1.0, "seed": null}}, "kernel_size": [3, 3], "padding": "valid", "data_format": "channels_last", "activity_regularizer": null, "filters": 192, "kernel_regularizer": null, "bias_regularizer": null, "use_bias": false, "kernel_constraint": null, "strides": [2, 2], "trainable": true, "dilation_rate": [1, 1], "activation": "linear", "name": "conv2d_76", "bias_initializer": {"class_name": "Zeros", "config": {}}}, "name": "conv2d_76", "inbound_nodes": [[["activation_75", 0, 0, {}]]]}, {"class_name": "BatchNormalization", "config": {"axis": 3, "gamma_constraint": null, "beta_regularizer": null, "center": true, "gamma_regularizer": null, "beta_initializer": {"class_name": "Zeros", "config": {}}, "moving_mean_initializer": {"class_name": "Zeros", "config": {}}, "trainable": true, "scale": false, "beta_constraint": null, "gamma_initializer": {"class_name": "Ones", "config": {}}, "momentum": 0.99, "epsilon": 0.001, "name": "batch_normalization_72", "moving_variance_initializer": {"class_name": "Ones", "config": {}}}, "name": "batch_normalization_72", "inbound_nodes": [[["conv2d_72", 0, 0, {}]]]}, {"class_name": "BatchNormalization", "config": {"axis": 3, "gamma_constraint": null, "beta_regularizer": null, "center": true, "gamma_regularizer": null, "beta_initializer": {"class_name": "Zeros", "config": {}}, "moving_mean_initializer": {"class_name": "Zeros", "config": {}}, "trainable": true, "scale": false, "beta_constraint": null, "gamma_initializer": {"class_name": "Ones", "config": {}}, "momentum": 0.99, "epsilon": 0.001, "name": "batch_normalization_76", "moving_variance_initializer": {"class_name": "Ones", "config": {}}}, "name": "batch_normalization_76", "inbound_nodes": [[["conv2d_76", 0, 0, {}]]]}, {"class_name": "Activation", "config": {"trainable": true, "activation": "relu", "name": "activation_72"}, "name": "activation_72", "inbound_nodes": [[["batch_normalization_72", 0, 0, {}]]]}, {"class_name": "Activation", "config": {"trainable": true, "activation": "relu", "name": "activation_76"}, "name": "activation_76", "inbound_nodes": [[["batch_normalization_76", 0, 0, {}]]]}, {"class_name": "MaxPooling2D", "config": {"strides": [2, 2], "trainable": true, "padding": "valid", "data_format": "channels_last", "name": "max_pooling2d_4", "pool_size": [3, 3]}, "name": "max_pooling2d_4", "inbound_nodes": [[["mixed7", 0, 0, {}]]]}, {"class_name": "Concatenate", "config": {"axis": 3, "trainable": true, "name": "mixed8"}, "name": "mixed8", "inbound_nodes": [[["activation_72", 0, 0, {}], ["activation_76", 0, 0, {}], ["max_pooling2d_4", 0, 0, {}]]]}, {"class_name": "Conv2D", "config": {"bias_constraint": null, "kernel_initializer": {"class_name": "VarianceScaling", "config": {"mode": "fan_avg", "distribution": "uniform", "scale": 1.0, "seed": null}}, "kernel_size": [1, 1], "padding": "same", "data_format": "channels_last", "activity_regularizer": null, "filters": 448, "kernel_regularizer": null, "bias_regularizer": null, "use_bias": false, "kernel_constraint": null, "strides": [1, 1], "trainable": true, "dilation_rate": [1, 1], "activation": "linear", "name": "conv2d_81", "bias_initializer": {"class_name": "Zeros", "config": {}}}, "name": "conv2d_81", "inbound_nodes": [[["mixed8", 0, 0, {}]]]}, {"class_name": "BatchNormalization", "config": {"axis": 3, "gamma_constraint": null, "beta_regularizer": null, "center": true, "gamma_regularizer": null, "beta_initializer": {"class_name": "Zeros", "config": {}}, "moving_mean_initializer": {"class_name": "Zeros", "config": {}}, "trainable": true, "scale": false, "beta_constraint": null, "gamma_initializer": {"class_name": "Ones", "config": {}}, "momentum": 0.99, "epsilon": 0.001, "name": "batch_normalization_81", "moving_variance_initializer": {"class_name": "Ones", "config": {}}}, "name": "batch_normalization_81", "inbound_nodes": [[["conv2d_81", 0, 0, {}]]]}, {"class_name": "Activation", "config": {"trainable": true, "activation": "relu", "name": "activation_81"}, "name": "activation_81", "inbound_nodes": [[["batch_normalization_81", 0, 0, {}]]]}, {"class_name": "Conv2D", "config": {"bias_constraint": null, "kernel_initializer": {"class_name": "VarianceScaling", "config": {"mode": "fan_avg", "distribution": "uniform", "scale": 1.0, "seed": null}}, "kernel_size": [1, 1], "padding": "same", "data_format": "channels_last", "activity_regularizer": null, "filters": 384, "kernel_regularizer": null, "bias_regularizer": null, "use_bias": false, "kernel_constraint": null, "strides": [1, 1], "trainable": true, "dilation_rate": [1, 1], "activation": "linear", "name": "conv2d_78", "bias_initializer": {"class_name": "Zeros", "config": {}}}, "name": "conv2d_78", "inbound_nodes": [[["mixed8", 0, 0, {}]]]}, {"class_name": "Conv2D", "config": {"bias_constraint": null, "kernel_initializer": {"class_name": "VarianceScaling", "config": {"mode": "fan_avg", "distribution": "uniform", "scale": 1.0, "seed": null}}, "kernel_size": [3, 3], "padding": "same", "data_format": "channels_last", "activity_regularizer": null, "filters": 384, "kernel_regularizer": null, "bias_regularizer": null, "use_bias": false, "kernel_constraint": null, "strides": [1, 1], "trainable": true, "dilation_rate": [1, 1], "activation": "linear", "name": "conv2d_82", "bias_initializer": {"class_name": "Zeros", "config": {}}}, "name": "conv2d_82", "inbound_nodes": [[["activation_81", 0, 0, {}]]]}, {"class_name": "BatchNormalization", "config": {"axis": 3, "gamma_constraint": null, "beta_regularizer": null, "center": true, "gamma_regularizer": null, "beta_initializer": {"class_name": "Zeros", "config": {}}, "moving_mean_initializer": {"class_name": "Zeros", "config": {}}, "trainable": true, "scale": false, "beta_constraint": null, "gamma_initializer": {"class_name": "Ones", "config": {}}, "momentum": 0.99, "epsilon": 0.001, "name": "batch_normalization_78", "moving_variance_initializer": {"class_name": "Ones", "config": {}}}, "name": "batch_normalization_78", "inbound_nodes": [[["conv2d_78", 0, 0, {}]]]}, {"class_name": "BatchNormalization", "config": {"axis": 3, "gamma_constraint": null, "beta_regularizer": null, "center": true, "gamma_regularizer": null, "beta_initializer": {"class_name": "Zeros", "config": {}}, "moving_mean_initializer": {"class_name": "Zeros", "config": {}}, "trainable": true, "scale": false, "beta_constraint": null, "gamma_initializer": {"class_name": "Ones", "config": {}}, "momentum": 0.99, "epsilon": 0.001, "name": "batch_normalization_82", "moving_variance_initializer": {"class_name": "Ones", "config": {}}}, "name": "batch_normalization_82", "inbound_nodes": [[["conv2d_82", 0, 0, {}]]]}, {"class_name": "Activation", "config": {"trainable": true, "activation": "relu", "name": "activation_78"}, "name": "activation_78", "inbound_nodes": [[["batch_normalization_78", 0, 0, {}]]]}, {"class_name": "Activation", "config": {"trainable": true, "activation": "relu", "name": "activation_82"}, "name": "activation_82", "inbound_nodes": [[["batch_normalization_82", 0, 0, {}]]]}, {"class_name": "Conv2D", "config": {"bias_constraint": null, "kernel_initializer": {"class_name": "VarianceScaling", "config": {"mode": "fan_avg", "distribution": "uniform", "scale": 1.0, "seed": null}}, "kernel_size": [1, 3], "padding": "same", "data_format": "channels_last", "activity_regularizer": null, "filters": 384, "kernel_regularizer": null, "bias_regularizer": null, "use_bias": false, "kernel_constraint": null, "strides": [1, 1], "trainable": true, "dilation_rate": [1, 1], "activation": "linear", "name": "conv2d_79", "bias_initializer": {"class_name": "Zeros", "config": {}}}, "name": "conv2d_79", "inbound_nodes": [[["activation_78", 0, 0, {}]]]}, {"class_name": "Conv2D", "config": {"bias_constraint": null, "kernel_initializer": {"class_name": "VarianceScaling", "config": {"mode": "fan_avg", "distribution": "uniform", "scale": 1.0, "seed": null}}, "kernel_size": [3, 1], "padding": "same", "data_format": "channels_last", "activity_regularizer": null, "filters": 384, "kernel_regularizer": null, "bias_regularizer": null, "use_bias": false, "kernel_constraint": null, "strides": [1, 1], "trainable": true, "dilation_rate": [1, 1], "activation": "linear", "name": "conv2d_80", "bias_initializer": {"class_name": "Zeros", "config": {}}}, "name": "conv2d_80", "inbound_nodes": [[["activation_78", 0, 0, {}]]]}, {"class_name": "Conv2D", "config": {"bias_constraint": null, "kernel_initializer": {"class_name": "VarianceScaling", "config": {"mode": "fan_avg", "distribution": "uniform", "scale": 1.0, "seed": null}}, "kernel_size": [1, 3], "padding": "same", "data_format": "channels_last", "activity_regularizer": null, "filters": 384, "kernel_regularizer": null, "bias_regularizer": null, "use_bias": false, "kernel_constraint": null, "strides": [1, 1], "trainable": true, "dilation_rate": [1, 1], "activation": "linear", "name": "conv2d_83", "bias_initializer": {"class_name": "Zeros", "config": {}}}, "name": "conv2d_83", "inbound_nodes": [[["activation_82", 0, 0, {}]]]}, {"class_name": "Conv2D", "config": {"bias_constraint": null, "kernel_initializer": {"class_name": "VarianceScaling", "config": {"mode": "fan_avg", "distribution": "uniform", "scale": 1.0, "seed": null}}, "kernel_size": [3, 1], "padding": "same", "data_format": "channels_last", "activity_regularizer": null, "filters": 384, "kernel_regularizer": null, "bias_regularizer": null, "use_bias": false, "kernel_constraint": null, "strides": [1, 1], "trainable": true, "dilation_rate": [1, 1], "activation": "linear", "name": "conv2d_84", "bias_initializer": {"class_name": "Zeros", "config": {}}}, "name": "conv2d_84", "inbound_nodes": [[["activation_82", 0, 0, {}]]]}, {"class_name": "AveragePooling2D", "config": {"strides": [1, 1], "trainable": true, "padding": "same", "data_format": "channels_last", "name": "average_pooling2d_8", "pool_size": [3, 3]}, "name": "average_pooling2d_8", "inbound_nodes": [[["mixed8", 0, 0, {}]]]}, {"class_name": "Conv2D", "config": {"bias_constraint": null, "kernel_initializer": {"class_name": "VarianceScaling", "config": {"mode": "fan_avg", "distribution": "uniform", "scale": 1.0, "seed": null}}, "kernel_size": [1, 1], "padding": "same", "data_format": "channels_last", "activity_regularizer": null, "filters": 320, "kernel_regularizer": null, "bias_regularizer": null, "use_bias": false, "kernel_constraint": null, "strides": [1, 1], "trainable": true, "dilation_rate": [1, 1], "activation": "linear", "name": "conv2d_77", "bias_initializer": {"class_name": "Zeros", "config": {}}}, "name": "conv2d_77", "inbound_nodes": [[["mixed8", 0, 0, {}]]]}, {"class_name": "BatchNormalization", "config": {"axis": 3, "gamma_constraint": null, "beta_regularizer": null, "center": true, "gamma_regularizer": null, "beta_initializer": {"class_name": "Zeros", "config": {}}, "moving_mean_initializer": {"class_name": "Zeros", "config": {}}, "trainable": true, "scale": false, "beta_constraint": null, "gamma_initializer": {"class_name": "Ones", "config": {}}, "momentum": 0.99, "epsilon": 0.001, "name": "batch_normalization_79", "moving_variance_initializer": {"class_name": "Ones", "config": {}}}, "name": "batch_normalization_79", "inbound_nodes": [[["conv2d_79", 0, 0, {}]]]}, {"class_name": "BatchNormalization", "config": {"axis": 3, "gamma_constraint": null, "beta_regularizer": null, "center": true, "gamma_regularizer": null, "beta_initializer": {"class_name": "Zeros", "config": {}}, "moving_mean_initializer": {"class_name": "Zeros", "config": {}}, "trainable": true, "scale": false, "beta_constraint": null, "gamma_initializer": {"class_name": "Ones", "config": {}}, "momentum": 0.99, "epsilon": 0.001, "name": "batch_normalization_80", "moving_variance_initializer": {"class_name": "Ones", "config": {}}}, "name": "batch_normalization_80", "inbound_nodes": [[["conv2d_80", 0, 0, {}]]]}, {"class_name": "BatchNormalization", "config": {"axis": 3, "gamma_constraint": null, "beta_regularizer": null, "center": true, "gamma_regularizer": null, "beta_initializer": {"class_name": "Zeros", "config": {}}, "moving_mean_initializer": {"class_name": "Zeros", "config": {}}, "trainable": true, "scale": false, "beta_constraint": null, "gamma_initializer": {"class_name": "Ones", "config": {}}, "momentum": 0.99, "epsilon": 0.001, "name": "batch_normalization_83", "moving_variance_initializer": {"class_name": "Ones", "config": {}}}, "name": "batch_normalization_83", "inbound_nodes": [[["conv2d_83", 0, 0, {}]]]}, {"class_name": "BatchNormalization", "config": {"axis": 3, "gamma_constraint": null, "beta_regularizer": null, "center": true, "gamma_regularizer": null, "beta_initializer": {"class_name": "Zeros", "config": {}}, "moving_mean_initializer": {"class_name": "Zeros", "config": {}}, "trainable": true, "scale": false, "beta_constraint": null, "gamma_initializer": {"class_name": "Ones", "config": {}}, "momentum": 0.99, "epsilon": 0.001, "name": "batch_normalization_84", "moving_variance_initializer": {"class_name": "Ones", "config": {}}}, "name": "batch_normalization_84", "inbound_nodes": [[["conv2d_84", 0, 0, {}]]]}, {"class_name": "Conv2D", "config": {"bias_constraint": null, "kernel_initializer": {"class_name": "VarianceScaling", "config": {"mode": "fan_avg", "distribution": "uniform", "scale": 1.0, "seed": null}}, "kernel_size": [1, 1], "padding": "same", "data_format": "channels_last", "activity_regularizer": null, "filters": 192, "kernel_regularizer": null, "bias_regularizer": null, "use_bias": false, "kernel_constraint": null, "strides": [1, 1], "trainable": true, "dilation_rate": [1, 1], "activation": "linear", "name": "conv2d_85", "bias_initializer": {"class_name": "Zeros", "config": {}}}, "name": "conv2d_85", "inbound_nodes": [[["average_pooling2d_8", 0, 0, {}]]]}, {"class_name": "BatchNormalization", "config": {"axis": 3, "gamma_constraint": null, "beta_regularizer": null, "center": true, "gamma_regularizer": null, "beta_initializer": {"class_name": "Zeros", "config": {}}, "moving_mean_initializer": {"class_name": "Zeros", "config": {}}, "trainable": true, "scale": false, "beta_constraint": null, "gamma_initializer": {"class_name": "Ones", "config": {}}, "momentum": 0.99, "epsilon": 0.001, "name": "batch_normalization_77", "moving_variance_initializer": {"class_name": "Ones", "config": {}}}, "name": "batch_normalization_77", "inbound_nodes": [[["conv2d_77", 0, 0, {}]]]}, {"class_name": "Activation", "config": {"trainable": true, "activation": "relu", "name": "activation_79"}, "name": "activation_79", "inbound_nodes": [[["batch_normalization_79", 0, 0, {}]]]}, {"class_name": "Activation", "config": {"trainable": true, "activation": "relu", "name": "activation_80"}, "name": "activation_80", "inbound_nodes": [[["batch_normalization_80", 0, 0, {}]]]}, {"class_name": "Activation", "config": {"trainable": true, "activation": "relu", "name": "activation_83"}, "name": "activation_83", "inbound_nodes": [[["batch_normalization_83", 0, 0, {}]]]}, {"class_name": "Activation", "config": {"trainable": true, "activation": "relu", "name": "activation_84"}, "name": "activation_84", "inbound_nodes": [[["batch_normalization_84", 0, 0, {}]]]}, {"class_name": "BatchNormalization", "config": {"axis": 3, "gamma_constraint": null, "beta_regularizer": null, "center": true, "gamma_regularizer": null, "beta_initializer": {"class_name": "Zeros", "config": {}}, "moving_mean_initializer": {"class_name": "Zeros", "config": {}}, "trainable": true, "scale": false, "beta_constraint": null, "gamma_initializer": {"class_name": "Ones", "config": {}}, "momentum": 0.99, "epsilon": 0.001, "name": "batch_normalization_85", "moving_variance_initializer": {"class_name": "Ones", "config": {}}}, "name": "batch_normalization_85", "inbound_nodes": [[["conv2d_85", 0, 0, {}]]]}, {"class_name": "Activation", "config": {"trainable": true, "activation": "relu", "name": "activation_77"}, "name": "activation_77", "inbound_nodes": [[["batch_normalization_77", 0, 0, {}]]]}, {"class_name": "Concatenate", "config": {"axis": 3, "trainable": true, "name": "mixed9_0"}, "name": "mixed9_0", "inbound_nodes": [[["activation_79", 0, 0, {}], ["activation_80", 0, 0, {}]]]}, {"class_name": "Concatenate", "config": {"axis": 3, "trainable": true, "name": "concatenate_1"}, "name": "concatenate_1", "inbound_nodes": [[["activation_83", 0, 0, {}], ["activation_84", 0, 0, {}]]]}, {"class_name": "Activation", "config": {"trainable": true, "activation": "relu", "name": "activation_85"}, "name": "activation_85", "inbound_nodes": [[["batch_normalization_85", 0, 0, {}]]]}, {"class_name": "Concatenate", "config": {"axis": 3, "trainable": true, "name": "mixed9"}, "name": "mixed9", "inbound_nodes": [[["activation_77", 0, 0, {}], ["mixed9_0", 0, 0, {}], ["concatenate_1", 0, 0, {}], ["activation_85", 0, 0, {}]]]}, {"class_name": "Conv2D", "config": {"bias_constraint": null, "kernel_initializer": {"class_name": "VarianceScaling", "config": {"mode": "fan_avg", "distribution": "uniform", "scale": 1.0, "seed": null}}, "kernel_size": [1, 1], "padding": "same", "data_format": "channels_last", "activity_regularizer": null, "filters": 448, "kernel_regularizer": null, "bias_regularizer": null, "use_bias": false, "kernel_constraint": null, "strides": [1, 1], "trainable": true, "dilation_rate": [1, 1], "activation": "linear", "name": "conv2d_90", "bias_initializer": {"class_name": "Zeros", "config": {}}}, "name": "conv2d_90", "inbound_nodes": [[["mixed9", 0, 0, {}]]]}, {"class_name": "BatchNormalization", "config": {"axis": 3, "gamma_constraint": null, "beta_regularizer": null, "center": true, "gamma_regularizer": null, "beta_initializer": {"class_name": "Zeros", "config": {}}, "moving_mean_initializer": {"class_name": "Zeros", "config": {}}, "trainable": true, "scale": false, "beta_constraint": null, "gamma_initializer": {"class_name": "Ones", "config": {}}, "momentum": 0.99, "epsilon": 0.001, "name": "batch_normalization_90", "moving_variance_initializer": {"class_name": "Ones", "config": {}}}, "name": "batch_normalization_90", "inbound_nodes": [[["conv2d_90", 0, 0, {}]]]}, {"class_name": "Activation", "config": {"trainable": true, "activation": "relu", "name": "activation_90"}, "name": "activation_90", "inbound_nodes": [[["batch_normalization_90", 0, 0, {}]]]}, {"class_name": "Conv2D", "config": {"bias_constraint": null, "kernel_initializer": {"class_name": "VarianceScaling", "config": {"mode": "fan_avg", "distribution": "uniform", "scale": 1.0, "seed": null}}, "kernel_size": [1, 1], "padding": "same", "data_format": "channels_last", "activity_regularizer": null, "filters": 384, "kernel_regularizer": null, "bias_regularizer": null, "use_bias": false, "kernel_constraint": null, "strides": [1, 1], "trainable": true, "dilation_rate": [1, 1], "activation": "linear", "name": "conv2d_87", "bias_initializer": {"class_name": "Zeros", "config": {}}}, "name": "conv2d_87", "inbound_nodes": [[["mixed9", 0, 0, {}]]]}, {"class_name": "Conv2D", "config": {"bias_constraint": null, "kernel_initializer": {"class_name": "VarianceScaling", "config": {"mode": "fan_avg", "distribution": "uniform", "scale": 1.0, "seed": null}}, "kernel_size": [3, 3], "padding": "same", "data_format": "channels_last", "activity_regularizer": null, "filters": 384, "kernel_regularizer": null, "bias_regularizer": null, "use_bias": false, "kernel_constraint": null, "strides": [1, 1], "trainable": true, "dilation_rate": [1, 1], "activation": "linear", "name": "conv2d_91", "bias_initializer": {"class_name": "Zeros", "config": {}}}, "name": "conv2d_91", "inbound_nodes": [[["activation_90", 0, 0, {}]]]}, {"class_name": "BatchNormalization", "config": {"axis": 3, "gamma_constraint": null, "beta_regularizer": null, "center": true, "gamma_regularizer": null, "beta_initializer": {"class_name": "Zeros", "config": {}}, "moving_mean_initializer": {"class_name": "Zeros", "config": {}}, "trainable": true, "scale": false, "beta_constraint": null, "gamma_initializer": {"class_name": "Ones", "config": {}}, "momentum": 0.99, "epsilon": 0.001, "name": "batch_normalization_87", "moving_variance_initializer": {"class_name": "Ones", "config": {}}}, "name": "batch_normalization_87", "inbound_nodes": [[["conv2d_87", 0, 0, {}]]]}, {"class_name": "BatchNormalization", "config": {"axis": 3, "gamma_constraint": null, "beta_regularizer": null, "center": true, "gamma_regularizer": null, "beta_initializer": {"class_name": "Zeros", "config": {}}, "moving_mean_initializer": {"class_name": "Zeros", "config": {}}, "trainable": true, "scale": false, "beta_constraint": null, "gamma_initializer": {"class_name": "Ones", "config": {}}, "momentum": 0.99, "epsilon": 0.001, "name": "batch_normalization_91", "moving_variance_initializer": {"class_name": "Ones", "config": {}}}, "name": "batch_normalization_91", "inbound_nodes": [[["conv2d_91", 0, 0, {}]]]}, {"class_name": "Activation", "config": {"trainable": true, "activation": "relu", "name": "activation_87"}, "name": "activation_87", "inbound_nodes": [[["batch_normalization_87", 0, 0, {}]]]}, {"class_name": "Activation", "config": {"trainable": true, "activation": "relu", "name": "activation_91"}, "name": "activation_91", "inbound_nodes": [[["batch_normalization_91", 0, 0, {}]]]}, {"class_name": "Conv2D", "config": {"bias_constraint": null, "kernel_initializer": {"class_name": "VarianceScaling", "config": {"mode": "fan_avg", "distribution": "uniform", "scale": 1.0, "seed": null}}, "kernel_size": [1, 3], "padding": "same", "data_format": "channels_last", "activity_regularizer": null, "filters": 384, "kernel_regularizer": null, "bias_regularizer": null, "use_bias": false, "kernel_constraint": null, "strides": [1, 1], "trainable": true, "dilation_rate": [1, 1], "activation": "linear", "name": "conv2d_88", "bias_initializer": {"class_name": "Zeros", "config": {}}}, "name": "conv2d_88", "inbound_nodes": [[["activation_87", 0, 0, {}]]]}, {"class_name": "Conv2D", "config": {"bias_constraint": null, "kernel_initializer": {"class_name": "VarianceScaling", "config": {"mode": "fan_avg", "distribution": "uniform", "scale": 1.0, "seed": null}}, "kernel_size": [3, 1], "padding": "same", "data_format": "channels_last", "activity_regularizer": null, "filters": 384, "kernel_regularizer": null, "bias_regularizer": null, "use_bias": false, "kernel_constraint": null, "strides": [1, 1], "trainable": true, "dilation_rate": [1, 1], "activation": "linear", "name": "conv2d_89", "bias_initializer": {"class_name": "Zeros", "config": {}}}, "name": "conv2d_89", "inbound_nodes": [[["activation_87", 0, 0, {}]]]}, {"class_name": "Conv2D", "config": {"bias_constraint": null, "kernel_initializer": {"class_name": "VarianceScaling", "config": {"mode": "fan_avg", "distribution": "uniform", "scale": 1.0, "seed": null}}, "kernel_size": [1, 3], "padding": "same", "data_format": "channels_last", "activity_regularizer": null, "filters": 384, "kernel_regularizer": null, "bias_regularizer": null, "use_bias": false, "kernel_constraint": null, "strides": [1, 1], "trainable": true, "dilation_rate": [1, 1], "activation": "linear", "name": "conv2d_92", "bias_initializer": {"class_name": "Zeros", "config": {}}}, "name": "conv2d_92", "inbound_nodes": [[["activation_91", 0, 0, {}]]]}, {"class_name": "Conv2D", "config": {"bias_constraint": null, "kernel_initializer": {"class_name": "VarianceScaling", "config": {"mode": "fan_avg", "distribution": "uniform", "scale": 1.0, "seed": null}}, "kernel_size": [3, 1], "padding": "same", "data_format": "channels_last", "activity_regularizer": null, "filters": 384, "kernel_regularizer": null, "bias_regularizer": null, "use_bias": false, "kernel_constraint": null, "strides": [1, 1], "trainable": true, "dilation_rate": [1, 1], "activation": "linear", "name": "conv2d_93", "bias_initializer": {"class_name": "Zeros", "config": {}}}, "name": "conv2d_93", "inbound_nodes": [[["activation_91", 0, 0, {}]]]}, {"class_name": "AveragePooling2D", "config": {"strides": [1, 1], "trainable": true, "padding": "same", "data_format": "channels_last", "name": "average_pooling2d_9", "pool_size": [3, 3]}, "name": "average_pooling2d_9", "inbound_nodes": [[["mixed9", 0, 0, {}]]]}, {"class_name": "Conv2D", "config": {"bias_constraint": null, "kernel_initializer": {"class_name": "VarianceScaling", "config": {"mode": "fan_avg", "distribution": "uniform", "scale": 1.0, "seed": null}}, "kernel_size": [1, 1], "padding": "same", "data_format": "channels_last", "activity_regularizer": null, "filters": 320, "kernel_regularizer": null, "bias_regularizer": null, "use_bias": false, "kernel_constraint": null, "strides": [1, 1], "trainable": true, "dilation_rate": [1, 1], "activation": "linear", "name": "conv2d_86", "bias_initializer": {"class_name": "Zeros", "config": {}}}, "name": "conv2d_86", "inbound_nodes": [[["mixed9", 0, 0, {}]]]}, {"class_name": "BatchNormalization", "config": {"axis": 3, "gamma_constraint": null, "beta_regularizer": null, "center": true, "gamma_regularizer": null, "beta_initializer": {"class_name": "Zeros", "config": {}}, "moving_mean_initializer": {"class_name": "Zeros", "config": {}}, "trainable": true, "scale": false, "beta_constraint": null, "gamma_initializer": {"class_name": "Ones", "config": {}}, "momentum": 0.99, "epsilon": 0.001, "name": "batch_normalization_88", "moving_variance_initializer": {"class_name": "Ones", "config": {}}}, "name": "batch_normalization_88", "inbound_nodes": [[["conv2d_88", 0, 0, {}]]]}, {"class_name": "BatchNormalization", "config": {"axis": 3, "gamma_constraint": null, "beta_regularizer": null, "center": true, "gamma_regularizer": null, "beta_initializer": {"class_name": "Zeros", "config": {}}, "moving_mean_initializer": {"class_name": "Zeros", "config": {}}, "trainable": true, "scale": false, "beta_constraint": null, "gamma_initializer": {"class_name": "Ones", "config": {}}, "momentum": 0.99, "epsilon": 0.001, "name": "batch_normalization_89", "moving_variance_initializer": {"class_name": "Ones", "config": {}}}, "name": "batch_normalization_89", "inbound_nodes": [[["conv2d_89", 0, 0, {}]]]}, {"class_name": "BatchNormalization", "config": {"axis": 3, "gamma_constraint": null, "beta_regularizer": null, "center": true, "gamma_regularizer": null, "beta_initializer": {"class_name": "Zeros", "config": {}}, "moving_mean_initializer": {"class_name": "Zeros", "config": {}}, "trainable": true, "scale": false, "beta_constraint": null, "gamma_initializer": {"class_name": "Ones", "config": {}}, "momentum": 0.99, "epsilon": 0.001, "name": "batch_normalization_92", "moving_variance_initializer": {"class_name": "Ones", "config": {}}}, "name": "batch_normalization_92", "inbound_nodes": [[["conv2d_92", 0, 0, {}]]]}, {"class_name": "BatchNormalization", "config": {"axis": 3, "gamma_constraint": null, "beta_regularizer": null, "center": true, "gamma_regularizer": null, "beta_initializer": {"class_name": "Zeros", "config": {}}, "moving_mean_initializer": {"class_name": "Zeros", "config": {}}, "trainable": true, "scale": false, "beta_constraint": null, "gamma_initializer": {"class_name": "Ones", "config": {}}, "momentum": 0.99, "epsilon": 0.001, "name": "batch_normalization_93", "moving_variance_initializer": {"class_name": "Ones", "config": {}}}, "name": "batch_normalization_93", "inbound_nodes": [[["conv2d_93", 0, 0, {}]]]}, {"class_name": "Conv2D", "config": {"bias_constraint": null, "kernel_initializer": {"class_name": "VarianceScaling", "config": {"mode": "fan_avg", "distribution": "uniform", "scale": 1.0, "seed": null}}, "kernel_size": [1, 1], "padding": "same", "data_format": "channels_last", "activity_regularizer": null, "filters": 192, "kernel_regularizer": null, "bias_regularizer": null, "use_bias": false, "kernel_constraint": null, "strides": [1, 1], "trainable": true, "dilation_rate": [1, 1], "activation": "linear", "name": "conv2d_94", "bias_initializer": {"class_name": "Zeros", "config": {}}}, "name": "conv2d_94", "inbound_nodes": [[["average_pooling2d_9", 0, 0, {}]]]}, {"class_name": "BatchNormalization", "config": {"axis": 3, "gamma_constraint": null, "beta_regularizer": null, "center": true, "gamma_regularizer": null, "beta_initializer": {"class_name": "Zeros", "config": {}}, "moving_mean_initializer": {"class_name": "Zeros", "config": {}}, "trainable": true, "scale": false, "beta_constraint": null, "gamma_initializer": {"class_name": "Ones", "config": {}}, "momentum": 0.99, "epsilon": 0.001, "name": "batch_normalization_86", "moving_variance_initializer": {"class_name": "Ones", "config": {}}}, "name": "batch_normalization_86", "inbound_nodes": [[["conv2d_86", 0, 0, {}]]]}, {"class_name": "Activation", "config": {"trainable": true, "activation": "relu", "name": "activation_88"}, "name": "activation_88", "inbound_nodes": [[["batch_normalization_88", 0, 0, {}]]]}, {"class_name": "Activation", "config": {"trainable": true, "activation": "relu", "name": "activation_89"}, "name": "activation_89", "inbound_nodes": [[["batch_normalization_89", 0, 0, {}]]]}, {"class_name": "Activation", "config": {"trainable": true, "activation": "relu", "name": "activation_92"}, "name": "activation_92", "inbound_nodes": [[["batch_normalization_92", 0, 0, {}]]]}, {"class_name": "Activation", "config": {"trainable": true, "activation": "relu", "name": "activation_93"}, "name": "activation_93", "inbound_nodes": [[["batch_normalization_93", 0, 0, {}]]]}, {"class_name": "BatchNormalization", "config": {"axis": 3, "gamma_constraint": null, "beta_regularizer": null, "center": true, "gamma_regularizer": null, "beta_initializer": {"class_name": "Zeros", "config": {}}, "moving_mean_initializer": {"class_name": "Zeros", "config": {}}, "trainable": true, "scale": false, "beta_constraint": null, "gamma_initializer": {"class_name": "Ones", "config": {}}, "momentum": 0.99, "epsilon": 0.001, "name": "batch_normalization_94", "moving_variance_initializer": {"class_name": "Ones", "config": {}}}, "name": "batch_normalization_94", "inbound_nodes": [[["conv2d_94", 0, 0, {}]]]}, {"class_name": "Activation", "config": {"trainable": true, "activation": "relu", "name": "activation_86"}, "name": "activation_86", "inbound_nodes": [[["batch_normalization_86", 0, 0, {}]]]}, {"class_name": "Concatenate", "config": {"axis": 3, "trainable": true, "name": "mixed9_1"}, "name": "mixed9_1", "inbound_nodes": [[["activation_88", 0, 0, {}], ["activation_89", 0, 0, {}]]]}, {"class_name": "Concatenate", "config": {"axis": 3, "trainable": true, "name": "concatenate_2"}, "name": "concatenate_2", "inbound_nodes": [[["activation_92", 0, 0, {}], ["activation_93", 0, 0, {}]]]}, {"class_name": "Activation", "config": {"trainable": true, "activation": "relu", "name": "activation_94"}, "name": "activation_94", "inbound_nodes": [[["batch_normalization_94", 0, 0, {}]]]}, {"class_name": "Concatenate", "config": {"axis": 3, "trainable": true, "name": "mixed10"}, "name": "mixed10", "inbound_nodes": [[["activation_86", 0, 0, {}], ["mixed9_1", 0, 0, {}], ["concatenate_2", 0, 0, {}], ["activation_94", 0, 0, {}]]]}, {"class_name": "GlobalAveragePooling2D", "config": {"trainable": true, "name": "global_average_pooling2d_1", "data_format": "channels_last"}, "name": "global_average_pooling2d_1", "inbound_nodes": [[["mixed10", 0, 0, {}]]]}, {"class_name": "Dense", "config": {"bias_constraint": null, "kernel_initializer": {"class_name": "VarianceScaling", "config": {"mode": "fan_avg", "distribution": "uniform", "scale": 1.0, "seed": null}}, "bias_initializer": {"class_name": "Zeros", "config": {}}, "activity_regularizer": null, "kernel_constraint": null, "kernel_regularizer": null, "bias_regularizer": null, "use_bias": true, "units": 256, "trainable": true, "activation": "relu", "name": "dense_1"}, "name": "dense_1", "inbound_nodes": [[["global_average_pooling2d_1", 0, 0, {}]]]}, {"class_name": "Dropout", "config": {"rate": 0.5, "trainable": true, "seed": null, "noise_shape": null, "name": "dropout_1"}, "name": "dropout_1", "inbound_nodes": [[["dense_1", 0, 0, {}]]]}, {"class_name": "Dense", "config": {"bias_constraint": null, "kernel_initializer": {"class_name": "VarianceScaling", "config": {"mode": "fan_avg", "distribution": "uniform", "scale": 1.0, "seed": null}}, "bias_initializer": {"class_name": "Zeros", "config": {}}, "activity_regularizer": null, "kernel_constraint": null, "kernel_regularizer": null, "bias_regularizer": null, "use_bias": true, "units": 1, "trainable": true, "activation": "sigmoid", "name": "dense_2"}, "name": "dense_2", "inbound_nodes": [[["dropout_1", 0, 0, {}]]]}], "name": "model_1"}, "backend": "tensorflow"}